src/models/atla_release/SAPPO/attack-sappo-convex-hopper.model (torch, 286445 bytes, 72 tensors)

affine_layers.0.weight f4 [64, 11]
0	0x3dfff330	0.12497556
1	0xbbc8f68b	-0.006132906
2	0xbdbda295	-0.09259526
3	0x3e1b07dd	0.15139718
4	0x3dc3bcec	0.09557518
5	0x3db33acf	0.08751451
6	0xbd803cb3	-0.062615775
7	0x3d088ad4	0.03333552
8	0xbdf97512	-0.121805325
9	0xbd8c3f4f	-0.06848013
10	0xbd2baec9	-0.041914735
11	0xbeb839d3	-0.35981616
12	0x3dca4fba	0.09878488
13	0xbf149f69	-0.5805574
14	0xbead466d	-0.33842793
15	0x3cfd2102	0.030899528
16	0x3e135041	0.14386083
17	0xbe09152c	-0.13386983
18	0xba09e676	-0.00052604766
19	0xbc4d734b	-0.012539695
20	0x3db74e22	0.089504495
21	0xbdb6ccec	-0.089258045
22	0x3d8e5501	0.06949807
23	0x3e09cc2b	0.1345679
24	0xbec3dace	-0.38252872
25	0xbe98f6b9	-0.29875734
26	0x3da59595	0.08085171
27	0xbcfce177	-0.030869229
28	0x3d8c33ce	0.068458185
29	0xbe0be82b	-0.13662784
30	0x3e48499d	0.19559331
31	0x3e5d5f24	0.21618325
32	0xbd2fc39d	-0.04291116
33	0x3dea4daa	0.114405945
34	0xbca7203e	-0.020401116
35	0xbe9e1c93	-0.30881175
36	0xbed6fddb	-0.4199055
37	0xbea645ca	-0.3247512
38	0x3f11a43d	0.5689123
39	0x3e58e7de	0.211822
40	0xbdf3d9b8	-0.11906761
41	0x3a08b154	0.0005214412
42	0x3d301f4d	0.0429986
43	0x3e9767c5	0.29571357
44	0xbdc81e95	-0.09771458
45	0x3d95c6f1	0.07313336
46	0xbb3b55f1	-0.002858516
47	0x3df0ecb7	0.117639
48	0x3e2005a3	0.1562715
49	0xbc583aa6	-0.013197577
50	0x3ee690ed	0.45032445
51	0x3e0cfe9a	0.13768998
52	0xbe336206	-0.17517862
53	0xbdbc2b71	-0.09187973
54	0x3ecf030b	0.4043201
55	0xbf149a84	-0.5804827
56	0xbde81e5d	-0.11333916
57	0x3dbc5bc8	0.091971934
58	0x3e15ba7a	0.14621916
59	0x3d6c35a9	0.05766836
60	0xbe80d7e8	-0.25164723
61	0x3da92bad	0.082602836
62	0x3dfd79b9	0.123767324
63	0xbea7223c	-0.32643306
64	0xbe34eb50	-0.1766789
65	0xbe5b4512	-0.21413067
66	0x3f0baf36	0.54564226
67	0xbdf0c275	-0.1175584
68	0x3e735328	0.2376219
69	0x3e024200	0.1272049
70	0x3e2e1577	0.17000376
71	0xbd44b0e9	-0.048020277
72	0x3e5100d3	0.2041047
73	0xbe563fe2	-0.20922807
74	0x3ecee22d	0.40406933
75	0x3ecee91f	0.40412232
76	0x3ec92c73	0.39291725
77	0xbd8059d9	-0.06267137
78	0xbea0ce9a	-0.31407624
79	0x3f251168	0.64479685
80	0x3ebb493c	0.3657931
81	0x3e0afc68	0.13572848
82	0xbe761847	-0.24032699
83	0x3dc0ad2c	0.0940803
84	0xbe086afb	-0.1332206
85	0x3e4efbeb	0.20213287
86	0x3e665de4	0.22496754
87	0xbdc0f526	-0.09421758
88	0xbe3c5a6b	-0.18393867
89	0xbdca7889	-0.098862715
90	0x3e79c503	0.2439156
91	0xbc94dc74	-0.018171526
92	0xbdd08c3e	-0.10182999
93	0x3c5f5a8d	0.013632429
94	0xbf017adc	-0.50578094
95	0xbc3f3eaa	-0.011672655
96	0xbcf48674	-0.029849268
97	0xbd6b8181	-0.05749655
98	0x3e0cf221	0.1376424
99	0x3c6d4ea8	0.014484085
100	0x3d8976a2	0.067120805
101	0x3d61f5dc	0.05516611
102	0x3df0c55c	0.11756393
103	0xbe009d8b	-0.12560098
104	0x3e692a09	0.22769941
105	0xbdd3721d	-0.103245
106	0x3e171e9c	0.1475777
107	0xbe4c481d	-0.19949384
108	0xbe2f77ac	-0.17135495
109	0xbe66f3ec	-0.22553986
110	0x3eb1eb52	0.34749848
111	0x3db9831a	0.09058209
112	0xbd463714	-0.04839237
113	0xbe323ddf	-0.17406414
114	0x3ccb0344	0.02478183
115	0xbe1d9023	-0.15387015
116	0xbe010279	-0.125986
117	0xbda59ef9	-0.08086962
118	0x3e5d6efa	0.21624365
119	0x3ded9d17	0.11602228
120	0xbdc0c9fe	-0.09413527
121	0x3e3f832b	0.1870238
122	0x3c9ac255	0.018891493
123	0x3e2517c1	0.16122343
124	0x3db8cfdb	0.0902402
125	0x3f031f24	0.5121939
126	0xbd88c3df	-0.066779844
127	0x39e74722	0.00044112751
128	0x3c896688	0.016772524
129	0xbe04c260	-0.12964773
130	0x3d353ce8	0.044247538
131	0xbd025433	-0.03181858
132	0xbdf256db	-0.118329726
133	0x3dff5bd4	0.12468687
134	0x3d2ae4f8	0.041722268
135	0xbe2fc772	-0.17165926
136	0x3e3c5059	0.18390025
137	0x3eaa4bb4	0.33260882
138	0xbdebc27b	-0.115117036
139	0x3e5112c8	0.2041732
140	0xbea6467d	-0.32475653
141	0xbe9014b6	-0.281408
142	0xbe987d8e	-0.2978329
143	0x3e792ed1	0.24334265
144	0xbe012004	-0.12609869
145	0x3d2f7708	0.042838126
146	0x3ab43f40	0.001375176
147	0x3eaca545	0.3371984
148	0xbf31d14e	-0.6946
149	0x3d6aab7a	0.05729244
150	0x3ba8e5f8	0.0051543675
151	0xbce0ac9a	-0.027426053
152	0xbd36a90d	-0.044594813
153	0xbde93dde	-0.11388753
154	0xbe157f32	-0.14599302
155	0xbe1beb60	-0.15226507
156	0x3edb1d04	0.42795575
157	0x3ea628aa	0.324529
158	0xbe8fca0e	-0.28083843
159	0xbdb29e09	-0.08721549
160	0x3d49e007	0.049285915
161	0x3d1db41c	0.038501844
162	0xbdf7648c	-0.12079725
163	0xbda5c700	-0.08094597
164	0x3dd20f08	0.10256773
165	0xbdfc697f	-0.12324809
166	0x3b0c1d02	0.0021379595
167	0x3eb2edaf	0.34946963
168	0x3e7466ee	0.2386739
169	0xbc390f1d	-0.011295107
170	0xbed6b477	-0.4193456
171	0xbd35c1f8	-0.044374436
172	0xbdff6232	-0.12469901
173	0x3e705657	0.23470436
174	0x3e533231	0.20624615
175	0x3d29c4fc	0.041447625
176	0xbdcc2ccc	-0.09969482
177	0x3da38b02	0.07985498
178	0xbebe2485	-0.37137237
179	0xbca76c7b	-0.02043747
180	0xbd7d61fb	-0.06186102
181	0x3ec5e814	0.38653624
182	0xbd3df29b	-0.046373945
183	0xbd78c314	-0.060732916
184	0xbd43b743	-0.047782194
185	0xbdc5cbe6	-0.09658031
186	0xbe9d033b	-0.30666527
187	0xbeecec74	-0.4627415
188	0x3e3b8a33	0.18314438
189	0xbf160cba	-0.5861317
190	0xbefb00b6	-0.4902398
191	0xbe6dda7b	-0.23227875
192	0x3f3d6f10	0.7399759
193	0xbee53edb	-0.44774517
194	0xbe0c48cf	-0.1369965
195	0x3e58211a	0.21106377
196	0xbcabf87d	-0.020992512
197	0x3e3bf779	0.18356122
198	0x3e37a6ee	0.17934772
199	0xbe69adf2	-0.22820261
200	0x3f607412	0.8767711
201	0x3eb57c1b	0.35446247
202	0xbd9d3c6e	-0.07677542
203	0xbec1a2e8	-0.378196
204	0x3d565823	0.052330147
205	0x3d3733f7	0.044727292
206	0xbd4840be	-0.048889868
207	0x3ce4abc9	0.027913945
208	0x3e4206d0	0.18947911
209	0xbf256472	-0.6460639
210	0x3d35a8a4	0.04435028
211	0x3db23c43	0.087029
212	0xbcfb0b30	-0.030644983
213	0x3d895de9	0.06707365
214	0xbd079ccb	-0.033108514
215	0xbefa168c	-0.48845327
216	0x3d9e7dbe	0.07738827
217	0xbda5a888	-0.080887854
218	0xbe00a99e	-0.12564704
219	0x3f0056ba	0.50132334
220	0xbef46c04	-0.4773866
221	0xbe96511b	-0.29358754
222	0x3ee8a43e	0.45437807
223	0x3e07eecb	0.13274686
224	0x3efefdb9	0.4980295
225	0xbe40626a	-0.18787542
226	0xbd0133fb	-0.031543713
227	0x3d8ec941	0.0697198
228	0xbe4baad6	-0.19889387
229	0xbe22d4b3	-0.15901451
230	0xbe4d4a78	-0.20047939
231	0xbf21ae8c	-0.6315696
232	0xbbd8a932	-0.0066119665
233	0xbe6f79c5	-0.23386295
234	0x3d861286	0.06546502
235	0x3b5d19f7	0.00337374
236	0x3e7e04dc	0.24806541
237	0xbe7c50fb	-0.24640267
238	0xbce42d05	-0.027853498
239	0x3a221d76	0.00061841996
240	0xbe02bd72	-0.1276758
241	0xbef74eab	-0.48302206
242	0x3df98502	0.12183572
243	0xbe070618	-0.13185918
244	0x3e2b9ccb	0.1675903
245	0xbd76d0ee	-0.060257845
246	0x3de6525f	0.1124618
247	0x3e3b4a31	0.1829002
248	0x3e81dcbc	0.2536372
249	0xbdab9391	-0.083777554
250	0xbbd8df14	-0.00661839
251	0xbdf7fa6e	-0.121083125
252	0xbd9947d6	-0.07484405
253	0xbe2199a5	-0.15781267
254	0xbe03d5c8	-0.1287452
255	0x3ef8e6c7	0.4861357

affine_layers.0.bias f4 [64]
0	0xbe58b143	-0.2116137
1	0xbdbd7014	-0.09249893
2	0xbe628b26	-0.22123393
3	0xbd946bc7	-0.072471194
4	0x3f2e20ad	0.6801861
5	0xbed37352	-0.4129892
6	0x3d85724a	0.065159395
7	0x3e9d7989	0.30756786
8	0xbe6380ae	-0.22217056
9	0x3e7a99a7	0.24472676
10	0x3c296871	0.010339842
11	0x3eb825ed	0.35966435
12	0x3f37a5e2	0.7173749
13	0x3f4acb14	0.7921612
14	0xbeb247e0	-0.3482046
15	0xbeb921f8	-0.3615873
16	0x3e3be2e5	0.18348272
17	0xbf0ee304	-0.5581515
18	0x3f1137d3	0.56725806
19	0xbf37b5c6	-0.7176174
20	0xbd785363	-0.0606264
21	0x3ea2cea0	0.31798267
22	0x3ea84140	0.32862282
23	0x3da6718c	0.08127126
24	0x3d999300	0.07498741
25	0xbccb3543	-0.02480567
26	0xbe526c9a	-0.2054924
27	0x3df3cd9d	0.11904452
28	0xbec89942	-0.39179426
29	0xbe6652ae	-0.22492477
30	0xbb362a0a	-0.0027796053
31	0x3eb9bec7	0.36278364
32	0xbe1e1aea	-0.15439954
33	0xbc6b4697	-0.014360092
34	0xbe57473b	-0.21023266
35	0xbda55e57	-0.080746345
36	0x3e676225	0.22596033
37	0xbea07c45	-0.3134481
38	0x3ed9a0ab	0.42505392
39	0xbe2974e4	-0.16548496
40	0x3e5e826a	0.21729437
41	0x3e870ea8	0.2637837
42	0xbeadafaf	-0.33923098
43	0x3d3f7d81	0.04675055
44	0xbea9224e	-0.33033985
45	0xbe8fc781	-0.28081897
46	0x3d9c7510	0.076395154
47	0xbe07645d	-0.1322188
48	0x3d970526	0.07374029
49	0xbe88ca6b	-0.26716933
50	0xbf5356d5	-0.8255437
51	0xbef75063	-0.48303518
52	0x3e8e46e0	0.27788448
53	0xbf1b00d5	-0.60548145
54	0x3e049a5f	0.12949513
55	0xbd3d783d	-0.046257246
56	0xbe62d3e1	-0.22151138
57	0x3ebb5cd1	0.3659425
58	0x3f0d0af9	0.5509487
59	0x3e89b614	0.26896727
60	0x3e540ef7	0.20708834
61	0xbf28d5b4	-0.65951085
62	0xbd263a20	-0.040582776
63	0xbe8c1c37	-0.27365276

affine_layers.1.weight f4 [64, 64]
0	0x3dc81e5b	0.09771415
1	0xbe33a52d	-0.17543478
2	0x3e7e1853	0.24813966
3	0xbe0fbe4a	-0.14037433
4	0xbdb04b71	-0.08608139
5	0x3e590426	0.21192989
6	0x3d8589ca	0.06520422
7	0xbd976e62	-0.07394101
8	0xbde26678	-0.110547006
9	0xbd8c8087	-0.06860452
10	0xbeb9f7a1	-0.36321738
11	0xbd894228	-0.067020714
12	0xbeb166db	-0.34648785
13	0xbd1ba96f	-0.03800338
14	0xbdf6872f	-0.12037503
15	0x3dc88dd0	0.097926736
16	0xbddff7fa	-0.1093597
17	0xbe20e127	-0.15710889
18	0x3b880d41	0.0041519706
19	0x3d0d8c43	0.034557592
20	0xbc9e67e1	-0.019336643
21	0xbe292f23	-0.16521887
22	0xbdf11e29	-0.11773331
23	0x3e06051f	0.13087891
24	0x3e2b0ad0	0.16703343
25	0x3ddb36a9	0.10703785
26	0x3ba6c56f	0.005089454
27	0x3e90a0d8	0.28247714
28	0x3daa69c8	0.083209574
29	0xbe730a45	-0.23734386
30	0x3c24d09f	0.010059505
31	0xbef6f31b	-0.4823235
32	0xb7498fff	-1.201406e-05
33	0x39f35560	0.0004641218
34	0xbe8e4fd4	-0.2779528
35	0x3b3eff05	0.0029143703
36	0x3eb10f58	0.3458202
37	0x3d8e3f30	0.06945646
38	0xbe49783c	-0.19674772
39	0xbe0fba1f	-0.14035843
40	0xbd383cb6	-0.044979773
41	0xbd691641	-0.05690599
42	0xbe92e238	-0.28688216
43	0x3cd023e4	0.025407739
44	0xbca6b791	-0.020351203
45	0x3d8acf6c	0.06777844
46	0x3dce7b08	0.1008206
47	0xbe093d9c	-0.13402408
48	0xbe77e908	-0.24209988
49	0xbd61aef7	-0.0550985
50	0x3c677e45	0.014129226
51	0xbdb23d46	-0.08703093
52	0x3ef155a6	0.47135657
53	0xbe818ecb	-0.25304255
54	0xbe49afc7	-0.1969596
55	0x3e202094	0.15637428
56	0x3ec45563	0.38346395
57	0x3e9da8cd	0.30792847
58	0xbcf7bf27	-0.030242516
59	0xbe362e63	-0.17791133
60	0x3da52fa9	0.08065731
61	0x3e820700	0.25395966
62	0x3bb1c480	0.005425036
63	0xbdc40312	-0.09570898
64	0xbd056085	-0.03256275
65	0xbd8b3ae5	-0.067983426
66	0x3e8b4acb	0.272055
67	0x3d65fb5b	0.056147914
68	0x3e792c52	0.24333313
69	0xbdd1e319	-0.102483936
70	0xbe81b55a	-0.25333673
71	0xbe11a664	-0.14223629
72	0xbe986552	-0.297648
73	0x3d0e0e0c	0.034681365
74	0xbea25a81	-0.31709674
75	0xbd1dc8c5	-0.038521547
76	0x3c5b4957	0.013384185
77	0xbddc4c0f	-0.107566945
78	0x3d9092e8	0.0705927
79	0x3e210711	0.15725352
80	0x3d4bd7fe	0.049766533
81	0x3bf9822d	0.007614395
82	0xbe3a905b	-0.1821913
83	0x3da6b0a5	0.08139161
84	0x3d9a17c0	0.07524061
85	0x3d66d08a	0.056351222
86	0xbe67fd67	-0.22655259
87	0x3e626b2a	0.22111192
88	0xbddf22f3	-0.10895338
89	0xbeae4083	-0.34033594
90	0xbd7c2d57	-0.061566677
91	0x3d8a8b81	0.067648895
92	0x3e3b6148	0.18298829
93	0x3e1abf05	0.1511193
94	0x3ce7f5a7	0.028315378
95	0x3e06498a	0.1311399
96	0x3bdaa15f	0.006672069
97	0x3e97c574	0.29642832
98	0x3e4824a4	0.19545227
99	0xbe07178e	-0.13192579
100	0xbe5a2410	-0.21302819
101	0xbd07d56f	-0.03316253
102	0x3ea48e12	0.3213964
103	0xbe76dcc0	-0.24107647
104	0x3e23522e	0.15949318
105	0xbf0113e6	-0.5042099
106	0x3e3d911e	0.18512389
107	0x3ec95516	0.39322728
108	0x3e1b8e44	0.15190989
109	0xbee76bc6	-0.45199412
110	0x3ec863f7	0.39138767
111	0x3e3f4ed6	0.18682417
112	0xbe6d4fb0	-0.2317493
113	0xbe46a8a9	-0.19400276
114	0xbe330804	-0.17483526
115	0xbcda7085	-0.026664982
116	0x3dba24ec	0.090890735
117	0xbe577744	-0.2104159
118	0x3e70295a	0.23453274
119	0xbe1dc588	-0.15407383
120	0xbeebb532	-0.4603668
121	0x3c789226	0.015171563
122	0x3d0ae37a	0.033908345
123	0xbeacdc54	-0.33761847
124	0xbde1d256	-0.110264465
125	0xbe02539a	-0.12727204
126	0xbe812d05	-0.2522966
127	0xbe014e2b	-0.12627475
128	0x3e9184b6	0.28421563
129	0xbd8833d1	-0.06650508
130	0xbdb16698	-0.08662146
131	0xbec01989	-0.37519482
132	0x3e6da5de	0.23207805
133	0xbe364bd0	-0.17802358
134	0x3cbfbada	0.023404527
135	0xbe5cf30d	-0.21577092
136	0xbe3933bc	-0.18086141
137	0xbdb4d61b	-0.088299
138	0x3e1f32e2	0.15546754
139	0x3c719f49	0.014747449
140	0x3daf8ffe	0.08572386
141	0x3e2a7a93	0.16648321
142	0x3d35c7c0	0.04437995
143	0xbea1cc19	-0.31601027
144	0xbd63be16	-0.055601202
145	0xbc137185	-0.008999233
146	0xbe448d83	-0.19194607
147	0x3d9149b2	0.070941344
148	0x3d1a464a	0.03766469
149	0xbf01c25c	-0.50687194
150	0x3ec4895f	0.38386056
151	0xbcebaa5c	-0.028767757
152	0xbe099d6d	-0.1343896
153	0xbe953959	-0.29145315
154	0x3b98b01e	0.0046596667
155	0x3d8666b1	0.065625556
156	0x3dceac0e	0.100914106
157	0xbde84e7e	-0.11343096
158	0x3f03c9b8	0.51479673
159	0x3e9944a9	0.29935196
160	0x3da98c47	0.08278709
161	0x3de901c4	0.1137729
162	0xbdb6c4ed	-0.08924279
163	0xbe018235	-0.12647326
164	0xbe44071d	-0.19143339
165	0xbd2b65b1	-0.041845027
166	0xbe2d43a6	-0.16920337
167	0x3e8bc5a8	0.27299237
168	0x3edd8772	0.432674
169	0xbe91e333	-0.28493652
170	0x3dbfab6e	0.093588695
171	0xbe452a2a	-0.19254366
172	0x3db80206	0.08984761
173	0xbd20c102	-0.039246567
174	0xbc9fa668	-0.019488528
175	0x3b09222f	0.0020924916
176	0xbe80feaa	-0.25194293
177	0xbe0ded87	-0.1386014
178	0x3e2cdf18	0.16881979
179	0x3ea0056e	0.31254143
180	0x3e7153f6	0.23567185
181	0xbc5c3515	-0.01344039
182	0x3e37c96a	0.17947927
183	0x3db1f1aa	0.08688672
184	0x3bf2f895	0.007414887
185	0x3e18d8e3	0.14926486
186	0x3ed391dc	0.4132222
187	0xbda1f430	-0.07907903
188	0x3f300f1b	0.6877305
189	0xbcfc45e0	-0.030795038
190	0x3cedd08a	0.029030103
191	0x3ce4193f	0.02784407
192	0xbe6a9eeb	-0.22912185
193	0xbe34bd9e	-0.17650458
194	0x3e0f9bde	0.14024302
195	0x3e5247ad	0.20535155
196	0xbeba8d55	-0.36435953
197	0xbe5c1a85	-0.21494491
198	0x3db52a3a	0.08845945
199	0xbe0fa8e6	-0.14029273
200	0x3dd7ec31	0.10543097
201	0xbdacfe19	-0.08446903
202	0xbe8837f7	-0.26605198
203	0x3da2c81c	0.07948324
204	0x3cebaf8f	0.028770236
205	0x3de199f2	0.11015691
206	0x3e0f0c51	0.13969542
207	0xbeec23dc	-0.4612111
208	0x3efbf93a	0.49213582
209	0x3d8e1f68	0.06939584
210	0xbcf4419a	-0.029816438
211	0xbdd1f385	-0.10251526
212	0xbea99512	-0.33121544
213	0x3e79130f	0.24323677
214	0xbde3c603	-0.11121752
215	0xbe494674	-0.19655782
216	0xbe08b407	-0.13349925
217	0x3e1f5b30	0.15562129
218	0xbd2639aa	-0.040582336
219	0x3da9aded	0.08285127
220	0x3d193b7e	0.03741025
221	0xbeddf2dd	-0.43349352
222	0x3ddc41c9	0.10754735
223	0xbc1730af	-0.009227916
224	0xbe4dd738	-0.2010163
225	0xbc2c0629	-0.010499516
226	0x3b2c1066	0.0026254891
227	0xbe3139e2	-0.17307237
228	0x3e882cc0	0.26596642
229	0x3e50bef8	0.20385349
230	0xbc541b68	-0.012945987
231	0x3e73964c	0.23787802
232	0x3dc516a7	0.09623461
233	0xbdf48c82	-0.11940862
234	0x3ed7ad1a	0.42124254
235	0x3d77f370	0.060534894
236	0x3db94ae2	0.09047486
237	0x3d311833	0.04323597
238	0xbe6e9789	-0.23299994
239	0xbe805e6b	-0.25072035
240	0x3cdd22bd	0.026994104
241	0x3e9b38da	0.30316812
242	0x3e3ee06f	0.18640302
243	0x3dabf21b	0.08395787
244	0x3e8f2643	0.2795888
245	0x3e2d98d9	0.16952838
246	0x3de66b04	0.1125088
247	0xbdf622d1	-0.120183595
248	0xbe2bbfb4	-0.16772348
249	0x3e60ae0e	0.21941397
250	0xbe7303d9	-0.23731937
251	0x3e064ab3	0.13114433
252	0x3dda33fe	0.10654448
253	0x3d7b57e5	0.06136312
254	0x3e33332b	0.17499988
255	0xbe3476bb	-0.17623417

affine_layers.1.bias f4 [64]
0	0x3e2306fb	0.15920632
1	0xbe413b63	-0.1887031
2	0x3e282856	0.16421637
3	0x3d9bebc1	0.07613326
4	0xbe3e196a	-0.18564382
5	0xbddd2bf3	-0.10799398
6	0x3d643632	0.055715747
7	0x3d9f0a21	0.07765604
8	0xbe7ab45e	-0.24482867
9	0x3e386806	0.18008432
10	0xbec1835b	-0.3779553
11	0xbcde86be	-0.02716386
12	0x3e86e5ec	0.2634729
13	0xbedb9000	-0.428833
14	0x3e2c3d09	0.16820158
15	0xbd859961	-0.06523395
16	0x3d895a9b	0.06706735
17	0xbe37dd35	-0.17955478
18	0xbd7a5df6	-0.061124764
19	0x3e4e7a41	0.20163824
20	0x3dbe43c0	0.09290266
21	0x3e2ac5c2	0.16677001
22	0x3dc7171c	0.09721205
23	0xbd315428	-0.04329315
24	0x3e4f8ce0	0.20268583
25	0x3ebcd682	0.36882406
26	0xbe4c07bb	-0.19924824
27	0x3dbc4007	0.091919
28	0x3d96252f	0.07331311
29	0x3d9f6458	0.07782811
30	0xbe1b2c83	-0.15153699
31	0xbe24bcc2	-0.1608763
32	0xbe85c8ed	-0.26129857
33	0xbdc363d9	-0.09540529
34	0xbd753a6f	-0.05987018
35	0xbe702ce3	-0.23454623
36	0xbe23ddab	-0.16002528
37	0x3e18d3e0	0.14924574
38	0x3d78d60d	0.06075101
39	0xbd6287b1	-0.055305187
40	0xbe2920ec	-0.16516465
41	0xbe67f659	-0.22652568
42	0x3d722914	0.059121206
43	0xbe49aead	-0.1969554
44	0xbe17325d	-0.14765306
45	0x3d62f62e	0.055410556
46	0xbdff59b9	-0.12468285
47	0x3e60556e	0.21907589
48	0xbdcab8a0	-0.09898496
49	0xbbeb0ea7	-0.0071733776
50	0x3ddbc77a	0.107314065
51	0x3e2dd17d	0.16974445
52	0xbd95ae8b	-0.07308682
53	0x3e7a2187	0.24426852
54	0x3cf2ca3e	0.029637452
55	0xbe0755c1	-0.13216306
56	0x3d01d8e3	0.03170098
57	0x3e3d3278	0.18476284
58	0xbe80e9ed	-0.2517847
59	0xbcf9da6a	-0.030499656
60	0xbe308c5e	-0.17241046
61	0x3d077dd8	0.033079
62	0xbe5e1b87	-0.21690188
63	0xbe3f8af6	-0.18705353

final.weight f4 [1, 64]
0	0x3d9e70df	0.07736372
1	0xbdb5167e	-0.08842181
2	0x3db9af4b	0.090666376
3	0x3e88c487	0.26712438
4	0x3d26d9d6	0.04073509
5	0xbda6fc17	-0.08153551
6	0xbe0b6fbc	-0.13616842
7	0x3e154f03	0.14580922
8	0xbe1f9563	-0.1558433
9	0x3e9ef637	0.31047222
10	0xbe88fcf8	-0.267555
11	0x3e0f41f1	0.13989998
12	0x3ec23348	0.3792975
13	0xbee77be7	-0.45211717
14	0x3eda0243	0.4257985
15	0xbe0cd051	-0.13751341
16	0xbc842110	-0.016129047
17	0xbe7bf208	-0.24604046
18	0xbde610a9	-0.112336464
19	0x3e8554fb	0.26041397
20	0x3e362e5a	0.17791119
21	0xbd644ceb	-0.055737417
22	0x3dea6737	0.11445468
23	0xbdc0689f	-0.09394955
24	0x3e69365d	0.22774644
25	0x3dbe15e6	0.092815205
26	0xbe589e2e	-0.21154091
27	0x3df9ec6c	0.12203297
28	0x3e47dd39	0.19517983
29	0x3de247ec	0.11048874
30	0xbd959cad	-0.07305274
31	0xbdb54eb7	-0.08852904
32	0xbe5fe9a2	-0.21866468
33	0xbe24e6cb	-0.16103666
34	0xbe0e0aab	-0.13871257
35	0xbe471c74	-0.19444448
36	0xbe75521e	-0.23957106
37	0x3e2ab459	0.1667036
38	0x3e696580	0.22792625
39	0xbdecbe68	-0.115597546
40	0xbdeb0ce3	-0.11477067
41	0xbe02fc34	-0.1279152
42	0x3e287315	0.1645015
43	0x3c804338	0.015657052
44	0xbd86a828	-0.06575042
45	0x3ddef6ba	0.10886903
46	0xbdafe0e3	-0.085878156
47	0x3e3171af	0.17328523
48	0xbd4c78ee	-0.049920015
49	0xbdce7ff3	-0.10082998
50	0x3d50e2cd	0.050997544
51	0x3e2e3686	0.17012987
52	0xbe39bf3e	-0.1813936
53	0x3d45ea04	0.048318878
54	0x3e3a2efe	0.18181989
55	0xbe170320	-0.14747286
56	0xbe3a1525	-0.18172128
57	0x3e3dabbc	0.18522543
58	0xbe0350fb	-0.1282386
59	0x3e18048f	0.14845489
60	0xbeb889be	-0.3604259
61	0x3d993c8e	0.07482253
62	0xbe1418f8	-0.1446265
63	0xbe94cf3b	-0.29064354

log_stdev f4 [3]
0	0xc2c80000	-100.0
1	0xc2c80000	-100.0
2	0xc2c80000	-100.0

affine_layers.0.weight f4 [64, 11]
0	0xba478664	-0.00076112733
1	0x3b05dee1	0.0020427036
2	0xba0888de	-0.0005208383
3	0x39886f61	0.00026022925
4	0xb9bc30e7	-0.0003589459
5	0xb8c8806f	-9.560666e-05
6	0xbb097e25	-0.002097973
7	0x3f443e0f	0.76657194
8	0x3c0cefdc	0.008602109
9	0xbaac7a7b	-0.0013159061
10	0xbb11cbba	-0.0022246675
11	0xb71ac3bf	-9.224691e-06
12	0x3e2012ee	0.15632221
13	0x3a0ff37b	0.00054912985
14	0x397fb2cc	0.00024385302
15	0x388faa12	6.8504494e-05
16	0xb6e9c0dc	-6.966393e-06
17	0xbb1f5868	-0.002431417
18	0x3ea61091	0.32434514
19	0x3ba65a2c	0.0050766673
20	0xba16e36f	-0.0005755936
21	0x3d9f2b55	0.07771937
22	0xba952ad4	-0.0011380562
23	0x3e31561c	0.17318004
24	0xbbe27f39	-0.006912139
25	0x3aa53fc8	0.0012607509
26	0xb94320d7	-0.00018608883
27	0x3913acd7	0.000140834
28	0xbabd6fdd	-0.0014452894
29	0xb4876801	-2.5221382e-07
30	0x3b3cae50	0.0028790422
31	0xbbcf60ca	-0.006328677
32	0xba9ff5a7	-0.0012203947
33	0x3a2d33b6	0.0006607132
34	0x398ef9f3	0.00027270577
35	0x3b0dc385	0.0021631431
36	0xbb63e4dc	-0.0034773862
37	0xbb921681	-0.004458249
38	0x3a6399e3	0.00086822937
39	0x3b0e51cd	0.0021716238
40	0x3b1c703a	0.0023870603
41	0x37e21a73	2.6953616e-05
42	0x3f5d5729	0.8646112
43	0x3aa51e48	0.0012597525
44	0x3a607b35	0.0008563281
45	0xbb9b590d	-0.0047408403
46	0x3e09aee0	0.13445616
47	0x3dbf01e5	0.09326533
48	0x3959c5ea	0.00020768461
49	0xbf2c1140	-0.6721382
50	0x3a6f0184	0.00091173523
51	0xb9899236	-0.00026239612
52	0x398811fd	0.00025953344
53	0xb987e92b	-0.0002592293
54	0xb5699d3e	-8.702808e-07
55	0xb852bc36	-5.0243187e-05
56	0x3af7d487	0.0018907943
57	0xbd2e5f8a	-0.042571582
58	0xbeba05e3	-0.36332616
59	0xbf3b5de3	-0.73190135
60	0x3aa2f304	0.0012432043
61	0xba0f6067	-0.0005469382
62	0xbc381b5b	-0.011236991
63	0x3c56ea96	0.013117453
64	0xbbc4aefc	-0.006002305
65	0x396ca7dd	0.00022569248
66	0x3efe6dac	0.49693048
67	0xb73b4031	-1.1161014e-05
68	0x3b77eaf7	0.003782926
69	0xbbc53088	-0.0060177483
70	0xbaa95c7b	-0.0012921238
71	0xb9851e06	-0.00025390106
72	0x3e81f8ca	0.25385123
73	0xb9e8ac7c	-0.00044379
74	0xbb774a8a	-0.0037733638
75	0x3f0c2ef7	0.5475916
76	0x3a813747	0.0009858393
77	0x3f80712d	1.0034539
78	0xbd9130e5	-0.07089404
79	0x3f600aab	0.8751628
80	0xb9f01cd3	-0.00045797843
81	0x3b91e99c	0.0044528972
82	0xbe567fd1	-0.20947196
83	0x3e9d5b8e	0.30733913
84	0x3b8440b4	0.0040360335
85	0xbaf5346a	-0.0018707637
86	0x3ac7dfc0	0.0015249178
87	0x3a7348bb	0.0009280552
88	0xba75adb0	-0.000937189
89	0xbb012d8b	-0.0019710984
90	0xbc505917	-0.012716553
91	0x3afdbf0e	0.0019359307
92	0xbed85748	-0.4225409
93	0x39111a77	0.00013838137
94	0x4008a466	2.135034
95	0x3b04611f	0.002019949
96	0x3c2ac237	0.010422281
97	0xbdb32d2e	-0.08748852
98	0xba0e2b62	-0.00054233347
99	0x3f5e4fd3	0.8684055
100	0x3a47ab4f	0.00076167745
101	0x39e81f33	0.00044273734
102	0xbd771d29	-0.060330544
103	0xba27da58	-0.000640308
104	0xb97ad0d2	-0.0002391965
105	0x3e2bdd95	0.16783746
106	0xbabb7dc7	-0.0014304452
107	0xbc88c3d5	-0.016694942
108	0x3edf04a0	0.43558216
109	0x3d18f47e	0.03734254
110	0xb80a50e7	-3.297711e-05
111	0x3bb5bf85	0.0055465125
112	0xbe5ea429	-0.2174231
113	0xb791cc2e	-1.7380426e-05
114	0xb9604851	-0.00021389245
115	0x3f3f7d8d	0.7480095
116	0x3b19dd79	0.0023477955
117	0xba483280	-0.00076369196
118	0xbd787c19	-0.060665224
119	0x3e79d35f	0.24397038
120	0xbb12cd40	-0.002240017
121	0xb858b169	-5.166364e-05
122	0xb99c40da	-0.00029802957
123	0x3c797126	0.015224731
124	0x3b4d3a0f	0.0031315123
125	0x3c693eb4	0.014236141
126	0xbbe79e2b	-0.0070684156
127	0xbf8bb8da	-1.0915787
128	0xbb4a45e1	-0.0030864405
129	0xbbc220a3	-0.0059243008
130	0x3df17db4	0.11791554
131	0x3a33c198	0.0006857156
132	0x39d864ad	0.0004127374
133	0xb71d7264	-9.384563e-06
134	0x389fa46e	7.612338e-05
135	0x3b1c7123	0.0023871146
136	0x3b08dd73	0.0020883947
137	0xba84adf5	-0.0010122644
138	0x3a020188	0.00049593346
139	0x378dd802	1.6909096e-05
140	0x3801551c	3.083526e-05
141	0x3f377490	0.71662235
142	0xb9341adc	-0.00017176144
143	0xbeac80e5	-0.3369209
144	0xbbc66840	-0.006054908
145	0xba9d56a6	-0.0012003973
146	0x3f0000e6	0.5000137
147	0x3f16867b	0.5879895
148	0xbc6ba751	-0.014383153
149	0x3b5f5065	0.0034075018
150	0xbbe83a64	-0.007087039
151	0x3a9882cb	0.0011635659
152	0xbbb5a038	-0.005542781
153	0xbf28cf53	-0.6594135
154	0xb91b00d2	-0.00014782257
155	0x3cbfa762	0.023395244
156	0x3a900cb3	0.0010990113
157	0x3a3825ae	0.00070246577
158	0x3839ce77	4.4299723e-05
159	0xb7dba4ab	-2.6183514e-05
160	0xbaf043ea	-0.0018330787
161	0x3ed0c5f1	0.40776017
162	0x3c7f0419	0.015564942
163	0xba806f26	-0.000979875
164	0xbada7a4d	-0.0016668529
165	0xbca88aff	-0.020574091
166	0x3b656921	0.0035005289
167	0xbdd92a0d	-0.10603724
168	0xbd705fc8	-0.058685094
169	0xbfb07510	-1.3785725
170	0x3e8cd1bb	0.27503762
171	0x3f9a6e16	1.2064846
172	0x3b943b6f	0.0045236866
173	0x3bc7a2b1	0.0060923924
174	0xbc2e3ee5	-0.010635112
175	0xbd2a375d	-0.041556705
176	0x3fa51136	1.2895877
177	0x3b08e165	0.0020886299
178	0x3c0c7ad4	0.008574206
179	0xbc3f59d1	-0.011679129
180	0x3b45a49f	0.0030157936
181	0xb94e5677	-0.00019677902
182	0x3bbe9581	0.005816162
183	0x3a8761e1	0.0010328853
184	0xbc0c947b	-0.008580322
185	0x3c523b36	0.0128315
186	0x3e8b634a	0.2722419
187	0xba3feb33	-0.0007321119
188	0x3eb69704	0.3566209
189	0xbaf5d8eb	-0.0018756663
190	0x3eb03b84	0.34420407
191	0x3dfc8d0a	0.123315886
192	0x3a61c7da	0.0008612849
193	0x3ae0bc86	0.0017146028
194	0xbb5701b7	-0.0032807419
195	0xbc1f8b7e	-0.009737847
196	0x3e60778c	0.21920604
197	0xbf88aeda	-1.067836
198	0x39eaeda1	0.00044809005
199	0xbec6fa91	-0.38863042
200	0x38fc1bba	0.00012021461
201	0xbab469ba	-0.0013764419
202	0xb8e67142	-0.000109883506
203	0x384a2765	4.8197242e-05
204	0x3a1e1c15	0.0006031406
205	0xbbfc11e4	-0.0076925624
206	0xbb4a79c8	-0.0030895341
207	0x3b0d1459	0.002152702
208	0x3ab316a0	0.0013663359
209	0xbb798c3e	-0.0038077976
210	0xbbc49843	-0.0059995963
211	0xbaee19df	-0.0018165669
212	0x3f722413	0.94586295
213	0x3f5d8e22	0.86545
214	0xb988ed1d	-0.00026116605
215	0x3b5b1be2	0.0033433367
216	0xbae5a728	-0.001752113
217	0xbd2e8625	-0.0426084
218	0x3c99d8d7	0.018780155
219	0xbc553852	-0.013013916
220	0x3a1c6540	0.0005966015
221	0xbdfcf905	-0.12352184
222	0x3a8c234d	0.0010691673
223	0xb9548dce	-0.00020270722
224	0xb8a02b1b	-7.6374236e-05
225	0xb9751780	-0.00023373775
226	0x39e40f74	0.00043499062
227	0xbe27806a	-0.1635758
228	0xbc8431e7	-0.016137077
229	0x3b7a723b	0.003821506
230	0x3a041bc2	0.00050395366
231	0x36c57e30	5.8857477e-06
232	0xb717c8e4	-9.047075e-06
233	0x3a863be7	0.0010241241
234	0x36a36a71	4.87017e-06
235	0xba8222ad	-0.0009928547
236	0xb8f07736	-0.000114662966
237	0x3a95b1b4	0.0011420758
238	0x3e93babf	0.28853413
239	0xba8a620f	-0.0010557788
240	0x3efbc2df	0.49172112
241	0x38046e77	3.157413e-05
242	0x399515fe	0.0002843588
243	0x397f0786	0.00024321498
244	0xb7914ed5	-1.7322056e-05
245	0xba922fdc	-0.0011153179
246	0xba923fae	-0.0011157894
247	0x3b08fb57	0.0020901763
248	0x3588faa5	1.0205737e-06
249	0xbb3b7e8f	-0.002860937
250	0xbaddb7d6	-0.0016915749
251	0x3ea934df	0.3304815
252	0x3a47e049	0.00076246687
253	0x390fba10	0.00013706856
254	0xb93bb8fe	-0.00017902625
255	0x3993b8e7	0.00028175788

affine_layers.0.bias f4 [64]
0	0xbea93dcc	-0.3305496
1	0xbe9a2dd3	-0.30113086
2	0xbf2bc8b2	-0.6710311
3	0xbedca769	-0.43096474
4	0x3ea8af1a	0.32946092
5	0x3cf62d95	0.030051032
6	0xbe997434	-0.29971468
7	0x3f192873	0.59827346
8	0xbd75fa75	-0.060053308
9	0xbea400eb	-0.3203195
10	0x3f06e326	0.5269035
11	0x3f0916b4	0.5355027
12	0x3f080897	0.5313811
13	0x3ef45008	0.4771731
14	0xbe92ecbe	-0.28696245
15	0xbddb8bde	-0.10720037
16	0x3dfcc8e6	0.12343006
17	0x3ddc7547	0.107645564
18	0xbf47a10a	-0.779801
19	0x3f0bbfac	0.54589343
20	0x3f2896da	0.6585518
21	0x3ec6a591	0.38798192
22	0xbf2205a8	-0.6328988
23	0x3f577a55	0.8417104
24	0xbefbb071	-0.49158052
25	0xbe4079c2	-0.18796447
26	0xbf0ab2f7	-0.5417933
27	0x3eab5d02	0.33469397
28	0x3ecacd8c	0.39609945
29	0x3f1289b8	0.5724139
30	0x3ee5b49d	0.4486436
31	0xbd464791	-0.048408095
32	0x3ebf66e6	0.37383193
33	0x3fae58ab	1.3620809
34	0x3efbe776	0.49200028
35	0x3eefec1c	0.46859825
36	0x3f2b788f	0.6698083
37	0x3f181fca	0.59423506
38	0xbf5ca795	-0.8619321
39	0xbe250989	-0.16116919
40	0xbf08d7f9	-0.5345455
41	0xbf587d46	-0.8456615
42	0xbfa28eca	-1.2699826
43	0xbd909166	-0.070589826
44	0xbdff15cd	-0.1245533
45	0x3e90d1b9	0.28285006
46	0x3e4107e6	0.1885067
47	0x3cc0c0ff	0.023529528
48	0x3f0182aa	0.5059
49	0xbf274598	-0.65340567
50	0xbe6265a1	-0.22109081
51	0xbfaeacbd	-1.3646466
52	0xbdb87daa	-0.090083435
53	0x3fb19400	1.3873291
54	0x3ea91135	0.3302094
55	0x3e3e1ed8	0.18566453
56	0x3ed2d8cd	0.4118103
57	0xbefc7dcf	-0.49314734
58	0x3f0a86d6	0.54111993
59	0x3ef721a9	0.48267868
60	0xbeb36482	-0.3503762
61	0xbf0e536e	-0.55596054
62	0xbf2a15a2	-0.6643926
63	0x3e8af9c4	0.2714368

affine_layers.1.weight f4 [64, 64]
0	0x38dbf1a0	0.0001048774
1	0xb8857c4a	-6.365085e-05
2	0x3e109a21	0.14121296
3	0xbe3a0bc3	-0.18168549
4	0x3d8d53fe	0.06900786
5	0x3c05cc2d	0.008166355
6	0xbd5ce8d0	-0.053932965
7	0xba9814c2	-0.0011602866
8	0xba30a432	-0.0006738334
9	0xbe36c1ef	-0.17847417
10	0xbe32a7e8	-0.17446864
11	0xbc840fed	-0.016120875
12	0xbf3a6c6d	-0.72821695
13	0xb9b4bad0	-0.00034471462
14	0x36a940e6	5.0441477e-06
15	0x3c0bb37b	0.008526678
16	0xba2264c5	-0.00061948254
17	0xbc37416b	-0.01118503
18	0x3d89ca02	0.06727983
19	0xbf0fcefd	-0.56175214
20	0xbcf29589	-0.02961232
21	0xbe98c95f	-0.29841134
22	0xbc7dc6d7	-0.015489302
23	0xbdecf22a	-0.11569627
24	0xbd0615d4	-0.03273566
25	0xbe9546c8	-0.29155564
26	0x3c74a5a1	0.014932067
27	0xbe2b94b7	-0.16755949
28	0x3dbd81d1	0.09253276
29	0x3e57ca35	0.2107323
30	0xbe8ee00e	-0.27905315
31	0x3a1d056b	0.0005989882
32	0x3c24c0a6	0.010055697
33	0xbec4a1ed	-0.3840479
34	0xbc2f8f1d	-0.010715273
35	0x38d88f99	0.0001032643
36	0xbdf1e914	-0.11812034
37	0xbe3f70d8	-0.1869539
38	0xbc1369dc	-0.008997407
39	0xb9ac4a1e	-0.00032861618
40	0x3d854b2f	0.06508481
41	0x3e8f2b28	0.27962613
42	0x3f2d9c4d	0.6781662
43	0x3b87aa38	0.0041401647
44	0x3b71645b	0.0036833498
45	0x3d32f679	0.043692086
46	0xbaf7f644	-0.0018917997
47	0x3e9797b5	0.2960793
48	0xbb713d61	-0.0036810266
49	0xbc86b474	-0.016443469
50	0x3e2dc6c4	0.16970354
51	0x3e82ad5e	0.25522894
52	0x3d76bbeb	0.060237806
53	0xbee53b89	-0.44771984
54	0xbe46e27e	-0.19422337
55	0x3d3c3461	0.04594839
56	0xbe16108f	-0.14654754
57	0x3c5fc4ed	0.013657791
58	0xbc9fe64e	-0.019518998
59	0xbdf7174c	-0.120649904
60	0xbcd8b83d	-0.02645504
61	0x3eef2cba	0.4671381
62	0x3f156afd	0.58366376
63	0xbacebff6	-0.0015773762
64	0xbb9f7ffe	-0.004867553
65	0xbe1bbed2	-0.15209511
66	0xbea395fb	-0.31950364
67	0xbb731c5f	-0.0037095768
68	0xbf2ec837	-0.68274254
69	0x3f1afffa	0.6054684
70	0x3a9c2324	0.0011912328
71	0xbc267af6	-0.010161152
72	0x3e009a26	0.12558803
73	0x3d8f712f	0.0700401
74	0x3d00aaf4	0.031413034
75	0xbece2c70	-0.40268278
76	0xbdbe53fe	-0.09293364
77	0xbe8d7a5a	-0.2763241
78	0xbe4ced1e	-0.20012328
79	0x3f2c7570	0.67366695
80	0x3e46fd82	0.19432643
81	0xbde10671	-0.10987557
82	0x3d77bf3c	0.06048511
83	0xbee80289	-0.45314434
84	0x3e57e246	0.2108241
85	0xbf209bd0	-0.6273775
86	0xbd5b6e7e	-0.05357217
87	0x3e3d0e59	0.18462504
88	0x3c072245	0.008247917
89	0x3c5c5324	0.013447557
90	0xbcb92c75	-0.022604207
91	0x3d1ad202	0.037797935
92	0x3de68688	0.112561285
93	0x3e52c18e	0.20581648
94	0xbe385b1f	-0.1800351
95	0x3cc094db	0.02350848
96	0x3d980a92	0.07423891
97	0x3e8fe781	0.2810631
98	0x3c90d36e	0.017678943
99	0xbce63a13	-0.028103864
100	0x3da5a70f	0.080885045
101	0x3e89c9a6	0.26911658
102	0x3d593687	0.053030517
103	0xbbb2da9f	-0.0054581906
104	0xbe749107	-0.23883449
105	0xbd9128d1	-0.07087863
106	0x3e2e755c	0.17036957
107	0x3f508809	0.81457573
108	0xbe12b0fb	-0.14325325
109	0xbb04ac14	-0.0020244168
110	0xbd3d8823	-0.04627241
111	0x3dc54d42	0.096338764
112	0xbe8859cf	-0.2663102
113	0x3a8cbece	0.0010738017
114	0x3d5dbe97	0.05413684
115	0xbe780401	-0.24220277
116	0xbc58e42a	-0.013237992
117	0xbd9ff70a	-0.07810791
118	0xbec3785c	-0.38177764
119	0xbb86b5dc	-0.004111035
120	0x3ee543c6	0.4477827
121	0x3e4b7d0c	0.1987192
122	0x3ca7d8e8	0.020489171
123	0xbc5f1ca3	-0.013617667
124	0x3bdde9ad	0.006772241
125	0xbc81faa3	-0.015866583
126	0xbcc65801	-0.024211885
127	0xbf36cc6c	-0.71405673
128	0xbe8d7b45	-0.2763311
129	0xbe809056	-0.2511012
130	0xbecdd9d7	-0.4020526
131	0x3ae2e760	0.0017311387
132	0xba546db8	-0.00081035076
133	0x3ba76d21	0.0051094447
134	0x39076364	0.00012911629
135	0x3c4ef5f4	0.012631882
136	0x3e51ba01	0.20481111
137	0x388a0b14	6.582416e-05
138	0x3b4fe2ef	0.0031720956
139	0x3a204424	0.00061136694
140	0xb9b6cd1f	-0.00034866572
141	0xba4becfc	-0.0007779149
142	0xbf45dc8f	-0.7728967
143	0x3b9e14c8	0.0048242547
144	0x3baddc46	0.0053057997
145	0xbb938af0	-0.0045026466
146	0x3d6e6332	0.05820007
147	0xbc42d710	-0.011892095
148	0x3e91c25e	0.28468603
149	0xb9542efe	-0.00020235401
150	0xbba4937e	-0.0050224653
151	0x3f4b6ec0	0.79465866
152	0xbba74aa4	-0.0051053334
153	0xbb6df799	-0.003631091
154	0xbe7b3d3a	-0.24535075
155	0x3874e30e	5.8385594e-05
156	0xba05a99b	-0.00050988205
157	0x3c091437	0.008366636
158	0xbb97e74b	-0.0046357266
159	0x3f06716e	0.5251683
160	0x3f1794e7	0.5921158
161	0x3dbbb304	0.09165004
162	0xb8e9a5dc	-0.000111411995
163	0x3ce0df32	0.027450178
164	0x3c3b552e	0.011433883
165	0x3a721f1c	0.0009236203
166	0xbc21e362	-0.009880872
167	0xbcb343a9	-0.021882849
168	0xbf325a3f	-0.69668955
169	0xbaa18ae1	-0.0012324714
170	0xbbaa1dc9	-0.005191539
171	0x3e6b38e1	0.22970916
172	0xbabc4fd6	-0.0014367055
173	0xba6c0a94	-0.0009004262
174	0xbb25421d	-0.0025216409
175	0x3bc4017f	0.0059816237
176	0x3e328a1e	0.174355
177	0x3ccfbad3	0.02535764
178	0x3f130088	0.57422686
179	0xbed7e5e4	-0.4216758
180	0xbe40e37a	-0.18836775
181	0xbdb0cf7a	-0.08633323
182	0xbe04c64e	-0.12966272
183	0x3a05bda0	0.00051018037
184	0x3b962643	0.004582198
185	0x3e709459	0.2349409
186	0x3dbf1054	0.09329286
187	0x3d7341a4	0.05938877
188	0xbb25169b	-0.0025190476
189	0x3dde03b6	0.108405516
190	0x3cfe41a8	0.031037167
191	0x3b078f55	0.0020684798
192	0xbb88f75a	-0.004179877
193	0x39055b3c	0.00012717856
194	0xbc9bd923	-0.019024437
195	0x3beeeac9	0.007291172
196	0x3f0530a0	0.5202732
197	0xbf038430	-0.5137358
198	0x3c91021b	0.0177012
199	0x3d15aed7	0.036543693
200	0xbef0a414	-0.47000182
201	0xbe00aaaa	-0.12565103
202	0xbdb59385	-0.08866028
203	0x3ec5f173	0.38660774
204	0x3c837310	0.016046077
205	0x3c7f6f28	0.015590467
206	0xbb6f961c	-0.0036557978
207	0xbf87f16d	-1.0620552
208	0x3ee503fd	0.44729605
209	0xbe16062c	-0.14650792
210	0xbaf07d3a	-0.0018347867
211	0x3ed1d487	0.40982458
212	0xbc3999b2	-0.011328148
213	0x3e54e087	0.20788775
214	0x3ca31495	0.019907275
215	0xbd13181d	-0.035911668
216	0xbd88d20b	-0.066806875
217	0xbca1c2e3	-0.01974625
218	0xbaf0d9c6	-0.0018375448
219	0xbcb5d407	-0.02219583
220	0xbe993754	-0.29925025
221	0xba183ecf	-0.0005807699
222	0x3e63b9b2	0.22238806
223	0x3a86b0d1	0.0010276084
224	0x3e49b90c	0.19699496
225	0xbc8c0ed2	-0.01709691
226	0x3ca1e006	0.019760143
227	0xbcab697c	-0.020924322
228	0x3cfa627d	0.030564541
229	0xbda7e179	-0.08197302
230	0xbc99bacb	-0.018765828
231	0xbd65da9e	-0.056116693
232	0x3c5d5564	0.013509128
233	0xbcfb0b24	-0.03064496
234	0x3de372aa	0.11105855
235	0xbf3067d6	-0.6890844
236	0xbe6dbad9	-0.23215808
237	0xbb1fe927	-0.0024400444
238	0xbe915a69	-0.2838929
239	0x3c2ef533	0.010678577
240	0x3dcf28a4	0.101151735
241	0xbb0153f5	-0.001973388
242	0xbac0991e	-0.001469407
243	0x3f1989d0	0.5997591
244	0x3a45db29	0.0007547611
245	0xbc2f2c42	-0.010691704
246	0x3e93c3c1	0.28860286
247	0xbcee7b7e	-0.02911162
248	0xbed7dbfc	-0.42160022
249	0xbe3d5bf8	-0.18492115
250	0x3b82f3f3	0.003996366
251	0x3cd2ee9c	0.025748543
252	0xbe8f8201	-0.28028873
253	0x39e06d76	0.00042806164
254	0x3bb97d02	0.005660654
255	0x3f1981e6	0.59963834

affine_layers.1.bias f4 [64]
0	0xbee4a112	-0.44654137
1	0x3c2d8e90	0.010593072
2	0x3ea83bbf	0.32858083
3	0xbd97b7d7	-0.074081115
4	0x3ef1ac6d	0.47201863
5	0x3cf0a3c4	0.029374965
6	0xbec289cc	-0.37995756
7	0x3e9d5b13	0.30733547
8	0xbea97c69	-0.3310273
9	0x3ed316f4	0.4122845
10	0xbdbba3e4	-0.09162119
11	0x3ed1a5db	0.4094685
12	0xbe880936	-0.26569527
13	0x3e7ed78a	0.24886909
14	0xbf250a39	-0.64468724
15	0x3eddaa0b	0.43293795
16	0xbf30847e	-0.6895217
17	0xbeb0cfbd	-0.34533492
18	0xbdcd7307	-0.10031705
19	0x3e5ca44c	0.2154705
20	0x3ec8d484	0.39224637
21	0x3f3a4caf	0.7277326
22	0xbe12e0c3	-0.14343552
23	0x3d2c4678	0.04205939
24	0xbe6ac839	-0.22927941
25	0xbf46a7c1	-0.7759972
26	0xbeeae15f	-0.4587507
27	0x3eef90cc	0.4679016
28	0x3e81c725	0.25347248
29	0xbe831bd8	-0.2560718
30	0xbf2bfb40	-0.6718025
31	0x3ec12339	0.37722185
32	0xbe50b772	-0.20382479
33	0x3ee92c9c	0.45541847
34	0xbe582cf8	-0.21110904
35	0xbc7d4d28	-0.01546029
36	0xbc3ee6a8	-0.011651672
37	0x3df6ec4e	0.1205679
38	0xbd6ec3b1	-0.058292095
39	0x3e4f186c	0.2022416
40	0xbdbe30db	-0.09286662
41	0x3e15bbf2	0.14622477
42	0xbf049f99	-0.51806027
43	0x3ee98cff	0.45615384
44	0x3d595d5c	0.05306755
45	0xbe8df8a0	-0.27728748
46	0xbdd76aa2	-0.105183855
47	0xbd92e419	-0.071724124
48	0xbf0b3f76	-0.5439371
49	0xbe71d102	-0.23614886
50	0x3e5b0819	0.21389808
51	0x3d4052aa	0.046953835
52	0x3e967258	0.29384112
53	0xbd23c77e	-0.039985172
54	0xbe9b7b9f	-0.30367753
55	0x3f22791d	0.63466054
56	0xbec9a1ac	-0.39381158
57	0xbee58c3f	-0.44833562
58	0xbee87f8b	-0.45409808
59	0xbef896a5	-0.48552433
60	0x3e2fc996	0.17166743
61	0x3f6c9e05	0.9242862
62	0xbdeee1cd	-0.11664162
63	0x3f17a484	0.59235406

final_mean.weight f4 [3, 64]
0	0xbb97eb1b	-0.004636181
1	0x3beb0ab2	0.007172906
2	0x3e085f47	0.13317595
3	0xbbb4742e	-0.0055070138
4	0x3b08d631	0.002087962
5	0x3c2d42a0	0.010574967
6	0xbb893892	-0.004187652
7	0xbb2b4b0f	-0.0026137268
8	0xb7c90c60	-2.396683e-05
9	0xbb9fec6c	-0.0048804786
10	0xbbbae011	-0.0057029803
11	0x3b8e2831	0.0043382873
12	0xbc062687	-0.008187897
13	0x3d9b213d	0.07574699
14	0xbbf10b8f	-0.007356114
15	0x3cd2c9d8	0.025731012
16	0xbc765deb	-0.01503704
17	0xbbb6c708	-0.0055779256
18	0x3e272040	0.16320896
19	0x3bedeb78	0.007260736
20	0x3a1bd554	0.0005944569
21	0xbddd055e	-0.10792039
22	0xbb36cca6	-0.0027892976
23	0xbb10e31c	-0.0022108024
24	0xbb93f3fc	-0.004515169
25	0xbb9aff6b	-0.004730155
26	0xbb5452b9	-0.003239794
27	0xbaae3f85	-0.0013294077
28	0x3abce6ec	0.0014412082
29	0xbb907279	-0.0044081775
30	0xbac87417	-0.0015293387
31	0x3b7a224e	0.003816742
32	0xb94ab2fe	-0.00019330901
33	0x3deb0579	0.11475653
34	0xba6db1dd	-0.0009067336
35	0xbade236b	-0.0016947811
36	0x3bc9caf8	0.006158229
37	0xba5ec9db	-0.0008498707
38	0x3964d6b4	0.00021823758
39	0xbbb1153c	-0.0054041427
40	0xbabdcb5e	-0.0014480164
41	0xbd62d476	-0.0553784
42	0x3b3febb3	0.0029284775
43	0xbb1911e2	-0.0023356606
44	0xba5452a7	-0.00080994744
45	0xbb3dd711	-0.00289673
46	0xbbf97270	-0.007612519
47	0x3a4cbd31	0.0007810174
48	0xbb8ece96	-0.004358123
49	0xba46004e	-0.0007553146
50	0xb92192c1	-0.00015408827
51	0x3b274bb6	0.0025527305
52	0x3a65ad5b	0.0008761489
53	0x3a0704f8	0.0005150582
54	0xbbafe32b	-0.0053676567
55	0xbaba76c9	-0.0014226075
56	0xbdc6b50d	-0.097025014
57	0xbb8bfc43	-0.0042720153
58	0x3dcfa8a4	0.101395875
59	0x3e18b95d	0.1491446
60	0xbde49146	-0.11160521
61	0xbb2ffa0c	-0.002685192
62	0x3a73f2e8	0.000930591
63	0xbae65fba	-0.0017576136
64	0x3d700018	0.05859384
65	0xbd59259e	-0.05301439
66	0xb9d5bf50	-0.00040769065
67	0x3d44f1ef	0.04808229
68	0xbb041cad	-0.0020158694
69	0xbb055f66	-0.0020351051
70	0xba7b7819	-0.0009592786
71	0x3d3369f4	0.043802217
72	0x3b11fe57	0.0022276843
73	0x3cc744a4	0.024324723
74	0x3bb06a88	0.0053837933
75	0xbde99e73	-0.11407175
76	0x398ffeac	0.0002746483
77	0x3999d9c7	0.0002934469
78	0x3caace13	0.020850217
79	0x3b28d562	0.0025761952
80	0x3c1a9f5f	0.009437411
81	0x3c5d8061	0.013519377
82	0xb7387602	-1.09947305e-05
83	0xbc351bd7	-0.011054001
84	0xbab646f8	-0.0013906648
85	0xbcfe6baa	-0.031057198
86	0x3d986782	0.074416175
87	0xbc7a93d0	-0.01529403
88	0x3d3ec5ca	0.046575345
89	0xbc41a6f5	-0.011819591
90	0x3aa6f9ea	0.0012739275
91	0x3ba51280	0.0050376058
92	0x380d409c	3.3677192e-05
93	0x3d524818	0.051338285
94	0xbbdea4e2	-0.006794558
95	0xbc9d3092	-0.0191882
96	0x3a565f5e	0.0008177663
97	0x3aad7a11	0.0013235231
98	0xbb1ea48a	-0.002420696
99	0xb93a08e6	-0.00017741657
100	0x3c421383	0.011845472
101	0x3c3fcf5b	0.011707152
102	0x3cb081b1	0.021546217
103	0xb836fb9b	-4.3626507e-05
104	0x3c87948e	0.016550329
105	0x39558e11	0.00020366187
106	0xbb2157f5	-0.0024619077
107	0x3b9f9025	0.0048694783
108	0x3d7ed338	0.062213153
109	0xbbea3db5	-0.0071484693
110	0x3d563d6e	0.052304678
111	0x3c289762	0.010289999
112	0x3bf49a2d	0.0074646682
113	0xbd59b089	-0.053146873
114	0xbb91ba86	-0.004447284
115	0xbd4619a0	-0.04836428
116	0x3c0d1581	0.008611084
117	0xbc533a80	-0.012892365
118	0x3b9ffd91	0.0048825224
119	0x3e808879	0.2510412
120	0x3a33667f	0.0006843581
121	0x3e01bca6	0.1266962
122	0x3a72b40b	0.0009258396
123	0x3b25f739	0.0025324358
124	0xb94ca40e	-0.00019516071
125	0x3c61ca6d	0.013781172
126	0xb9dd12d7	-0.00042166442
127	0x3deabc04	0.114616424
128	0x39a44d8b	0.00031338292
129	0xbb954181	-0.004554928
130	0xbad76dfc	-0.0016435976
131	0x3cb145bd	0.0216397
132	0x3e0d0125	0.13769968
133	0xb800087e	-3.0525487e-05
134	0x3e4ae936	0.19815525
135	0xbd4d82ff	-0.050173756
136	0x3dce1694	0.100629
137	0x3e3c27ba	0.1837453
138	0x3c092567	0.008370734
139	0x39cbd37e	0.0003887675
140	0x3d2d0d14	0.0422488
141	0x3a115db5	0.00055452745
142	0x3bacea85	0.0052769803
143	0xbaabeed1	-0.0013117437
144	0x3d30afb9	0.043136332
145	0xbad0c6c8	-0.0015928382
146	0x3a3cd7fe	0.0007203816
147	0xbbc3b075	-0.005971963
148	0xbe6b82d3	-0.22999124
149	0xbdc9386d	-0.098252155
150	0x3c4d02e8	0.0125129
151	0xbdb53c2a	-0.08849366
152	0xb9757d9f	-0.00023411818
153	0x3d58fde3	0.0529765
154	0x3dae2e50	0.08504927
155	0x3e285715	0.16439469
156	0xbc0288da	-0.007967198
157	0x3a9d93a0	0.0012022145
158	0x3b0258dc	0.001988939
159	0x3a93fd2d	0.0011290662
160	0xbe0dad1a	-0.13835564
161	0xbbbbe243	-0.0057337596
162	0xbdc4ffb2	-0.096190825
163	0xbd877064	-0.06613234
164	0x3d160cef	0.03663343
165	0x3c92b659	0.017909216
166	0x3adf734f	0.0017047914
167	0xbb29d076	-0.0025911606
168	0x3c814af8	0.015782818
169	0x37d39e37	2.5226835e-05
170	0x3c41428c	0.011795651
171	0x3e57c2f3	0.21070461
172	0x3bb74da9	0.0055939746
173	0xbb1d2b92	-0.0023982269
174	0x39fa0d0a	0.0004769343
175	0x3d64c4f0	0.055851877
176	0x3b65f17b	0.003508656
177	0xbae804e0	-0.0017701648
178	0xbd7b7737	-0.06139299
179	0xbd05451b	-0.032536607
180	0x3e37502e	0.1790168
181	0xbc47d3b2	-0.012196468
182	0x3bc054b3	0.005869472
183	0x3bda1154	0.0066548977
184	0x3abe7339	0.0014530189
185	0xb9c031ef	-0.00036658297
186	0x3a8314eb	0.0010000741
187	0x3a625683	0.0008634107
188	0x38d7c9fa	0.0001028962
189	0xbd8578d6	-0.06517188
190	0x3c3729dd	0.011179415
191	0x3aab33be	0.0013061685

final_mean.bias f4 [3]
0	0xbc903faa	-0.017608482
1	0x3df25dad	0.118342735
2	0xbe07465a	-0.1321043

exp_avg f4 [64, 11]
0	0xb97af281	-0.00023932198
1	0xb9caf5a9	-0.00038711473
2	0xba1c1f9f	-0.00059556396
3	0x3a892c87	0.0010465541
4	0x39e7160c	0.0004407618
5	0x390b20e2	0.00013268323
6	0xb95d8c62	-0.00021128499
7	0xb904a9bb	-0.0001265173
8	0xb9bb34d9	-0.00035706794
9	0x3988452d	0.0002599148
10	0xba1942a0	-0.0005846415
11	0xb98f56a7	-0.00027339646
12	0xba448e82	-0.0007498042
13	0x396f9605	0.00022848703
14	0xbb31f072	-0.0027151373
15	0xba6f92f0	-0.0009139022
16	0x3a75f470	0.00093824323
17	0x3a215014	0.0006153595
18	0x3a3c86c1	0.0007191711
19	0x3a1e3832	0.00060355954
20	0x3923ac4b	0.00015609075
21	0x3a29c5be	0.0006476304
22	0xba5cdc11	-0.00084251264
23	0x3ab3cecd	0.0013718248
24	0xbaca93f1	-0.0015455467
25	0x3b93ee32	0.004514479
26	0x3b0b55e4	0.0021260912
27	0xbaaa0b34	-0.001297331
28	0xba509005	-0.0007956031
29	0xba8ccacd	-0.0010741592
30	0xbaa57eb1	-0.0012626258
31	0x390c1cac	0.00013362122
32	0xbaccc0b1	-0.0015621391
33	0xb78d1c72	-1.6821756e-05
34	0x3aa62b45	0.001267769
35	0xba5114b3	-0.0007975802
36	0xba6c4b63	-0.0009013919
37	0xb9bebc70	-0.0003638002
38	0x3ac19933	0.0014770388
39	0x3a24427d	0.0006266011
40	0x3a0649f5	0.0005122715
41	0x3a09286d	0.0005232159
42	0x3a95351e	0.0011383628
43	0xba940d32	-0.0011295436
44	0xb8db2682	-0.000104499064
45	0x3a188684	0.0005818384
46	0xba173b0a	-0.00057689904
47	0x3b315bd1	0.0027062783
48	0x39ef8d44	0.00045690883
49	0xbac2415f	-0.0014820507
50	0x3a2ebc13	0.00066655985
51	0x392c92fb	0.00016457953
52	0x38a25aec	7.7416975e-05
53	0xb760ead6	-1.3406117e-05
54	0xba089916	-0.00052108
55	0x3900fd51	0.00012301399
56	0x389d23cc	7.493011e-05
57	0x3a1e8783	0.00060474145
58	0x3ab7202b	0.0013971379
59	0x3aa02e69	0.0012220863
60	0xbaa9a6be	-0.001294337
61	0xbaa1d48e	-0.0012346671
62	0xb9b1011d	-0.000337609
63	0xbacfab53	-0.0015843905
64	0x3a5a6622	0.0008331259
65	0x3a5e31ce	0.00084760494
66	0xbab1a9f6	-0.0013554681
67	0xbab5715e	-0.001384299
68	0xbb006b22	-0.0019595106
69	0x3c47b487	0.012189037
70	0x3b9a7285	0.004713359
71	0xbbb567c2	-0.0055360505
72	0xba9dbba9	-0.0012034076
73	0xbb095db9	-0.0020960404
74	0xb945018e	-0.00018787963
75	0xbb08251c	-0.0020774072
76	0xbb551803	-0.0032515533
77	0xb944ffb4	-0.00018787273
78	0x3893afed	7.042275e-05
79	0xb8ed317e	-0.00011310259
80	0x3b008303	0.001960934
81	0x3a81fe7f	0.0009917765
82	0xba94e799	-0.0011360525
83	0xba53ac09	-0.00080746465
84	0xb9b7e169	-0.00035072424
85	0xba5fdb81	-0.00085394835
86	0x3a3e8f25	0.0007269255
87	0xb87ca893	-6.023848e-05
88	0xb921aae4	-0.00015417818
89	0xbae2af42	-0.0017294663
90	0x3930a78d	0.00016847085
91	0x3b0166bf	0.001974508
92	0xb91332c9	-0.00014037931
93	0xbafcb70d	-0.0019280628
94	0x3a353f5a	0.0006914042
95	0xba31e903	-0.00067867356
96	0x3ab6f3cc	0.0013958155
97	0xbb210b04	-0.0024573216
98	0xba517970	-0.0007990813
99	0xba888035	-0.0010414185
100	0x3a500421	0.00079351856
101	0xba7d50a8	-0.0009663203
102	0x3b7ab1ae	0.0038252878
103	0x3ac2eda6	0.001487185
104	0xbab1bdc8	-0.0013560588
105	0xb9d589f3	-0.00040729306
106	0xb9f64850	-0.00046974653
107	0xba705a06	-0.0009168688
108	0xb7ef8910	-2.8554845e-05
109	0xbaae6a71	-0.0013306868
110	0xba957db6	-0.0011405263
111	0x3a730b2f	0.0009271381
112	0xbafc1dff	-0.0019235014
113	0x3bcb1809	0.0061979336
114	0x3b2985b0	0.0025867037
115	0xbae70cbd	-0.0017627698
116	0xba819a5e	-0.0009887924
117	0xba763c71	-0.0009393162
118	0xbaffe067	-0.0019521833
119	0x3a41924a	0.00073841645
120	0xbb03f77f	-0.0020136533
121	0xba722e00	-0.0009238422
122	0x3a458562	0.0007534829
123	0xbad6b458	-0.0016380651
124	0x3bc23022	0.005926148
125	0x3b011251	0.0019694755
126	0xbb0da948	-0.0021615792
127	0xba2308c1	-0.0006219261
128	0xba10fe89	-0.0005531093
129	0xb9f2b3bf	-0.00046291758
130	0xba6a0d4f	-0.0008928375
131	0xbb0153fd	-0.0019733899
132	0x3a2aeb68	0.00065200636
133	0xba4d3ca0	-0.0007829163
134	0x39491883	0.00019177985
135	0xb9a6727a	-0.0003174728
136	0xba0259b2	-0.0004972472
137	0x399b5bdb	0.00029632341
138	0x3a030b68	0.0004998953
139	0x39305d0a	0.00016819328
140	0x3a8c5200	0.001070559
141	0xba0d31e5	-0.0005386158
142	0x38da0182	0.00010395331
143	0x3985d3c4	0.00025525515
144	0x3949da06	0.00019250074
145	0xb99a0c2b	-0.00029382235
146	0x3748bd54	1.196501e-05
147	0xb9091d0e	-0.00013076162
148	0x3a0653e0	0.00051241927
149	0x39cc7667	0.0003899813
150	0xb943cbd2	-0.00018672578
151	0x39b5b747	0.00034659563
152	0xb89a2232	-7.3496616e-05
153	0xb98da2e4	-0.0002701498
154	0x3b023e35	0.0019873504
155	0xba9fb004	-0.0012183194
156	0x3b30548a	0.0026905858
157	0xbc31dbac	-0.0108555965
158	0xbbb3fa11	-0.0054924567
159	0x3b2dd0d8	0.0026522186
160	0x3b28ab3c	0.002573683
161	0x3aae9cef	0.0013321916
162	0x3b8a09b2	0.0042125816
163	0xbb0e482d	-0.00217105
164	0x3b18e60c	0.0023330478
165	0x383dff71	4.529901e-05
166	0xb7b5420a	-2.1607633e-05
167	0x392ff629	0.00016781002
168	0xbb4120c6	-0.0029468997
169	0xbaad27a0	-0.0013210662
170	0x3a7084d9	0.0009175069
171	0x3a41c910	0.00073923264
172	0x3a089480	0.00052101165
173	0x3a95c8ec	0.0011427677
174	0x39233390	0.000155641
175	0x397637b4	0.00023481139
176	0x395f84ee	0.00021316457
177	0xba745085	-0.00093198597
178	0x39c5af2a	0.00037705275
179	0x3a01c463	0.00049502234
180	0xb9f96e58	-0.00047575193
181	0xb9c411ba	-0.0003739724
182	0x3a40fff9	0.00073623616
183	0xb894c2f0	-7.0935e-05
184	0x3ab5dcd6	0.0013875018
185	0xbb06a7b4	-0.0020546736
186	0xba21d543	-0.0006173441
187	0xb9aded75	-0.0003317405
188	0x39a4ec87	0.00031456744
189	0x3515ecf5	5.5851643e-07
190	0x3a9f744a	0.0012165394
191	0x3aad781c	0.0013234648
192	0xb95a126c	-0.00020796963
193	0xba5d21b9	-0.0008435506
194	0xb82f2487	-4.175727e-05
195	0xbabef6f6	-0.001456945
196	0x3ab3bbef	0.0013712625
197	0x3907169d	0.00012883027
198	0x39bf0a1e	0.00036437897
199	0xb9dab348	-0.00041713775
200	0x3a2ac881	0.0006514863
201	0xbb314da8	-0.0027054343
202	0xbadfcdab	-0.0017074844
203	0x3a81ccaa	0.0009902914
204	0x3a804d0c	0.0009788587
205	0x3a118775	0.00055514957
206	0x3aca4627	0.0015432284
207	0xbac3ada1	-0.0014929065
208	0x399bd03f	0.0002971906
209	0x39c54aeb	0.00037630586
210	0xb8f502ae	-0.000116830095
211	0x3a795f4e	0.00095127977
212	0x390811e8	0.00012976641
213	0x3a81a8bf	0.0009892209
214	0x392d8793	0.00016549071
215	0xba2a5677	-0.00064978696
216	0x3aa6e582	0.0012733194
217	0x382b3b26	4.0824663e-05
218	0x3b03a283	0.0020085878
219	0x39c60229	0.00037767112
220	0xb8348ac8	-4.3044594e-05
221	0x3a236ce1	0.0006234181
222	0xba0d0601	-0.0005379618
223	0x3b9f2075	0.004856164
224	0x3af85e36	0.0018948975
225	0xbaf8eef6	-0.0018992114
226	0xba926354	-0.0011168518
227	0xb9e256eb	-0.00043170838
228	0xba134dd2	-0.0005619201
229	0xb9528abd	-0.00020078845
230	0xba4956ac	-0.00076804566
231	0xb90769bd	-0.00012913994
232	0xba91709a	-0.001109618
233	0x39d7c8fe	0.00041157746
234	0xba6423f8	-0.00087028695
235	0xb9b5f6ee	-0.00034706987
236	0xb954f842	-0.00020310379
237	0x3986c2f5	0.00025703726
238	0x393321a6	0.00017083305
239	0x3a15c8a7	0.00057137985
240	0x396e3def	0.00022720521
241	0x399bcf57	0.00029718384
242	0xba5ff408	-0.00085431384
243	0xbaf49800	-0.0018661022
244	0xba53d21a	-0.0008080319
245	0x3bd44586	0.0064780144
246	0x3ac62ed6	0.0015120159
247	0xbb4f0bc3	-0.0031592704
248	0xb9de7f0f	-0.00042437806
249	0xbaf98e18	-0.001903954
250	0x3922c9a2	0.00015524638
251	0xbb4ada9e	-0.003095306
252	0xbacaca4c	-0.0015471666
253	0xba9de27e	-0.0012045649
254	0x390bc1c3	0.00013328255
255	0xba8ad49e	-0.0010591929
