src/models/atla_release/SAPPO/model-sappo-convex-halfcheetah.model (torch, 157710 bytes, 36 tensors)

affine_layers.0.weight f4 [64, 17]
-0.21691698 0.6370946 -0.1631752 -0.041127466 0.007446941 -0.02997993 0.12802278 0.106071755
0.121510975 -0.034006346 0.03186656 -0.07405048 0.0009457219 0.015888909 -0.018930558 -0.061546996
-0.09871248 -0.29936412 0.028969243 0.31143907 0.033348083 0.1102597 -0.016279964 0.008830719
-0.09372542 -0.29929125 0.048284262 -0.29742783 -0.4055698 -0.21856827 -0.05877019 -0.022505429
0.09101282 0.108763725 -0.35191342 -0.14842397 0.10286694 -0.111111514 -0.06648963 0.129691
-0.16344997 -0.114967614 -0.21819735 0.118295826 -0.30202356 -0.1647159 0.13987873 -0.021432357
0.052998118 -0.01769216 -0.15323588 -0.14841843 -0.49366447 -0.24494517 -0.07232611 -0.10693554
0.09268322 0.03500974 0.11885812 -0.2676162 0.011528923 -0.056957997 -0.011388534 -0.17030442
-0.0003450311 -0.14255628 -0.051967684 0.03499046 -0.25390095 0.22441524 -0.18210286 -0.0908466
-0.016048992 0.07156456 0.13325039 -0.12778057 0.0629171 0.045519292 -0.0034160125 -0.45054516
-0.0077563543 -0.16764364 -0.04700446 -0.058011185 -0.054024674 0.5453165 -0.1097024 -0.11118426
-0.13282856 0.06894587 0.38208228 0.058448732 0.26566496 -0.098296784 0.2380949 -0.36766604
0.16650076 0.029479425 -0.0025743847 -0.12654427 -0.14784108 -0.14393245 0.42342028 -0.032598365
-0.020215696 -0.022307882 0.07125603 0.36114356 0.12377259 0.08318109 0.36883822 0.16550057
0.04631076 -0.09713405 0.13765852 -0.0053092325 -0.13891238 -0.018836372 0.0033107225 0.12494256
-0.78724396 -0.17803022 -0.1983204 0.014708786 -0.030092206 -0.11046093 0.0057394835 -0.06670889
0.042098045 0.032800585 0.031663187 0.17486097 -0.010991161 0.01546493 0.029401455 -0.020618573
0.31723163 -0.7158177 -0.062249172 0.08753717 -0.035900977 -0.20571445 -0.07861683 -0.050735362
-0.07949726 0.0055625094 -0.12886177 -0.039760496 -0.20014884 -0.14381252 0.081978224 0.007931075
0.01338772 0.051236246 0.79269576 0.14098349 -0.09272395 0.0429746 0.19261904 -0.031291977
-0.057700332 0.060372956 -0.025472356 0.17819765 -0.062145263 0.15636739 -0.018034648 -0.07792899
0.00590391 -0.06453554 -0.0022859809 0.79455847 0.034549523 0.009774251 -0.05003926 0.16748327
-0.10169481 0.045969624 -0.11884432 -0.19314808 0.5380692 0.19056766 0.17534536 -0.043074843
-0.045414887 0.056883857 -0.010393614 0.19345376 -0.743323 -0.02082738 -0.08027695 -0.053605143
-0.14123435 0.06757919 0.09044461 -0.12107531 -0.0074166786 -0.06080062 0.051899847 -0.03896507
-0.00055712915 0.05132288 -0.15834594 0.034813587 -0.07200388 -0.07758818 0.09098271 0.0016956737
-0.00514496 -0.4275763 -0.120846026 0.037873205 0.04384702 -0.17732455 -0.002319657 -0.13433246
0.0061330963 0.050342683 -0.21365781 0.045525502 -0.13675402 -0.052996997 -0.90352553 0.078470804
-0.13464572 -0.02676861 0.011013245 0.011063894 0.25193208 0.1415911 -0.19155344 -0.0033379071
-0.06892834 -0.17028554 -0.070558526 -0.0002814731 0.11980585 0.0066451174 -0.38222516 -0.45951518
-0.118029214 0.035577785 0.13144138 -0.31770152 -0.16359474 0.20289095 0.08434576 -0.13069315
0.0731423 -0.13340518 -0.04473927 -0.029103443 -0.13811117 -0.099240616 0.030316053 0.28279296
00000000: 7c1f 5ebe a218 233f 6617 27be 4675 28bd
00000010: 7805 f43b 7898 f5bc 6718 033e 263c d93d
00000020: bfda f83d 3d4a 0bbd 8386 023d c7a7 97bd
00000030: 53ea 773a 7529 823c 4214 9bbc b418 7cbd
00000040: c529 cabd 4146 99be e850 ed3c f174 9f3e
00000050: 0098 083d d6cf e13d 8f5d 85bc b8ae 103c
00000060: 1df3 bfbd b43c 99be b8c5 453d 7648 98be
00000070: d8a6 cfbe 5cd0 5fbe 03b9 70bd 4e5d b8bc
00000080: ee64 ba3d 84bf de3d ff2d b4be 74fc 17be
00000090: e7ab d23d 6f8e e3bd b72b 88bd b8cd 043e
000000a0: 6e5f 27be 2474 ebbd 206f 5fbe 1545 f23d
000000b0: d5a2 9abe 49ab 28be 5f3c 0f3e e992 afbc
000000c0: 8e14 593d 26ef 90bc dee9 1cbe 00fb 17be
000000d0: 97c1 fcbe e8d2 7abe b61f 94bd 0501 dbbd
000000e0: b3d0 bd3d 6066 0f3d e36b f33d fe04 89be
000000f0: cfe3 3c3c ca4c 69bd f996 3abc 4864 2ebe
00000100: 4ae5 b4b9 46fa 11be 11dc 54bd 2852 0f3d
00000110: 4eff 81be 1ccd 653e 2c79 3abe c80d babd
00000120: 2d79 83bc 7190 923d ca72 083e e9d8 02be
00000130: aeda 803d 7072 3a3d 2edf 5fbb dbad e6be
00000140: 0429 febb c6aa 2bbe c087 40bd 239d 6dbd
00000150: fa48 5dbd dd99 0b3f a7ab e0bd 93b4 e3bd
00000160: 3604 08be 7e33 8d3d 4aa0 c33e f067 6f3d
00000170: 3d05 883e d34f c9bd 26cf 733e b93e bcbe
00000180: 2d7f 2a3e d67e f13c 02b7 28bb d294 01be
00000190: a763 17be 0763 13be 8bca d83e dd85 05bd
000001a0: 639b a5bc 05bf b6bc aeee 913d cfe7 b83e
000001b0: 7c7c fd3d d95a aa3d 5dd8 bc3e fb78 293e
000001c0: 5ab0 3d3d 38ee c6bd 5bf6 0c3e 12f9 adbb
000001d0: 0c3f 0ebe bc4e 9abc b5f8 583b e3e1 ff3d
000001e0: d288 49bf 8e4d 36be 8114 4bbe 1ffd 703c
000001f0: ee83 f6bc 5739 e2bd 4712 bc3b ac9e 88bd
00000200: 006f 2c3d e859 063d 42b1 013d c10e 333e
00000210: 4514 34bc 9e60 7d3c 52db f03c 48e8 a8bc
00000220: 2f6c a23e d43f 37bf fdf8 7ebd b046 b33d
00000230: e70c 13bd cfa6 52be dc01 a1bd e2cf 4fbd
00000240: 76cf a2bd b645 b63b 57f4 03be e7db 22bd
00000250: d1f3 4cbe 9743 13be 33e4 a73d 57f1 013c
00000260: 2b58 5b3c 19dd 513d 1cee 4a3f fa5d 103e
00000270: 0ee6 bdbd 2206 303d ed3d 453e 042c 00bd
00000280: 2f57 6cbd a249 773d 67ab d0bc 7279 363e
00000290: 088c 7ebd c61e 203e 66bd 93bc 3c99 9fbd
000002a0: 9675 c13b 362b 84bd 65d0 15bb 2f68 4b3f
000002b0: cd83 0d3d 2e24 203c f8f5 4cbd bc80 2b3e
000002c0: 5e45 d0bd a54a 3c3d a764 f3bd 9cc8 45be
000002d0: e7be 093f 2b24 433e bc8d 333e 3f6f 30bd
000002e0: f604 3abd 0cff 683d fa49 2abc be18 463e
000002f0: 6b4a 3ebf 2e9e aabc 3e68 a4bd 1191 5bbd
00000300: bd9f 10be f566 8a3d 063b b93d 55f6 f7bd
00000310: 9c07 f3bb 120a 79bd ef94 543d d699 1fbd
00000320: 4e0c 12ba f137 523d 7025 22be b198 0e3d
00000330: c576 93bd 8de6 9ebd 2555 ba3d 5e41 de3a
00000340: 0d97 a8bb 48eb dabe 1f7e f7bd ef20 1b3d
00000350: ef98 333d 9194 35be 6305 18bb 738e 09be
00000360: 24f8 c83b 2134 4e3d 1dc9 5abe f378 3a3d
00000370: 3f09 0cbe 6113 59bd 734d 67bf 4db5 a03d
00000380: 91e0 09be d849 dbbc e670 343c 5645 353c
00000390: 3efd 803e 42fd 103e 9626 44be cac0 5abb
000003a0: 4d2a 8dbd 555f 2ebe fd80 90bd ae92 93b9
000003b0: c55c f53d 49bf d93b 04b3 c3be 9345 ebbe
000003c0: 4db9 f1bd 03ba 113d 9298 063e c6a9 a2be
000003d0: 6185 27be a5c2 4f3e 78bd ac3d 6dd4 05be
000003e0: a1cb 953d 5e9b 08be 8640 37bd 586a eebc
000003f0: 046d 0dbe aa3e cbbd 5f59 f83c 3dca 903e

affine_layers.0.bias f4 [64]
-0.1551898 0.18105921 0.058702793 0.43409374 0.19601575 0.354007 -0.57584405 0.16693029
0.07177446 0.049981482 -0.014685848 -0.37992114 0.42823485 -0.097941786 -0.2595915 0.037026707
-0.3676469 0.46353677 0.14651343 -0.37362832 0.064904824 -0.016027786 -0.44572493 0.006183833
0.39328575 -0.25078312 -0.07141585 0.0042252666 -0.23933181 -0.5095376 0.29840055 0.5395448
-0.090117484 0.6289633 -0.108155385 -0.13042189 -0.105844006 -0.38419765 -0.1699608 0.11391041
0.24073195 0.19357872 0.1283744 -0.5025514 -0.4549104 0.39185503 -0.034602042 -0.17327751
0.1748278 -0.20882323 0.41147 0.03583562 -0.26340094 -0.4080027 -0.012079857 0.24595547
-0.16478789 0.65684986 -0.3472302 0.5765745 0.43098944 -0.1501889 -0.17431377 -0.09945382
00000000: 13ea 1ebe 9667 393e 5772 703d 8941 de3e
00000010: 5ab8 483e 6840 b53e 846a 13bf c6ef 2a3e
00000020: 7dfe 923d 62b9 4c3d e99c 70bc 0685 c2be
00000030: 9941 db3e b495 c8bd 2de9 84be 51a9 173d
00000040: 373c bcbe b154 ed3e 9e07 163e 364c bfbe
00000050: d2ec 843d b44c 83bc 0f36 e4be c0a1 ca3b
00000060: c05c c93e a566 80be 7942 92bd 1b74 8a3b
00000070: 6613 75be 0e71 02bf f5c7 983e 9c1f 0a3f
00000080: 848f b8bd bd03 213f 9280 ddbd 518d 05be
00000090: bec4 d8bd 8eb5 c4be 340a 2ebe dc49 e93d
000000a0: 7082 763e 8039 463e 9474 033e 35a7 00bf
000000b0: 04ea e8be 39a1 c83e dfba 0dbd a96f 31be
000000c0: 0f06 333e c2d5 55be 32ac d23e 5fc8 123d
000000d0: 7ddc 86be bbe5 d0be 98ea 45bc c0db 7b3e
000000e0: 28be 28be 5027 283f 28c8 b1be 639a 133f
000000f0: a6aa dc3e 1ecb 19be 4f7f 32be 72ae cbbd

affine_layers.1.weight f4 [64, 64]
0.0010133199 0.17107163 -0.28226924 -0.32004195 0.02257618 0.09998935 -0.02678335 0.1923047
-0.011071188 -0.06755826 -0.16108721 -0.0034041104 0.0988952 -0.12468202 -0.306023 -0.009388906
-0.28249234 0.01617922 0.10002996 -0.1952198 -0.13532831 -0.38950473 -0.0084665995 -0.017462816
-0.025663666 0.037102636 0.09471478 0.16736175 -0.10748308 0.08286478 0.37910074 0.29990572
0.079440385 0.3618265 -0.39186612 0.061867893 -0.022387803 -0.12006225 0.09854235 -0.20391044
-0.080044985 0.12697752 -0.1688538 -0.17968868 0.03125093 -0.0010997981 0.035408523 -0.30455843
-0.065014996 -9.913605e-05 0.47320464 -0.040670227 6.969792e-05 -0.13500275 0.22402273 0.1402417
0.3009737 0.45405582 0.061213538 0.2968541 0.16238473 -0.22750188 0.025864156 0.06015076
0.3225296 0.25503984 0.14518332 -0.20793301 -0.013538589 -0.24755453 0.004166347 -0.20084493
-0.2256439 0.15983692 -0.2626649 -0.31872112 -0.15897046 0.18178594 -0.057945125 -0.23180349
-0.32096925 -0.03273904 0.09685489 0.13326831 0.04976629 0.016271556 -0.024094246 0.02753965
-0.05326796 -0.13944449 -0.14985712 0.04517665 -0.19133705 0.027028944 0.17250714 0.37318236
0.049190395 0.17467263 0.13383813 -0.11973059 0.065917075 0.04554773 -0.12740086 -0.17230853
-0.121542886 0.18853629 0.32881576 0.02375363 0.19574021 0.075141445 -0.15122712 -0.12515403
0.034471307 -0.05340142 -0.043393634 -0.35711622 -0.38095507 0.24005847 -0.38428313 0.19164453
0.02897262 0.16591938 -0.078242965 0.118888006 0.0735506 -0.06786161 -0.2242451 0.24127291
0.056802545 0.11605244 -0.24425574 -0.13156924 -0.032015804 -0.27725303 -0.2176454 -0.11976212
-0.08557716 0.05296692 0.21791397 -0.27166492 0.35043058 -0.040835142 0.030403487 -0.042765003
-0.33232272 0.037088666 -0.03915071 0.031948462 0.0060801026 -0.05563512 0.09278779 0.36095616
0.24651155 0.017653897 0.04426848 0.1427125 -0.145904 -0.11307675 -0.016130935 0.23006226
-0.044657208 -0.033585988 0.078902684 -0.2541497 -0.1772949 -0.19571537 -0.11537977 0.08436811
0.20701145 0.53859574 0.2192065 -0.12868325 0.053029474 0.1418623 0.06098122 -0.118052006
0.43936867 -0.15179837 -0.061511554 -0.04113338 0.22167781 -0.32267824 0.32175377 -0.30080914
-0.014406809 0.06461988 -0.23622061 0.08595146 -0.035641458 0.118969254 0.044310562 0.13156627
0.07850779 -0.02226312 -0.035322383 -0.30638102 0.037624203 0.05710441 0.3461529 0.11754245
0.067135036 -0.39594695 -0.10593287 0.39991912 -0.34521097 0.4265581 0.22068216 -0.12189889
0.13868769 -0.2945558 -0.21445613 0.06136501 -0.22582442 0.2427564 0.23922707 0.0039108936
-0.34284228 0.093352534 -0.036343113 -0.07216164 -0.084652245 0.09831585 0.17945369 -0.5599074
-0.34343264 -0.27470383 -0.20276356 0.07429302 0.3044593 -0.035098605 -0.08175859 0.024659729
0.38553023 0.15397348 0.07555663 0.23610933 0.3534845 -0.5208692 -0.11396618 0.22893074
0.04650413 0.13272959 -0.09863511 0.3596808 -0.18897226 0.4234401 0.062097143 0.0018052335
-0.20364746 -0.31593835 0.04524429 -0.33774415 -0.18346007 0.2041621 0.18460879 0.32672575
00000000: 60d1 843a 672d 2f3e 9885 90be 8adc a3be
00000010: aef1 b83c 37c7 cc3d c268 dbbc 86eb 443e
00000020: ee63 35bc fc5b 8abd 0cf4 24be 7f17 5fbb
00000030: 9189 ca3d 4959 ffbd 0caf 9cbe edd3 19bc
00000040: d6a2 90be 498a 843c 82dc cc3d b3e7 47be
00000050: 8193 0abe 2a6d c7be 7eb7 0abc 2e0e 8fbc
00000060: 9c3c d2bc eff8 173d d3f9 c13d e160 2b3e
00000070: 1720 dcbd 03b5 a93d 7e19 c23e 3e8d 993e
00000080: a4b1 a23d 5341 b93e ada2 c8be 3069 7d3d
00000090: a066 b7bc 32e3 f5bd 92d0 c93d e6cd 50be
000000a0: a0ee a3bd 6506 023e 03e8 2cbe 4f00 38be
000000b0: fa00 003d 1a27 90ba 8708 113d 15ef 9bbe
000000c0: 9526 85bd 43e7 cfb8 e147 f23e d395 26bd
000000d0: c92a 9238 293e 0abe 3766 653e 859b 0f3e
000000e0: 3a19 9a3e 017a e83e 0cbb 7a3d 43fd 973e
000000f0: 2f48 263e 41f6 68be 11e1 d33c a560 763d
00000100: 9a22 a53e 9594 823e f0aa 143e 64ec 54be
00000110: f5d0 5dbc ef7e 7dbe da85 883b 4baa 4dbe
00000120: 320f 67be 4aac 233e 047c 86be 6a2f a3be
00000130: 27c9 22be 1826 3a3e de57 6dbd e55d 6dbe
00000140: 1556 a4be 5f19 06bd db5b c63d 7d77 083e
00000150: bdd7 4b3d ed4b 853c 4c61 c5bc d59a e13c
00000160: 812f 5abd 89ca 0ebe 2574 19be 270b 393d
00000170: dced 43be ce6b dd3c b6a5 303e c211 bf3e
00000180: de7b 493d 62dd 323e dd0c 093e 5035 f5bd
00000190: 88ff 863d 4290 3a3d 5f75 02be a671 30be
000001a0: 7aeb f8bd a80f 413e 8a5a a83e f996 c23c
000001b0: 1f70 483e c2e3 993d 48db 1abe 6128 00be
000001c0: c931 0d3d 73bb 5abd 86bd 31bd f0d7 b6be
000001d0: 8b0c c3be e3d1 753e c2c0 c4be 773e 443e
000001e0: fd57 ed3c c5e6 293e d93d a0bd 8e7b f33d
000001f0: b2a1 963d 07fb 8abd 82a0 65be 3f10 773e
00000200: c9a9 683d e7ac ed3d 2d1e 7abe 16ba 06be
00000210: 0123 03bd 1cf4 8dbe 70de 5ebe d845 f5bd
00000220: 1443 afbd d7f3 583d d724 5f3e aa17 8bbe
00000230: a36b b33e c042 27bd bc10 f93c 5b2a 2fbd
00000240: 3426 aabe 49ea 173d 7f5c 20bd 64dc 023d
00000250: 993b c73b a7e1 63bd 8607 be3d 3fcf b83e
00000260: 866d 7c3e e89e 903c de52 353d 3a23 123e
00000270: dc67 15be c894 e7bd 0625 84bc 7195 6b3e
00000280: 7aea 36bd 7691 09bd bb97 a13d e91f 82be
00000290: cb8c 35be 9c69 48be 3b4c ecbd 30c9 ac3d
000002a0: cffa 533e 69e1 093f ab77 603e 8bc5 03be
000002b0: 6f35 593d 5a44 113e 72c7 793d 40c5 f1bd
000002c0: eef4 e03e 0871 1bbe 8af3 7bbd 7a7b 28bd
000002d0: 82ff 623e 1536 a5be e9bc a43e a803 9abe
000002e0: 890a 6cbc 6d57 843d d1e3 71be 5207 b03d
000002f0: c7fc 11bd 27a6 f33d fe7e 353d 4fb9 063e
00000300: b1c8 a03d 2661 b6bc 34ae 10bd f9dd 9cbe
00000310: d61b 1a3d 50e6 693d f43a b13e 19ba f03d
00000320: 187e 893d 8fb9 cabe 55f3 d8bd 33c2 cc3e
00000330: 7ebf b0be d365 da3e 81fa 613e 20a6 f9bd
00000340: 2504 0e3e 05d0 96be 639a 5bbe e059 7b3d
00000350: 843e 67be 2295 783e f1f7 743e f426 803b
00000360: 0689 afbe 9d2f bf3d 84dc 14bd 7bc9 93bd
00000370: 285e adbd d259 c93d b5c2 373e 1756 0fbf
00000380: 67d6 afbe fba5 8cbe 40a1 4fbe f026 983d
00000390: 17e2 9b3e 8ec3 0fbd 0c71 a7bd 3303 ca3c
000003a0: 3864 c53e 39ab 1d3e 6fbd 9a3d a5c6 713e
000003b0: ecfb b43e af57 05bf 1a67 e9bd d26c 6a3e
000003c0: 1d7b 3e3d 44ea 073e 3401 cabd 1528 b83e
000003d0: f281 41be 24cd d83e 9359 7e3d 969d ec3a
000003e0: f688 50be acc2 a1be 1452 393d cdec acbe
000003f0: f5dc 3bbe df0f 513e 160a 3d3e 9948 a73e

affine_layers.1.bias f4 [64]
0.33482668 -0.18340918 0.19736785 -0.06304084 0.1836895 0.1212858 0.15696263 -0.27239746
0.08849267 0.16997197 -0.19494851 -0.20293452 -0.024078488 0.21571511 -0.14422557 -0.06569643
-0.15992492 -0.13671052 -0.11820629 0.28875136 0.19573776 0.0010816292 -0.22297812 -0.178401
0.33393082 0.1266043 0.0374457 0.24587095 -0.17555533 0.1320464 -0.15711582 -0.18776482
0.21870558 -0.1689883 -0.1542238 -0.09802586 -0.114981614 0.28984123 0.034414716 0.15419152
-0.27807114 -0.19482905 -0.03939056 0.028138278 -0.0007128081 -0.21001859 -0.21571068 0.17155056
0.17877513 0.08248064 -0.22156002 -0.12912418 -0.18858509 -0.25004682 -0.18301047 -0.27515578
0.15645483 0.15523514 -0.025401335 0.05289968 0.14163156 0.1981798 0.17730573 0.10077623
00000000: 676e ab3e 9ecf 3bbe cc1a 4a3e 8e1b 81bd
00000010: 1a19 3c3e b164 f83d d0ba 203e ae77 8bbe
00000020: a53b b53d 220d 2e3e 95a0 47be 11ce 4fbe
00000030: 4040 c5bc 6ce4 5c3e deaf 13be da8b 86bd
00000040: 5cc3 23be d8fd 0bbe 2416 f2bd 38d7 933e
00000050: 7b6f 483e 74c5 8d3a 6054 64be c0ae 36be
00000060: fbf8 aa3e 8fa4 013e aa60 193d 98c5 7b3e
00000070: c7c4 33be 2c37 073e f8e2 20be 6c45 40be
00000080: 5bf4 5f3e 450b 2dbe d8ec 1dbe c8c1 c8bd
00000090: 7b7b ebbd 1266 943e 72f6 0c3d 62e4 1d3e
000000a0: 575f 8ebe 4481 47be ff57 21bd 3f82 e63c
000000b0: bedb 3aba 1d0f 57be 43e3 5cbe f3aa 2f3e
000000c0: d410 373e 9ceb a83d a1e0 62be 2139 04be
000000d0: 731c 41be 2306 80be 1967 3bbe 38e1 8cbe
000000e0: b235 203e f6f5 1e3e 7616 d0bc 56ad 583d
000000f0: dd07 113e a5ef 4a3e a28f 353e c563 ce3d

final.weight f4 [1, 64]
0.10285659 -0.09135043 0.18106462 0.2095897 0.04442747 0.017712973 0.089289926 -0.22521096
0.32000434 0.037027724 -0.07040888 -0.15290561 -0.043935236 0.04249067 -0.033573817 -0.10024322
-0.043635067 -0.072884396 -0.17672063 0.008425802 0.06745925 0.17261209 -0.059052534 -0.11669972
0.36378253 0.01869344 0.0022470453 0.031876627 -0.0031871481 0.38188338 -0.11427798 -0.003133931
0.10100638 -0.020156384 -0.025140172 -0.039544296 -0.04228622 0.045816034 0.0020262264 0.04219468
-0.02571178 -0.0076325764 -0.03004363 0.14686133 -0.10109115 -0.034323975 -0.14666829 0.00056747784
0.012088479 0.0654305 -0.07551333 -0.11778269 -0.20177323 -0.22026525 -0.04193703 -0.14269549
0.105296135 0.06397208 -0.17995436 0.06777506 0.13476051 0.0044737924 0.04480751 0.08303234
00000000: 7aa6 d23d ef15 bbbd 0169 393e af9e 563e
00000010: 94f9 353d cc1a 913c a3dd b63d b49d 66be
00000020: 9cd7 a33e 62aa 173d 8832 90bd 4a93 1cbe
00000030: 6ff5 33bd b20a 2e3d b384 09bd 514c cdbd
00000040: afba 32bd 6a44 95bd 41f6 34be 600c 0a3c
00000050: 1328 8a3d 39c1 303e 12e1 71bd 4300 efbd
00000060: b441 ba3e fc22 993c 2a43 133b 1191 023d
00000070: 79df 50bb 3886 c33e 930a eabd a362 4dbb
00000080: 6fdc ce3d 001f a5bc c3f2 cdbc 33f9 21bd
00000090: 5134 2dbd 98a9 3b3d 70ca 043b 54d4 2c3d
000000a0: 83a1 d2bc b11a fabb 0f1e f6bc d162 163e
000000b0: e008 cfbd 4c97 0cbd 3630 16be cbc2 143a
000000c0: c10e 463c 6d00 863d bca6 9abd 0d38 f1bd
000000d0: a49d 4ebe 378d 61be 2ac6 2bbd c41e 12be
000000e0: 80a5 d73d cb03 833d f545 38be a7cd 8a3d
000000f0: a9fe 093e e498 923b 1488 373d dc0c aa3d

log_stdev f4 [6]
-0.91212565 -0.8874493 -0.7754365 -1.0918577 -0.814224 -0.94164836
00000000: 1181 69bf e12f 63bf 0283 46bf fec1 8bbf
00000010: fc70 50bf de0f 71bf

affine_layers.0.weight f4 [64, 17]
-0.00012568253 -0.0005613229 -0.0001073719 0.0012485068 -0.00021308722 -1.215896 -0.00088046456 -0.00022791367
-0.00034746472 -0.16378303 -0.00047727142 -0.43660796 0.091102265 8.492593e-05 7.483691e-05 -6.930102e-05
0.0014160796 -0.00059613655 0.0002107784 -0.0061562224 0.00064991415 -0.0008588859 -1.56235 0.00025386218
-0.00034709234 -0.0058118384 -0.07675659 -0.00081585057 -0.09225893 0.27808073 -0.010944506 -0.0010249626
0.00024196782 -0.017534439 -6.866567e-05 -6.33788e-05 0.24918254 -1.6366585 -9.9800054e-05 0.003226551
0.005184012 -0.012356181 -0.0031338297 0.039994944 0.017140297 -0.00031479655 -0.026523387 0.025389114
-0.02604661 0.0013062119 0.0073211635 0.0013796862 -0.0011854358 -0.0014983597 0.19454601 0.00035017228
0.0832396 0.012197329 -0.03263017 0.5425755 0.017990813 -0.085506335 0.8868669 -0.63688606
0.4668969 0.5706365 0.0137343565 0.00044980657 -0.0031597049 0.00022784277 0.41333497 -0.77517515
-0.0008478613 -0.001259272 0.01044306 0.017276892 -0.030254047 -0.006717981 1.1385355 -0.013825716
0.01020212 -0.010152199 -1.1993402 0.0012263878 2.678571e-05 -0.0011432584 -6.572179e-05 1.0926491
-0.46275836 0.00051668595 -0.00010343514 -0.0003144363 0.00039511788 -0.0039830436 6.539926e-05 0.01045873
-0.0003432549 -7.714131e-05 -0.00070994144 -0.7721964 -0.0006437162 0.0004373728 -0.000365312 0.00040232297
0.79496187 -0.358057 0.1298187 0.30132794 0.0041461783 7.26603e-05 0.0005454815 0.032816824
0.0043782974 0.9614395 -0.35493675 8.813241e-05 -0.0006079108 -0.008046731 0.051565226 2.1342814
-2.592693 0.018112361 0.22628158 -0.00527346 -0.0055202376 -0.012072711 -0.03633583 0.29629955
-0.4039071 0.52507955 -0.019152466 0.04191447 -0.0004281939 -0.0012191202 -0.00310189 -0.009092084
-3.2253072 0.33284095 -0.02712852 -0.19340482 -0.015753806 0.060278747 0.08242537 0.1695619
-0.30098546 -0.05354348 0.0005957739 0.034101903 -0.019781293 6.968332e-05 0.00077067915 0.0035827032
0.0130089205 0.001344101 -0.0001896663 -0.00025041925 0.023099925 0.0058524287 0.031358723 0.003646745
0.014194941 0.013778651 0.022535013 -0.0111943185 0.02126058 -0.031341676 0.023021711 1.8832294
-0.007954907 0.00462781 -0.75052345 0.00073585706 -0.006151913 0.17055759 -0.00040629331 -0.00074653677
0.00058022136 9.444272e-05 -0.0008813682 -2.4182656e-05 -1.5183287 -0.00039913328 0.00039727354 0.018016255
0.041908007 0.00017492675 -0.0002656125 0.0011011711 -0.0007625992 -0.24435247 0.02321294 -0.5685089
-0.700839 -0.0029077993 -0.010161618 -0.0001399027 -0.02315252 -0.0007265261 -1.4067277 -7.595442e-05
-0.00046831928 0.008090623 0.08849579 -0.01257282 7.768615e-05 3.7106485e-05 0.00018844298 -0.0010254183
0.0003280492 1.0204003 0.001953605 0.00024172719 6.479146e-05 0.07626176 0.0006617525 0.5266161
-0.026338315 0.00055297744 1.9372292e-05 0.00033334803 -0.00029389598 -0.00073632656 -0.00014265694 6.61535e-05
0.00021111811 9.349502e-05 -0.0004377664 -0.0003606794 -0.00022441558 -0.00063999137 -0.0017146547 0.00041748243
-0.00076957594 -0.00017744044 0.005380308 -0.0008531266 0.0011700507 0.000100854166 -0.001275041 7.4465206e-06
-5.306971e-05 0.00077838666 -0.00017858122 -0.0014878314 -0.0016468606 -0.000115653056 -0.0006582937 -0.0037447847
0.0003130232 -0.0014088333 0.0008919025 0.00034540676 -0.0009785416 0.0007368162 -0.00054300885 -0.0026604629
00000000: a6c9 03b9 be25 13ba da2c e1b8 f0a4 a33a
00000010: 2a70 5fb9 7ba2 9bbf face 66ba 1cfc 6eb9
00000020: ed2b b6b9 bdb6 27be 493a fab9 148b dfbe
00000030: d393 ba3d 431a b238 c3f1 9c38 b455 91b8
00000040: bf9b b93a 0c46 1cba 6504 5d39 23ba c9bb
00000050: 005f 2a3a db26 61ba 16fb c7bf ce18 8539
00000060: f2f9 b5b9 3c71 bebb 8f32 9dbd cede 55ba
00000070: 40f2 bcbd 9960 8e3e 9650 33bc 0a58 86ba
00000080: beb8 7d39 62a4 8fbc 9a00 90b8 3cea 84b8
00000090: b529 7f3e 077e d1bf bf4b d1b8 8b74 533b
000000a0: a5de a93b 9471 4abc f060 4dbb bdd1 233d
000000b0: cf69 8c3c 470b a5b9 9347 d9bc d5fc cf3c
000000c0: b35f d5bc 3335 ab3a 5fe6 ef3b 96d6 b43a
000000d0: a060 9bba 9c64 c4ba 1237 473e 5497 b739
000000e0: 8679 aa3d 4ed7 473c 37a7 05bd 3ae6 0a3f
000000f0: 7861 933c f21d afbd b609 633f f70a 23bf
00000100: 1c0d ef3e 3c15 123f 1106 613c 04d4 eb39
00000110: 0d13 4fbb 14e9 6e39 a4a0 d33e e171 46bf
00000120: 0243 5eba 280e a5ba 5e19 2b3c 4588 8d3c
00000130: 56d7 f7bc 8222 dcbb 88bb 913f 4285 62bc
00000140: cb26 273c 6955 26bc fb83 99bf bfbe a03a
00000150: e0b1 e037 63d9 95ba 1ed4 89b8 eddb 8b3f
00000160: aaee ecbe 3572 073a 51eb d8b8 edda a4b9
00000170: d327 cf39 3184 82bb f626 8938 185b 2b3c
00000180: e5f6 b3b9 edc6 a1b8 5d1b 3aba aaae 45bf
00000190: 10bf 28ba 2f4f e539 5987 bfb9 e0ee d239
000001a0: 9f82 4b3f 3f53 b7be 31ef 043e a847 9a3e
000001b0: aadc 873b 3461 9838 a5fe 0e3a ef6a 063d
000001c0: d277 8f3b e620 763f 45ba b5be bad3 b838
000001d0: 345c 1fba 70d6 03bc 0f36 533d 1198 0840
000001e0: afee 25c0 6060 943c 5cb6 673e fdcc acbb
000001f0: 1ce3 b4bb 9fcc 45bc e1d4 14bd 93b4 973e
00000200: e9cc cebe 9d6b 063f a2e5 9cbc 82ae 2b3d
00000210: 367f e0b9 e3ca 9fba 1449 4bbb f7f6 14bc
00000220: 6f6b 4ec0 216a aa3e a13c debc ea0b 46be
00000230: 200e 81bc d9e6 763d a2ce a83d a2a1 2d3e
00000240: c41a 9abe 6850 5bbd b62d 1c3a 70ae 0b3d
00000250: 610c a2bc f322 9238 6707 4a3a c9cb 6a3b
00000260: 5e23 553c 8c2c b03a 29e1 46b9 b44a 83b9
00000270: 0e3c bd3c bbc5 bf3b 0172 003d 3bfe 6e3b
00000280: e691 683c dabf 613c 599b b83c 6068 37bc
00000290: ab2a ae3c 2160 00bd 0798 bc3c a90d f13f
000002a0: 4c55 02bc e2a4 973b 4e22 40bf 88e6 403a
000002b0: fd95 c9bb a6a6 2e3e c403 d5b9 3cb3 43ba
000002c0: ff19 183a 8d0f c638 9e0b 67ba dcdb cab7
000002d0: 9858 c2bf c342 d1b9 2749 d039 d396 933c
000002e0: bba7 2b3d 8b6c 3739 e841 8bb9 2c55 903a
000002f0: 2ae9 47ba 8937 7abe 1029 be3c cd89 11bf
00000300: 2f6a 33bf c790 3ebb ea7c 26bc d8b2 12b9
00000310: 5baa bdbc 5774 3eba a70f b4bf b849 9fb8
00000320: c088 f5b9 888e 043c 483d b53d 3bfe 4dbc
00000330: 6feb a238 c9a2 1b38 c798 4539 5467 86ba
00000340: 05fe ab39 7a9c 823f 0e08 003b 2678 7d39
00000350: a6e0 8738 202f 9c3d 7579 2d3a 50d0 063f
00000360: 73c3 d7bc b0f5 103a ae81 a237 37c5 ae39
00000370: 0d16 9ab9 0a06 41ba 2e96 15b9 e4bb 8a38
00000380: 965f 5d39 c212 c438 0384 e5b9 9219 bdb9
00000390: 1951 6bb9 18c5 27ba 44be e0ba 8be1 da39
000003a0: 5ebd 49ba 4e0f 3ab9 4b4d b03b 5ba4 5fba
000003b0: 635c 993a ab81 d338 471f a7ba 20dd f936
000003c0: 2b97 5eb8 a50c 4c3a 8841 3bb9 5603 c3ba
000003d0: 79db d7ba c38a f2b8 5891 2cba 106b 75bb
000003e0: 431d a439 9aa8 b8ba 90ce 693a b617 b539
000003f0: 6842 80ba e626 413a b558 0eba 295b 2ebb

affine_layers.0.bias f4 [64]
-1.027915 0.3082729 -0.48429847 -1.218642 -0.22452916 0.44105428 -0.2667857 3.5417857
-3.277092 0.7765929 -0.31915316 -0.49360028 0.77358246 -1.9666649 -2.0241032 1.3999301
-1.0663408 2.7342062 -0.22858498 -0.701773 0.67732805 0.401322 1.1495351 -1.1187435
-0.49684426 -3.2838337 1.0638878 0.33422765 0.36761686 -2.2964838 -0.06350485 2.9659185
0.35273966 0.039501946 0.5138563 0.5944457 3.136248 0.074159555 1.1054994 0.6015523
0.3971798 -2.2442873 2.9606292 -1.1617388 -0.40097415 -0.5862384 0.27315274 0.14415564
-0.9665554 -0.22451949 2.0292473 0.37389535 -0.5391098 -0.4717445 -1.0912124 0.5976282
-1.1150451 -0.7731863 0.3269493 -0.020030074 -4.3121934 0.69553375 -0.047185272 1.4363363
00000000: b892 83bf f2d5 9d3e f8f5 f7be 76fc 9bbf
00000010: f9ea 65be ded1 e13e 2398 88be 9eac 6240
00000020: e0bb 51c0 cbce 463f 0b68 a3be 2db9 fcbe
00000030: 8009 463f adbb fbbf e88a 01c0 e930 b33f
00000040: db7d 88bf 3cfd 2e40 2e12 6abe 65a7 33bf
00000050: 5f65 2d3f 147a cd3e f723 933f fd32 8fbf
00000060: 5f62 febe 552a 52c0 7a2d 883f e31f ab3e
00000070: 4738 bc3e 97f9 12c0 d50e 82bd 9cd1 3d40
00000080: 4b9a b43e cbcc 213d 168c 033f 982d 183f
00000090: 4ab8 4840 f7e0 973d 0181 8d3f 55ff 193f
000000a0: 275b cb3e 67a2 0fc0 f37a 3d40 dbb3 94bf
000000b0: 7c4c cdbe b813 16bf adda 8b3e 899d 133e
000000c0: 2d70 77bf 70e8 65be 30df 0140 366f bf3e
000000d0: 1a03 0abf 7f88 f1be d9ac 8bbf 29fe 183f
000000e0: ccb9 8ebf 8aef 45bf e665 a73e 1c16 a4bc
000000f0: 7dfd 89c0 800e 323f 5845 41bd ded9 b73f

affine_layers.1.weight f4 [64, 64]
0.05124203 -0.012779469 -0.0154114105 0.015048844 0.0034203767 -0.0036389024 -0.020465065 0.48624715
-1.4483942 -0.052312046 -0.07744038 0.03651304 -0.05131234 -0.35745317 -0.4491762 -0.041791666
0.1066484 2.45226 -0.018795604 0.15900138 0.5197901 0.0011630137 -0.019962069 0.048842654
0.009204686 -0.120515645 -0.0034280827 -0.02399851 0.011127665 -0.33258358 -0.01852592 0.5747459
-0.029954681 -0.003582478 0.00086992246 -0.050300676 0.034033176 -0.029433854 -0.064269625 -0.043895934
-0.039281778 -0.43526006 0.30534613 0.011863091 0.0059769657 -0.29799625 0.019993687 -0.14592527
0.06244865 0.004400419 0.10314405 0.0041858344 -0.014361793 -0.015509828 0.015314144 -0.014339758
0.045498926 0.054966282 -0.06910374 -0.031737227 -0.91918445 -0.07964958 0.0017758264 0.3529613
0.00035760074 0.0022852104 -0.3926047 0.18022117 -0.0005797946 -0.06867231 -0.023230258 0.39152235
-0.07666544 0.028083876 -0.0086422935 0.0027605002 -0.00037155047 0.15517351 0.06016986 0.013797212
0.00040119083 0.058992278 0.18786412 0.0007570348 0.017798066 0.004196692 0.006303335 -0.007740144
-0.007264585 -0.5346737 -0.57502633 -0.005595492 -0.0054341024 0.13452807 -0.06542941 0.7218513
-0.013859532 0.018685743 -0.083308764 -0.0144760795 0.47529498 0.19527714 -0.0015106685 -0.011074307
0.0019864102 0.019596316 0.28374967 -0.005133372 0.5561733 -0.01497421 -0.007470689 -0.0016346045
0.0004925716 0.0029980973 0.06825885 0.5111077 -0.010310836 0.003948915 -0.15728042 -0.813037
-0.005105842 0.0024108957 -0.0029305452 0.020565193 -0.3517729 0.0007514379 -0.11657173 0.53180236
0.28461987 0.22877938 0.029990915 -0.16290091 0.025636742 0.041038655 -0.0010392426 -0.8217538
0.014217933 -0.06912655 0.00038990125 0.032287475 -0.24440153 -0.32651398 -0.05782234 0.1808847
0.024255425 -0.00013833829 -0.11642211 -0.00038176903 -0.020251771 0.108520575 0.21285284 0.007134079
0.0067449496 0.43657273 0.09230094 0.122133195 0.24513057 -0.14790355 0.007857223 -0.27344024
0.20579828 -0.180765 0.027336014 0.009474985 -0.30570728 -0.46256077 0.08503691 0.17722026
-0.026107648 -0.08076264 -0.38202435 -0.6087589 -0.017575026 0.017132001 0.2130616 0.009153928
-0.09929719 0.02041078 -0.011416263 -0.028352972 -9.849014e-05 -0.0037731754 0.041360524 0.026368193
-0.18618864 -0.11580748 0.00071435265 -0.24662048 0.21306664 -0.0046741287 0.035291452 -0.41203162
-0.0025018046 -0.0011385729 0.23869614 -0.0019438628 0.05072527 0.13987671 0.18176436 -1.0274706
0.06771982 -0.010808679 -0.014439464 0.001079611 0.00088102 -0.23186992 -0.11679679 0.017869921
-0.03811661 -0.28340632 -0.0028133106 0.02992482 0.010256369 -0.0001524688 0.20145456 -0.004599608
-0.014709728 0.42113072 0.0010166209 -0.00058702496 0.04708503 -0.08933497 0.4268491 -0.371346
-0.014358074 0.016585773 0.059084058 0.41563278 -0.23462307 -0.002631698 0.18609951 -0.013163679
0.005861833 -0.1756555 -0.38470376 -0.0364342 -0.48466185 0.00016708192 -0.00018871279 -0.0005781478
-0.21875258 0.03534977 -0.055669058 -0.7510621 0.24828069 -0.001396432 0.07324756 0.44034675
-0.42959565 -0.0162239 -0.026032375 0.033679876 0.6142533 -0.0017089429 0.078567386 0.0007349522
00000000: 2ae3 513d fa60 51bc 2480 7cbc 6d8f 763c
00000010: 6628 603b a77a 6ebb 5aa6 a7bc 63f5 f83e
00000020: fb64 b9bf 2845 56bd 1099 9ebd b38e 153d
00000030: e32c 52bd 1a04 b7be 6cfa e5be bd2d 2bbd
00000040: 7a6a da3d d4f1 1c40 3df9 99bc 42d1 223e
00000050: f710 053f 4470 983a 7e87 a3bc 3c0f 483d
00000060: 40cf 163c e8d0 f6bd afa9 60bb 8698 c4bc
00000070: cf50 363c 6548 aabe acc3 97bc 8c22 133f
00000080: 8563 f5bc 02c8 6abb 820b 643a 1508 4ebd
00000090: 5f66 0b3d 441f f1bc cb9f 83bd 39cc 33bd
000000a0: eee5 20bd 68da debe 5456 9c3e 695d 423c
000000b0: 6cda c33b f792 98be cdc9 a33c 6f6d 15be
000000c0: 28ca 7f3d 6431 903b 303d d33d 5329 893b
000000d0: ba4d 6bbc ef1c 7ebc 2de8 7a3c 4ef1 6abc
000000e0: 155d 3a3d 5324 613d 4386 8dbd e5fe 01bd
000000f0: ac4f 6bbf 521f a3bd d9c2 e83a 58b7 b43e
00000100: 5c7c bb39 78c3 153b 7c03 c9be e68b 383e
00000110: 5bfd 17ba 11a4 8cbd 624d bebc 9e75 c83e
00000120: c502 9dbd 2810 e63c 6898 0dbc 82e9 343b
00000130: a9cc c2b9 cee5 1e3e ac74 763d b40d 623c
00000140: ec56 d239 e3a1 713d 745f 403e bf73 463a
00000150: 40cd 913c 6784 893b 358c ce3b 09a1 fdbb
00000160: c10b eebb 60e0 08bf ed34 13bf 645a b7bb
00000170: 8e10 b2bb bac1 093e dbff 85bd 3fcb 383f
00000180: 1713 63bc d812 993c c99d aabd 142d 6dbc
00000190: dd59 f33e bbf6 473e a001 c6ba 0371 35bc
000001a0: 6f2e 023b 7488 a03c a347 913e d835 a8bb
000001b0: 6061 0e3f 6456 75bc aecc f4bb 3a40 d6ba
000001c0: ec1f 013a ba7b 443b 4ccb 8b3d f4d7 023f
000001d0: c8ee 28bc e665 813b 1e0e 21be 3123 50bf
000001e0: e84e a7bb 1e00 1e3b 640e 40bb 5678 a83c
000001f0: 941b b4be 25fc 443a 29bd eebd 3324 083f
00000200: b2b9 913e 2445 6a3e 82af f53c 7fcf 26be
00000210: 2504 d23c 2618 283d 3237 88ba 755e 52bf
00000220: 55f2 683c 3892 8dbd a96b cc39 df3f 043d
00000230: 6544 7abe d72c a7be 1ed7 6cbd d739 393e
00000240: 50b3 c63c e70e 11b9 b76e eebd 2c28 c8b9
00000250: 0be7 a5bc 0940 de3d 18f6 593e fec4 e93b
00000260: bd04 dd3b 7686 df3e 4608 bd3d f820 fa3d
00000270: 8203 7b3e 0774 17be 95bb 003c 5c00 8cbe
00000280: c9bc 523e 761a 39be c7ef df3c f83c 1b3c
00000290: aa85 9cbe c4d4 ecbe d527 ae3d 3a79 353e
000002a0: b5df d5bc e266 a5bd b298 c3be a0d7 1bbf
000002b0: 80f9 8fbc 6958 8c3c d22c 5a3e 5bfa 153c
000002c0: 535c cbbd 8234 a73c 470b 3bbc 7e44 e8bc
000002d0: 7e8c ceb8 6147 77bb a769 293d 1c02 d83c
000002e0: 3ca8 3ebe 792c edbd 6543 3b3a 148a 7cbe
000002f0: 242e 5a3e 6f29 99bb c58d 103d cff5 d2be
00000300: 51f5 23bb 2b3c 95ba c36c 743e 36c9 feba
00000310: 4dc5 4f3d d73b 0f3e 7020 3a3e 2884 83bf
00000320: b0b0 8a3d e316 31bc 8093 6cbc bc81 8d3a
00000330: 40f4 663a 4f6f 6dbe 2833 efbd f163 923c
00000340: 2a20 1cbd a21a 91be 855f 38bb e524 f53c
00000350: 540a 283c 08e0 1fb9 1b4a 4e3e 4fb8 96bb
00000360: 1201 71bc 729e d73e 2340 853a 94e2 19ba
00000370: 3bdc 403d 41f5 b6bd f78b da3e 1021 bebe
00000380: 213e 6bbc e3de 873c 2002 723d d2cd d43e
00000390: 0841 70be 9178 2cbb df90 3e3e 79ac 57bc
000003a0: 9f14 c03b 09df 33be e4f7 c4be 073c 15bd
000003b0: 9925 f8be b632 2f39 34e1 45b9 d88e 17ba
000003c0: ad00 60be ecca 103d 3d05 64bd 9b45 40bf
000003d0: 4b3d 7e3e 7c08 b7ba d102 963d 2175 e13e
000003e0: f6f3 dbbe fce7 84bc d941 d5bc e9f3 093d
000003f0: b43f 1d3f 9cfe dfba f0e7 a03d cfa9 403a

affine_layers.1.bias f4 [64]
0.7159505 -0.030445976 0.05171165 -0.20397595 -0.49381816 0.51424843 -0.19735014 0.45139942
-0.6933333 -0.11359642 -0.12622498 0.66892236 0.33379194 0.4401746 -0.8253748 0.009548432
-0.61345613 -0.19352102 -0.24513824 0.41367728 0.022182029 0.011297705 -0.50508606 -0.10464935
0.5851089 0.36880174 0.03236612 0.10177672 0.5360914 0.31487596 0.16630425 0.60526913
0.13306148 -0.4654422 -0.30083942 0.18703102 -0.569168 0.21457146 0.43049678 -0.19402176
-0.047919344 -0.23784707 -0.22900616 -0.7144185 0.99657303 0.37939873 0.49989715 0.37440395
0.02923191 0.47850582 0.21549149 0.093040735 0.089434534 -0.13839737 -0.36123803 -0.07206464
-0.17664838 0.09365051 -0.28115493 -0.26540852 -0.018996667 -0.5413045 0.02932237 -0.30866
00000000: 8848 373f d769 f9bc 98cf 533d 12df 50be
00000010: bcd5 fcbe c9a5 033f 2816 4abe d31d e73e
00000020: 4b7e 31bf 3da5 e8bd 1f41 01be 7f3e 2b3f
00000030: c7e6 aa3e 915e e13e c34b 53bf 0771 1c3c
00000040: 760b 1dbf 602a 46be 8505 7bbe 82cd d33e
00000050: 16b7 b53c 021a 393c 524d 01bf 6652 d6bd
00000060: b2c9 153f 95d3 bc3e 5692 043d 5070 d03d
00000070: 493d 093f 6c37 a13e a94b 2a3e ebf2 1a3f
00000080: 4541 083e 714e eebe a007 9abe 0f85 3f3e
00000090: feb4 11bf 9fb8 5b3e 136a dc3e a4ad 46be
000000a0: 1347 44bd 2f8e 73be 9780 6abe 21e4 36bf
000000b0: 691f 7f3f 8d40 c23e 85f2 ff3e e0b1 bf3e
000000c0: c277 ef3c b7fe f43e cda9 5c3e 248c be3d
000000d0: 7429 b73d 0ab8 0dbe 31f4 b8be a096 93bd
000000e0: 50e3 34be d7cb bf3d 8af3 8fbe a0e3 87be
000000f0: e69e 9bbc ef92 0abf 7835 f03c af08 9ebe

final_mean.weight f4 [6, 64]
0.06461445 0.0001232472 -0.02482392 -6.105774e-05 -0.00044970107 -0.054976184 -0.025695916 -7.134712e-05
-0.002217713 0.006811178 -0.038752057 -0.00022491797 -0.01625235 0.009255563 -0.18356773 0.0018892548
0.0038824363 0.050817583 -0.045900866 0.08525511 -0.004986997 -0.0005163461 -0.009270343 -0.0032546555
0.061411142 -0.0046539186 -0.0023898992 -0.029746382 0.0002122036 -0.0009331439 0.00080280204 0.0536464
-0.06851188 0.043963883 -0.011433273 -0.017022355 0.00224834 -0.00023049694 0.027619656 -0.0282471
0.0015190501 0.0082277935 -0.009375996 -0.15649374 -0.001653979 0.0040044226 -0.029969592 -0.026177071
-0.02851483 0.07031936 0.00037184596 0.0008435223 0.0009406761 -0.00030613685 0.10995705 -0.028175749
0.0038022855 0.0012044952 -0.019051341 -0.028364884 -0.00149243 0.05098011 0.00027299477 -0.02819429
-0.015596703 0.0007604571 0.00030869298 0.012975278 0.023733621 -0.0013210528 0.040186465 -0.00498077
0.03453391 0.0018761745 -0.022580642 0.00065801525 -0.0007775478 -0.06315517 -0.00010328649 -0.026569096
-0.38512412 -0.004029763 0.0020421597 -0.014095813 0.0073055266 0.014017873 0.011947904 0.055958528
-0.0029671236 0.044734325 -9.521938e-05 0.015390963 -0.014681791 -0.007560286 0.003445509 -0.003953865
-0.0012294796 0.0014639455 -0.0042513628 0.0042531835 -3.5061625e-05 0.004526634 -0.01827056 0.005211132
0.00059230486 -0.0055434434 -0.00065345375 0.021763382 -0.007171146 -0.21227564 -0.0010900887 -0.005124834
9.290579e-05 -0.026905565 -0.00083935127 -0.19514222 0.0005286763 0.00014129502 -0.012534279 0.0062293755
-0.050262798 4.536588e-05 -0.00030175608 -0.009576123 0.0067009297 -0.01625664 0.05270043 0.006746388
0.048237313 0.063419886 -0.040501725 -0.0056135594 0.0026875217 -0.0053860946 0.0034217609 -0.17537804
-0.00012323623 0.014622399 -0.0168468 0.1708999 -0.0065068877 0.040777158 -0.0015389079 -0.0076594744
0.0059866356 0.0012484272 -0.024190767 0.02057985 -0.0051635066 0.0069217184 -0.013358778 2.361829e-05
0.072422855 -0.020423522 -0.036871403 -0.0025235573 -0.012891174 -0.009293388 0.0014259645 0.000659285
-0.058115404 0.015221211 -0.029662414 -0.00022501656 0.06499338 0.0013406214 0.017665848 -0.020802781
0.0030568033 -0.0006934239 -0.0005733453 -0.030350497 -0.010939739 0.0018854082 0.0014477395 -0.020760646
-0.048073206 0.03825572 -0.0049080257 0.008904338 0.0006631238 -0.0005994564 0.025153343 -0.017292412
-0.0010826937 0.0021017971 -0.0073931855 -0.040880926 -0.0050665718 0.018701782 -0.0034055333 -0.016396793
0.016192928 0.0009162856 -0.0007670385 -0.016560553 0.08903792 -0.0014559857 -0.0037391323 -0.0007248023
0.11782195 -0.000158142 -0.0017844895 0.00027864444 0.000545128 -0.04372146 0.0022219322 -0.007350341
-0.00014729869 -0.0008239604 -0.008758827 0.004632466 0.021934127 0.006490745 -0.022164576 0.004760891
0.10118982 0.025415707 0.0012701375 0.0013724323 -0.0028030837 -0.108149044 -0.011528585 -0.007655723
-0.001006583 8.981655e-05 0.007850891 0.03483837 0.00017037545 0.19713888 0.011208422 -0.008713132
-0.002277687 0.003871485 0.002562193 9.8557044e-05 -0.023807196 -0.035137482 -0.08294358 -0.014801954
0.003580661 -0.03269955 -0.17589742 -0.0018659991 -0.0013629082 0.0004958507 0.0005826302 -0.0042117606
-0.00036191577 0.10449013 0.007731479 -0.009330037 0.122498736 -0.00019152928 0.00015798728 0.06239447
00000000: 9554 843d eb3b 0139 895b cbbc 200c 80b8
00000010: dbc5 ebb9 b52e 61bd 3e80 d2bc 32a0 95b8
00000020: 0d57 11bb 4d30 df3b 7aba 1ebd f5d7 6bb9
00000030: a623 85bc a5a4 173c 2ef9 3bbe dfa0 f73a
00000040: 7970 7e3b 1926 503d 8c02 3cbd 3b9a ae3d
00000050: f769 a3bb 665b 07ba a3e2 17bc 0f4c 55bb
00000060: 408a 7b3d e67f 98bb db9f 1cbb afae f3bc
00000070: f882 5e39 3a9e 74ba 2273 523a 54bc 5b3d
00000080: f54f 8cbd 7913 343d 9f52 3bbc 7772 8bbc
00000090: e358 133b 8db1 71b9 9e42 e23c 7666 e7bc
000000a0: dd1a c73a decd 063c c79d 19bc e53f 20be
000000b0: 53ca d8ba 8837 833b ca82 f5bc 4c71 d6bc
000000c0: ef97 e9bc 9903 903d 52f4 c239 d31f 5d3a
000000d0: b497 763a fe80 a0b9 2931 e13d d4d0 e6bc
000000e0: c42f 793b 27e0 9d3a 8f11 9cbc 795d e8bc
000000f0: a49d c3ba 85d0 503d bd20 8f39 b6f7 e6bc
00000100: 5089 7fbc 6959 473a 12d8 a139 4396 543c
00000110: 036d c23c 2d27 adba 909a 243d ba35 a3bb
00000120: 6e73 0d3d f8e9 f53a 0afb b8bc a87e 2c3a
00000130: 59d4 4bba 7f57 81bd 839b d8b8 6fa7 d9bc
00000140: fd2e c5be 1a0c 84bb c1d5 053b 20f2 66bc
00000150: 3363 ef3b 39ab 653c 24c1 433c c534 653d
00000160: 1374 42bb 573b 373d 84b0 c7b8 612a 7c3c
00000170: e58b 70bc 47bc f7bb 0cce 613b 6c8f 81bb
00000180: 7d26 a1ba dce1 bf3a 044f 8bbb 4a5e 8b3b
00000190: 220f 13b8 2854 943b 24ac 95bc 25c2 aa3b
000001a0: e844 1b3a c6a5 b5bb 8a4c 2bba 1f49 b23c
000001b0: effb eabb c95e 59be 4fe1 8eba 39ee a7bb
000001c0: 6bd6 c238 0f69 dcbc e907 5cba 5dd3 47be
000001d0: de96 0a3a 9828 1439 945c 4dbc ca1f cc3b
000001e0: 5de0 4dbd 3e47 3e38 0435 9eb9 2ce5 1cbc
000001f0: 7993 db3b a52c 85bc 68dc 573d ce10 dd3b
00000200: 7d94 453d 49e2 813d 23e5 25bd f3f1 b7bb
00000210: 2221 303b d67d b0bb 9f3f 603b 4d96 33be
00000220: f938 01b9 c992 6f3c 4d02 8abc 6200 2f3e
00000230: bb37 d5bb f305 273d 2eb5 c9ba 54fc fabb
00000240: 8a2b c43b 44a2 a33a b72b c6bc 1397 a83c
00000250: a232 a9bb 95cf e23b c7de 5abc e41f c637
00000260: 6f52 943d 3b4f a7bc 7806 17bd 4462 25bb
00000270: 8135 53bc 4b43 18bc 6ee7 ba3a ded3 2c3a
00000280: 6b0a 6ebd 6362 793c 97fe f2bc 6cf2 6bb9
00000290: 401b 853d cab7 af3a f8b7 903c 986a aabc
000002a0: a654 483b e4c6 35ba 8d4c 16ba 9ba1 f8bc
000002b0: 973c 33bc cd1f f73a 14c2 bd3a 3b12 aabc
000002c0: 69e8 44bd 08b2 1c3d 81d3 a0bb 80e3 113c
000002d0: 7cd5 2d3a d724 1dba 620e ce3c d1a8 8dbc
000002e0: 2ce9 8dba 4ebe 093b 8942 f2bb c272 27bd
000002f0: 7c05 a6bb 7b34 993c 5e2f 5fbb 9152 86bc
00000300: 08a7 843c e332 703a 1513 49ba ffa9 87bc
00000310: 8359 b63d c6d6 beba 3b0c 75bb a900 3eba
00000320: a24c f13d ebd2 25b9 88e5 e9ba 0617 9239
00000330: ece6 0e3a 4615 33bd d69d 113b 21db f0bb
00000340: 3174 1ab9 0cff 57ba 2f81 0fbc f1cb 973b
00000350: 33af b33c 51b0 d43b 7c92 b5bc 4001 9c3b
00000360: 9c3c cf3d 9a34 d03c be7a a63a 30e3 b33a
00000370: f1b3 37bb 3f7d ddbd 64e2 3cbc dcdc fabb
00000380: 52ef 83ba e55b bc38 06a1 003c aeb2 0e3d
00000390: d0a6 3239 c6de 493e 87a3 373c 86c1 0ebc
000003a0: 3f45 15bb bdb8 7d3b 77ea 273b 69b0 ce38
000003b0: 4f07 c3bc 52ec 0fbd 53de a9bd e583 72bc
000003c0: 86a9 6a3b f7ef 05bd 741e 34be 8a94 f4ba
000003d0: 9ca3 b2ba fafb 013a a7bb 183a cf02 8abb
000003e0: 83bf bdb9 ecfe d53d 5958 fd3b 03dd 18bc
000003f0: 9ee0 fa3d 40d5 48b9 63a9 2539 5891 7f3d

final_mean.bias f4 [6]
-0.025876101 0.021823129 0.1630457 -0.030240055 -0.008304837 -0.14331383
00000000: 1efa d3bc 6bc6 b23c 74f5 263e feb9 f7bc
00000010: 0311 08bc dcc0 12be

exp_avg f4 [64, 17]
-4.6328405e-05 8.588185e-05 -0.00010090674 7.0890346e-05 -0.00014087278 -1.5198505e-05 0.00017087365 0.0001756971
4.2606876e-05 -0.00010854078 -0.00010037333 -8.050803e-05 0.00017694985 -0.00015134609 0.000110026354 3.7929683e-05
-0.000119211625 -6.387043e-05 7.452618e-05 0.00028455674 -0.00022947046 2.1453798e-05 0.00018283742 0.00018920454
6.792505e-05 -0.0002878634 7.964949e-05 -0.00015092955 -6.42882e-05 0.0001631464 0.00024710034 -0.00052658
-0.00033703158 0.00041699724 5.2195828e-05 -0.00024934087 0.00017125743 0.00015150492 0.00022779833 0.00031682322
6.74356e-05 -0.00026674624 7.609584e-05 0.0003317281 -9.600426e-05 0.0005817351 -0.000559692 0.00055770075
-2.151004e-05 9.51386e-05 -1.6418844e-05 -0.00013563658 -5.388208e-05 0.00036913762 -0.0002696559 0.00022556532
0.00039593526 0.00023182578 -5.337252e-06 -0.0003081825 0.00019569245 -0.0003642215 0.00016647208 -3.176531e-05
0.0003818826 -0.00059656805 4.8737646e-05 0.00022960191 -0.00012779914 -4.5946185e-06 -0.00011333135 0.0001822717
4.8465437e-05 0.00012141914 5.8938956e-05 6.0416078e-05 0.0001228958 3.0863295e-05 1.6473348e-05 0.00015665477
-0.00018622704 0.00012106288 0.000221351 0.00022830396 -0.00015704345 0.000105814215 -2.40709e-05 -4.8834623e-05
8.5080224e-05 -0.00011558468 -0.00022247553 -7.425879e-05 -0.0002845027 -0.00011523796 7.304949e-05 0.0003800261
2.1267795e-05 0.00011381878 -0.00042928694 7.506305e-05 -7.594706e-05 -3.220959e-05 -4.5568568e-06 0.00016487137
-0.00041701712 0.0002157903 -0.00032863475 5.0495837e-05 9.195042e-05 -8.523254e-06 0.00012826198 -0.00025689355
5.561793e-05 7.267046e-05 -0.00010398852 -0.00017039555 0.0005435433 -1.3487739e-05 -6.4060528e-06 -2.760976e-05
-5.4176566e-05 0.00031201105 -6.318172e-05 -2.2780825e-05 -0.00019872682 5.416255e-05 5.704835e-05 -9.882794e-05
1.1027649e-05 9.966185e-05 -0.00017064714 0.00022158919 4.0465104e-05 -0.00021082016 0.00020152969 -2.4831485e-05
6.696804e-05 -0.00024451653 0.00025253167 6.6819e-05 0.00035213493 9.973597e-05 4.9414797e-07 -0.00012296792
0.00019268274 0.00031763315 -1.4009757e-05 0.00040514107 -0.00041609784 0.00010063617 -0.00011360501 0.00015886092
-0.00019763559 -0.00011488245 0.00030779204 -0.0012702987 0.0010617392 -0.0010021866 -5.6001132e-05 0.00019426859
-0.00029824086 -0.00018057087 -0.0009511452 -0.0009276723 -4.339614e-05 0.0007958011 -0.0008204767 0.001273581
0.0003789986 -0.0002264685 1.2701357e-05 -4.1176736e-05 2.911621e-05 -0.0001162674 0.00016577827 9.9085504e-05
-4.2410997e-05 0.00013814242 -0.00016411327 -4.124832e-05 -0.00016493961 6.310576e-05 -4.2640986e-05 1.0802594e-05
-0.00013488547 -4.5467383e-05 0.000105992716 0.00010841257 -7.015505e-05 -8.830297e-05 8.017018e-06 0.000104611434
-5.162695e-05 -0.00034310808 -0.0002355789 0.0004521298 0.00039858336 0.00035279218 0.00013308576 -0.00048761966
-7.773558e-06 0.00029014878 -0.0002685558 1.6574082e-05 -6.133733e-07 0.00023794704 -6.8283116e-05 -7.490446e-05
-0.0005484033 -0.00027991674 0.00020337508 0.00037021586 -0.0005624138 -0.00041357038 -0.0004993863 -0.0007355561
0.0011298085 -0.00038961077 -0.00043689384 -2.614567e-05 4.8826496e-05 3.4471163e-05 0.00011096848 -0.00020244434
0.000100597834 -0.00015225307 0.000106545325 8.888587e-05 -7.9514706e-05 0.00020855539 3.818988e-05 0.00035932183
0.00023230792 -0.0004704206 -0.00044056584 0.00045057558 6.378223e-05 -4.9847287e-05 -4.2432974e-05 -5.996002e-05
5.324403e-06 3.826877e-05 0.000118593496 0.00012591467 -0.000117508695 9.2861155e-05 0.00024186232 0.0001490041
7.780455e-05 0.00027418244 -0.0003238943 0.00012288835 0.00012015789 -0.00015044872 -2.8918143e-05 -0.00011611276
00000000: bf50 42b8 781b b438 e59d d3b8 f7aa 9438
00000010: 40b7 13b9 15fd 7eb7 8c2c 3339 553b 3839
00000020: c9b4 3238 63a0 e3b8 857f d2b8 6bd6 a8b8
00000030: 9d8b 3939 a8b2 1eb9 f3bd e638 b016 1f38
00000040: 4101 fab8 2df2 85b8 f04a 9c38 8f30 9539
00000050: 029e 70b9 aef7 b337 0cb8 3f39 3565 4639
00000060: fc72 8e38 5fec 96b9 7f09 a738 d842 1eb9
00000070: 77d2 86b8 4712 2b39 3f8d 8139 300a 0aba
00000080: 9db3 b0b9 6ca0 da39 d8ec 5a38 f7b9 82b9
00000090: 9193 3339 4bdd 1e39 26dd 6e39 4b1b a639
000000a0: 366c 8d38 13da 8bb9 a595 9f38 cbeb ad39
000000b0: e555 c9b8 957f 183a 4bb8 12ba aa32 123a
000000c0: 7670 b4b7 2685 c738 33bb 89b7 ab39 0eb9
000000d0: 71ff 61b8 d088 c139 9a60 8db9 bb85 6c39
000000e0: 8895 cf39 4216 7339 a516 b3b6 8e93 a1b9
000000f0: cb32 4d39 fbf4 beb9 028f 2e39 be3b 05b8
00000100: 6a37 c839 0163 1cba a66b 4c38 4bc1 7039
00000110: d201 06b9 792b 9ab6 4eac edb8 3020 3f39
00000120: 5e47 4b38 68a2 fe38 3935 7738 4567 7d38
00000130: 97dd 0039 3673 0138 3f30 8a37 b243 2439
00000140: f145 43b9 24e3 fd38 751a 6839 e164 6f39
00000150: 08ac 24b9 93e8 dd38 ddeb c9b7 c7d3 4cb8
00000160: 196d b238 0d66 f2b8 5248 69b9 62bb 9bb8
00000170: 4e29 95b9 e9ab f1b8 2532 9938 3d3e c739
00000180: 3e68 b237 feb1 ee38 eb11 e1b9 2b6b 9d38
00000190: c445 9fb8 c918 07b8 1ae7 98b6 52e1 2c39
000001a0: 17a3 dab9 c545 6239 9c4c acb9 7ecb 5338
000001b0: 81d5 c038 19ff 0eb7 107e 0639 abaf 86b9
000001c0: 4c47 6938 a866 9838 6914 dab8 35ac 32b9
000001d0: 937c 0e3a 6649 62b7 93f3 d6b6 829b e7b7
000001e0: a53b 63b8 6a95 a339 6d80 84b8 7319 bfb7
000001f0: 5361 50b9 982c 6338 3347 6f38 d941 cfb8
00000200: 6403 3937 8c01 d138 beef 32b9 655a 6839
00000210: 13b9 2938 9b0f 5db9 b751 5339 354d d0b7
00000220: 3171 8c38 7432 80b9 3a66 8439 2d21 8c38
00000230: c09e b839 5729 d138 97a5 0435 f3f0 00b9
00000240: e10a 4a39 0088 a639 730b 6bb7 1d69 d439
00000250: b527 dab9 a20c d338 3a3f eeb8 e793 2639
00000260: 663c 4fb9 0ced f0b8 265f a139 2780 a6ba
00000270: 0e2a 8b3a cd5b 83ba c2e2 6ab8 94b4 4b39
00000280: 365d 9cb9 a057 3db9 4656 79ba 092f 73ba
00000290: 4004 36b8 4f9d 503a 4215 57ba 49ee a63a
000002a0: 55b4 c639 2d78 6db9 ea17 5537 2fb5 2cb8
000002b0: 963e f437 96d4 f3b8 c4d4 2d39 20cc cf38
000002c0: 76e2 31b8 53da 1039 d215 2cb9 0c02 2db8
000002d0: a4f3 2cb9 a657 8438 69d9 32b8 ca3c 3537
000002e0: 0b70 0db9 3bb4 3eb8 6848 de38 8e5b e338
000002f0: 3520 93b8 4c2f b9b8 d580 0637 d662 db38
00000300: 048a 58b8 30e3 b3b9 bb05 77b9 d60b ed39
00000310: f4f8 d039 f7f6 b839 f08c 0b39 34a7 ffb9
00000320: 2d6b 02b7 1c1f 9839 f3cc 8cb9 9208 8b37
00000330: b1a6 24b5 6c81 7939 3833 8fb8 0716 9db8
00000340: b9c2 0fba cac1 92b9 1541 5539 8819 c239
00000350: f46e 13ba 7ad4 d8b9 3fe9 02ba 56d2 40ba
00000360: 1516 943a ac44 ccb9 e60e e5b9 6653 dbb7
00000370: 0dcb 4c38 2195 1038 c0b7 e838 3d47 54b9
00000380: 0df8 d238 1fa6 1fb9 1671 df38 3d68 ba38
00000390: 22c1 a6b8 a9af 5a39 122e 2038 5c63 bc39
000003a0: af97 7339 c9a2 f6b9 bffb e6b9 3b3b ec39
000003b0: d3c2 8538 1e13 51b8 0ffa 31b8 957d 7bb8
000003c0: 46a8 b236 c782 2038 66b5 f838 f607 0439
000003d0: 006f f6b8 74be c238 6c9c 7d39 fc3d 1c39
000003e0: 002b a338 25c0 8f39 5bd0 a9b9 97db 0039
000003f0: 47fd fb38 c5c1 1db9 3d95 f2b7 9081 f3b8
