src/models/atla_release/LSTM-PPO/model-lstm-ppo-halfcheetah.model (torch_old, 875227 bytes, 54 tensors)

embedding_layer.weight f4 [64, 17]
000000 14 71 57 bb 63 7d 9e bd f8 99 82 bd ff 9b 0c bd
       -0.0032873796 -0.07738759 -0.063770235 -0.034328457
000010 78 05 68 bd a5 24 aa ba 0f ed 02 bd 63 8c 8b 3d
       -0.05664584 -0.0012980892 -0.031964358 0.06813886
000020 79 e8 fc 3d 00 ee f9 3d 3b 9c 32 bc e6 c4 29 be
       0.12349028 0.12203598 -0.010901506 -0.16579017
000030 d3 32 19 bd a0 6a 7d bd 1b fd 44 3e 3a 80 a5 3d
       -0.037401985 -0.061869264 0.19237177 0.08081098
000040 cd ac 8c 3d d9 7b 5e 3d 2d 2d 82 3d 8f 06 c9 3c
       0.06868897 0.05431733 0.06356273 0.02453926
000050 06 66 50 bd 69 1a 25 3d 28 6a 8c bd 5d 8b f9 bc
       -0.050878547 0.04030839 -0.06856185 -0.030461961
000060 ea 2b ad 3d 25 6d 47 be db f7 ad 3d bd 6a bb bc
       0.084556416 -0.19475229 0.0849454 -0.022878045
000070 ec 8c 24 3e 41 df a5 3d a8 5e a9 3c 67 cf 28 bd
       0.16069382 0.08099223 0.020675018 -0.04121342
000080 54 cc 54 3d 50 36 01 3e 68 46 53 bc 4d 6e 1f be
       0.051952675 0.12618375 -0.012895204 -0.1556942
000090 5c 41 24 bc 36 7c c8 3c 6e 24 63 3d cc fb 49 bd
       -0.0100253485 0.02447329 0.055454664 -0.049312398
0000a0 54 6a e7 bc f9 63 85 3c d1 ba ad 3d 25 49 0e 3e
       -0.028248943 0.016283022 0.08482898 0.1389509
0000b0 f3 be 9b bd b4 d5 4a be 49 3f 00 be 54 a0 6c bd
       -0.0760478 -0.19808084 -0.12524141 -0.05777009
0000c0 65 b7 ba 3d f5 36 10 bd 40 c3 aa bc 94 9e 12 3c
       0.09117011 -0.03520866 -0.020845056 0.008948941
0000d0 b2 e4 d9 3d 3a 57 db 3d a3 5b 21 bd 1e 24 de 3d
       0.10639323 0.107099965 -0.039394032 0.108467326
0000e0 e0 6f d9 bd 94 87 a8 bd b8 35 cd bd a8 08 c3 bd
       -0.106170416 -0.082289845 -0.10020012 -0.095231354
0000f0 e4 5e 30 bb 3a b1 ac 3d 8e ba d7 3d 12 0a a3 3d
       -0.0026912028 0.08432241 0.10533629 0.07960905
000100 17 66 67 3c d3 09 99 3d 92 29 38 3e a5 9b 22 bd
       0.014123461 0.07472577 0.17984608 -0.039699215
000110 b8 65 28 3e a5 39 b1 bd 7e 35 68 bd 84 01 b4 bb
       0.16445053 -0.08653573 -0.05669164 -0.0054933447
000120 3a e7 43 bd f4 04 2e 3e 28 7f d9 3d 3a 36 55 3e
       -0.047827937 0.16994077 0.10619956 0.20821467
000130 0c 50 96 be a6 bd 05 bf 92 50 cd be aa 4c af 3d
       -0.29357946 -0.52242506 -0.40100533 0.085595444
000140 62 e3 22 be 11 b9 19 3d a2 1d d9 ba af ae 86 bd
       -0.15907052 0.03753001 -0.0016564617 -0.06576287
000150 3e 15 57 3d 30 fe 00 be 76 9d ab bd 52 75 0d be
       0.052510493 -0.12596965 -0.08379643 -0.13814285
000160 e0 df 9c bd 9a e6 4e 3a cc 10 fe bd 7e 09 25 bd
       -0.07659888 0.00078926387 -0.124055475 -0.040292256
000170 af b4 87 bd 18 b6 22 be e5 bb 4f be 04 67 95 be
       -0.066262595 -0.15889776 -0.2028652 -0.29180157
000180 97 e8 bd 3c 55 06 8b 3d db fe 28 bd d1 c2 c0 bd
       0.023182197 0.06788317 -0.041258674 -0.09412158
000190 9e c8 54 be dd 8a 86 bd 9e 17 9a bd 2d 85 16 3e
       -0.20779654 -0.06569455 -0.07524036 0.1469924
0001a0 38 e1 2c 3d 76 dc a3 3d b6 42 17 3c c9 4b 08 bd
       0.042206973 0.08001034 0.009232214 -0.0332754
0001b0 26 98 48 3d ab 13 93 3c 96 56 4f be af 73 14 bd
       0.048973225 0.017953714 -0.20247874 -0.036243137
0001c0 fa 99 8f 3e bf 38 88 3d bc b8 db 3d 07 2b e2 bc
       0.28047162 0.066514485 0.10728595 -0.027608408
0001d0 38 34 92 bd f0 ff 2e b8 56 49 f4 3c c5 a4 6e bd
       -0.07138866 -4.1723193e-05 0.029820126 -0.058262605
0001e0 2c 0e 32 3e c0 60 43 bc df d3 50 3d bf 11 1b 3c
       0.17388219 -0.0119249225 0.050983306 0.00946468
0001f0 ed e8 09 3e f3 6c bb 3d 1b a0 a7 3d a4 ce 80 be
       0.1346776 0.0915164 0.081848346 -0.25157654
000200 11 04 99 bc 09 8f 6e 3e b5 bb 9a 3d 47 19 c2 3c
       -0.018678697 0.23296751 0.075553335 0.023693694
000210 2a 12 20 3d 40 13 84 bd 4c b8 06 bd f2 9f 44 bc
       0.039079823 -0.06448984 -0.032890603 -0.012001025
000220 1f 16 2f bd 44 67 36 be 28 17 e4 bd 7b 8d f5 3c
       -0.042745706 -0.1781283 -0.11137229 0.02997469
000230 82 83 db bc 58 b1 75 3d 8d 1d 65 bd f4 51 3f ba
       -0.026796106 0.05998358 -0.055936385 -0.0007298284
000240 36 5a 4a 3d c8 49 91 3d 2a 75 e9 bd 38 65 fb bc
       0.049402438 0.07094151 -0.113993004 -0.030687913
000250 b7 56 f1 3c ef a8 5c bd f6 5f cd bc 82 9c f1 bd
       0.029460294 -0.053872045 -0.025070172 -0.117974296
000260 50 9e 32 3c 1c 37 95 bc b2 2b 13 3e d4 da b4 3d
       0.010902002 -0.018214755 0.14372137 0.08830801
000270 71 3e 57 bb 31 7f 2d 3d 0d 67 74 bc 27 6f 07 3d
       -0.0032843614 0.042357627 -0.014917147 0.033064988
000280 2f 57 67 3c f2 46 19 be 99 79 8c bd 8b 59 cb 3d
       0.014119907 -0.1496847 -0.068591304 0.09929188
000290 79 f1 de 3c ee 9a a8 bd 62 a7 0c 3d 22 e6 88 3d
       0.027214753 -0.082326755 0.034339316 0.06684519
0002a0 0d c0 5e bd 66 af e7 bb 88 1b d2 bc 02 69 2b be
       -0.054382373 -0.0070704697 -0.025647894 -0.16739276
0002b0 00 3a bc bc c1 5d 83 bd 62 e1 1a 3d 35 70 82 bd
       -0.022976875 -0.064143665 0.037812598 -0.06369058
0002c0 eb ad 2e bd 84 a4 85 bd 08 d3 9f 3d 0f 0b 33 bd
       -0.04264633 -0.065255195 0.07803923 -0.04371172
0002d0 bc de 3a be 99 0d b1 bc 6b a5 47 3c 97 ad c1 bc
       -0.18249029 -0.02161293 0.012185435 -0.023642344
0002e0 b1 fa 1b be a6 57 1b bc 80 42 79 bd 94 af 82 3b
       -0.1523235 -0.009481346 -0.060854435 0.0039882157
0002f0 37 51 d1 3d 2e 8a 80 3d b9 67 09 3e 6e 8f 12 bd
       0.102205686 0.06276356 0.13418473 -0.035781316
000300 36 fd 61 3d bf 52 f7 3d 93 c2 73 3d c7 5d 3f be
       0.05517312 0.120763294 0.059511732 -0.18688117
000310 1a c1 69 3a 01 f6 c7 3e 64 7e 4d 3d 23 d7 8d 3d
       0.0008917019 0.39054874 0.050169364 0.069258
000320 c7 5c a2 3d aa b3 78 3d d9 5c 79 3d c1 55 38 bc
       0.07927852 0.060718216 0.060879562 -0.011250914
000330 3a 62 e3 bd b5 6d 1c be 9b f0 f6 bd 02 6c d9 3d
       -0.111027196 -0.15276225 -0.120576106 0.10616304
000340 1b fa b6 bd 52 f2 d0 3d d9 4f a5 3d e1 ed fb bc
       -0.089344226 0.10202469 0.0807187 -0.030753078
000350 5b ed ae 3a 74 a7 fd bd 51 5e 31 be ac d6 f9 bc
       0.0013345884 -0.12385455 -0.17321135 -0.030497871
000360 5b c5 f3 ba c8 fb 31 3d be 67 08 bc dd 43 05 bd
       -0.0018598245 0.043453008 -0.008325515 -0.032535423
000370 72 96 00 3c 11 d7 2c bd 00 33 06 be eb 20 17 bd
       0.007848369 -0.04219729 -0.13105392 -0.036896627
000380 56 85 1a bd fc cd 3a bc cc c2 71 bd 6c 23 9a 3c
       -0.037724815 -0.01140165 -0.059023663 0.018815719
000390 e0 3d a3 3d 23 55 f5 3d e0 d7 d5 bd 5e 07 06 bd
       0.07970786 0.11979129 -0.104415655 -0.03272187
0003a0 74 5f 47 be 08 53 f1 bc b5 5e 5e 3d 20 69 61 3d
       -0.19470006 -0.029458538 0.05428954 0.055031896
0003b0 9c f8 c9 3c 1e 9e fb bc 25 4b 5a 3e 2e df 26 3e
       0.024654679 -0.030715045 0.21317728 0.16296074
0003c0 37 ab f9 bc 49 85 f8 3c 10 05 f9 bc 44 4a 68 3d
       -0.03047715 0.030336993 -0.030397922 0.05671145
0003d0 3d 93 4f bd 64 10 fb bd 3d eb 27 be 5d 56 12 3e
       -0.050677527 -0.12258986 -0.1639833 0.14290757
0003e0 2b e4 d4 bb 69 ad 8c 3e eb 1b 28 3d 32 ce 8f 3d
       -0.0064969263 0.2747605 0.04104225 0.070217505
0003f0 64 4d 68 3d 3c d0 92 3e a2 8a 77 3d 0d da 0c 3d
       0.05671443 0.28674495 0.060434945 0.034387637

embedding_layer.bias f4 [64]
000000 fe 69 07 3e 64 46 08 be fa 51 04 3e f8 1f a9 bd
       0.13224027 -0.13308102 0.12921897 -0.08258051
000010 77 c5 c4 3e d0 82 51 3e 35 0d a6 be 6e 19 39 be
       0.38431904 0.20460057 -0.3243195 -0.18076107
000020 cb c3 4c 3e ed fa 56 be 00 c0 3f 3e 7b ae 9d bd
       0.19996564 -0.20994158 0.18725586 -0.07699295
000030 7e 76 54 3e 23 49 24 3e 7c ff c0 bd d2 24 9b be
       0.20748326 0.16043524 -0.0942373 -0.3030153
000040 40 df f6 bc 55 2c d7 bd 6b 91 65 3e 03 d0 c2 3d
       -0.03013575 -0.105065025 0.22418754 0.09512331
000050 ae c7 66 3e 89 b0 d1 3e 39 60 15 3e 6b 35 23 be
       0.2253711 0.40954998 0.14587487 -0.15938346
000060 99 5f 0c be aa c6 54 be bb c9 12 be 02 2b d0 bd
       -0.13708343 -0.2077891 -0.14334767 -0.10164453
000070 34 0b 6e 3e 84 dc 83 3e fe 64 53 be 9f 09 62 be
       0.23246461 0.25754178 -0.20643994 -0.22073983
000080 2a fb 33 be 57 bc 75 3e a6 52 6f be a7 cf 7c be
       -0.1757628 0.23997627 -0.23371372 -0.24688588
000090 ed 68 0d 3e 8d 40 73 be ea 83 55 be 32 70 5c 3e
       0.13809557 -0.23755093 -0.20851102 0.21527174
0000a0 ac 71 4e be 98 a8 c3 be 3a eb 87 3e f6 48 1b 3e
       -0.2016055 -0.38214564 0.2654665 0.15164551
0000b0 a7 76 64 3e 0a ac a0 be bf bd 4d be 31 85 a6 be
       0.22310887 -0.31381255 -0.20091914 -0.32523492
0000c0 09 60 88 be 51 3c 18 3e 33 b6 94 3e bd 7e b7 3c
       -0.2663577 0.14866759 0.29045257 0.0223993
0000d0 d9 42 05 3e 20 b5 4c 3e 2b f2 4f be 87 c9 0b 3e
       0.13013782 0.19990969 -0.20307223 0.13651095
0000e0 51 b4 e3 bd 93 e2 b2 3e f6 b8 64 be e4 b2 a4 3e
       -0.11118377 0.34938487 -0.22336182 0.32167733
0000f0 f8 3c 26 be b9 3f 06 be 2e 12 50 3e 2e 39 bf be
       -0.16234195 -0.13110246 0.20319435 -0.37348312

lstm.weight_ih_l0 f4 [256, 64]
000000 1a 1a 1b 3e eb 64 e1 3d 44 9e d2 3c 91 f4 86 bd
       0.15146676 0.11005577 0.025710233 -0.06589616
000010 26 7a a2 bd b6 70 a9 3c a9 a8 3c be dd 2b ad bd
       -0.07933454 0.020683628 -0.18423714 -0.08455632
000020 8e 2d 0b bc 5e 80 ae bd 55 96 86 bb 04 f0 66 bd
       -0.008494748 -0.08520578 -0.0041072764 -0.05638124
000030 b3 0d ae 3b b2 cf a2 bc 15 cb 94 3d ad 44 30 bd
       0.0053116917 -0.019874427 0.07265297 -0.043034244
000040 ca fd d3 bd 8e dc d8 bd 64 9a 41 3e e8 82 c0 3d
       -0.10351141 -0.105889425 0.18906552 0.093999684
000050 7d d7 03 3d 4b de 0b 3e 9d fe ff bc b1 be 6a be
       0.032187928 0.13659017 -0.031249339 -0.22924305
000060 9c 5c 55 bb 13 ef 0f 3c 7d 49 2f be 86 6e 31 be
       -0.003255642 0.008785027 -0.17117877 -0.17327318
000070 98 eb 46 bd ce 27 58 3e eb 88 29 be 0f a2 ca bd
       -0.048564523 0.21108934 -0.16556136 -0.098941915
000080 14 de 22 bd 97 94 2d bd 9a c3 2d 3e 74 18 30 be
       -0.03976257 -0.042378034 0.16969147 -0.17196828
000090 80 0b a7 3d 92 9a 11 bb b4 b5 b6 bd 30 a8 8f 3d
       0.0815649 -0.0022217375 -0.08921376 0.07014501
0000a0 11 64 f3 bd 8d f7 7f be 83 51 88 3e 9a 28 59 3c
       -0.118843205 -0.24996777 0.26624689 0.013254309
0000b0 3e ef 69 3e 5e dc 53 bd 39 2e 11 be 52 00 29 3b
       0.2284517 -0.05172383 -0.14177789 0.0025787544
0000c0 e1 0b ea bc bf a9 95 3d dc e5 b0 bb d4 1a 4a bd
       -0.028570117 0.07307767 -0.005398495 -0.04934199
0000d0 ad 93 47 3d f4 86 ba 3d ba b2 cd bd 25 21 f7 bc
       0.04872482 0.091077715 -0.10043855 -0.030167172
0000e0 16 52 87 bd 68 40 13 3d b4 9c 63 3c bd 3e be 3c
       -0.066074535 0.035950094 0.013892341 0.023223275
0000f0 e9 67 83 3c 20 1f 3f be e0 d6 f0 3d 4d ce 20 be
       0.01604076 -0.18664217 0.11759734 -0.15703698
000100 38 d0 cc 3d 82 04 7f 3d ca a8 4c bb ef 08 d0 bd
       0.10000652 0.06226016 -0.0031228536 -0.10157954
000110 b4 74 77 3e 3a 57 05 3e 81 f5 bd 3d 65 72 5c 3d
       0.24165612 0.13021556 0.09275342 0.053820033
000120 fe 02 a5 3d b2 85 8d bd a7 1c 66 3d 03 52 95 3d
       0.08057211 -0.06910266 0.05617967 0.07291033
000130 82 74 9b 3b 42 4a ae 3d 19 b9 11 bd 76 1a ac 3c
       0.0047441134 0.08510257 -0.035576914 0.021008711
000140 41 de 9d 3b da d5 f0 3d 47 06 e0 bd 0f da 41 bc
       0.0048177545 0.11759539 -0.10938697 -0.011831774
000150 5b 7a c4 3d 69 d5 b3 bd 41 76 87 bd 2f 1a 9a bd
       0.0959365 -0.08780939 -0.06614352 -0.075245254
000160 fa 87 2b be 23 a5 ad 3d 74 df 9e 3d 46 b0 0c 3e
       -0.1675109 0.08478763 0.07757464 0.13739118
000170 96 76 c5 3d 45 57 09 bd b8 6e bf 3d 23 5c ff 3b
       0.09641759 -0.033530492 0.0934729 0.007792966
000180 fe 05 29 bd bf 4d 14 be b6 cc 1b be 1a 59 48 bd
       -0.04126548 -0.14482783 -0.1521481 -0.0489131
000190 09 7a 22 be 7c 6a 1d be c0 fb d1 3b 15 34 b2 3d
       -0.15866865 -0.15372652 0.0064081848 0.0870134
0001a0 ef 02 59 bd c3 76 9f 3d d0 cf 0f be 74 67 27 bd
       -0.052981313 0.07786324 -0.14044118 -0.040870145
0001b0 ac c1 29 bc 90 1f 55 bd 6c 2f 18 3d 7f 76 14 bd
       -0.010361116 -0.052032053 0.0371546 -0.03624582
0001c0 fb 57 b1 bd 90 be 26 bd 2a 12 01 be f9 00 ca 3d
       -0.08659359 -0.04070908 -0.12604585 0.09863467
0001d0 43 48 d5 3c 81 a0 dd 3c 20 0e fa 3c 44 dd af 3d
       0.026035434 0.027054073 0.030524313 0.08587125
0001e0 22 73 09 bd 5c 6f b6 bd 89 58 12 bd 0a 22 81 3e
       -0.033557065 -0.08907959 -0.035728965 0.25221282
0001f0 90 90 25 3e a0 df 87 3d 03 4e 43 3d 3d fd 80 3d
       0.16168427 0.0663445 0.04768182 0.06298301
000200 2c f7 17 bc a9 53 22 3e 70 d0 74 bc 43 6e 40 3e
       -0.009275239 0.15852226 -0.0149422735 0.18792062
000210 1c 73 3e be 25 b8 dc bc db 74 5f bc e0 ba a5 bd
       -0.18598598 -0.026943276 -0.0136387 -0.08092284
000220 17 06 97 bd d0 88 3a 3d 7e b1 48 3d a9 8f 74 bd
       -0.073742084 0.04554063 0.048997395 -0.059707318
000230 99 1e d3 bd 61 a5 eb 3d 48 77 d3 3c f0 02 5a bd
       -0.103085704 0.11506153 0.025813714 -0.053225458
000240 f4 db 39 3d bf 86 bd 3d fa 58 65 3d a3 5e 06 3e
       0.04537578 0.092542164 0.055993058 0.13122039
000250 5d de 84 bd 2e 6a a3 3d 75 c2 03 bd 59 96 9f 3b
       -0.06487725 0.079792365 -0.03216787 0.0048702178
000260 3a d1 1e 3c a9 d9 18 be 8c 7e ab ba 4c f6 63 bd
       0.009693438 -0.14926781 -0.0013083979 -0.05565481
000270 01 63 b5 bd 7d 19 6f 3c 11 5e 1a 3e ab a9 d7 bc
       -0.08856774 0.014593479 0.15074946 -0.026326021
000280 04 cb 9b 3d fc e7 7a bd 98 89 b7 b9 be 13 b7 bd
       0.076070815 -0.061256394 -0.00035006995 -0.089393124
000290 0b df dd 3d fd ea 80 bc 39 fb df bd fe 3f 30 3e
       0.10833558 -0.015737051 -0.10936589 0.17211911
0002a0 c4 08 40 be 6c 48 e8 bd 42 93 7e 3d f5 cf f9 3d
       -0.18753344 -0.113419384 0.062152155 0.12197868
0002b0 ff 2e fc bc 98 3a 5f be 8d b2 89 bd 2c ff 29 be
       -0.030784128 -0.21799695 -0.06723509 -0.16601247
0002c0 b3 dc 0f be 2e e6 56 bd 07 a5 67 3e 16 bc 4d bd
       -0.14049034 -0.05246561 0.22621547 -0.0502282
0002d0 45 06 65 3c 74 7d 53 3d b3 cc 04 3e 17 af 05 bd
       0.013978546 0.051633313 0.12968712 -0.03263768
0002e0 67 39 40 bd 50 a2 20 bc 62 b3 89 3d 0c 9b 4a bc
       -0.046929743 -0.009804323 0.06723668 -0.012366068
0002f0 b4 52 b3 3d 61 87 ca 3d ec 46 34 bd 4c fa ae bd
       0.08756009 0.09889103 -0.04401295 -0.08543834
000300 3f bb d1 bd c4 01 c5 3d f6 e0 45 bd b9 dd 1f 3e
       -0.102407925 0.096194774 -0.048310243 0.15611924
000310 88 43 f0 3c e8 15 cb bd 0d 1f 6c 3e 24 9d 4b 3e
       0.029329076 -0.09916288 0.2305872 0.19884163
000320 d0 18 5f be 3e 47 9a 3e 28 6f 4c bd 77 62 b8 3d
       -0.21786809 0.30132478 -0.049910694 0.09003156
000330 89 f3 92 be a9 4c c8 bc 2c ef 28 bd c6 02 69 3e
       -0.28701428 -0.024450617 -0.041243717 0.22754964
000340 01 5f d0 37 df 7f cd 3d 00 3c e7 bd ee 6c 1a be
       2.4839772e-05 0.10034155 -0.11290741 -0.15080616
000350 28 90 30 be b9 b6 3b be ee 5e 0a be 15 02 12 3e
       -0.17242491 -0.18331422 -0.13512775 0.14258607
000360 0c 5d a9 bc f1 ef aa 3d a7 2e 59 3e 1f ea 6b 3d
       -0.020674251 0.083465464 0.21209203 0.057596322
000370 ba 6d fd bd cd 51 66 be 5f dc 4a 3e 72 04 43 3d
       -0.12374444 -0.22492142 0.19810627 0.04761166
000380 9d ef 0e 3d 79 7e 0d be 71 88 17 3e 05 5d a3 3d
       0.03489648 -0.13817777 0.14798142 0.079767264
000390 98 4d cf bb fe 71 44 3e 26 97 b6 3d 76 4c b9 bd
       -0.0063263886 0.1918411 0.08915548 -0.09047787
0003a0 2b 94 e3 3d b2 94 8c 3d 5e a3 40 be f3 97 36 3c
       0.11112245 0.06864299 -0.1881232 0.011144626
0003b0 01 63 8e be 4d db e9 3c 01 c4 4b 3e d0 36 84 3d
       -0.2780991 0.028546954 0.19898988 0.06455767
0003c0 c7 b0 85 3e cf 28 2c 3d 9c 32 1e be 2d 6a a7 bd
       0.26111433 0.042031106 -0.15448993 -0.08174548
0003d0 4b 00 10 be d3 9a 3b be c9 3f 27 3e 48 0b 0b be
       -0.14062612 -0.1832078 0.16332926 -0.13578522
0003e0 13 1e 49 3d 4a de 1c be 5d 38 95 3e 28 a7 0b bc
       0.049100947 -0.15319172 0.29144564 -0.00852374
0003f0 a0 15 06 3d f8 c4 44 3d 08 aa 1c be 0d 36 57 3e
       0.032735467 0.048039407 -0.15299237 0.21016712

lstm.weight_hh_l0 f4 [256, 64]
000000 0f ae 54 bd ab e2 e2 bc e5 aa 1b 3e 06 4f 77 3e
       -0.051923808 -0.027695974 0.1520191 0.24151239
000010 ed 8e f4 3b 34 78 19 be b7 df a3 3d 72 2b 74 bd
       0.007463327 -0.1498726 0.080016546 -0.059611745
000020 8c be e0 bd 2e d2 96 bd 95 bd 95 3d 0c 00 81 3e
       -0.10973844 -0.07364307 0.073115505 0.25195348
000030 2c db b7 bd 24 41 c4 bc c9 25 03 3e 0e 98 87 3d
       -0.089773506 -0.023956843 0.12807383 0.06620799
000040 c7 2f ba 3b 45 1a 8d bd 02 b2 25 3e b9 61 f4 bc
       0.005681965 -0.06889776 0.16181186 -0.029831754
000050 30 ce ba 3d 23 f0 21 3d 09 aa 93 be ab e7 68 be
       0.091213584 0.039535653 -0.28840664 -0.22744624
000060 c5 d6 cb bd d5 1c b4 bd 28 ef 2e be 64 5c 57 3e
       -0.099530734 -0.08794562 -0.17083418 0.21031338
000070 e1 d4 1a 3d e9 ac 0b be 6d 90 07 3e e6 b3 cc 3d
       0.037800673 -0.13640179 0.13238688 0.099952504
000080 d4 7d b2 3e 8e 32 39 3e 59 d3 5a be e4 23 ca bb
       0.34861624 0.18085691 -0.21369685 -0.0061688293
000090 2d 38 bb bd 06 9a b8 3d d6 e7 7e bd 0d 72 1f 3d
       -0.09141574 0.09013753 -0.062232815 0.038927127
0000a0 af 5d 4e 3e 07 b0 cb bd e7 cf f9 3d e1 a3 ad 3d
       0.20152925 -0.09945684 0.12197857 0.08478523
0000b0 11 a7 de 3b 87 3d 9f bd 57 ee c8 bc c7 d7 c2 bd
       0.006794818 -0.07775407 -0.024527712 -0.095138125
0000c0 2a 0b 65 bc 91 bd c3 3d 01 e4 1a 3c f0 25 dc bd
       -0.0139797125 0.09557641 0.009453774 -0.107494235
0000d0 ce bf 5c bc dd 47 c2 3d c5 b1 b4 3c 90 d1 50 3e
       -0.013473464 0.09486363 0.022057423 0.20392442
0000e0 78 af 37 be 19 21 a1 3d e0 c9 dc 3d 7c 4c 8c be
       -0.1793803 0.07867641 0.10780692 -0.27402103
0000f0 75 fc 85 3c d7 53 6f be af d7 8e 3a 1d ca 38 bd
       0.016355732 -0.23371826 0.0010898019 -0.045114625
000100 1a 8a d9 3d 15 03 95 3c 83 6e 88 3d 1a c8 0d be
       0.10622044 0.018189946 0.066617034 -0.13845864
000110 fa d9 19 bd 48 d2 03 bc ef 98 22 bb 53 04 22 be
       -0.037561394 -0.00804574 -0.0024810394 -0.15821962
000120 5e 57 a6 bd c8 8e 0a be 05 db 68 be d0 83 c5 3c
       -0.08122133 -0.13531029 -0.227398 0.024110705
000130 d2 a0 a2 3d 62 e7 c2 3d 02 2f 56 3c ea a1 3a 3e
       0.0794083 0.09516789 0.013072731 0.18225828
000140 c2 ae a1 3d 2a 3e c4 3d cf 43 cd 3d 49 68 8b 3d
       0.078946605 0.09582169 0.10022699 0.06807
000150 48 df 4f 3e 98 1f df 3d 55 bb 49 bd 66 5e 35 be
       0.20300019 0.10894698 -0.04925092 -0.17711791
000160 b7 9e d2 3d a5 1e eb 3d fb fd 05 be 03 75 07 3d
       0.10284179 0.11480454 -0.13085167 0.033070575
000170 26 69 09 bd ae 17 ca bc cf a9 9b 3d 4b 88 dd 3d
       -0.033547543 -0.024669494 0.07600748 0.108170114
000180 7f 0a 87 3c d8 8c 6c 3d e3 3b e3 3d 3d 9a cb 3d
       0.016484497 0.057751507 0.11095407 0.09941528
000190 15 12 93 bd 5d df 3e bd 63 86 89 3d 0c 8c 21 3e
       -0.07181183 -0.046599735 0.06715085 0.1577608
0001a0 79 2a 3c bd 03 0d 82 bd 51 94 28 bd 79 64 f0 3d
       -0.045938943 -0.06350138 -0.04115707 0.11737914
0001b0 1f 02 7f bd b9 a1 0a be f4 a2 94 3d 94 b0 b8 bc
       -0.062257882 -0.13538255 0.07257643 -0.022545137
0001c0 36 52 41 3d 52 22 0f 3e 75 3f bd bd 16 bc 13 3d
       0.047197543 0.13977936 -0.09240619 0.036068045
0001d0 59 d3 c8 bd e3 4d 51 bd 3e 12 ba 3c 6a 4a 52 3d
       -0.09805936 -0.05109967 0.022713777 0.051340498
0001e0 ce 4a 3f bd f8 dc 2d bd 3c 33 21 bd 99 80 12 be
       -0.0467022 -0.04244706 -0.0393555 -0.14306869
0001f0 db 50 3f be f3 c8 47 bd d1 f3 9b bc b2 cb 2e 3e
       -0.18683188 -0.048775624 -0.01903716 0.17069891
000200 c7 d7 f4 bb 73 38 82 3d 2a 1a 05 be 21 11 7b 3e
       -0.0074720117 0.06358423 -0.12998262 0.24518253
000210 32 34 74 3b 72 50 df bd 86 88 14 bb 3a 9c a1 3d
       0.0037262556 -0.109040156 -0.0022664382 0.07891126
000220 b3 f5 cc bc 9a 19 6d 3d 23 7f 60 bd 06 f8 87 3d
       -0.025019502 0.057885744 -0.054808747 0.066391036
000230 59 77 11 3d 14 31 c8 bb c7 67 41 bd fa a2 42 3d
       0.03551421 -0.006109366 -0.04721811 0.047518708
000240 64 ab a6 bc 05 09 b6 bd 05 ef 1a bc 91 5d ff ba
       -0.020345397 -0.08888439 -0.009456401 -0.0019482841
000250 e7 97 fc 3d c5 60 5a 3e d9 85 a4 3c 8e 12 f9 3d
       0.123336606 0.21325977 0.020083355 0.12161742
000260 a0 2e 5c bd 14 3f dd 3d 26 fa 07 bd cc 7f ba bd
       -0.053755403 0.10803047 -0.033197545 -0.091064066
000270 b0 ab 8e 3c 9a 99 03 3d 5e a5 60 3d db 47 7e 3d
       0.017415851 0.032128908 0.054845206 0.062080245
000280 15 f2 59 be c0 7f e5 bd da e2 b6 bd 82 ea c8 3d
       -0.21283753 -0.11206007 -0.08929987 0.09810354
000290 fd c8 82 3d 00 94 9c 3d a2 98 f7 3c b3 b8 22 be
       0.06385992 0.07645416 0.030224148 -0.1589077
0002a0 46 80 5d 3d 3f c1 b8 3d 9c 96 49 be 88 e5 30 3d
       0.05407741 0.09021234 -0.19686359 0.043187648
0002b0 4a ec 2c be c0 cb 0d 3e 04 89 a5 3d b8 0e 12 3e
       -0.16887012 0.13847256 0.08082774 0.14263427
0002c0 6b ce 18 be f2 54 40 be f8 69 88 bd 4c 1a 7d bd
       -0.14922492 -0.18782404 -0.06660837 -0.061792657
0002d0 b7 2f 2b be 51 70 36 3e d7 7f b7 3c 4c dc 08 ba
       -0.1671742 0.17816283 0.022399826 -0.0005220815
0002e0 d2 03 60 3d e9 27 82 3c ac 7d a8 3d e0 b5 77 3e
       0.054691143 0.015888171 0.08227095 0.24190474
0002f0 32 a7 9b bd c9 8c 2d 3e 26 44 3e bd a3 e6 c8 bd
       -0.07600249 0.16948237 -0.04645171 -0.098096155
000300 bf 72 02 be 94 f8 a1 3e c5 7a c4 3d 89 f2 a8 be
       -0.12739085 0.31634963 0.09593729 -0.3299754
000310 8e b8 46 3d 38 e6 ca bd 78 26 9e be 34 3f 3b be
       0.04851585 -0.09907192 -0.30888724 -0.18285829
000320 d9 fd db bd e1 00 c8 3e 1f 3e b4 bd c3 35 19 3e
       -0.10741777 0.3906317 -0.08800911 0.14961915
000330 30 e6 30 3d f8 9c 82 3e 79 03 b8 bd 9a 3d a3 3d
       0.043188274 0.25510383 -0.08985037 0.07970734
000340 42 d6 45 3e 40 e2 32 be 7e f3 ee 3d 3e a2 d7 39
       0.19320014 -0.1746912 0.11667536 0.00041128875
000350 e9 48 6b 3d 78 ae 84 3e 29 cc a4 3e de 37 52 3e
       0.05744258 0.2591436 0.32187012 0.20529124
000360 5c 4b e3 3d 5f 0c 27 3c 88 6d d2 3d 28 dd 1c bd
       0.11098358 0.010195821 0.10274798 -0.03829685
000370 96 a8 02 3d ca 59 b7 be 2f 65 24 3e dc c1 01 3e
       0.031899057 -0.3581069 0.16054223 0.12671608
000380 9a 84 88 be 87 ad 60 be 1e 28 be bd 7b c3 c0 3d
       -0.26663667 -0.21941195 -0.092849955 0.09412285
000390 a8 3d 4d 3e e8 42 6e be e1 73 2c 3d 07 79 af bd
       0.20043051 -0.2326771 0.0421027 -0.08568006
0003a0 d6 31 9f bb 2e 33 41 3e b3 c6 83 be 6e a2 6c bd
       -0.004858236 0.1886718 -0.25737533 -0.057772093
0003b0 08 14 47 be 49 da a2 3e 48 23 ab 3d 6e e7 78 3d
       -0.19441235 0.31807163 0.08356339 0.060767584
0003c0 bf 07 aa be cc 09 8d be ef 4a 33 be 3a 96 f1 bd
       -0.33209035 -0.27546537 -0.17509054 -0.117962316
0003d0 53 af 94 be 4f 97 fe 3d e1 89 2c bd 7a 2a 3f 3b
       -0.29040012 0.124312036 -0.04212368 0.0029169605
0003e0 fc 6f d0 bc db 1d b3 3d fa f4 a5 bd 36 54 9e 3e
       -0.025444023 0.08745929 -0.08103366 0.30923623
0003f0 a4 0d 07 3d 45 ce aa 3e e9 5b cf bd 6c 19 62 3d
       0.032971993 0.33360496 -0.10124952 0.055200025

lstm.bias_ih_l0 f4 [256]
000000 bb 96 75 3e 11 a4 2f 3e 94 ea 2a bd 5c 56 7e be
       0.2398328 0.1715243 -0.041727617 -0.24837631
000010 86 47 16 be 04 aa aa 3c 39 d3 bc bd 29 74 66 bc
       -0.14675722 0.020833023 -0.09219975 -0.014065781
000020 d3 96 e8 bc 62 3b cc 3e 34 20 0f bd 4f e8 0c 3e
       -0.028392231 0.39889055 -0.03494282 0.13760494
000030 a5 e4 12 bd 8e a3 75 3e 48 20 b4 3d 46 d4 5b bd
       -0.035862584 0.23988172 0.0879522 -0.053669237
000040 3d 89 f1 3b ff 05 5c 3e 59 ee dd bc f7 89 ce bd
       0.0073710964 0.21486662 -0.027091192 -0.100849085
000050 77 65 b7 bd c2 90 cd bd cd e4 20 3e f0 92 b8 3d
       -0.089549 -0.10037376 0.1571228 0.09012401
000060 de 05 5c bd fd 3e fb bc 89 1e e6 bd 19 9b 12 be
       -0.053716533 -0.030669684 -0.11236293 -0.14316978
000070 69 81 f8 3d ce c0 9c 3d 8f e3 bf bd 59 bd 88 bd
       0.12134058 0.07653962 -0.09369575 -0.0667674
000080 d7 99 a4 3c b2 f0 60 be 86 3b f8 3c 63 8a da bd
       0.020092888 -0.21966818 0.03030182 -0.106709264
000090 30 48 46 be 11 8a 88 be 0c 06 7c 3e 03 ec 1c be
       -0.19363475 -0.26667836 0.24611682 -0.15324406
0000a0 74 4f 0b 3e 5c 2a 0a 3e 82 6c 8d 3d c9 41 68 3d
       0.13604528 0.13492721 0.06905462 0.056703363
0000b0 54 4e db 3d 41 58 2b bd 36 81 18 be 92 8a 9c 3c
       0.10708299 -0.041832212 -0.1489304 0.019109044
0000c0 9d de 4f 3b 16 0f 4d 3e d0 13 fe 3c 2b 2d 9f bd
       0.0031718381 0.20025286 0.031015307 -0.07772287
0000d0 62 22 0e 3e 5a 89 5f 3d d9 d0 1d bd d5 9a 78 be
       0.13880304 0.054574348 -0.03852925 -0.24277814
0000e0 41 ea 1a bc c3 0b 95 bd 24 50 18 be 7e 48 f8 bc
       -0.009455265 -0.07277634 -0.14874321 -0.030308004
0000f0 74 e7 26 be 70 14 fc 3d be d0 bd 3e b0 2c 3e 3e
       -0.1629923 0.12308586 0.3707332 0.18571734
000100 c2 7c 7e bd dd 82 18 bc b7 22 25 be 86 ff d5 3d
       -0.062130697 -0.009308544 -0.16126524 0.10449128
000110 26 c0 dd 39 f3 5d 46 be 08 5c 09 be 36 d5 c8 3d
       0.00042295567 -0.19371776 -0.13414013 0.09806292
000120 0b 1f 88 be 0c fe 9a 3e 8d 7d 9e bd e1 b3 0a 3e
       -0.26586184 0.30271947 -0.07738791 0.13545181
000130 83 18 e4 3d d3 1d eb 3d 4d ec 22 3d de 89 e9 bd
       0.11137488 0.11480298 0.039776135 -0.11403249
000140 03 f5 2f 3e e9 04 0e 3e 02 2b 97 3b e7 4c f1 3c
       0.17183308 0.1386906 0.004613281 0.029455615
000150 6e b9 3c 3c 73 5a 52 3c 26 e1 28 3e 90 13 21 3d
       0.011518819 0.012838948 0.16492137 0.039325297
000160 23 9d ba bd e4 5d 19 bd db 1c 82 bd da e8 d0 bd
       -0.09112003 -0.037443057 -0.0635316 -0.10200663
000170 28 f9 b3 3c db 06 5c 3d 5a 83 98 bd 98 e5 1a be
       0.021969393 0.053717475 -0.07446928 -0.15126646
000180 d4 38 87 3d a4 7b 07 be 16 ca 02 be c0 72 d2 bc
       0.06602636 -0.13230759 -0.12772402 -0.025689483
000190 4d 2c 7e bd eb 15 8a be b2 0a a0 3d 20 79 e4 bd
       -0.062053967 -0.26969847 0.0781454 -0.11155915
0001a0 1a 84 f0 3d d9 e7 14 3e 9a 22 04 3e a4 1b 0c be
       0.117439464 0.14541568 0.12903824 -0.13682419
0001b0 f1 53 d0 bd 74 c9 46 be 44 47 e8 3c 57 a3 1c be
       -0.101722606 -0.19412786 0.028354295 -0.15296684
0001c0 b5 de 2f 3b 6a 27 ef ba a9 3c d8 bd fe e5 5c be
       0.0026835625 -0.0018245999 -0.10558445 -0.2157211
0001d0 45 08 10 3e c9 bc 43 be 2c 03 aa bd 24 b3 6d bd
       0.14065655 -0.19114985 -0.08301386 -0.05803217
0001e0 fe a3 0c be ef 84 3b bd 6b c9 5a bc 2c 85 32 be
       -0.13734433 -0.045781072 -0.013353686 -0.17433614
0001f0 b8 b2 2b 3d 87 41 83 bc b9 60 24 3d dc 57 16 3d
       0.041918486 -0.016022457 0.040131304 0.036704883
000200 cd 44 80 bc bb 43 64 3d 65 e9 d3 3d c4 06 04 bc
       -0.015657807 0.055728655 0.10347251 -0.008058254
000210 ca 00 1e be e0 0a ad 3d ef bf ac 3d 1e b8 83 bc
       -0.15429989 0.0844934 0.08435046 -0.016079005
000220 1a 24 25 3e 26 ab 95 be 62 5e ce 3c e6 15 82 be
       0.16127053 -0.29232138 0.02519149 -0.25407332
000230 2c f1 85 bd ff d3 51 be ac 98 dd bd 01 69 7f bd
       -0.065401405 -0.20491026 -0.108201355 -0.062356
000240 7c 62 48 bd 08 4d f5 3d 04 ad 8a bd 25 6d 82 3d
       -0.048922047 0.11977583 -0.06771281 0.06368474
000250 04 28 e8 bd b3 51 08 be 97 79 19 be 00 96 25 bd
       -0.113357574 -0.13312416 -0.14987789 -0.040426254
000260 55 a7 39 3b cf ed 08 be ae 63 79 3b 0d 07 db 3d
       0.0028328497 -0.13371967 0.0038053798 0.10694704
000270 e2 90 be be fc 30 8d 3d e0 17 37 3d 76 42 10 bc
       -0.37219912 0.06894109 0.044700503 -0.008804908
000280 1b 3b 12 3e e7 1a 23 3e 1a 1d d8 3d cc 9b 42 be
       0.1428036 0.15928231 0.10552426 -0.19004744
000290 55 1a 29 be 3d 19 61 3d a6 34 96 bd d1 ba a4 3d
       -0.16513951 0.05495571 -0.07334261 0.08043445
0002a0 b1 0e 6e bc c9 3f 9b bc 30 e1 03 3e 90 13 b5 3d
       -0.01452987 -0.018951314 0.12878871 0.08841622
0002b0 29 b6 26 3e da 3d 09 be 1b 4a 02 3d 20 bb d0 bd
       0.16280426 -0.13402501 0.031808954 -0.10191941
0002c0 73 4e 06 3e 99 b7 0a 3e ed 99 24 3e e8 52 93 3d
       0.13115864 0.135466 0.16074343 0.071935475
0002d0 d8 2e 4d 3d 64 a1 2c bc 67 9c d7 3d 53 50 9f bd
       0.0500935 -0.010536525 0.10527878 -0.077789925
0002e0 e3 d8 90 3d f3 9d a5 bd 79 fb e2 bc 0f c3 f5 bd
       0.07072618 -0.08086767 -0.027707802 -0.12000095
0002f0 cb 10 38 bd 8e 19 2c be 21 31 24 3e 85 50 cc 3c
       -0.04493789 -0.16806623 0.16034366 0.024940738
000300 e7 eb ec 3d cb c0 6b bd b7 af 20 be cf 03 39 3d
       0.11568432 -0.05755691 -0.1569203 0.045169648
000310 5c 1c 2c bd 9e 26 0e bd 4e 0b 34 bd d8 71 c9 bd
       -0.042019233 -0.034704797 -0.043956093 -0.09836167
000320 46 a5 b2 3d 25 a1 fb 3e 74 f4 53 3e 7b cf 89 bc
       0.0872293 0.4914638 0.2069872 -0.016822567
000330 09 60 af 3d 28 0d 59 3e d9 23 3a be a5 e9 58 be
       0.08563239 0.21196425 -0.18177737 -0.21182878
000340 8c 8e 92 bd 47 f5 4b bd 00 7c 40 bd af 18 c5 bc
       -0.07156095 -0.04979446 -0.046993256 -0.024059622
000350 f3 c0 66 be 0d 4a 3f bd e3 ba a5 3e 0b ba 99 3e
       -0.22534542 -0.04670148 0.32369146 0.30024752
000360 df 47 2f be 74 cc 90 be 29 85 19 3e b6 7d 9b 3c
       -0.1711726 -0.28280985 0.14992203 0.018980842
000370 f9 9e c4 3e b1 c4 1b 3d 18 36 b2 3d f7 da b2 bd
       0.38402537 0.038029376 0.08701724 -0.087331705
000380 1e 50 88 3d 75 fb 5f bd 2d d9 ed bd 4d e8 b7 3d
       0.06655906 -0.054683167 -0.116136886 0.08979855
000390 0e 43 2c 3e 61 00 85 bd c2 77 48 3e a8 16 6a 3d
       0.16822454 -0.06494213 0.19576934 0.057150513
0003a0 01 d0 37 3d dc c5 03 be fa 98 9d 3e 43 8b df bd
       0.044876102 -0.12868446 0.30780774 -0.10915234
0003b0 75 f6 a5 3e 2a 5a 9f 3e c1 73 85 be 16 54 0d be
       0.32414594 0.31123477 -0.26064876 -0.13801607
0003c0 6f 39 67 bd db f5 5e 3e 52 4f fb bd 27 e5 51 be
       -0.056451257 0.21773474 -0.122709885 -0.20497571
0003d0 ff 20 70 3e c9 5c 66 be 38 96 ab bc 2f db 25 bd
       0.23450087 -0.22496332 -0.020945653 -0.040492233
0003e0 13 31 45 bd fb bd 1e 3d be 25 d4 bd 11 7c 26 bc
       -0.048142504 0.0387554 -0.10358761 -0.010161416
0003f0 48 e8 fe bd 97 87 cc 3d 7f f2 e8 3e 76 82 29 3e
       -0.12446648 0.09986799 0.4549751 0.16553673

lstm.bias_hh_l0 f4 [256]
000000 05 f0 2e 3e 16 a0 2b 3e b4 42 f9 bd e3 d2 ad be
       0.17083748 0.16760287 -0.12170926 -0.33949956
000010 73 c4 76 3a 24 5c ae bd d4 59 25 be ff 60 df bd
       0.00094134285 -0.08513668 -0.16147548 -0.109071724
000020 67 16 d8 3d 42 7b ed 3e e8 6a af bc 12 40 01 3e
       0.10551148 0.463831 -0.021413282 0.12622097
000030 18 c5 d1 3d b4 b8 41 3e f9 94 b8 bd e3 03 a2 3c
       0.10242671 0.18918115 -0.09012789 0.019777244
000040 bd 0f f0 bc fd 2d ae 3d b5 b0 58 b9 0c 24 24 be
       -0.02930438 0.08504865 -0.00020665194 -0.16029376
000050 b3 f8 b0 bd d5 a8 db 3d f0 dd 79 3e cf 70 3b 3e
       -0.086411856 0.107255615 0.24401069 0.18304752
000060 37 22 01 3c e4 eb 08 3e ba 49 70 3d 71 c1 12 be
       0.007881693 0.13371235 0.05866406 -0.14331605
000070 5c e8 5a 3e fa 92 98 3d a6 77 81 bd 7b 12 15 bb
       0.213777 0.074499086 -0.06321649 -0.002274661
000080 52 67 27 3e 4a 40 08 be d5 fb 74 3c 0d 0b 94 ba
       0.16348007 -0.13305774 0.01495262 -0.0011294797
000090 1e b8 e7 3b f7 98 85 bd 12 cb 91 3e 92 ba 1c bd
       0.007071509 -0.06523316 0.28475243 -0.038263865
0000a0 11 89 0a 3e ef ce 4f 3e fa 0c 66 3e 5e 40 08 bd
       0.13528849 0.20293783 0.22465888 -0.03326451
0000b0 45 ad 99 3d b1 61 b8 bc 15 a7 f0 bd 73 64 8f 3b
       0.07503752 -0.02250752 -0.11750618 0.004375988
0000c0 30 b9 43 bb 18 a1 44 3e b0 9e 79 3d 53 59 79 bd
       -0.002986502 0.19202077 0.06094235 -0.0608762
0000d0 1c 12 8e bb b0 62 40 bd d9 70 4d be 81 16 08 be
       -0.004335655 -0.046969116 -0.20062579 -0.13289835
0000e0 1b 5c 0b be 55 1e 09 bd 26 f7 3c 3c b4 98 d7 bc
       -0.13609354 -0.033476193 0.011533534 -0.026317932
0000f0 1e 41 2c bd 57 bd ad 3d d6 2f ad 3e ce cc 59 3e
       -0.042054288 0.08483379 0.33825558 0.21269533
000100 09 cd ef 3d 83 ac 43 bc 53 b0 7b be 01 2a 4d 3e
       0.11709029 -0.0119429855 -0.24578981 0.20035554
000110 57 24 94 bc 78 8a 61 be c8 f4 8a 3d f5 fd ab bd
       -0.018083734 -0.22025478 0.067849696 -0.08398048
000120 c1 a4 95 be d5 d0 fc 3d 8c 7c a9 bd d0 a3 08 3e
       -0.2922726 0.12344519 -0.082757086 0.1334374
000130 ce 91 12 3e c8 1e 29 3e eb b9 a5 3d a2 ab 82 be
       0.14313433 0.16515648 0.08092102 -0.2552157
000140 ce 73 9b 3d e1 26 41 3e 71 5b 13 3b f4 9a 44 be
       0.07590447 0.18862487 0.0022484923 -0.19199735
000150 ac f6 4b bd e4 c4 cb 3d ba e6 07 3e 10 dc 06 3e
       -0.04979579 0.09949663 0.13271609 0.13169885
000160 95 ba 10 be 7a b9 17 bd c9 06 b9 bd f8 4a e4 bd
       -0.14133675 -0.03704212 -0.09034497 -0.11147112
000170 50 01 3c 3e 93 28 c5 3d f3 26 45 bd bd 0a 21 3d
       0.18359876 0.096268795 -0.048132848 0.03931688
000180 86 20 0b 3e 84 f1 8e bd 1f 18 31 3d b3 21 03 3d
       0.13586625 -0.06979659 0.043235894 0.03201456
000190 bc 4b 64 bd bb 7d 95 be 8b 1d 29 3d 82 28 1a be
       -0.05573629 -0.29197487 0.04128794 -0.15054515
0001a0 f2 78 47 3e 72 32 2e 3c 51 cb 93 bd ea c7 89 3d
       0.1947973 0.010632144 -0.07216514 0.06727584
0001b0 78 16 08 3c aa b5 a8 bd 0e 1a 98 3d 4b 02 f1 bd
       0.008306138 -0.08237775 0.074268445 -0.117680155
0001c0 95 2a 02 3e cc a2 dc 3d 73 ef 9a bd 01 f2 14 be
       0.12711556 0.107732385 -0.075652026 -0.14545442
0001d0 76 f5 b1 3d e8 a5 0d be 60 bf 89 bd 2a 7b 77 be
       0.08689396 -0.1383282 -0.06725955 -0.24168077
0001e0 b6 77 35 bb e8 b9 8f bc be a4 a9 bd e9 3c df bc
       -0.0027689761 -0.017544702 -0.08283375 -0.027250724
0001f0 55 24 b9 3d b5 96 3c 3c 1e 71 ce bc 3c a7 14 3d
       0.09040133 0.011510541 -0.025200423 0.0362923
000200 8c cf 98 3d 46 41 d7 bd 76 c7 45 3d 25 8d ff 3d
       0.074614614 -0.10510497 0.048285924 0.12478093
000210 8e 88 59 3d b8 63 0d 3c 3d 85 01 bd 35 e4 92 bc
       0.053108744 0.008629732 -0.031621207 -0.017931083
000220 46 39 36 3e 60 28 e0 be 81 59 c4 3d a8 d3 09 be
       0.17795286 -0.43780804 0.09587384 -0.13459647
000230 b2 64 d8 bd 5c 38 a4 be 1f 1a 4b 3d af ef a3 bc
       -0.10566081 -0.3207425 0.049585458 -0.020011751
000240 96 19 9c bd 67 bb 5e 3e 9c bd 7b 3d 07 28 98 bd
       -0.07622068 0.21751176 0.061460122 -0.074295096
000250 57 9c 33 3d e5 a5 03 bc 35 3b 8b bb 0c 64 81 bd
       0.04385027 -0.008035158 -0.0042490014 -0.063179106
000260 46 67 4b 3d bf 6e b1 3d e1 33 c1 bd f1 cb 11 3d
       0.049659036 0.08663701 -0.09433723 0.035594884
000270 55 1c 10 be 3f 63 d8 bc 78 02 db bd cd b7 8c bd
       -0.14073308 -0.026414512 -0.1069383 -0.06870995
000280 48 25 f8 3b 9e fa 30 3d b4 70 c9 3d d9 5f 2f bd
       0.0075728036 0.043207757 0.098359495 -0.042816017
000290 f8 87 01 be 0b 88 f9 bc 27 5e 6a be 6a 40 bd bd
       -0.12649524 -0.030460378 -0.22887479 -0.09240802
0002a0 11 5e ba bc 74 ab 12 be 41 65 db 3d 87 1b 95 3d
       -0.022749932 -0.14323217 0.10712672 0.07280641
0002b0 c8 8e b7 3d 97 2d 6d bd 23 ea 5b bd 99 de ab 3d
       0.0896278 -0.057904806 -0.053690087 0.083920665
0002c0 15 b5 1f 3e 71 6e 1d bd 03 0f 16 3e fc 97 c1 bd
       0.15596421 -0.038435403 0.14654164 -0.09452817
0002d0 d8 83 11 3d ff bf e6 3a 30 3e 5d bc 1e 2e a4 bc
       0.035526127 0.0017604827 -0.013503596 -0.020041522
0002e0 5f d7 83 3c 4e 68 ed bd 91 2d 0e 3e 7c 95 76 bd
       0.016093908 -0.1159216 0.1388457 -0.060201153
0002f0 a9 f0 9f b9 40 59 55 be b4 1b e3 3d 4b 11 8e bd
       -0.0003050615 -0.20834827 0.11089268 -0.06936892
000300 9c bb 46 bd 3d ab 29 3d 15 e4 b1 bc b1 20 36 3e
       -0.048518762 0.04142307 -0.021715203 0.17785908
000310 ab 6d 36 bc a6 a8 1a bd 69 b4 a6 3c 70 b3 f2 3d
       -0.011134545 -0.037758492 0.020349698 0.11850631
000320 f1 22 da 3d f7 75 94 3e a3 98 ef 3d 7d 14 55 bd
       0.10651196 0.2899625 0.11699035 -0.052021492
000330 9e 38 d5 bd cd e0 9e 3e cb 33 82 be da ae e1 bc
       -0.104111895 0.31030884 -0.2543014 -0.027549196
000340 c0 a7 bf bd 45 52 e2 3d c7 77 ee bd 12 ee c7 bd
       -0.09358168 0.11050848 -0.116439395 -0.09762205
000350 84 cb bc bd c7 38 5b bd 89 ce 8a 3e e9 e4 35 3e
       -0.09218505 -0.053520944 0.271107 0.17763104
000360 b1 7f 83 bd 35 e2 d6 bd d3 eb 6e 3e 73 26 86 3d
       -0.064208396 -0.10492364 0.23332147 0.06550302
000370 bc a7 03 3f a9 14 b8 3d 02 06 48 bd 81 d2 13 bd
       0.5142782 0.089883156 -0.048833854 -0.036089424
000380 d7 37 68 3e 24 89 09 3d de 69 e5 bc 75 d0 b2 bb
       0.22677551 0.033578053 -0.028004583 -0.005456979
000390 66 70 93 3e 92 e5 9e 3c 55 70 27 3e d6 b1 9d 3c
       0.2879669 0.019396577 0.16351445 0.019249838
0003a0 f7 7f fc bd e1 1d 19 bd 45 eb ca 3e c5 7d 21 3d
       -0.12329095 -0.03738201 0.3963262 0.039426584
0003b0 5f bc 4d 3e 87 0b 68 3e 33 8f 8c be eb 18 12 be
       0.20091389 0.22660647 -0.27453002 -0.14267318
0003c0 5a e2 fd bc 73 14 6d 3e 45 f6 d6 3d 18 2f d3 bc
       -0.030991722 0.23152332 0.10496191 -0.025779292
0003d0 96 2b 35 3e 83 ed 99 be a9 5f 31 be e4 58 b3 bd
       0.17692408 -0.3006402 -0.17321648 -0.08757189
0003e0 79 e3 08 3d c4 6b e0 bd d5 e6 82 3d 87 72 c4 3a
       0.03342006 -0.10958055 0.06391684 0.0014987745
0003f0 d0 6a 12 be e3 94 44 3e 28 5c ab 3e 60 b3 88 3e
       -0.14298558 0.19197421 0.33468747 0.26699352

final.weight f4 [1, 64]
000000 7d 63 4e bd c7 da 3d bd 44 55 c1 3c d7 86 e6 3e
       -0.05038785 -0.04635122 0.023600228 0.4502475
000010 44 25 06 bd 4d 81 98 3d fe 23 af 3d 7b fc ae 3d
       -0.032750383 0.07446537 0.08551787 0.085442506
000020 54 da 82 3e b0 fc 2b be 22 a9 e3 3d d6 02 d8 bc
       0.25557196 -0.16795611 0.11116244 -0.02636854
000030 81 03 84 3d 55 b4 c7 bd 8e ac e0 bd 6f cb 64 bd
       0.06445981 -0.097511925 -0.10970412 -0.055858072
000040 84 d8 14 bd 64 fa 8b 3d 8f 50 53 bd da 52 cf 3d
       -0.036339298 0.068348676 -0.0515905 0.101232246
000050 fe aa d1 bb 27 05 13 3d 60 64 08 bf 5a d2 d9 be
       -0.0063985577 0.035893586 -0.5327816 -0.42543298
000060 11 12 80 3c 51 ca 87 bc 26 a6 74 be 6a 65 21 3d
       0.015633615 -0.016575964 -0.23891506 0.039403357
000070 65 b6 6b be c9 fa b4 3d c7 51 5a be bf 45 b0 bd
       -0.23018797 0.08836896 -0.21320258 -0.08607053
000080 fb e5 9d 3e 27 17 59 3e 0d 82 24 bc b0 57 cf 3b
       0.30839524 0.21200238 -0.010040772 0.006327592
000090 12 3e 36 be ee 6a 8a 3d b4 95 16 be 56 dd 5f bd
       -0.17797115 0.067586765 -0.14705545 -0.05465444
0000a0 78 87 59 bc 94 8f 9c bd a1 0a c3 3e f9 ce 8b bd
       -0.013276927 -0.07644573 0.38094047 -0.06826586
0000b0 17 fe 18 3e 47 63 a7 bd 30 cf 9e 3c 0c 2f 39 bd
       0.14940678 -0.081732325 0.019385904 -0.045210883
0000c0 c7 f0 80 3c 46 b8 b9 3e ad 5b 31 3d 70 df 00 3c
       0.015739812 0.36273402 0.04330032 0.007865772
0000d0 c8 ef ce 3d 9a 96 e5 bb bf e7 92 3d c6 7f 20 bd
       0.101043284 -0.0070064785 0.07173108 -0.039184354
0000e0 e7 a2 d0 bd e0 df 48 3d 4a 79 b6 3d 27 98 2a be
       -0.10187321 0.04904163 0.08909853 -0.16659604
0000f0 d2 ce 31 3c ef 23 86 be fc e2 9e 3d 43 45 32 3e
       0.010852532 -0.2619929 0.077581376 0.17409234

log_stdev f4 [6]
000000 f6 d8 e4 bf cd 03 1d c0 d5 da d1 bf e8 43 12 c0
       -1.7878711 -2.453357 -1.6394907 -2.2853947
000010 c9 d0 d3 bf b9 bf dd bf
       -1.6548091 -1.7324134

affine_layers.0.weight f4 [64, 17]
000000 64 08 b9 bc bc 5b 80 bd de cf b6 be a1 91 b4 3d
       -0.022587009 -0.06267497 -0.35705465 0.08816839
000010 08 9f c6 be 94 47 92 bd 87 ab 5c bc f5 d3 58 be
       -0.38793206 -0.07142559 -0.01346863 -0.21174605
000020 e8 d4 cd be b4 bf 50 be 2d 32 25 bc 88 c8 01 3e
       -0.40201497 -0.20385629 -0.010082764 0.12674153
000030 0d 02 a3 3d 5a 21 10 bd 27 fc 86 3e 54 23 b6 bd
       0.079593755 -0.035188057 0.26364252 -0.08893457
000040 8d 9c e1 bc f8 8c 37 3e 87 4a 31 3d be 4e 8c 3d
       -0.02754047 0.17924869 0.043283965 0.068509564
000050 d7 98 b2 3d 43 26 12 3e 23 48 86 3e 8e 3d d1 3e
       0.08720558 0.14272408 0.2622691 0.40867275
000060 5c f3 85 bd a6 12 0a be 6a 8e 02 3e 51 9d 83 be
       -0.06540558 -0.13483676 0.12749639 -0.2570596
000070 02 29 b5 3e eb 95 b2 3b a0 89 04 3c 45 b5 b4 3e
       0.3538285 0.0054500005 0.008089453 0.35294548
000080 6c 51 84 bc de 5c c1 bd ad 21 4b bd 6e 49 76 3e
       -0.016152106 -0.09441541 -0.049592663 0.24051449
000090 ce a6 1a be 61 b1 b6 be 6e 09 2f 3e d1 b5 40 3d
       -0.15102693 -0.35682204 0.17093441 0.047048394
0000a0 de 80 6f bd 85 08 96 3e 80 0b 6d bd af 54 d3 bd
       -0.058472507 0.29303375 -0.057872295 -0.103188865
0000b0 ea 99 d3 bd c9 36 dc 3d 1f c5 42 be 29 2a 48 bc
       -0.10332091 0.10752637 -0.19020508 -0.012217083
0000c0 61 96 c2 3d 33 cc 0a be e0 5c 04 be 75 e2 34 be
       0.09501339 -0.13554458 -0.12926054 -0.17664512
0000d0 44 07 cc 3c 2d e3 ab 3e e3 52 a0 3a 0a 7e a2 3c
       0.024905808 0.3357176 0.0012231733 0.01983549
0000e0 d5 05 e0 bd 71 19 e8 be d7 41 75 be bf 99 34 be
       -0.10938612 -0.4533191 -0.23950897 -0.17636774
0000f0 00 b0 f7 3b 44 1e b6 3d b4 9d 30 be 90 8e 96 39
       0.0075588226 0.088924915 -0.17247659 0.00028716447
000100 ec 6c 9b 3e 6b ba 2c bc ed 60 41 3e 2b e0 9a 3d
       0.30356538 -0.010542492 0.1888463 0.07562288
000110 05 1d 09 3d a2 0e 4a be 08 17 b0 3c 62 26 b8 3c
       0.03347494 -0.19732144 0.021495357 0.02247924
000120 42 b6 77 be 6b 3e 06 be ed ba 53 be 59 49 09 be
       -0.2419062 -0.13109748 -0.20676775 -0.13406886
000130 f0 0e ca 3a ef 12 bd 3d f6 ce 51 3e 25 50 bf bd
       0.0015415829 0.09232127 0.20489106 -0.09341458
000140 fb d3 ab 3d c7 d2 42 be 10 14 35 be 71 fa 4c 3e
       0.083900414 -0.19025718 -0.17683434 0.20017411
000150 e6 a7 44 bd 47 d1 06 3e a4 46 b9 be 6c 57 73 3e
       -0.048011683 0.1316577 -0.36186707 0.23763818
000160 1e 62 2e 3e a8 a8 e2 3e 78 a8 b8 bc 21 98 ea 3d
       0.17029616 0.442693 -0.02254127 0.114547975
000170 8d 34 d5 3e 7c 96 1f be 38 33 95 be 4d 28 9f 3e
       0.41641656 -0.15584749 -0.2914064 0.31085435
000180 a0 cd b6 3d ea 9f 89 be 5d 17 71 be 33 0d 3c bd
       0.089259386 -0.26879817 -0.23544069 -0.045911025
000190 02 49 4e be 66 87 d5 3c 7b 3b 82 bd 14 08 e4 3d
       -0.20145038 0.02606554 -0.06359001 0.11134353
0001a0 61 1d 0e be 84 af 74 be 99 4b 97 3d 3a b3 40 be
       -0.13878395 -0.23895079 0.07387466 -0.1881837
0001b0 82 c7 03 3e 92 9c 13 3e 7c 1d 50 be e9 b7 42 bd
       0.12869075 0.14415196 -0.20323747 -0.04753867
0001c0 1f 17 d8 3c f7 08 a4 be 3e f8 97 be bb 21 86 bd
       0.026378212 -0.3203809 -0.2968158 -0.06549402
0001d0 3c 00 08 3e be 90 d4 bb 24 c1 15 bd 65 a8 97 bd
       0.1328134 -0.006486981 -0.036561146 -0.074051656
0001e0 ef 01 52 bd 00 5b c5 bd 64 5e 9b 3d 35 fc c5 be
       -0.051271375 -0.096364975 0.07586363 -0.3866898
0001f0 ec 9f a8 bd 68 06 a3 bd f3 26 32 be ad 48 68 3d
       -0.08233628 -0.07960206 -0.1739767 0.056709934
000200 9f 46 86 be 0d 98 bc bd 2d 60 c3 bd c7 0c a9 3d
       -0.26225755 -0.09208689 -0.095398284 0.0825439
000210 79 a7 9e bd 33 82 c2 3d 4c 3a 1a 3e db 3e b5 3c
       -0.077467866 0.0949749 0.15061301 0.022124698
000220 7c 76 77 be 34 a6 a4 bd 7b 8b 85 be 95 22 b2 be
       -0.24166292 -0.08039513 -0.26082978 -0.3479201
000230 1b 57 cc bd c9 cc 9c 3d 8c 72 36 be 7b 95 29 3e
       -0.099775515 0.07656247 -0.17817134 0.16560929
000240 66 e4 3c be b6 9f 8a 3d 27 25 b4 ba 2a e9 82 3e
       -0.18446502 0.06768744 -0.0013743982 0.25568515
000250 73 5c 70 bd b3 51 d0 3d c3 c0 05 3e 34 d8 15 be
       -0.058681916 0.10171833 0.13061814 -0.14633256
000260 e0 43 9b 3e c8 bd 1f bc 18 23 24 be 17 52 8b 3d
       0.30325222 -0.009749837 -0.16029012 0.06802767
000270 2d 57 8b be b8 9a 67 3d a3 e4 d9 3e f4 1b 93 bd
       -0.27214947 0.056544036 0.42557248 -0.07183066
000280 ea 1a a0 bc 2e c7 54 3d ea 23 4d 3e e4 60 ad be
       -0.019544084 0.051947765 0.20033231 -0.33862984
000290 a5 b7 74 bd 5f a5 16 be f3 6d 58 3e 0f f3 83 3b
       -0.05974545 -0.14711522 0.21135692 0.0040267776
0002a0 16 69 d6 bd 1d 02 a9 3a e0 81 c5 be f4 6c 22 be
       -0.10469262 0.0012894307 -0.3857565 -0.15861875
0002b0 24 ca 59 3d 4e 40 58 be 61 fb 98 bd 65 f7 11 3e
       0.053171292 -0.2111828 -0.07469822 0.1425453
0002c0 ac ac 0f 3d fa 89 fa 3d a9 16 95 bd 2a ff 59 3c
       0.035076782 0.12233348 -0.07279713 0.013305465
0002d0 4f d9 36 3e fd a1 76 be 10 d7 95 bd 26 93 c8 3d
       0.17856334 -0.24085231 -0.073164105 0.09793691
0002e0 19 b1 dc bc 83 25 d5 bd de 13 65 bc e9 c3 3e 3e
       -0.026939915 -0.104075454 -0.0139817875 0.18629421
0002f0 0e ba 45 3e 21 d7 43 3e b2 29 a4 be 77 ac f8 3c
       0.19309255 0.19125034 -0.3206306 0.030355675
000300 01 71 99 bd 4e 1d 94 3e 2e 0f 2b be b0 8e 29 3c
       -0.07492257 0.28928608 -0.1670501 0.010348961
000310 db 60 30 3e 58 88 d8 bb 0d 64 b0 bc 80 cc 92 be
       0.17224447 -0.0066080503 -0.021532083 -0.28671646
000320 65 1f 33 bd 74 bb a0 3e ca 93 0b bc 54 cc 9c 3d
       -0.043731112 0.31393015 -0.008519122 0.0765616
000330 c0 d2 8e bd c2 38 3e bd 07 16 09 3e 4f 7d a4 3e
       -0.06973791 -0.046440847 0.13387309 0.32126853
000340 ef 5c d9 bd a0 e7 7f be c5 d8 80 3d cf 52 ed 3c
       -0.10613429 -0.24990702 0.062913455 0.02897015
000350 a1 fd b2 be 5a ee b9 bd 8c fd bb bd 73 ec 62 3e
       -0.34959128 -0.09078665 -0.091792196 0.2216051
000360 4b ff 9e bc 98 29 0c 3e f7 85 23 3d a0 b2 5b be
       -0.019408843 0.13687742 0.03992268 -0.21454859
000370 96 56 bf 38 db 8f dc b9 be f0 51 3d bb a2 66 bc
       9.1237176e-05 -0.0004206885 0.05125498 -0.014076884
000380 85 7b 94 3e 91 49 4d bd 2a f8 5c be 9d 17 27 3e
       0.29000488 -0.050118987 -0.21579042 0.16317602
000390 a3 5c 4b 3e a7 a4 88 bd b0 7d 49 bc 20 1b 49 3e
       0.19859557 -0.0667203 -0.012298033 0.19639254
0003a0 84 ed ce 3d 15 94 f0 3d 2d 8a ee bd 5b a4 7e bd
       0.10103896 0.117469944 -0.11647449 -0.06216846
0003b0 75 c9 80 be 3a 70 51 3e b7 1e 2c 3d f7 3d 60 3d
       -0.251537 0.20452967 0.04202148 0.054746594
0003c0 00 20 15 3e c2 9b 24 3e 48 cc 2d bd cf ba d0 3d
       0.14562988 0.16075042 -0.042431146 0.10191881
0003d0 0c e2 9f be ac 1d 84 be 14 c0 ad 3d 2e a9 93 3e
       -0.31227148 -0.25803888 0.084839016 0.2884001
0003e0 0d b5 0b 3e 1c ec 6e 3d 0d 6a 0a 3e 81 17 7d 3e
       0.13643284 0.05833064 0.13517018 0.24715997
0003f0 c4 ec 72 3e 28 98 1b be 02 28 3d 3e c1 7e ae 3d
       0.23723131 -0.15194762 0.18472293 0.0852027

affine_layers.0.bias f4 [64]
000000 00 00 00 00 00 00 00 00 00 00 00 00 00 00 00 00
       0.0 0.0 0.0 0.0
000010 00 00 00 00 00 00 00 00 00 00 00 00 00 00 00 00
       0.0 0.0 0.0 0.0
000020 00 00 00 00 00 00 00 00 00 00 00 00 00 00 00 00
       0.0 0.0 0.0 0.0
000030 00 00 00 00 00 00 00 00 00 00 00 00 00 00 00 00
       0.0 0.0 0.0 0.0
000040 00 00 00 00 00 00 00 00 00 00 00 00 00 00 00 00
       0.0 0.0 0.0 0.0
000050 00 00 00 00 00 00 00 00 00 00 00 00 00 00 00 00
       0.0 0.0 0.0 0.0
000060 00 00 00 00 00 00 00 00 00 00 00 00 00 00 00 00
       0.0 0.0 0.0 0.0
000070 00 00 00 00 00 00 00 00 00 00 00 00 00 00 00 00
       0.0 0.0 0.0 0.0
000080 00 00 00 00 00 00 00 00 00 00 00 00 00 00 00 00
       0.0 0.0 0.0 0.0
000090 00 00 00 00 00 00 00 00 00 00 00 00 00 00 00 00
       0.0 0.0 0.0 0.0
0000a0 00 00 00 00 00 00 00 00 00 00 00 00 00 00 00 00
       0.0 0.0 0.0 0.0
0000b0 00 00 00 00 00 00 00 00 00 00 00 00 00 00 00 00
       0.0 0.0 0.0 0.0
0000c0 00 00 00 00 00 00 00 00 00 00 00 00 00 00 00 00
       0.0 0.0 0.0 0.0
0000d0 00 00 00 00 00 00 00 00 00 00 00 00 00 00 00 00
       0.0 0.0 0.0 0.0
0000e0 00 00 00 00 00 00 00 00 00 00 00 00 00 00 00 00
       0.0 0.0 0.0 0.0
0000f0 00 00 00 00 00 00 00 00 00 00 00 00 00 00 00 00
       0.0 0.0 0.0 0.0
