src/models/atla_release/LSTM-PPO/model-lstm-ppo-hopper.model (torch_old, 861209 bytes, 54 tensors)

embedding_layer.weight f4 [64, 11]
000000 b5 b2 27 3d dc 86 da bc 40 a0 c7 bd 1d 54 76 be
       0.040941913 -0.026675634 -0.09747362 -0.24055524
000010 c4 3e 49 3e e1 b6 16 3e d1 d5 1c be b4 37 c8 3d
       0.1965285 0.147182 -0.1531594 0.097762495
000020 5f 2b 72 be c4 a7 a8 be 08 70 c3 3d e2 39 04 3f
       -0.23649357 -0.32940495 0.09542853 0.5165082
000030 c8 04 96 bd a9 f9 e8 bd 0b 92 19 3b 71 3a 05 bf
       -0.07325131 -0.11375744 0.0023432996 -0.520423
000040 27 11 45 bd 3c c2 3b be a0 f8 24 3e dd e6 8d be
       -0.04811206 -0.18335813 0.16110468 -0.27715197
000050 9d c5 85 be 26 31 a9 be 6d e6 97 3d ce c3 24 3d
       -0.2612733 -0.3304531 0.07416997 0.040225796
000060 45 7e b5 3e 32 58 84 3d 9b a2 cb be 85 8a 13 be
       0.35447899 0.064621344 -0.39772496 -0.1440831
000070 bc b9 95 bd c4 b5 fa 3d 5d 5d fb 3c f0 93 88 3d
       -0.07310817 0.122417 0.030684168 0.06668842
000080 cb d9 ac bd fa d5 89 bd bb c8 32 3c da 25 1e 3e
       -0.08439978 -0.06730266 0.010912116 0.15444127
000090 35 24 34 bc 64 cd 19 be db f0 05 be ca 5f e8 bd
       -0.010994961 -0.15019757 -0.1308016 -0.11346395
0000a0 de d4 47 be be 00 81 3e 88 d5 7d 3e 26 18 68 be
       -0.19514796 0.2519588 0.24788487 -0.22665462
0000b0 6d 14 f7 3d 41 c9 11 be a5 9b 0a 3f 65 e9 f5 3e
       0.12064443 -0.14236929 0.54143745 0.48029628
0000c0 c9 fb 4a 3e 58 db 90 be 47 74 7e 3e 95 88 8e 3d
       0.19822611 -0.28292346 0.24849044 0.06959645
0000d0 57 77 d3 bd 32 01 0f 3d 78 3d f4 bc 47 6f 3d 3d
       -0.10325497 0.03491325 -0.029814467 0.0462487
0000e0 9f 8e 7e bc c2 ba dc be 93 e5 ad be d1 29 5f bd
       -0.015536933 -0.43111235 -0.33964214 -0.05448324
0000f0 54 91 31 bd f5 20 2b be 82 31 50 bd 7c e5 9f 39
       -0.043351486 -0.16711791 -0.050828464 0.00030497822
000100 97 db 06 be 41 72 32 bc 70 ad 21 3b 69 a0 3e 3e
       -0.13169704 -0.010891498 0.0024670027 0.18615879
000110 96 1b 17 bf 30 6e f7 be f8 d6 91 be cf ef 16 3f
       -0.5902647 -0.48326254 -0.2848432 0.5895967
000120 b6 14 9b be 94 17 fe 3d ec ea d8 3b 2b be cb be
       -0.3028924 0.12406841 0.0066198017 -0.39793524
000130 2d ab 97 be 7f 65 4c bc 98 a7 a7 bd b1 75 05 3e
       -0.29622784 -0.01247537 -0.08186263 0.13033177
000140 98 9f 68 3e 72 93 88 3e bc 8d 24 bf 48 29 52 3e
       0.2271713 0.26674992 -0.6427877 0.2052356
000150 99 8e 36 3e 2b 80 13 bf ca 8a c6 be 6e 04 a5 3d
       0.17827834 -0.57617444 -0.38777763 0.080574855
000160 37 0c 96 be 6b d3 4c 3e cc e0 a7 be 67 8c 1f be
       -0.29306194 0.20002525 -0.32788694 -0.15580903
000170 7c 47 55 3d a3 1b c5 be f4 02 51 3e e7 12 a4 3e
       0.052070126 -0.38497648 0.20411283 0.3204567
000180 21 d8 a9 be 45 74 88 be b3 03 28 3e 87 98 a9 be
       -0.33172706 -0.26651207 0.16407661 -0.33124182
000190 fa 71 9c 39 b7 0b b8 3d 9f c6 a5 3c 76 78 11 3e
       0.00029839558 0.089866094 0.020236311 0.14206108
0001a0 19 24 ed bd b9 54 ec 3c 32 d5 8e 3d 39 dd 73 be
       -0.11579151 0.028848993 0.069742575 -0.23814858
0001b0 24 9b be bd 48 bb f5 3d f0 7c da 3d 64 dc f1 bd
       -0.093069345 0.11998612 0.10668361 -0.11809614
0001c0 69 df 69 be f8 92 d4 be e1 c6 ab b9 39 f0 57 3e
       -0.2283913 -0.41518378 -0.00032763838 0.21087731
0001d0 f7 a5 26 be 14 8a ea 3b 87 de 93 be 00 7d ca be
       -0.16274248 0.0071575735 -0.28880712 -0.39548492
0001e0 e6 a3 e9 bd 8c 0a ad be 67 df 28 3e 72 f7 0e bf
       -0.11408214 -0.3379711 0.16491471 -0.5584632
0001f0 f0 6e cd bd 68 da 1f be 0b 27 e7 be b7 c0 6b 3d
       -0.10030925 -0.15610659 -0.45146975 0.057556834
000200 dc ed 77 3e 6e 5a 49 be d1 d6 3b 3e 88 3a 88 3e
       0.2421183 -0.19663402 0.18343665 0.26607156
000210 9b bd 17 3d 67 f6 6b 3d a3 72 eb 3e fb 0d a9 3e
       0.037046056 0.057608034 0.45985898 0.3301848
000220 ab 32 94 3d a1 a7 ba 3e 69 fe 9b be e1 4c a0 3d
       0.07236227 0.36456016 -0.30467537 0.078271635
000230 e4 60 a3 be c3 a4 a3 be 42 8e c6 bc 7d f6 85 3b
       -0.3190986 -0.3196164 -0.024237756 0.0040882216
000240 74 97 86 3d 3a 2d e8 be e0 7a 85 be 37 77 3a bc
       0.06571856 -0.45347005 -0.2607031 -0.011380962
000250 95 3f 3d 3d 3b ad 6e bc 0d ae 41 3a 17 a9 3f be
       0.046203215 -0.014567669 0.00073883013 -0.18716846
000260 e6 5a 50 be a6 c4 d0 bc 4f 33 90 be 9a 23 6c 3e
       -0.20347175 -0.025484394 -0.28164145 0.23060456
000270 aa 5f e6 be 63 ca 85 be 76 9d 4b bb b6 98 d0 be
       -0.4499486 -0.2613097 -0.0031069196 -0.4074151
000280 b3 15 14 3f d7 49 4a bd c4 7e 69 3e 73 f5 18 3f
       0.5784561 -0.049386825 0.22802263 0.59749526
000290 78 b2 0f bd 92 7b 95 be 3e 30 88 bc be 0d 9a bd
       -0.03508231 -0.2919584 -0.016624566 -0.07522152
0002a0 fb 0f 23 3d 29 c1 97 be 93 e6 0f bf 13 3f 48 be
       0.039810162 -0.29639557 -0.56211203 -0.19555311
0002b0 7b 44 b3 3d 4a 7b 22 be 25 f6 99 3d da e8 be bd
       0.08753296 -0.15867344 0.075176515 -0.09321757
0002c0 cc f9 93 3e 79 a6 83 3d 4a 25 d8 be 49 82 ea be
       0.28901517 0.064282365 -0.4221595 -0.45802525
0002d0 10 2c 0d be 18 5e 21 3f 51 38 15 3e 47 03 03 3d
       -0.1378634 0.630342 0.14572264 0.031985547
0002e0 97 07 90 be e5 20 c4 be 8a d4 25 3d 64 06 f8 bd
       -0.2813079 -0.38306347 0.040485896 -0.12110594
0002f0 4f 1b 2f bd 86 f1 12 bd 5c d1 a8 be a8 de a9 be
       -0.042750653 -0.035874866 -0.3297223 -0.33177686
000300 11 34 13 3f 07 7e 2e 3e 30 a0 ae be 79 ae da 3e
       0.5750132 0.17040263 -0.34106588 0.42711237
000310 b5 01 12 3e 81 ea 91 3d 98 62 89 3e 7f 86 a7 bd
       0.14258464 0.07124806 0.26833034 -0.0817995
000320 88 94 d0 bc 77 83 a6 3d b6 68 8a bc a2 4b d3 3d
       -0.02546145 0.08130544 -0.016895633 0.1031716
000330 fa 49 85 3c e5 6b a0 3e d2 e4 3f bf 26 2e 47 bf
       0.016270626 0.31332317 -0.7495853 -0.7780479
000340 5a e9 74 be 56 0d 27 be c4 a3 63 bc 69 84 67 3e
       -0.23917142 -0.16313681 -0.013894025 0.22609104
000350 f9 91 52 3e 7a 67 c1 3d db d7 03 3e d7 7d 0c be
       0.20563497 0.09443565 0.12875311 -0.13719879
000360 fd c1 de 3e 01 a0 2f bf d9 c7 24 bf c2 7d 2c 3d
       0.43507376 -0.6860352 -0.64367443 0.04211212
000370 e9 3b 55 bd 7e 35 8f be 11 ca d5 3e c0 9d 50 3e
       -0.052059088 -0.279705 0.41755727 0.20372677
000380 0a 4d 8d 3e c8 c1 97 3d 4e 06 85 3e 04 53 1e be
       0.2759784 0.07410008 0.25981373 -0.15461355
000390 2c 22 8d 3e 0e 32 b2 3e 7b 20 89 3e 45 2d 54 3e
       0.27565134 0.34803814 0.26782593 0.20720394
0003a0 67 33 8c bd 26 5b 75 be 6f 25 81 be fe 53 94 3d
       -0.06845742 -0.23960552 -0.25223872 0.07242583
0003b0 d5 2a 33 3e 20 3c 99 bd 84 0b 3b 3d 25 9f 8d be
       0.17496808 -0.07482171 0.04566528 -0.2766048
0003c0 f0 e5 a3 be f7 67 f4 bd 04 64 aa 3d 53 6d e5 3e
       -0.32011366 -0.11933892 0.08319858 0.4480997
0003d0 aa 8a 45 bf 8b 37 25 bf ba 41 0c bd a9 dd 96 3d
       -0.7716471 -0.64537877 -0.03424237 0.07366497
0003e0 c1 d2 80 be 41 de a8 3c dc d9 33 be 6a 5a 1c be
       -0.25160792 0.020613791 -0.17563576 -0.15268865
0003f0 bd 9d 04 be 94 57 63 3d 70 e0 19 be 36 82 12 3f
       -0.12950797 0.055503443 -0.15027022 0.57229936

embedding_layer.bias f4 [64]
000000 2a d9 5d be 32 3b aa be 0a 01 93 bc 39 26 4a 3e
       -0.21664873 -0.33248287 -0.017944831 0.19741143
000010 c0 f3 c7 3d 6c 22 e1 bd eb 5d 97 bd df 9e b4 be
       0.097632885 -0.109928936 -0.0739096 -0.3527746
000020 a6 3c e1 3d 65 c2 70 bd b8 9c c7 be 87 28 80 bc
       0.10997896 -0.05877914 -0.38986754 -0.015644325
000030 5a 50 54 3c fd a5 43 be 81 43 83 3e 86 07 8a 3c
       0.01295861 -0.19106288 0.2563744 0.01684929
000040 76 5e 07 bf 14 c5 d2 3d 04 e4 0f bf 22 63 a1 be
       -0.5287851 0.10291496 -0.562073 -0.31520945
000050 80 4b 0f 3e e9 62 9f be ff b5 89 bd 81 47 1d 3e
       0.13993645 -0.3113015 -0.06724166 0.15359308
000060 28 af 1b 3e 01 67 0b be 81 2c 76 bd 49 46 ad 3d
       0.15203536 -0.13613512 -0.060101036 0.084606715
000070 3b 61 66 3d 3b ad de 3d 27 01 76 be 80 1b 82 3e
       0.05624507 0.10872885 -0.24023877 0.25411606
000080 f2 2c a6 3e 1d a8 b6 3e e6 26 dd 3d 44 3c 2d be
       0.32456166 0.35675135 0.10798435 -0.16917521
000090 8f 2b 96 be 54 42 e3 3e 4d 58 56 bc 40 ba 38 be
       -0.29330108 0.44386542 -0.013082576 -0.18039799
0000a0 f3 a0 5b be cf c2 69 be 11 3c a2 3e 59 3f 25 be
       -0.21448116 -0.2282822 0.31686452 -0.16137446
0000b0 66 ee 41 3e ec dd 82 bd c8 e3 4c be 85 9f 0b 3d
       0.18938598 -0.063899845 -0.20008767 0.034087677
0000c0 91 c4 dd bd 43 e2 cd bd 12 e8 83 3e 65 b9 4c be
       -0.10828508 -0.100529216 0.25762993 -0.19992597
0000d0 47 2e 4f 3e b4 eb cf be 4a 43 07 be ff 02 c7 3d
       0.20232497 -0.40609515 -0.13209262 0.09717368
0000e0 1e 2e 8f 3e 09 0b 8e 3d 6f ba 77 be aa 0a b5 3d
       0.27964872 0.069356985 -0.24192213 0.08839925
0000f0 c7 fe 63 3e 21 7f c9 bd 79 88 97 3e ea 19 27 3d
       0.22265159 -0.09838701 0.29596308 0.040796198

lstm.weight_ih_l0 f4 [256, 64]
000000 d5 70 24 be 12 52 fe be c2 f5 91 3d e0 54 6f be
       -0.16058667 -0.4967199 0.07126953 -0.23372221
000010 71 ce 2e 3f b2 c9 75 be 55 72 98 bf 1b 2a 25 3f
       0.68283755 -0.24002722 -1.1909891 0.6451737
000020 2d d5 de 3e c5 e2 87 3e 99 64 1a bf ef 67 be 3e
       0.43522015 0.265402 -0.6030975 0.3718867
000030 4a da 26 be 4b 96 a1 be 12 d0 05 3e 3f c3 8a 3e
       -0.16294208 -0.31559977 0.13067654 0.27102086
000040 d6 a2 73 bf 19 d2 21 bf 3a 26 98 be c5 3d aa bb
       -0.9517034 -0.6321121 -0.29716665 -0.005195352
000050 d6 8e 11 3f 40 fe ba be f7 a3 9a bf c8 20 98 3e
       0.56858575 -0.36522102 -1.2081288 0.2971251
000060 de 6f 0a bf b7 1b 2c bf bb 5e 76 be d9 8e ab 3e
       -0.54076946 -0.6722979 -0.24059574 0.33507422
000070 f9 6b 44 3c 7e 15 b6 3e cc 2b da be 52 b0 3f 3f
       0.011988633 0.35563272 -0.4261154 0.7487842
000080 ef 9a 2d 3e bb b2 70 bf 4d fb 4e 3f 93 aa 64 bf
       0.16953634 -0.9402272 0.80852205 -0.89322776
000090 d9 fd af be 62 6f 6f 3e de 95 27 3e 95 47 87 be
       -0.34373358 0.23382333 0.16365764 -0.264218
0000a0 3a ef 1f be a1 2d 86 3f 65 75 38 3f db ba 84 be
       -0.15618601 1.0482675 0.7205413 -0.2592381
0000b0 54 db 2e 3e c8 fb d8 be 7e 2e 79 3f c5 2d a5 bd
       0.17075855 -0.42379594 0.97336566 -0.080653705
0000c0 6b d4 cd 3d ab aa 03 bf bf 8d 8e 3e b9 d7 07 be
       0.10050281 -0.51432294 0.2784252 -0.13265885
0000d0 08 fc 4c 3f 0a 7e 56 be d3 4e 9a 3d d3 87 98 3e
       0.8007207 -0.20946518 0.07534566 0.29791126
0000e0 29 f5 74 bf 31 c2 f6 3d d1 09 1f bf 1c 59 54 3e
       -0.95686585 0.12048758 -0.62124354 0.20737118
0000f0 6b 89 18 bd d2 75 79 3f c7 a9 b2 3e 6a d6 c8 3e
       -0.037240427 0.97445405 0.34895155 0.39226085
000100 fd d4 09 bc e4 61 d3 3e 70 ac b3 3e e2 eb d7 3d
       -0.008412597 0.41285622 0.35092497 0.10543038
000110 8d 6c 68 3e 1f 25 89 be 4d 07 3c bf e5 bb 33 be
       0.22697659 -0.26786134 -0.7344864 -0.17552145
000120 08 d3 3a be eb 9e 91 bc 4c 49 0f bf 49 8d ac be
       -0.18244565 -0.017775973 -0.5597122 -0.33701542
000130 6b 01 dc 3d e3 65 1a be 42 55 d4 be f4 8c 86 3e
       0.10742458 -0.15077929 -0.41471297 0.26279414
000140 2a c8 86 be 7b 93 a2 be f9 66 1a 3e 4d 4e 39 3e
       -0.26324588 -0.31753144 0.15078343 0.18096276
000150 75 8b 40 3e 00 11 2a bd b7 d8 2f bf 4d 16 5a 3e
       0.18803199 -0.04152012 -0.68690056 0.2129757
000160 8f e0 c2 bd 02 ec de be d8 10 b2 be 74 94 9f 3d
       -0.095154874 -0.43539435 -0.34778476 0.07791987
000170 f1 0e 8c 3b c3 a2 a1 3d c5 ea b0 bd 97 f9 fd 3e
       0.004274242 0.078923725 -0.08638529 0.49604484
000180 ae d6 52 3e 56 e2 9b bd 36 eb 78 bd 98 62 11 bf
       0.20589706 -0.076115295 -0.06077119 -0.5679107
000190 8f 90 de be 80 e9 3d 3e 57 fd 08 3b 40 e9 62 be
       -0.43469664 0.18546104 0.0020902955 -0.2215929
0001a0 9e 8d 78 be 26 10 07 3f 40 7e 14 be 8e 2e c3 3c
       -0.24272773 0.52759016 -0.14501286 0.02382591
0001b0 19 bd 38 3e 9e ef f9 bd cd f8 cb bc 2e 78 c4 bd
       0.18040885 -0.122039065 -0.02489891 -0.09593235
0001c0 d3 df 3e be f6 ac 85 be e4 ed d2 3d 8e b7 f9 3d
       -0.1864007 -0.2610852 0.1029928 0.121932134
0001d0 c2 86 da 3e e7 9e 0f bb 9f d6 9e 3e 40 20 a5 3e
       0.42680937 -0.0021914782 0.31023118 0.32251167
0001e0 e7 e3 14 bf 33 b9 79 3e 52 b4 8a be a7 09 71 3e
       -0.5816025 0.24387054 -0.27090698 0.23538838
0001f0 cd e7 b0 bc 89 d1 17 3f 61 4c a1 3e 64 79 83 3e
       -0.021594906 0.593041 0.31503585 0.2567855
000200 66 8a 5c be 89 9a 2f be 71 b0 f5 3e 15 35 c7 be
       -0.2153717 -0.17148794 0.47986177 -0.38907686
000210 76 38 a7 3f cf 91 51 bf 76 db 82 bf f0 81 2f 3f
       1.3064106 -0.8186311 -1.0223224 0.68557644
000220 fb 91 33 3f 44 43 43 3f d1 73 b5 3d b7 c2 a3 bd
       0.70144624 0.76274514 0.08859981 -0.07996123
000230 7e ad b0 3e ed 8f 29 bf 42 1e d5 be 4a 70 e6 3d
       0.34507364 -0.6623524 -0.41624647 0.11251886
000240 fa a9 96 be a0 51 1e be 98 05 3f 3f 79 2a 05 3f
       -0.29426557 -0.15460825 0.7461791 0.52017933
000250 cb 7c 75 3f a1 d3 64 be 8f ce 02 c0 06 1d 01 3f
       0.95893544 -0.22346355 -2.0438573 0.5043491
000260 a0 f4 85 bf 44 f7 f3 bd 9b 17 19 bf b8 26 2a 3f
       -1.0465279 -0.119123966 -0.59801644 0.6646533
000270 e5 49 6b 3e 18 2d 2d 3f 0f d5 4f bf 18 39 70 3f
       0.22977407 0.6764693 -0.81184477 0.9383712
000280 1b c5 63 be 65 de e3 be 73 da 5f 3f 00 d8 38 bf
       -0.22243159 -0.4450561 0.874427 -0.7220459
000290 8f 86 92 be ec 45 ea be cf 68 22 3f f8 01 09 bf
       -0.28618285 -0.4575647 0.63441175 -0.5351863
0002a0 ed be a3 bd 93 91 6e 3f d6 f1 15 3f 05 83 4f bd
       -0.079954006 0.9319088 0.5857214 -0.05066206
0002b0 07 20 1a be ec df 8c be d1 aa 8f 3e c4 53 89 bf
       -0.1505128 -0.2751459 0.2806001 -1.0728688
0002c0 95 e3 c8 3c cb ce 62 bf 92 48 d0 3e cd c6 6b be
       0.024522582 -0.8859679 0.40680367 -0.23025055
0002d0 99 42 30 3f 8b f6 f4 3e 3b 08 c0 be 9f 3c 98 3e
       0.6885162 0.47844347 -0.3750628 0.2973375
0002e0 76 9b 8a bf dc 50 04 3f 45 fc 1c bf 27 f1 74 bb
       -1.0828693 0.5168588 -0.6132243 -0.0037375183
0002f0 8c 7a d1 be 0b 57 ff 3f 62 38 42 3e 06 9a 49 3f
       -0.40913808 1.9948438 0.18966821 0.78750646
000300 db 0a a3 3e 78 3e 8b be c0 4a e7 be 6b 12 cd be
       0.3184422 -0.27196097 -0.45174217 -0.40053114
000310 21 92 08 bf 99 ad 99 3e e1 89 16 3f f3 5a d8 be
       -0.53347975 0.30015257 0.58804137 -0.4225689
000320 e3 50 95 3e 8d 0a 22 bd e6 b1 88 3e e1 11 b9 bd
       0.29163274 -0.039560843 0.26698226 -0.09036613
000330 a8 a9 04 bf c5 40 d9 3e c1 63 be be 43 ff 18 bf
       -0.51821375 0.42432228 -0.3718548 -0.597645
000340 33 5d 47 3f 9a 89 b7 3e e0 b4 83 3e 68 7a a4 3b
       0.77876586 0.3584717 0.25723934 0.005019475
000350 9a 24 2b be 1e 88 97 3e d5 73 f4 3e 9d 14 55 bf
       -0.16713181 0.29596037 0.47744623 -0.8323458
000360 3c 2b 61 3f 5a a7 fd 3e 60 41 12 3f 5c 30 cc be
       0.87956595 0.49541742 0.57131004 -0.39880645
000370 8f 01 40 bf be a4 25 bf f2 40 ad 3e c5 ec 12 bf
       -0.7500238 -0.647045 0.33838612 -0.5739253
000380 2c fa 1c bf 8d cc 4b 3f 7a ff c8 bd b7 00 7d 3e
       -0.6131923 0.79608995 -0.09814353 0.24707304
000390 0c a9 3b 3f c3 1c 5c bd 1b f8 32 be c2 b9 c7 3e
       0.7330482 -0.053738367 -0.17477457 0.3900891
0003a0 c3 42 60 3e 8f a7 4d bf e4 71 c1 be cf fd d7 bd
       0.21900468 -0.803338 -0.37782204 -0.10546457
0003b0 08 23 88 be 79 d9 28 bd c1 3c 3b bf 57 59 b1 3e
       -0.26589227 -0.041223023 -0.7313958 0.34638473
0003c0 98 ba af 3e a3 fe 17 3f 6a 30 1e bf dd d4 59 3e
       0.34322047 0.5937292 -0.61792624 0.21272607
0003d0 27 e3 32 bf a9 1f 14 3f ca cf f6 3e d9 bd e3 be
       -0.69877857 0.5786081 0.48205405 -0.4448078
0003e0 60 33 2c 3f 81 f5 d2 be d1 43 fe 3e 51 36 21 be
       0.6726589 -0.4120293 0.49661115 -0.15743376
0003f0 92 41 78 3d d7 fd 50 be 7e 70 05 bf e8 d9 e5 be
       0.060609408 -0.20409332 -0.52124774 -0.44892812

lstm.weight_hh_l0 f4 [256, 64]
000000 b4 29 3c be 13 45 c4 be 30 51 37 bf 51 57 b2 be
       -0.18375283 -0.3833395 -0.7160826 -0.34832242
000010 92 81 34 be 88 84 02 bf 36 64 0b bf 45 1e e9 3d
       -0.17627552 -0.50983477 -0.54449785 0.113827266
000020 98 4c 8c be 6a 4b a8 3e dd 47 da 3e ba 1a 81 be
       -0.27402186 0.32870036 0.42632952 -0.25215703
000030 f8 79 47 3e f2 3c 10 3d e0 b3 30 3e 0f 8d fe 3d
       0.19480121 0.035214372 0.17256117 0.124292485
000040 0c 41 9a 3d ce 05 89 be cf f9 e8 3c 13 06 0f 3d
       0.07531938 -0.2676224 0.02843943 0.034917902
000050 55 15 00 be 44 c5 96 bd 5b 12 c3 bc 54 7c 45 3e
       -0.12508138 -0.07361844 -0.023812464 0.19285709
000060 75 7e c6 3e 10 21 72 3e d7 74 8c bd a5 9c 20 3f
       0.38768354 0.23645425 -0.06858223 0.6273902
000070 6c f0 4d 3e f7 a1 56 3e 65 eb 4b 3d c0 7e f3 bd
       0.20111245 0.20960222 0.049785037 -0.1188941
000080 ba be 0a be 08 cd 40 3d 7c ce 23 bf b9 7c 41 bd
       -0.13549319 0.047070533 -0.63986945 -0.047238085
000090 7a e2 6c be d1 14 23 be 7b 07 04 3f 9d 60 ad bd
       -0.23133269 -0.1592591 0.51573914 -0.08465693
0000a0 91 e4 60 3e 25 61 03 be 38 55 3f bd e7 fc b0 bc
       0.21962191 -0.12830026 -0.04671213 -0.021604968
0000b0 d6 30 75 3e 92 2e 14 3c 17 60 bc 3e 77 5c bc be
       0.2394441 0.009044306 0.3679206 -0.36789295
0000c0 0c 43 5c be 3d 6d cc 3c f3 a5 13 bf ee 11 88 3e
       -0.21509951 0.024954433 -0.57675093 0.2657618
0000d0 5e 8c 90 3d cb 9c 73 be 40 e8 ce be 0e 82 bb 3d
       0.07058023 -0.2379028 -0.40411568 0.09155665
0000e0 92 5a f8 bd 2f 05 29 be 9e 0f ce 3d f4 0d 65 be
       -0.1212665 -0.16505884 0.100615725 -0.22368604
0000f0 f2 d8 00 bf 73 a7 bf bd a9 4d d9 bc b0 2e 58 3d
       -0.5033103 -0.0935811 -0.026526289 0.0527789
000100 f7 da 98 3e c1 ed dd bd 78 fe 9e 3d ee bc eb be
       0.29854557 -0.108363636 0.0776338 -0.4604258
000110 28 54 0c be c9 4a ad be 30 89 54 3e 19 b3 1c 3e
       -0.13703978 -0.3384612 0.20755458 0.15302695
000120 e6 93 8d be 51 b7 31 3f 65 f9 01 3f e3 36 69 be
       -0.276519 0.69420344 0.5077117 -0.22774844
000130 a8 9e f6 3e a0 4d 2b 3d 3e d6 90 3e a5 e6 82 3c
       0.4816792 0.041822076 0.28288454 0.01597912
000140 10 f2 5c be b3 23 e4 be 9e ad 3e 3f db a4 4d 3b
       -0.21576715 -0.44558486 0.7448367 0.003137878
000150 5e f3 6e be 59 c8 ae 3e 81 2c c9 3d 25 37 ec bc
       -0.23335025 0.34137228 0.098229416 -0.028834889
000160 07 7f 9e 3e 65 ed 95 3e fb 76 d3 3d 5e 17 37 be
       0.3095629 0.2928268 0.10325428 -0.17880008
000170 fc 82 20 3e 19 22 dc bd e8 56 4f bb 74 39 b9 3d
       0.15674967 -0.10748691 -0.0031637494 0.090441614
000180 79 4f 7d 3e b8 5c e6 3d 6f a3 5d be c0 82 1c bf
       0.24737348 0.112481534 -0.21644376 -0.6113701
000190 a6 e7 d4 bd 60 6a 27 be b4 a8 71 3e 6a 79 4d 3e
       -0.10395746 -0.16349173 0.23599511 0.20065847
0001a0 ed 0b 46 3e 22 ba 99 3e 60 2b 12 be d9 9a f5 bd
       0.19340487 0.3002482 -0.14274359 -0.119924255
0001b0 9f 90 cc 3e e8 e9 11 be 50 b3 a1 3e b3 74 04 bf
       0.39954087 -0.14249384 0.31582117 -0.5174057
0001c0 c9 d1 48 3e 37 fd 2c 3d d1 04 c1 3e 87 9d 9f 3e
       0.19611277 0.042233672 0.37698987 0.3117487
0001d0 b7 b1 d5 bc c4 ed 2c 3e 21 29 01 3f 98 2a c9 bd
       -0.026085718 0.16887575 0.5045338 -0.09822577
0001e0 b0 1f 8d 3e 5d f8 a7 3e b2 60 b8 bd b6 9e 08 be
       0.27563238 0.32806674 -0.09002818 -0.13341793
0001f0 65 ef e3 be 1b 8d 74 bd ea 98 47 be ad 1f 9a 3d
       -0.4451858 -0.05970488 -0.19491926 0.07525573
000200 e4 17 5a 3f f8 bf 59 bc 98 18 c8 be 77 d1 ee 3d
       0.85192704 -0.013290398 -0.39081264 0.11661046
000210 f6 fb f5 bd 7b aa e0 be 0b cc cd bd 79 32 89 3d
       -0.12010948 -0.43880066 -0.10048684 0.0669908
000220 28 9c d4 be db 86 e1 3d 16 52 5a 3f 98 af 22 3e
       -0.41525388 0.1101205 0.85281503 0.15887296
000230 c7 a9 9a 3d cf 9e 5b 3c 45 45 e4 bd 08 e6 d6 bd
       0.07551914 0.013404562 -0.111460246 -0.10493094
000240 5a 37 72 be fc d8 14 be fa 58 cf be 97 f5 eb be
       -0.23653927 -0.14535898 -0.4049757 -0.46085808
000250 a3 48 c6 bd 0b 99 21 3f 84 ac 2c bd 3c 45 2c bd
       -0.09681823 0.6312415 -0.04215671 -0.042058215
000260 81 76 ed 3e 23 c4 26 bf c8 1a ef 3c 97 8e 42 3f
       0.46379474 -0.6514303 0.029187575 0.75998825
000270 56 26 be 3d 9c d8 7c 3e 37 62 f7 bd 6f 20 34 3e
       0.09284656 0.24692005 -0.1207928 0.17590497
000280 f6 1f ad 3e 0c 6b 5d 3e 2f d4 ca be 45 96 10 be
       0.33813447 0.21622866 -0.39615008 -0.14119823
000290 de c2 b1 be 17 40 06 be dc 73 4a 3f 1a e7 f8 3d
       -0.34718984 -0.13110386 0.7908304 0.12153454
0002a0 09 c5 c5 bd 4f 8f d9 bd e6 2e 3e bd 52 fc e1 bd
       -0.09656722 -0.10623037 -0.046431445 -0.110344544
0002b0 fb 39 bf 3d 27 57 17 3e f4 f0 3c 3e 25 fb 7a be
       0.09337231 0.1477934 0.18451291 -0.24509867
0002c0 99 01 0d 3f 0b 66 79 be 1c 11 d0 bd 6f 7c 47 3f
       0.5508056 -0.24355333 -0.10159513 0.77924246
0002d0 5e 47 62 bc af 5b 2d be eb e2 76 3d 45 72 1d 3f
       -0.013810961 -0.16929506 0.060275 0.61502486
0002e0 8e d6 83 3e 04 27 ec bd 12 07 f2 3d 37 1c 2d be
       0.2574963 -0.11530879 0.11817755 -0.16905294
0002f0 d2 cc 5e bf 7d e5 7c bd 8d 77 5e 3e d9 e2 9a bd
       -0.8703128 -0.061742295 0.21725293 -0.07562799
000300 5a 51 27 be dd 91 32 3e 45 e1 60 3e 63 f6 02 bf
       -0.16339627 0.17438455 0.21960934 -0.51157206
000310 a1 78 e4 bc 55 1d 88 3e 33 6f 89 be 0a 4b 3d 3e
       -0.027889552 0.2658488 -0.2684265 0.18485656
000320 bf 66 e2 3e 22 c6 09 bd 41 ce b2 be 04 ec 8c bd
       0.44219014 -0.03363622 -0.34922984 -0.06880954
000330 03 4c cd be a8 81 68 bd 73 4d 49 3e f7 8b 83 3c
       -0.40097055 -0.056764275 0.19658451 0.016057951
000340 91 4f 1d be 50 12 79 3e 24 a8 f6 bd 4e f8 b7 be
       -0.15362383 0.24323392 -0.12043789 -0.3593163
000350 e4 ea 8e 3c 2b 4e 4a bf 31 a7 75 3d e3 ed ca 3d
       0.017445989 -0.79025525 0.0599739 0.099086545
000360 4a 5c ac be e3 a2 db be 11 80 12 3d f5 96 d2 be
       -0.3366416 -0.4289771 0.035766665 -0.41130796
000370 a3 cf 4f 3c 34 81 c5 3e 59 bf 3d bd 6c 18 6e be
       0.012683782 0.38575137 -0.04632506 -0.23251504
000380 1a 63 15 bd e2 c8 28 3e b7 61 73 3e 55 8e 75 3d
       -0.036471464 0.1648288 0.23767744 0.05995019
000390 eb 43 bc bd 64 ef 2a 3e 42 08 b7 be 8a be d6 3d
       -0.09192642 0.16692883 -0.35748488 0.10485561
0003a0 8a a8 4a 3e b8 72 92 3d ad 08 9d bc e7 d6 83 3c
       0.19790855 0.07150787 -0.019169176 0.016093684
0003b0 19 a6 5a be ee c8 98 3d 91 b0 ad be 80 bc 8d 3e
       -0.21352424 0.07460199 -0.33923772 0.27682877
0003c0 4a 76 f7 bd ac c1 49 bb 46 6b 84 3e b4 c7 d1 bd
       -0.12083109 -0.0030785603 0.25863093 -0.102431685
0003d0 91 e8 97 3d b8 32 5e be c6 07 d4 3e 98 e6 1f 3d
       0.074174054 -0.21699035 0.4141218 0.03903827
0003e0 65 ca 92 bd e1 8a c2 be 27 38 fd bd 86 55 3f 3e
       -0.0716751 -0.3799658 -0.12364226 0.18684968
0003f0 7e 45 af 3e be 67 36 bd 6a 32 39 bd 1e f6 44 be
       0.34232706 -0.04453253 -0.045214094 -0.19234511

lstm.bias_ih_l0 f4 [256]
000000 62 22 2b 3e 76 c1 e6 3e 05 1e 1f 3e 84 93 a5 bc
       0.16712335 0.45069474 0.15538795 -0.020211942
000010 8f 31 43 3e 11 a7 56 3d cc 06 60 3e fd bd 33 be
       0.19061874 0.05240542 0.21877593 -0.17552944
000020 35 1e fe 3d 2f 89 ae 3e 7e 47 cf 3e 17 ab d2 be
       0.12408105 0.34089038 0.40484232 -0.41146156
000030 c2 3b e6 bd 86 8b a0 bd be 52 68 be 9a 8c 84 bd
       -0.11241867 -0.07839112 -0.22687814 -0.0647213
000040 60 ba 71 be f9 d5 51 3e f9 7d d1 bd 4b 96 10 3e
       -0.23606253 0.2049178 -0.102291055 0.14119832
000050 bf f6 6e 3d 95 2e af 3e 98 b2 ef bc c2 cc 17 bd
       0.058340784 0.34215227 -0.029259965 -0.037060507
000060 ea 71 79 3e 4b 24 ac 3e 57 0d 71 bd 48 33 6a 3e
       0.24359861 0.3362144 -0.058850612 0.22871125
000070 28 1b 21 be bf 81 03 3e 2e 89 57 bd 4e 69 6a be
       -0.15733016 0.12842463 -0.05262106 -0.22891733
000080 f0 3a 71 bd 36 5a 4e 3e e9 05 a3 3e 7a 73 01 3f
       -0.058894098 0.201516 0.31840447 0.5056683
000090 be a5 49 3e 3e df 5f 3d ff 8d d3 3e 38 96 41 3f
       0.19692132 0.05465626 0.41319272 0.7561984
0000a0 60 2f 25 3e 96 b6 c3 3c 9c 8e d6 bd e6 9e 1b bd
       0.16131353 0.023890775 -0.10476419 -0.037993334
0000b0 42 62 e0 3d de df 20 be 71 d6 91 3e 89 7c e9 3d
       0.10956241 -0.15710399 0.28483918 0.11400706
0000c0 c4 e6 81 3e dc 2b 8c bc 78 16 b4 3d 48 e6 47 3e
       0.25371373 -0.017110758 0.08793348 0.19521439
0000d0 2d 8d c8 bd 42 f0 48 be 92 b7 b6 be 0f 18 d4 bd
       -0.09792552 -0.19622901 -0.35686928 -0.10356151
0000e0 33 39 1a bd d9 10 79 3e c5 70 77 bd f1 37 93 3e
       -0.037652206 0.24322833 -0.06041028 0.28753617
0000f0 bc 14 9f 3e 0f 6c 87 bd 5f 0a f1 3c 7a dc 1f bd
       0.31070507 -0.066124074 0.02942389 -0.039028622
000100 bc 1b 22 bd b6 6d a1 bd 8e 4a a4 3d 86 26 11 3e
       -0.03957723 -0.07882254 0.08022033 0.14174852
000110 ec c9 c6 3e b2 cf 20 be 17 c6 f9 bd 09 e4 bb 3a
       0.3882593 -0.1570423 -0.12195986 0.0014334928
000120 f2 63 7d 3e 08 a0 36 be ad 14 95 3d 37 29 39 be
       0.24745157 -0.17834485 0.07279334 -0.18082128
000130 2a c2 bc 3e 46 07 96 bd 61 cd 6d be bb b1 23 bd
       0.36866885 -0.07325606 -0.23222877 -0.03996442
000140 73 ac 5d be ab ef df 3d 15 d9 93 3e 43 86 63 3d
       -0.21647815 0.10934385 0.28876558 0.055547964
000150 4b 4f 1b be 9e 8a 64 3e 40 38 fc bd a1 b5 77 3c
       -0.15166967 0.22318503 -0.12315416 0.015118987
000160 9b 46 d3 3e 6e 96 0f be 18 a1 59 bc 82 09 3e be
       0.41264805 -0.14022228 -0.013283037 -0.18558314
000170 6b cc d3 bd 6b 2a 4f 3e 6d b2 ea 3c 0d 18 27 3e
       -0.10341724 0.20231025 0.028649533 0.16317768
000180 e3 ec 30 be 68 08 c8 3e de 7e b9 be 2c 09 88 3e
       -0.17277865 0.39068913 -0.36229604 0.26569498
000190 c1 f7 60 bd 78 7f b5 bd d0 5b f3 bd bf 87 0e be
       -0.054923777 -0.08862203 -0.11882746 -0.1391897
0001a0 34 2e 1e be ac 58 92 3e b7 81 d1 3c 13 65 16 be
       -0.15447313 0.28583276 0.025574548 -0.14686994
0001b0 b5 10 6e 3e ef e1 d9 bd 97 80 8b 3e 41 87 a9 3e
       0.2324856 -0.106387965 0.27246544 0.33111003
0001c0 f1 80 ee bd 48 5c 07 be 0c 22 a9 bd 0a 2b 0a 3d
       -0.11645687 -0.13218796 -0.08258447 0.03373245
0001d0 6b 05 94 3d 4d 85 b4 bc ce 41 9d 3e c5 8b b2 bc
       0.07227596 -0.022036219 0.30714267 -0.021795163
0001e0 04 6a 52 bd 1f 00 9e 3e 2f 08 1a bd 97 b8 9b bc
       -0.051370636 0.30859467 -0.03760546 -0.019008918
0001f0 f0 de fa be b6 2f 84 be 26 cb 90 bd 57 1d 05 be
       -0.48998213 -0.2581765 -0.070699975 -0.12999474
000200 5b 32 6c 3e ca ce 84 be 01 c2 66 be 56 28 67 3e
       0.23066084 -0.25939018 -0.22534944 0.2257398
000210 1a 43 d5 3e c7 d7 9b bd 7d 5d ae 3d 75 aa 00 bd
       0.41652757 -0.07609516 0.08513925 -0.03141256
000220 47 54 39 be e7 eb ac 3e a4 56 28 3d 83 65 c7 3d
       -0.18098556 0.3377373 0.041098252 0.09736159
000230 20 e9 2c 3e 5c 3b 2c 3e 6f 82 c9 3d bd 4b 0b be
       0.16885805 0.16819519 0.09839331 -0.1360311
000240 1a 6d 10 3e 17 38 1b be d2 2d b1 3d 46 3f 40 be
       0.14104119 -0.15158115 0.08651318 -0.18774137
000250 65 6b 09 be d3 c5 29 3e f4 8f 75 bd ab 38 39 3e
       -0.13419874 0.1657937 -0.059951738 0.18088023
000260 39 0c cd 3d 11 d1 8f 3d 24 ec 79 bd 92 f2 8c 3e
       0.10012097 0.07022298 -0.061016217 0.27528816
000270 55 4e 2c be 95 5a b8 bd bf 18 3f 3e 7f 28 b2 bd
       -0.16826756 -0.09001652 0.18661784 -0.0869913
000280 4d b3 d8 3d ea 47 da 3d 21 1c 88 be af df b4 be
       0.10581074 0.10658248 -0.2658396 -0.35326907
000290 b3 2f 0d 3d 98 2d 51 3e 68 ec 58 3e a5 be b4 3e
       0.034469318 0.20427549 0.21183932 0.353017
0002a0 4a c7 8c bd ff 12 2e 3e b8 7c b7 be d4 35 72 3e
       -0.06873949 0.16999434 -0.3583734 0.23653346
0002b0 71 9a 22 3e fe 67 72 3e a3 c4 8f 3e 73 1a 6a be
       0.15879227 0.23672482 0.2807971 -0.22861652
0002c0 27 91 5f 3e c2 7f 05 3c a5 62 06 3e 8f 0a ab 3d
       0.21832715 0.008148136 0.13123567 0.08351623
0002d0 73 82 34 bd eb 1a a6 3d 3c 35 37 bd 81 a1 ca 3d
       -0.04406972 0.08110603 -0.044728503 0.09894086
0002e0 98 37 26 3e 1b 78 da 3c 10 e8 24 3e 31 e5 df be
       0.16232145 0.026668599 0.1610415 -0.43729547
0002f0 f9 01 b6 be 54 08 c9 3d 4d ec 1f be 67 5a 8a 3e
       -0.3554838 0.098160416 -0.15617485 0.27022097
000300 61 01 f0 3e 3c ef dc 3e df 38 03 3f 46 58 1d 3e
       0.46876052 0.4315127 0.51258653 0.15365705
000310 ed 3b 1b 3f a1 73 51 be 89 79 24 be 9d 9f 3a be
       0.60638314 -0.20454265 -0.16061987 -0.1822495
000320 44 f1 fd 3e 31 68 17 3f d2 a6 fe 3d a2 b2 69 be
       0.49598134 0.5914336 0.12434162 -0.2282205
000330 ad d0 02 3e 68 09 87 3d 0c b9 5a 3e 9a 9a bd 3d
       0.12774916 0.06593591 0.21359652 0.092580035
000340 a4 63 4e be df 5d 10 3f dc 1d 8b be 30 ef ad 3d
       -0.20155197 0.56393236 -0.27171218 0.08492887
000350 c3 25 fa bd 3b 2b f2 3d 5b ff 3d be 8b c2 97 be
       -0.12214234 0.11824652 -0.18554442 -0.29640612
000360 4f 25 32 3f b2 63 d0 be 77 55 c2 be 53 f8 02 3b
       0.6958818 -0.4070106 -0.3795583 0.0019984439
000370 56 d1 ac 3e 5d e5 2f 3d 0c 41 83 bc e3 a4 29 bc
       0.3375346 0.042943347 -0.016022228 -0.010354253
000380 30 6f 06 be de 42 2a 3e ff 2b da 3d eb 59 0f 3f
       -0.13128352 0.1662707 0.10652923 0.5599658
000390 45 6d b4 be 7f bc cc 3d ea ea c2 3e 2d bd 17 3f
       -0.35239616 0.0999689 0.3806985 0.59273034
0003a0 63 ab 96 3e 34 7f 14 bd 1d b0 b5 3d 46 20 83 3d
       0.29427633 -0.036254123 0.088714816 0.0640264
0003b0 8a 3f 5d 3e 22 20 4b be 7b f1 05 3f ec 72 36 3f
       0.2160627 -0.19836476 0.52321595 0.71269107
0003c0 68 50 c7 3e 45 54 22 be be 2d 79 3e 83 e9 df 3d
       0.38928533 -0.15852459 0.24333856 0.10933211
0003d0 3c be dd 3d 47 7d 17 bf 13 25 b7 3e 78 e9 f3 bd
       0.108273 -0.59175533 0.35770473 -0.11909765
0003e0 13 ef 2e be 66 06 74 3e e6 92 34 be 05 3f df 3e
       -0.17083387 0.23830566 -0.17634162 0.43602768
0003f0 b2 d7 c0 3e 3a e2 2e bc 58 68 3b 3d 0f d5 b5 bd
       0.37664562 -0.010674054 0.045753807 -0.08878528

lstm.bias_hh_l0 f4 [256]
000000 1d 4c 6a 3e 01 c9 01 3f 1b cf 82 3e 4e 29 ce bd
       0.22880597 0.5069733 0.25548634 -0.10066472
000010 c7 92 2a 3e 45 c0 30 bd 93 39 07 3e 9e e4 fb bd
       0.16657554 -0.043152113 0.13205557 -0.12299465
000020 92 66 16 3d fd 12 a7 3e 07 98 32 3e 20 fa 69 be
       0.036718912 0.32631674 0.17440806 -0.22849321
000030 ef 83 76 be b4 3a 59 bd 78 a2 47 be e6 93 83 bc
       -0.24073766 -0.0530345 -0.1949557 -0.016061734
000040 8c 8a 83 be ff 84 56 3e 18 b9 47 bb b3 80 bb 3c
       -0.2569164 0.20949171 -0.0030475315 0.022888517
000050 19 3a 5e 3e 0f 2c c0 3e 58 91 f7 bc 10 21 43 3d
       0.2170185 0.37533614 -0.030220672 0.047638953
000060 d8 06 d1 3e 9a 5d a7 3e 6e be 3e bd 54 c8 81 3c
       0.40825534 0.326886 -0.046568327 0.015842594
000070 20 4b 95 bd ad 85 e7 3d 32 dd eb 3d 01 39 45 be
       -0.072897196 0.113047935 0.11516799 -0.19260027
000080 7a 96 68 3d 27 35 8d 3d e5 80 d9 3e da 2e 1e 3f
       0.05678413 0.06894904 0.4248115 0.6179024
000090 35 5d c6 3d a4 08 93 3d 81 be b7 3e 1e 76 60 3f
       0.096857466 0.071793824 0.3588753 0.8768023
0000a0 69 75 b2 3d e3 58 59 3e 53 7a aa 3d f8 31 c3 bd
       0.087138005 0.21225314 0.08324113 -0.09531015
0000b0 f2 a4 8e 3d e8 3e 05 be fb d2 99 3e af df a1 3d
       0.069650546 -0.13012278 0.30043778 0.079039924
0000c0 be ce ae 3e 3b 4d 87 ba a0 78 13 3d a7 da 02 3e
       0.34142107 -0.0010322699 0.03600371 0.12778722
0000d0 97 a9 0a bc 27 d9 e6 bd 63 94 0e bf b4 9e 91 3b
       -0.008463285 -0.11271887 -0.5569517 0.0044439677
0000e0 e1 76 cd 3d 62 8c 55 3d 25 35 33 be 4f 3b 8b 3e
       0.1003244 0.052135833 -0.17500742 0.27193686
0000f0 dc 51 cc 3e e9 44 2b be fa ec 34 3e 85 0c 0d 3c
       0.39906204 -0.16725506 0.17668524 0.008608942
000100 84 5a d5 3d d5 e0 1b 3d fc 00 52 3d 65 db 95 3e
       0.10417655 0.038056213 0.05127047 0.29268947
000110 8f 18 69 3e 04 3b 8e be 94 81 69 3d 1c 0f 1d bc
       0.22763275 -0.277794 0.05700834 -0.009586122
000120 49 00 33 3d c6 fa 4a be 69 f3 3d bd 63 eb 13 bd
       0.043701444 -0.19822225 -0.046374712 -0.036113154
000130 8d b7 3e 3e b9 e9 b0 bd 90 ba 0e be f8 a6 b7 bd
       0.18624707 -0.08638329 -0.13938355 -0.08967394
000140 55 68 6e be 0e 61 c0 3d 8f 95 8f 3e 67 ba b9 bb
       -0.23281987 0.09393512 0.28043792 -0.005667973
000150 07 68 c5 bd 8b 3c 88 3d 49 36 9f bd a2 08 3a be
       -0.09638982 0.06652173 -0.07774026 -0.18167356
000160 b8 e8 95 3e 8a 50 35 be 6f 0a 38 3c a5 5c ab bc
       0.29279113 -0.17706504 0.011232956 -0.0209182
000170 6e e8 8a be b1 f9 fd 3d 28 39 04 bd 0c de 10 3e
       -0.27130455 0.124011405 -0.03228107 0.14147204
000180 8b 9e a7 bd 59 e8 4b 3e eb e6 79 be 38 cb e8 3d
       -0.081845365 0.19912852 -0.24404494 0.11366886
000190 9c ff ad bd 90 85 fd bc 6b 15 b3 bc 86 a0 4b be
       -0.08496019 -0.030947477 -0.021860799 -0.19885454
0001a0 da 81 99 3d 1c 23 b2 3d f2 b2 3c 3e 84 89 8c 3c
       0.0749547 0.08698103 0.18427637 0.017155416
0001b0 d8 d8 ad 3e cc 40 43 bd 13 82 2f 3e e5 34 a0 3e
       0.339545 -0.047669217 0.17139463 0.31290355
0001c0 35 e7 b6 b9 f6 b8 00 be 50 17 91 3b 40 d3 32 3e
       -0.00034886008 -0.12570557 0.004427828 0.17463398
0001d0 3e 8c d5 3d 31 80 a7 3d 5f 5e d5 3e 21 fc 62 bd
       0.1042714 0.081787474 0.41673562 -0.05541623
0001e0 e2 d3 ba bd e7 c0 84 3e 2b fe 1d be 3a 3f b1 bd
       -0.09122445 0.25928423 -0.15428989 -0.08654638
0001f0 f7 ee 0a bf dc 48 71 be 97 54 1a 3d 6c 08 7b 3d
       -0.5427088 -0.2356295 0.037678327 0.06128733
000200 12 08 78 3e 39 d7 22 be 58 7d da bd 2f 1d 10 3e
       0.24221829 -0.15902413 -0.10668439 0.14073633
000210 03 8a 7b 3e f2 26 e2 bd 31 2f 99 3e ad d1 ab bd
       0.24564366 -0.110425845 0.29918817 -0.08389602
000220 3b f4 83 be cd d8 aa 3e 08 be 22 3e 7b 59 2c 3e
       -0.2577227 0.3336853 0.15892804 0.16831009
000230 e3 fb 13 3e f7 1b 19 3e 53 0e 79 3e 1a 15 da bd
       0.14451556 0.14952074 0.2432187 -0.10648556
000240 64 ce 86 3c 2d 53 27 be a7 f8 81 3e 75 4a 4e be
       0.016455837 -0.16340323 0.2538502 -0.2014559
000250 ee cc 65 3c 73 73 e5 3c 63 63 90 be 13 3c f3 3d
       0.01402591 0.028009152 -0.28200826 0.118766926
000260 57 1b 4f 3e 10 65 21 be 04 7f 6e be c1 32 a9 3e
       0.20225273 -0.15761209 -0.2329064 0.33046535
000270 ec 29 2b be 46 0d 83 bd fa 13 51 3e 92 1d 3e 3d
       -0.1671521 -0.06399016 0.20417777 0.04641492
000280 df 78 89 3e ad 0d 87 3e 5a 3d 6c bd 66 85 be be
       0.2685003 0.2637762 -0.057675697 -0.3721115
000290 9f a9 54 3e 9f d8 12 3e c7 30 2f 3e 10 5b ac 3e
       0.2076783 0.14340447 0.17108451 0.33663225
0002a0 50 e6 dc bd 88 e2 65 3e e1 a2 13 be f1 62 31 3e
       -0.10786116 0.22449696 -0.14417602 0.173229
0002b0 71 eb e2 3c fa 29 d9 3d b5 23 1f 3e c9 34 2d be
       0.027700158 0.106037095 0.15540965 -0.16914667
0002c0 95 79 2f 3e c3 39 38 be 7a 78 14 3e eb d3 58 3e
       0.17136224 -0.17990784 0.14499083 0.2117459
0002d0 fe 52 84 bd 7e 22 70 3c 3a 28 92 3d 38 a1 ff 3d
       -0.06461142 0.014656661 0.07136579 0.12481922
0002e0 46 52 70 3e 2c 99 dc 3d dd 8e 78 3d 3e 03 e7 be
       0.23468885 0.10771403 0.06068312 -0.4511966
0002f0 b5 23 a1 be b4 b3 94 3e 11 98 38 3d 22 de 2d 3e
       -0.31472555 0.29043353 0.045066897 0.16979268
000300 f6 b6 0f 3f c8 f5 93 3e 1c 8b 2d 3f c6 bb 26 3e
       0.5613855 0.28898454 0.6779039 0.16282567
000310 9d 30 1a 3f cd 2a 27 be 76 32 50 be 93 6a 4f be
       0.6023043 -0.16324921 -0.2033175 -0.20255499
000320 5c 6c d2 3e e5 b8 28 3f 90 4d 85 bb ee 9c 17 be
       0.41098297 0.65907127 -0.004068084 -0.14805958
000330 f3 db a5 3e 11 d7 39 3d 74 07 41 3e ed fc 08 3d
       0.3239437 0.04537112 0.188505 0.033444334
000340 77 10 aa be 39 17 32 3f fa 5f 2c be 67 e2 ff 3c
       -0.33215687 0.69566685 -0.16833487 0.031235887
000350 fb b0 f0 bd 8a 58 1f 3e c0 de 86 be 1e 44 22 be
       -0.11752506 0.15561119 -0.2634182 -0.15846297
000360 b9 09 23 3f 58 ae f8 be 85 de 87 be c8 c6 7d 3d
       0.6368671 -0.48570514 -0.26536956 0.06195715
000370 ca 82 46 3e 88 4f 9d 37 44 c7 ef bd cd 4b 47 be
       0.1938583 1.8752893e-05 -0.11707929 -0.1946251
000380 9a 16 60 be 84 5e 23 3e bb 0a b5 3d bf e2 2f 3f
       -0.21883622 0.15954024 0.08839937 0.6870536
000390 5b e7 e7 be 40 d7 ff 3d 7c a0 0f 3e 21 c8 2d 3f
       -0.45293698 0.124922276 0.14026064 0.678835
0003a0 b9 f8 c5 3e d7 17 c6 3d 58 e6 9c bd 3d 73 9a bc
       0.38666323 0.09672516 -0.07661122 -0.018853778
0003b0 2a d2 b3 3e 6c 0d 5a be a4 0a 09 3f 4e 30 31 3f
       0.3512128 -0.21294183 0.5353186 0.6921433
0003c0 67 b3 e3 3e 9a 12 5d be 97 2a 7d 3e 2b 35 d0 3d
       0.4447281 -0.21589127 0.24723278 0.10166391
0003d0 6f 59 ee 3c 41 a9 05 bf 8f ea b2 3e fc fb 33 be
       0.02909538 -0.52211386 0.3494458 -0.17576593
0003e0 1c 1f c0 be 43 9b 5d 3e 62 12 e5 bc 73 f9 be 3e
       -0.37523735 0.21641259 -0.027962867 0.3729969
0003f0 5e 56 c9 3e e8 ef 87 3b 3c e4 48 3d 57 d0 e9 3d
       0.39323705 0.004148472 0.049045786 0.11416691

final.weight f4 [1, 64]
000000 4d 84 e4 3d 94 08 ef bd 9a 8b 83 bc 23 0f 64 3e
       0.11158047 -0.11671558 -0.016057778 0.22271399
000010 94 89 21 3e 07 36 09 3d a5 a4 12 3e 7e 22 0c be
       0.15775138 0.03349879 0.1432062 -0.13685033
000020 f5 52 e9 bd 80 9c ee 3d 39 14 4a bd 09 c9 1d 3e
       -0.11392776 0.11650944 -0.049335692 0.1540872
000030 53 66 08 3d d9 fa 91 3d 63 a8 a4 3d 02 9e d8 be
       0.03330071 0.071279235 0.0803993 -0.4230805
000040 dc 58 dd 3b e1 94 a2 be b1 79 b5 bd cf 85 29 be
       0.0067549776 -0.3175421 -0.088611014 -0.1655495
000050 a7 6a 5d bc c9 c1 b3 bb 19 6a f3 bd 73 4e 2b 3e
       -0.013514197 -0.0054857475 -0.11885471 0.16729145
000060 51 27 13 3e 8f fb 92 3e 7e 3d 38 bd 5b d7 2f 3c
       0.14370467 0.2870755 -0.04498052 0.010732497
000070 01 da 8a bd ba 63 50 bd 36 c4 20 3e ae 73 87 3e
       -0.06779862 -0.050876357 0.15699849 0.26455444
000080 b4 62 f0 be 18 17 0d bb 23 9b 44 bd b9 94 bf be
       -0.46950305 -0.0021528658 -0.047999512 -0.37418154
000090 7a 8d 66 be 0e 5a 11 3e b4 e6 ce 3d 15 c8 5f 3e
       -0.22514907 0.1419451 0.10102597 0.21853669
0000a0 28 7a 68 be ad 05 8d 3d 43 d5 53 be f9 2b d7 3d
       -0.22702849 0.06885848 -0.20686822 0.10506434
0000b0 22 e7 53 3d 5b c4 39 3e d2 10 30 3e b0 25 9d be
       0.051734097 0.1814131 0.17193916 -0.30692816
0000c0 96 13 c9 3d 33 5a dc bd 1b a0 dc 3d 07 9c 86 bd
       0.09818189 -0.10759392 0.10772725 -0.065727286
0000d0 a5 61 48 3d 55 9c 74 be 71 ec 0a be 8b eb 07 bd
       0.048921246 -0.23887761 -0.13566758 -0.033183616
0000e0 e0 29 2e 3f 8d 76 bb 3d 55 13 83 bc de 60 f6 bd
       0.68032646 0.09153471 -0.01600043 -0.12030195
0000f0 fb 65 af bd 47 46 71 3e 9a 41 7b 3d e9 0e 9a 3d
       -0.08564373 0.23561965 0.06134186 0.07522375

log_stdev f4 [3]
000000 e7 e7 31 bf 27 b7 fe be a0 2e 45 bf
       -0.6949448 -0.4974911 -0.7702427

affine_layers.0.weight f4 [64, 11]
000000 2d 2d eb bd 7b 7c ba bd 36 14 94 3d a2 1d bf 3e
       -0.11483226 -0.09105774 0.072304174 0.37327296
000010 51 74 89 3d 5c 75 b4 bc f6 43 1a be 9a 4a 6c 3e
       0.06711639 -0.022028618 -0.15064988 0.23075333
000020 9d 06 00 be ab 81 25 be be 89 a8 3d a6 f4 70 bc
       -0.12502523 -0.16162746 0.08229397 -0.014706766
000030 01 8f 23 3c fb 92 01 be fc dd e2 be b7 ca 9c 3e
       0.009982825 -0.12653725 -0.44309986 0.3062341
000040 7d 7e ce 3d 0a f1 38 3d 86 f0 86 bd 42 c8 46 bd
       0.100827195 0.045151748 -0.06588845 -0.048530824
000050 08 a9 38 bc 5d 45 19 3e d4 ab 18 bd 12 41 89 3c
       -0.011270769 0.14967866 -0.037273243 0.01675466
000060 d4 de 4f 3a 6b f2 1d 3e b6 83 8f bd b3 bd 57 be
       0.00079296273 0.15424506 -0.07007544 -0.21068458
000070 97 fc 02 3e 45 1f 06 3e 83 31 b3 3d 8c 69 06 3e
       0.12791668 0.13097866 0.08749678 0.131262
000080 79 d3 87 3e b1 5a 93 3d e8 81 db bc 12 3e 0a be
       0.26528528 0.071950324 -0.026795343 -0.1350024
000090 ca 9e 03 3d 6e d3 05 bd 18 67 15 3d 88 be 5a 3e
       0.032133855 -0.03267234 0.03647527 0.21361744
0000a0 f8 9d cd 3b b1 4e 43 be ff c6 29 be 33 bd 8d 3d
       0.006274935 -0.19072987 -0.16579817 0.069208525
0000b0 10 2e 49 3d a4 54 d5 bd 94 ee d5 bc 86 4c cf bd
       0.049116194 -0.104165345 -0.02611474 -0.101220176
0000c0 5a ce a9 3e 96 64 8d be 7f b0 e3 3d 2d e9 8f 3e
       0.33165246 -0.27615803 0.11117648 0.28107587
0000d0 4f ea 62 be 8a 83 c8 bc f0 2d 0b 3e 3e 26 c3 be
       -0.22159694 -0.024476785 0.13591743 -0.38115114
0000e0 7c f9 c6 bd 7b 9f 08 be b1 75 87 bd 85 65 ca 3d
       -0.09715554 -0.13342087 -0.06614245 0.098826446
0000f0 ed fd 59 3d 47 f6 f1 bc 83 7c c7 bb 7c fd 09 be
       0.053220678 -0.02953638 -0.006087841 -0.13475603
000100 5b 18 84 be 8f b7 d4 3d 5d c1 8a 3d 74 e6 fc 3c
       -0.25799832 0.103865735 0.06775162 0.030871607
000110 da 77 bc 3d 02 4b cd be ad bc 63 3d cd a9 fe 3c
       0.09202547 -0.4009629 0.055599857 0.031086827
000120 5c 82 06 3e b9 31 29 be 10 8b d2 3d d5 ba ae be
       0.13135666 -0.16522874 0.1028043 -0.34126917
000130 e4 48 0f bd f1 81 37 3e 7c 17 71 be df 83 84 be
       -0.034981623 0.17920662 -0.23544115 -0.2588186
000140 bc 6c dd bd 56 e5 62 bd 46 55 0d be f0 6a 83 3d
       -0.10811755 -0.055394493 -0.1380206 0.06416881
000150 ee 0a 17 3e 2b c7 8a 3e d5 96 5c be d7 85 fe 3c
       0.14750263 0.27105078 -0.21541913 0.03106968
000160 ff 9f 04 be f2 33 80 bd 63 b5 02 be 72 e4 0b 3d
       -0.12951659 -0.06259908 -0.12764506 0.03415341
000170 74 13 7e be 8e 2b 34 bd d0 36 8d bb 1f 16 b2 3e
       -0.24812108 -0.04398685 -0.0043095127 0.34782502
000180 e6 94 ec 3d d6 cc fc bd 80 62 ed 3d 45 19 65 3e
       0.115518376 -0.12343757 0.11591053 0.22372921
000190 f4 a2 b5 3d 4b a7 9a 3d d0 29 4f bd db 19 4f be
       0.088689715 0.0755144 -0.050576985 -0.20224707
0001a0 e7 fe bd 3c d1 13 04 3e 54 70 79 3e a4 f9 ed 3d
       0.023192836 0.12898184 0.24359256 0.11619881
0001b0 6b 7f 25 be 32 26 e3 3d a3 8f 3a be 62 9b 74 bd
       -0.16161887 0.110912696 -0.18218856 -0.059718497
0001c0 5e c7 09 bd 86 89 17 be 0b 7a 38 3e fa 6b 28 3e
       -0.033637397 -0.14798555 0.18015306 0.1644744
0001d0 67 bb fe bd 42 31 9e 3d b3 ce d1 ba 5a f0 0f 3e
       -0.12438088 0.07724239 -0.0016007036 0.1405653
0001e0 f5 a6 40 3e 84 01 4c 3e 48 05 59 3e f5 3c b8 3d
       0.18813689 0.19922453 0.21193421 0.08996002
0001f0 c2 1b 9e bd d6 64 67 3e 30 da f9 be 0c 2b 9b be
       -0.07720138 0.2259706 -0.48799276 -0.3030628
000200 ac 91 e5 3d dd 91 39 bc e8 06 01 bd be f4 09 3e
       0.11209425 -0.01132628 -0.031500727 0.13472268
000210 8e e2 4d be 4e 40 63 3e 0c 9d 55 3d e6 d2 c3 3c
       -0.20105955 0.22192499 0.052151725 0.023904275
000220 e1 ba 15 be 87 aa 05 3d f8 98 bf bc a0 6a fb 3d
       -0.1462207 0.03263333 -0.02338837 0.122761965
000230 89 43 66 3d 47 ad a4 be a5 fb ec bd 97 97 2d be
       0.05621675 -0.3216345 -0.11571435 -0.16952358
000240 10 fd 02 be e7 9b fb bc c7 2c 41 bc 27 04 85 be
       -0.12791848 -0.030713988 -0.011790461 -0.2597973
000250 04 0f db 3d 2d 5d 82 be f7 fc 66 bc 36 56 4b 3d
       0.106962234 -0.25461712 -0.014098397 0.049642764
000260 78 43 97 3c 18 ce 4a bd b6 bc 1c bd ae 20 ae bc
       0.018464789 -0.049512953 -0.038265906 -0.021255817
000270 d2 b4 9f 3d b7 32 c1 be d0 4c 3c 3e cb 3a 59 3d
       0.077981606 -0.37734005 0.18388677 0.053034585
000280 d4 f9 8c be dc 09 8d 3d 84 19 37 3e ed 17 1e 3e
       -0.27534354 0.06886646 0.17880827 0.15438814
000290 8c a6 17 be 91 cf 9b be 07 c6 56 3b d8 25 f7 bb
       -0.14809626 -0.30431798 0.0032771842 -0.007542353
0002a0 41 d0 c4 bc f4 66 65 3c 78 be 84 3e c3 f8 03 3f
       -0.024025084 0.014001597 0.25926566 0.51551455
0002b0 cb 02 ed bd 16 c3 c1 3c 74 af 8f 3d 02 7b 4e 3d
       -0.11572798 0.023652595 0.07015887 0.05041028
0002c0 29 d7 61 3d e9 4a ba 3d a3 d0 14 3e da ea 8e be
       0.055136833 0.09096319 0.14532714 -0.27913553
0002d0 7e f6 19 be 8d 7f 3c be 73 4c 6f 3c 3b cf 8a 3d
       -0.15035436 -0.18408032 0.014605629 0.06777807
0002e0 78 eb ce bd 2d 3d 16 be 61 78 8c bd 7b a5 38 be
       -0.10103506 -0.14671774 -0.06858898 -0.18031876
0002f0 e3 db 25 be a1 0c c9 3d 34 5a 0d 3e 10 eb 8c 3d
       -0.16197161 0.09816862 0.13803941 0.06880772
000300 5a 1f 66 bb 33 88 35 be 8d e8 e5 3d d5 65 c5 3e
       -0.0035113902 -0.17727737 0.11225996 0.38554254
000310 24 b1 eb 3d a8 5d 55 3e 35 93 bd bc 4f c4 aa 38
       0.11508396 0.20836508 -0.023141483 8.142797e-05
000320 57 17 87 be 8f 12 00 3d 4c 98 6f 3d 65 d3 c8 3c
       -0.26384994 0.0312677 0.05849485 0.024514863
000330 71 2f 81 be 9a 8d ef bd 63 03 06 bc 09 61 1d be
       -0.25231507 -0.1169693 -0.008179518 -0.15369047
000340 5c b0 2c bd 5a 51 1b be d6 8c 9e be 08 43 a9 bc
       -0.042160377 -0.15167752 -0.30966824 -0.020661846
000350 7a 29 64 be 10 49 e0 bc 1c 45 80 bc d7 a3 5d 3b
       -0.22281447 -0.027378589 -0.015657954 0.003381958
000360 7b 27 ab be 1f 2c a6 3e c2 8f 1d bc 46 0a 0e 3d
       -0.3342856 0.32455537 -0.009616794 0.034677766
000370 c9 2b 87 be 00 0a 84 3e cf bd 1c 3c b4 61 b3 bd
       -0.26400593 0.2578888 0.009566738 -0.0875887
000380 f7 64 b3 be ff 5c b5 3c 74 42 2d be 34 c2 c1 3c
       -0.35037968 0.02213907 -0.16919881 0.023652174
000390 80 9a 7b bd bc 1a f8 3d 81 08 95 be 4d 2e 50 3e
       -0.06142664 0.12114474 -0.2910805 0.20330162
0003a0 10 b8 61 3e aa 4e c6 bb c3 d9 81 3b 64 26 d2 3e
       0.2204287 -0.006051858 0.003962727 0.41044915
0003b0 25 f3 9b bd e9 7e d5 3e 26 fd d5 3c 90 3c 0f 3e
       -0.076147355 0.41698387 0.026121687 0.13987947
0003c0 ee ae d4 bd 54 2e 2c be 13 27 3d bd af 00 dd 3d
       -0.10384928 -0.16814548 -0.046179842 0.10791146
0003d0 48 5f cc be 63 fe b5 3d 98 27 e4 3d 50 32 0b be
       -0.39916444 0.08886411 0.111403644 -0.13593411
0003e0 55 25 5a 3e 06 00 e6 bc 16 a3 ab bc 2c e5 6d 3d
       0.21303304 -0.028076183 -0.020951789 0.058079883
0003f0 5b fb 7c 3d 49 47 8c bd 29 4e 3c be 2f cd b8 bd
       0.06176315 -0.06849534 -0.1838919 -0.09023511

affine_layers.0.bias f4 [64]
000000 00 00 00 00 00 00 00 00 00 00 00 00 00 00 00 00
       0.0 0.0 0.0 0.0
000010 00 00 00 00 00 00 00 00 00 00 00 00 00 00 00 00
       0.0 0.0 0.0 0.0
000020 00 00 00 00 00 00 00 00 00 00 00 00 00 00 00 00
       0.0 0.0 0.0 0.0
000030 00 00 00 00 00 00 00 00 00 00 00 00 00 00 00 00
       0.0 0.0 0.0 0.0
000040 00 00 00 00 00 00 00 00 00 00 00 00 00 00 00 00
       0.0 0.0 0.0 0.0
000050 00 00 00 00 00 00 00 00 00 00 00 00 00 00 00 00
       0.0 0.0 0.0 0.0
000060 00 00 00 00 00 00 00 00 00 00 00 00 00 00 00 00
       0.0 0.0 0.0 0.0
000070 00 00 00 00 00 00 00 00 00 00 00 00 00 00 00 00
       0.0 0.0 0.0 0.0
000080 00 00 00 00 00 00 00 00 00 00 00 00 00 00 00 00
       0.0 0.0 0.0 0.0
000090 00 00 00 00 00 00 00 00 00 00 00 00 00 00 00 00
       0.0 0.0 0.0 0.0
0000a0 00 00 00 00 00 00 00 00 00 00 00 00 00 00 00 00
       0.0 0.0 0.0 0.0
0000b0 00 00 00 00 00 00 00 00 00 00 00 00 00 00 00 00
       0.0 0.0 0.0 0.0
0000c0 00 00 00 00 00 00 00 00 00 00 00 00 00 00 00 00
       0.0 0.0 0.0 0.0
0000d0 00 00 00 00 00 00 00 00 00 00 00 00 00 00 00 00
       0.0 0.0 0.0 0.0
0000e0 00 00 00 00 00 00 00 00 00 00 00 00 00 00 00 00
       0.0 0.0 0.0 0.0
0000f0 00 00 00 00 00 00 00 00 00 00 00 00 00 00 00 00
       0.0 0.0 0.0 0.0
