src/models/atla_release/ATLA-PPO/attack-atla-ppo-halfcheetah.model (torch, 312493 bytes, 72 tensors)

affine_layers.0.weight f4 [64, 17]
-0.4680267 5.7168674 -0.24620852 0.030225206 0.052245125 0.90484744 0.23547235 0.38760406
-0.36908612 -0.15607138 0.73761886 0.29029962 0.05221161 0.019286646 -0.108381696 0.06508864
-0.31377986 0.3074101 -1.4646345 0.10848004 -0.080318816 0.06840778 -0.45018914 -0.3651636
-0.16565159 1.0099896 0.55312914 -1.3469024 -0.62419546 -0.16584666 -0.10176127 -0.3711897
-0.20792188 0.07782414 0.12511097 1.0897418 -0.053716764 -0.05101999 -0.13659433 0.05298311
-0.04533581 -0.61248803 1.5160654 -0.5003224 0.6630364 -0.010892013 -0.5379919 -0.08306138
-1.1109735 0.109354526 0.030499846 0.1640374 -0.33316705 -0.03016298 0.16685763 0.32830697
-0.18623991 -0.44269988 0.19388464 -0.6221467 -0.99454516 1.7442824 0.15403903 -0.044201005
0.045305233 -1.0483307 -0.6415089 -0.11049468 -0.10325004 -1.5309087 -0.04177129 -0.11227395
0.011181538 0.17790326 -0.33563626 0.30604297 0.07407959 -0.2636266 -0.9971986 -0.28701052
-0.2976436 0.014627753 -0.3898943 0.10274083 0.12539294 0.06479405 -0.7246259 0.7027457
0.54008514 0.16745709 -0.044162247 -0.22166489 1.3926574 -0.0015893239 0.35154468 -0.73545516
-0.22171158 0.35199654 -0.6176982 -0.86844915 -0.89936644 -0.64592195 -0.029621447 -1.1710553
-0.1584461 -0.23255783 0.02740305 -0.3073236 0.3840808 -0.28953046 -1.5808834 0.08933124
-0.0852305 -0.15336333 -0.2203604 0.026257595 0.6281667 0.46967915 0.040564004 0.15779547
-0.9349092 0.32320958 0.8300507 -0.17261925 0.9072678 -0.30552015 0.87071234 -1.5544369
-0.16193324 0.22520949 -0.13638197 0.3502201 -0.32665202 -0.3728507 -1.0574856 -0.5501405
0.053483985 1.602476 -0.7924176 -0.81109446 -0.019714331 0.86238873 1.0001518 0.2572728
0.2730659 0.90151346 -0.9806634 1.1564732 -0.07785642 0.5316549 0.91802704 0.5190598
0.38627917 0.3902307 -2.7981377 1.0275384 0.20290452 -0.15094234 -1.1933904 -0.539016
0.061666995 -0.2322514 -0.09548308 0.502476 0.3378433 0.3497162 0.04386217 -0.49217966
0.034295015 -0.12877554 -0.9353101 -0.88476795 0.6274872 -0.19169813 -0.37940654 0.3398978
0.16406186 -0.06331789 -0.10641616 0.3497617 0.33850905 0.057075955 -0.24767542 0.1623959
-0.016775222 -0.08945116 -0.40362665 -0.258958 0.9954563 -0.11203397 0.1666905 -0.22633801
-0.028247988 0.20106098 -0.006331167 1.3256565 0.13097528 0.51011866 -0.11020603 0.060987577
0.029336516 -0.15000851 -0.07877489 -0.03965495 0.044390954 0.79777527 -0.28776994 -0.8502262
-0.12272791 -0.43101615 0.12189862 -0.3384635 0.59707844 0.31852016 -0.22347887 0.100788176
-0.18670692 0.6574995 0.5867237 0.9229735 -0.13312298 -0.38058546 0.7591208 0.032094833
-1.2971227 0.54484725 -0.8525032 -0.15544179 -0.766908 0.34254846 -0.06371678 0.6361922
0.47867277 0.33477378 -0.014189159 -0.473216 0.06409 -0.14005466 -0.40795404 -1.1280476
-0.2951901 0.2853228 -0.041637633 -0.3039104 0.44827178 -0.50940204 1.2901816 -0.62903094
-0.1743999 -0.35733923 -0.045810334 0.037784457 -0.09797737 -0.0854024 0.49064448 -0.43491745
00000000: 32a1 efbe 94f0 b640 161e 7cbe da9a f73c
00000010: fcfe 553d 15a4 673f aa1f 713e 0a74 c63e
00000020: dbf8 bcbe 2dd1 1fbe 97d4 3c3f 27a2 943e
00000030: d7db 553d 07ff 9d3c 39f7 ddbd 314d 853d
00000040: c1a7 a0be db64 9d3e 2579 bbbf c92a de3d
00000050: 317e a4bd 6119 8c3d 317f e6be b9f6 babe
00000060: 92a0 29be 5747 813f df99 0d3f 4c67 acbf
00000070: 46cb 1fbf b5d3 29be 3668 d0bd 940c bebe
00000080: 79e9 54be 4362 9f3d 171d 003e a97c 8b3f
00000090: 1c06 5cbd 56fa 50bd 62df 0bbe d104 593d
000000a0: 0bb2 39bd 04cc 1cbf 6e0e c23f 2115 00bf
000000b0: c1bc 293f 6a74 32bc d6b9 09bf 161c aabd
000000c0: 6134 8ebf 44f5 df3d d0da f93c 6cf9 273e
000000d0: df94 aabe 5b18 f7bc badc 2a3e da17 a83e
000000e0: adb5 3ebe 8fa9 e2be b289 463e 0245 1fbf
000000f0: 839a 7ebf a544 df3f 68bc 1d3e 1d0c 35bd
00000100: fb91 393d b32f 86bf ed39 24bf 094b e2bd
00000110: c274 d3bd d1f4 c3bf 5f18 2bbd e2ef e5bd
00000120: c532 373c 462c 363e 84d8 abbe aab1 9c3e
00000130: 0ab7 973d 11fa 86be 6848 7fbf 0bf3 92be
00000140: be64 98be 3ea9 6f3c 3aa0 c7be c969 d23d
00000150: 0267 003e beb2 843d 1581 39bf 24e7 333f
00000160: 0543 0a3f df79 2b3e 79e3 34bd 1ffc 62be
00000170: 9942 b23f dc50 d0ba aafd b33e ca46 3cbf
00000180: 5c08 63be e438 b43e 7821 1ebf af52 5ebf
00000190: e13c 66bf 245b 25bf ada8 f2bc 24e5 95bf
000001a0: b23f 22be a423 6ebe 5c7c e03c 8559 9dbe
000001b0: 3da6 c43e 563d 94be 635a cabf 4cf3 b63d
000001c0: 548d aebd 470b 1dbe 28a6 61be 2b1a d73c
000001d0: 88cf 203f c979 f03e 7126 263d 2395 213e
000001e0: 3656 6fbf ba7b a53e 347e 543f 1ac3 30be
000001f0: b442 683f 236d 9cbe 01e7 5e3f caf7 c6bf
00000200: d4d1 25be 519d 663e b7a7 0bbe 0d50 b33e
00000210: ef3e a7be 49e6 bebe b05b 87bf 02d6 0cbf
00000220: 0612 5b3d ef1d cd3f e1db 4abf e3a3 4fbf
00000230: f37f a1bc 82c5 5c3f f904 803f 43b9 833e
00000240: 4bcf 8b3e 96c9 663f c20c 7bbf 5007 943f
00000250: 3073 9fbd 891a 083f d203 6b3f 1ae1 043f
00000260: 62c6 c53e 51cc c73e b014 33c0 6186 833f
00000270: 34c6 4f3e a190 1abe 04c1 98bf f4fc 09bf
00000280: 8896 7c3d 50d3 6dbe a28c c3bd 44a2 003f
00000290: ccf9 ac3e 000e b33e d2a8 333d f9fe fbbe
000002a0: ee78 0c3d bcdd 03be 7c70 6fbf 2780 62bf
000002b0: 00a3 203f 844c 44be 9341 c2be 1607 ae3e
000002c0: d5ff 273e cfac 81bd b7f0 d9bd f713 b33e
000002d0: 0f51 ad3e 7ac8 693d a09e 7dbe 1c4b 263e
000002e0: 316c 89bc 2b32 b7bd 27a8 cebe 2596 84be
000002f0: 39d6 7e3f 1172 e5bd eab0 2a3e 27c5 67be
00000300: 5368 e7bc eee2 4d3e ae75 cfbb 1daf a93f
00000310: 621e 063e 2397 023f b3b3 e1bd 1cce 793d
00000320: 2253 f03c d59b 19be bb54 a1bd 3b6d 22bd
00000330: 4ad3 353d 003b 4c3f 9556 93be 6da8 59bf
00000340: c558 fbbd 26ae dcbe fca5 f93d 164b adbe
00000350: 22da 183f 1315 a33e a5d7 64be 086a ce3d
00000360: 1930 3fbe e351 283f 8633 163f fe47 6c3f
00000370: 6451 08be 19dc c2be be55 423f df75 033d
00000380: 1e08 a6bf 1c7b 0b3f a63d 5abf 222c 1fbe
00000390: 1554 44bf 8362 af3e f17d 82bd 7edd 223f
000003a0: 9914 f53e 7867 ab3e a579 68bc 5e49 f2be
000003b0: 9e41 833d 7d6a 0fbe 5adf d0be dd63 90bf
000003c0: 2823 97be d415 923e 398c 2abd 259a 9bbe
000003d0: e183 e53e 2c68 02bf ac24 a53f 2c08 21bf
000003e0: e395 32be 2bf5 b6be 9ea3 3bbd e0c3 1a3d
000003f0: 5ca8 c8bd 74e7 aebd c135 fb3e 80ad debe

affine_layers.0.bias f4 [64]
-1.4776543 0.8727902 0.5836041 1.4143941 2.506781 -0.75020176 -1.7464268 -0.8462698
-0.03500641 1.1440552 -2.3329039 0.77465624 1.8410941 0.6273869 0.458045 1.0683742
0.20360452 2.172498 0.6655261 -1.7162735 1.9657218 1.130364 -0.16054606 -2.2917128
-1.1960281 -0.96185267 -1.8390716 -1.2682644 1.4959092 1.4014758 -0.48396024 2.2824824
-1.352973 -0.70017344 1.113321 -1.9898545 -0.3830783 0.7579955 0.32688674 2.505206
0.46148038 -2.363801 2.4154758 0.40890226 -0.80493855 0.8915366 2.071567 -1.2292522
-0.4766024 0.88804203 -1.1404107 -1.1515754 -2.6859105 1.4132713 -1.7955184 -2.764434
1.4175743 -2.5278528 0.3338123 -0.53021955 -0.95048153 0.06926376 2.0554953 2.221591
00000000: c723 bdbf 2e6f 5f3f 1467 153f de0a b53f
00000010: 1a6f 2040 390d 40bf ea8a dfbf 23a5 58bf
00000020: e262 0fbd 6770 923f 4c4e 15c0 df4f 463f
00000030: f9a8 eb3f 6e9c 203f e084 ea3e 7cc0 883f
00000040: b47d 503e 350a 0b40 eb5f 2a3f daae dbbf
00000050: c69c fb3f c4af 903f 3066 24be 6cab 12c0
00000060: 7317 99bf fa3b 76bf b366 ebbf 7d56 a2bf
00000070: f479 bf3f 8f63 b33f a3c9 f7be 3114 1240
00000080: 382e adbf 913e 33bf 4d81 8e3f 8db3 febf
00000090: d722 c4be fe0b 423f b35d a73e 4c55 2040
000000a0: 2847 ec3e 8448 17c0 2897 1a40 a35b d13e
000000b0: 7410 4ebf be3b 643f 8e94 0440 2358 9dbf
000000c0: 3b05 f4be b956 633f faf8 91bf d366 93bf
000000d0: f5e5 2bc0 13e6 b43f 8cd3 e5bf 7dec 30c0
000000e0: 1373 b53f 57c8 21c0 72e9 aa3e 78bc 07bf
000000f0: c252 73bf 28da 8d3d 3c8d 0340 8c2e 0e40

affine_layers.1.weight f4 [64, 64]
-0.21014962 -0.19966903 0.20120922 1.1600318 0.20819129 -0.50345236 0.19219398 0.55711865
0.16805589 1.0385212 -0.3588422 -0.32882294 1.086534 0.41757423 -0.5774551 0.30289653
0.4839734 0.19251329 -0.55319065 -1.3254446 0.82865345 0.60709155 -0.0790058 -0.72540295
-0.1919029 0.91572946 -0.41808763 0.28744256 -0.3892164 -0.09739215 0.12309769 0.37199882
-0.47631666 -0.54864347 0.2311868 -0.3892633 0.49832514 0.22524999 -0.9073402 1.1815504
0.18305719 -1.9452224 0.64831823 -0.3158115 0.67158395 -0.30008927 0.8454774 -0.2323271
-0.020176556 -0.6801415 -0.29374787 0.18338689 -0.5012024 0.6786061 -0.21183854 -1.0997294
-0.19046657 -0.5008112 -0.23158242 -0.5096801 -0.58618516 0.8392139 -0.11879168 0.5339449
-1.3164192 0.23698135 -0.10516395 -0.012883146 1.6541688 0.36181226 1.0098224 0.14544229
-0.18710332 -0.20220955 0.15794553 -0.6569213 0.5172801 0.57694095 0.5645033 0.52075297
-0.041383505 0.12261071 0.07361839 0.13085337 -0.37268686 -0.08445025 0.15656573 -0.14675519
0.43232825 -0.63682365 -0.77498573 -0.114559405 0.2381998 0.44895867 -0.5957916 1.5984501
-0.30275616 0.055043634 -0.9361701 0.30046678 -0.62015516 0.2373669 -0.29026702 0.5745251
-0.7025164 -0.33551553 0.5545616 0.43210393 -0.40825996 -0.4113483 0.30614582 -0.4364147
0.04760905 0.41045296 0.51477873 1.0853894 0.07010796 -0.18048356 0.3711444 -1.7158762
0.120623015 -0.7775558 -0.52662647 0.29238185 -1.1716231 -0.13047856 0.6798008 0.4442657
-0.16471626 0.08594355 -0.19135924 -0.06054812 0.2715965 -0.30381173 -0.12715806 0.107032835
0.99385846 -0.06434103 -0.49774754 -0.055688303 0.73852044 0.48636898 0.40676874 0.50410604
-0.41683966 -1.1785467 0.07450663 0.30952585 0.17981228 -0.24790122 -0.12563112 -0.6493563
0.07870019 0.6316675 -0.723135 -0.40437162 0.8849358 -0.7391189 -0.5930713 -1.1340951
-0.5616935 0.33398232 -0.09741221 -0.68223023 0.15703283 0.6731798 0.4401039 -0.13140275
1.0394338 -0.31206757 0.629605 0.051903278 0.21301387 0.29941127 1.2607107 -0.16609229
-0.15630877 -0.74351215 0.036432207 -0.6650269 -0.7603681 0.25019005 -0.6954735 -1.2735105
-0.2588938 0.03661326 -0.75492394 -0.21287715 0.07677734 -0.5904298 -0.26238933 0.40195748
-0.121275 -0.3566467 0.21495214 -0.36264357 -0.23568074 0.28278378 -0.19807537 -0.2628919
-0.7383193 0.003003906 0.06376447 -0.8487929 -0.13643348 -0.19182253 -0.0149061885 -0.10314868
0.014766211 -0.0103023965 0.09750756 -0.17794366 -0.32322174 -0.7318803 -0.6851723 0.8143493
1.09444 -0.48559195 0.28029287 0.36707264 -0.3338496 -0.58769757 0.30408427 0.027243564
0.023971967 0.29512438 -0.9771078 0.26916042 -0.030783892 0.447307 0.08192714 -0.18478529
-0.17206535 1.7222513 -0.20199277 0.46831286 0.5441938 0.17896773 -0.2840874 0.23503885
-0.42640975 0.48013327 0.62534493 -0.47225216 0.7187144 0.24820924 0.8384556 0.51020765
-0.6079558 -0.14719862 0.7938687 -0.020083092 -0.5316842 0.15386073 -0.27243462 -0.12666392
00000000: 7631 57be 0a76 4cbe ca09 4e3e ec7b 943f
00000010: 1930 553e 41e2 00bf 80ce 443e 549f 0e3f
00000020: d816 2c3e 43ee 843f 2aba b7be 7b5b a8be
00000030: 8c13 8b3f 4acc d53e 19d4 13bf 4115 9b3e
00000040: 5dcb f73e 3422 453e e79d 0dbf 2ba8 a9bf
00000050: a222 543f 5a6a 1b3f cbcd a1bd 02b4 39bf
00000060: 3282 44be 3f6d 6a3f 950f d6be ac2b 933e
00000070: 5f47 c7be 8975 c7bd a41a fc3d a176 be3e
00000080: c7df f3be e673 0cbf 3cbc 6c3e 854d c7be
00000090: 7924 ff3e efa7 663e 7347 68bf 0b3d 973f
000000a0: 5873 3b3e 0cfd f8bf 2ff8 253f 0cb2 a1be
000000b0: edec 2b3f 4da5 99be 3571 583f 28e7 6dbe
000000c0: 4e49 a5bc c11d 2ebf 1f66 96be c6c9 3b3e
000000d0: cd4e 00bf 21b9 2d3f 34ec 58be efc3 8cbf
000000e0: ab09 43be 2a35 00bf f123 6dbe 657a 02bf
000000f0: 3b10 16bf b9d6 563f 0d49 f3bd 9db0 083f
00000100: 6d80 a8bf 3dab 723e 3260 d7bd d513 53bc
00000110: cebb d33f 753f b93e dc41 813f d3ee 143e
00000120: 0398 3fbe 0510 4fbe 79bc 213e ff2b 28bf
00000130: 786c 043f 67b2 133f 4a83 103f 1150 053f
00000140: c081 29bd 531b fb3d 3dc5 963d 6dfe 053e
00000150: d0d0 bebe 41f4 acbd c452 203e fe46 16be
00000160: 215a dd3e e006 23bf 7765 46bf 1f9e eabd
00000170: a6ea 733e e9dd e53e cc85 18bf 039a cc3f
00000180: db02 9bbe 6f75 613d d8a8 6fbf c8d6 993e
00000190: 7dc2 1ebf 4f10 733e e19d 94be 1414 133f
000001a0: 1dd8 33bf b1c8 abbe c0f7 0d3f ba3c dd3e
000001b0: 7307 d1be 3f9c d2be 25bf 9c3e bf71 dfbe
000001c0: b501 433d e426 d23e 8ac8 033f 0aee 8a3f
000001d0: c394 8f3d afd0 38be a406 be3e d5a1 dbbf
000001e0: 3309 f73d e60d 47bf fed0 06bf 13b3 953e
000001f0: bff7 95bf 2c9c 05be 6d07 2e3f cb76 e33e
00000200: 61ab 28be 2c03 b03d adf3 43be 4e01 78bd
00000210: b20e 8b3e 368d 9bbe b935 02be 0834 db3d
00000220: 826d 7e3f 3bc5 83bd c4d8 febe 6b19 64bd
00000230: ad0f 3d3f 5b05 f93e fe43 d03e 180d 013f
00000240: 026c d5be 9eda 96bf ef96 983d 2c7a 9e3e
00000250: b620 383e d1d9 7dbe 72a5 00be 373c 26bf
00000260: 912d a13d f6b4 213f 601f 39bf cc09 cfbe
00000270: 278b 623f e536 3dbf 85d3 17bf 072a 91bf
00000280: 25cb 0fbf bbff aa3e 0e80 c7bd a4a6 2ebf
00000290: 37cd 203e 8355 2c3f 4c55 e13e 718e 06be
000002a0: 2b0c 853f 52c7 9fbe cb2d 213f 8898 543d
000002b0: 4f20 5a3e 6f4c 993e f85e a13f 1914 2abe
000002c0: 680f 20be d056 3ebf f039 153d 343f 2abf
000002d0: 7ca7 42bf e918 803e 8d0a 32bf 6402 a3bf
000002e0: ba8d 84be c9f7 153d b242 41bf 78fc 59be
000002f0: 703d 9d3d 6826 17bf e557 86be 5fcd cd3e
00000300: 075f f8bd 659a b6be 6a1c 5c3e 6bac b9be
00000310: 4b56 71be 09c9 903e 45d4 4abe c499 86be
00000320: 7e02 3dbf 2edd 443b f296 823d 7e4a 59bf
00000330: 38b5 0bbe 206d 44be 1639 74bc 9d3f d3bd
00000340: faed 713c 62cb 28bc 0bb2 c73d dd36 36be
00000350: 527d a5be 825c 3bbf 7467 2fbf 3279 503f
00000360: 9c16 8c3f 829f f8be 8c82 8f3e f2f0 bb3e
00000370: 56ee aabe 5973 16bf efb0 9b3e e52d df3c
00000380: dc60 c43c 8b1a 973e bd23 7abf 65cf 893e
00000390: 802e fcbc 6c05 e53e 6bc9 a73d 5b38 3dbe
000003a0: e631 30be bb72 dc3f 31d7 4ebe b4c6 ef3e
000003b0: 4950 0b3f 5143 373e e773 91be 06ae 703e
000003c0: 6152 dabe 07d4 f53e 9b16 203f 09cb f1be
000003d0: abfd 373f 902a 7e3e 07a5 563f f89c 023f
000003e0: fea2 1bbf 3cbb 16be fb3a 4b3f 4c85 a4bc
000003f0: 751c 08bf ab8d 1d3e 8d7c 8bbe 30b4 01be

affine_layers.1.bias f4 [64]
0.42867425 0.790121 1.0132716 -0.8625233 -0.563039 0.1833982 0.5924162 0.023456926
-0.5596205 -0.63467985 -0.121800706 1.1633573 -0.6706049 0.28000855 -0.667573 0.20383549
-1.0533543 -0.36334834 -0.6982738 -0.72196573 -0.7910035 -0.11255987 0.08651531 0.6619164
0.9550662 -0.076119 0.017334113 0.16658092 -0.74927217 -0.18735331 0.16914359 -0.19499432
1.0355059 0.45802185 0.37723923 0.713454 0.8335676 0.6552393 -0.4097336 0.0803059
-1.0065017 -0.18017823 -0.5606261 0.2376996 0.4377909 -0.7760983 0.62603825 -0.13140066
0.7268833 0.35573706 0.048293184 -0.6442009 0.62703216 -0.3630999 0.19862287 -0.56674457
-0.61350834 -0.53614825 0.66164887 0.00042510053 -0.37864614 0.17300344 0.44114506 0.7877726
00000000: 317b db3e 5f45 4a3f e2b2 813f 54ce 5cbf
00000010: 5323 10bf bdcc 3b3e 97a8 173f bd28 c03c
00000020: 4a43 0fbf 617a 22bf a672 f9bd e4e8 943f
00000030: c3ac 2bbf 485d 8f3e 10e6 2abf 40ba 503e
00000040: 50d4 86bf cb08 babe 12c2 32bf bfd2 38bf
00000050: 357f 4abf ca85 e6bd f02e b13d 5a73 293f
00000060: 387f 743f 47e4 9bbd 4500 8e3c 3094 2a3e
00000070: 4dd0 3fbf 8cd9 3fbe fa33 2d3e 97ac 47be
00000080: 758b 843f d781 ea3e 8025 c13e eca4 363f
00000090: b064 553f c3bd 273f 9ac8 d1be 6b77 a43d
000000a0: 0cd5 80bf a480 38be 3185 0fbf 8667 733e
000000b0: 2126 e03e 61ae 46bf 0b44 203f e58d 06be
000000c0: 0615 3a3f 2b23 b63e 13cf 453d 5aea 24bf
000000d0: 2e85 203f 3be8 b9be cb63 4b3e 2c16 11bf
000000e0: e20e 1dbf 0341 09bf d261 293f 07e0 de39
000000f0: e8dd c1be d027 313e c4dd e13e 77ab 493f

final.weight f4 [1, 64]
0.187616 0.040459435 0.04526669 -0.1849115 0.0038515977 0.005116019 0.049156267 5.8408223e-05
-0.067311056 -0.09433525 0.006572667 0.076866604 -0.03696864 -0.008159307 -0.06466764 -0.033274174
-0.02045162 -0.0128454305 -0.021164076 -0.02075517 -0.07047414 0.06540547 0.019197945 0.059716623
0.049212307 0.005989438 0.0016456605 0.0030813585 -0.034235515 -0.010063093 -0.0067100236 -0.010954361
0.21998064 0.003766168 0.043678995 0.019542407 0.12519974 0.07953294 -0.10913537 0.09537447
0.010042901 -0.019281898 -0.017472466 0.0025168257 0.104256324 -0.06815831 -0.0130365295 -0.03203369
0.08990767 0.021333836 0.018294467 -0.045635767 0.0817794 -7.293432e-05 -0.0025493472 0.005454936
-0.07314006 -0.090760134 0.049119223 -0.0011810386 0.01578197 -0.021256704 0.0015391709 0.02613502
00000000: 691e 403e cbb8 253d 9169 393d 7159 3dbe
00000010: 166b 7c3b 47a4 a73b 1558 493d 5afb 7438
00000020: 61da 89bd d732 c1bd 875f d73b 3d6c 9d3d
00000030: 6e6c 17bd 9dae 05bc 7870 84bd 804a 08bd
00000040: 288a a7bc a475 52bc 4960 adbc bf06 aabc
00000050: bf54 90bd 4ef3 853d 0245 9d3c 6b99 743d
00000060: d892 493d 0c43 c43b 34b3 d73a 9ef0 493b
00000070: 8a3a 0cbd acdf 24bc c2df dbbb ec79 33bc
00000080: 9b42 613e d0d1 763b bfe8 323d 6617 a03c
00000090: 5c34 003e 2be2 a23d 5d82 dfbd b153 c33d
000000a0: fb8a 243c 12f5 9dbc 6b22 8fbc 54f1 243b
000000b0: 5784 d53d 9696 8bbd 2b97 55bc c235 03bd
000000c0: 8321 b83d 4cc4 ae3c 47de 953c 92ec 3abd
000000d0: f57b a73d 51f4 98b8 f312 27bb 52bf b23b
000000e0: 75ca 95bd 73e0 b9bd 3d31 493d 14cd 9aba
000000f0: 3149 813c 8a22 aebc 01be c93a 1c19 d63c

log_stdev f4 [6]
-100.0 -100.0 -100.0 -100.0 -100.0 -100.0
00000000: 0000 c8c2 0000 c8c2 0000 c8c2 0000 c8c2
00000010: 0000 c8c2 0000 c8c2

affine_layers.0.weight f4 [64, 17]
-0.48720786 0.018955335 -0.32887152 0.029738486 0.24525754 -0.20199525 0.05565464 -0.15573557
-0.30663916 -0.23825899 0.58491546 -0.11053139 0.04181073 0.023927614 0.17921317 -0.03081619
0.021239415 -0.3519789 -0.10696005 -0.018559493 0.2542042 -0.13588984 -0.12121589 -0.077992864
0.21074097 0.41504467 -0.21461318 0.12902604 0.11504376 0.12597078 -0.19768219 -0.20261425
0.03277781 -0.07432863 -0.07096422 -0.1170025 0.0052503203 0.18055439 -0.04417122 -0.17640132
-0.12227381 0.06658728 -0.44731775 -0.20787548 0.034221623 0.2613538 -0.1902155 0.06243133
-0.45537373 0.020416263 -0.2884015 -0.42941138 -0.0135408845 0.38835576 0.15320669 0.17738254
-0.33967674 0.38237432 0.068544716 -0.104357734 -0.0497972 0.09210323 0.002490109 -0.13582526
0.30197227 -0.2594855 -0.3019224 0.14217778 -0.33153042 0.23332985 0.117757194 0.13706274
0.25034314 -0.31237963 -0.41784576 -0.17400473 -0.27423504 -0.14466092 -0.36715552 0.42703757
-0.006862579 0.37314567 0.17290516 -0.12130636 -0.043350335 -0.6099993 0.13427414 0.27058378
-0.18162246 0.05934191 -0.022652496 -0.15737532 -0.15909259 0.034783754 -0.30393988 0.12723939
0.36381927 -0.20588991 0.0061665294 0.005588138 0.016373632 -0.050488226 -0.59928995 -0.069874264
-0.09168505 0.27235708 -0.008523669 -0.19180256 0.106284276 -0.021550449 -0.0788497 0.45495343
-0.21131058 -0.21643545 -0.3006775 0.02963868 -0.01554479 0.06445311 0.012695442 0.020245304
0.13584073 0.13597429 -0.09175908 -0.1593079 -0.10195112 -0.114817396 0.20361792 0.36209324
0.122426115 0.01685979 0.035448167 0.16004018 0.11439321 -0.31660765 0.039623287 -0.3078934
-0.22896716 -0.15244608 -0.07069185 -0.011336023 0.11048222 -0.122056775 -0.010073553 -0.30022386
-0.039041817 0.028438292 0.27157286 -0.13728233 -0.083301745 -0.03683579 0.05145904 0.24921422
-0.10069228 -0.14182994 -0.5011262 -0.37503406 -0.33711618 -0.008124779 -0.18851618 0.07996672
-0.017762868 0.018895876 -0.47601092 0.11334251 0.117325895 0.17128749 0.11280397 0.26974982
0.04278596 -0.15040214 0.032725755 0.67134154 0.059531897 -0.35099515 -0.04995134 -0.25333852
-0.11487866 -0.06579833 -0.07960565 0.086701274 0.37077174 0.12415455 0.1157173 -0.013748439
-0.23052755 0.37864223 -0.06718879 0.25457177 0.0020794822 -0.013008725 -0.11628724 0.28935272
0.03491808 0.6277482 -0.30624932 0.35433233 -0.1257343 0.08355171 0.11522963 0.24689648
-0.08310273 0.17840077 0.02647667 0.20656623 0.6177858 -0.3527952 0.12224964 0.23013264
0.26545265 -0.0037749445 -0.055196866 0.0185829 -0.031077316 0.0786568 0.020557625 0.3297764
0.44353753 -0.19208767 -0.31680542 -0.12184242 0.20767438 -0.5347326 0.14113292 -0.27509427
-0.118068226 -0.12299334 0.18081468 -0.14329551 -0.16112037 -0.030355044 -0.069255374 0.12759748
0.37595487 -0.12232515 -0.17465991 -0.28084877 -0.24351306 0.04598547 -0.05190218 0.11762296
-0.11687888 -0.073799334 -0.033923194 0.07584346 -0.15818787 -0.18180421 0.27365807 0.32170972
-0.12651998 -0.18545344 0.21951325 0.21986677 0.39297658 -0.033668827 0.1509445 0.27005833
00000000: 4f73 f9be 3848 9b3c d961 a8be 209e f33c
00000010: cb24 7b3e d8d7 4ebe 1ff6 633d 2579 1fbe
00000020: cfff 9cbe 2afa 73be 05bd 153f 485e e2bd
00000030: ba41 2b3d d803 c43c a883 373e 3c72 fcbc
00000040: 48fe ad3c 9436 b4be df0d dbbd 140a 98bc
00000050: 0e27 823e b526 0bbe 0940 f8bd b9ba 9fbd
00000060: 7bcc 573e bc80 d43e 8fc3 5bbe 671f 043e
00000070: 109c eb3d 7cfe 003e 336d 4abe 1c7a 4fbe
00000080: 0642 063d 9c39 98bd b055 91bd 029f efbd
00000090: e10a ac3b 40e3 383e e2ec 34bd 8ca2 34be
000000a0: b16a fabd e95e 883d d506 e5be 4fdd 54be
000000b0: f92b 0c3d 2ad0 853e dac7 42be ffb7 7f3d
000000c0: bf26 e9be 0240 a73c 5da9 93be cfdb dbbe
000000d0: 96da 5dbc 91d6 c63e 37e2 1c3e c5a3 353e
000000e0: 1cea adbe 91c6 c33e 2c61 8c3d 82b9 d5bd
000000f0: 26f8 4bbd 9ea0 bc3d 1931 233b c715 0bbe
00000100: 1c9c 9a3e 49db 84be 9395 9abe 0d97 113e
00000110: 5bbe a9be 05ee 6e3e af2a f13d 2d5a 0c3e
00000120: fa2c 803e 39f0 9fbe e1ef d5be 4c2e 32be
00000130: 8968 8cbe fe21 14be cffb bbbe aba4 da3e
00000140: 7cdf e0bb f30c bf3e 0d0e 313e 786f f8bd
00000150: 1f90 31bd ea28 1cbf 297f 093e f589 8a3e
00000160: 3dfb 39be 8110 733d ba91 b9bc ff26 21be
00000170: 2be9 22be 6979 0e3d 029e 9bbe 0b4b 023e
00000180: 8546 ba3e ced4 52be 9910 ca3b b31c b73b
00000190: ff21 863c becc 4ebd 116b 19bf 3d1a 8fbd
000001a0: 5fc5 bbbd 6372 8b3e dca6 0bbc e467 44be
000001b0: 92ab d93d 918a b0bc f47b a1bd a8ef e83e
000001c0: cd61 58be 41a1 5dbe 67f2 99be d1cc f23c
000001d0: 93af 7ebc feff 833d 8b00 503c 7bd9 a53c
000001e0: d519 0b3e d83c 0b3e 2fec bbbd 9c21 23be
000001f0: c0cb d0bd 6225 ebbd 3781 503e 4964 b93e
00000200: 8bba fa3d 8b1d 8a3c 1932 113d 93e1 233e
00000210: fd46 ea3d 661a a2be 074c 223d 34a4 9dbe
00000220: 5e76 6abe d31a 1cbe e3c6 90bd baba 39bc
00000230: 8144 e23d e7f8 f9bd 8b0b 25bc f1b6 99be
00000240: 50ea 1fbd 6cf7 e83c 990b 8b3e bd93 0cbe
00000250: 1b9a aabd 20e1 16bd b7c6 523d 0332 7f3e
00000260: c137 cebd de3b 11be cf49 00bf 7704 c0be
00000270: 7e9a acbe cb1d 05bc 630a 41be 97c5 a33d
00000280: 6f83 91bc 86cb 9a3c b4b7 f3be 1e20 e83d
00000290: 8f48 f03d fd65 2f3e c505 e73d a61c 8a3e
000002a0: 5540 2f3d 0503 1abe 710b 063d 0add 2b3f
000002b0: b8d7 733d a3b5 b3be c799 4cbd 96b5 81be
000002c0: 8145 ebbd 46c1 86bd 4908 a3bd 7090 b13d
000002d0: cbd5 bd3e be44 fe3d 31fd ec3d 2241 61bc
000002e0: 6a0f 6cbe 65dd c13e 479a 89bd 3b57 823e
000002f0: ec47 083b 8c22 55bc 0128 eebd 0a26 943e
00000300: 4306 0f3d 1bb4 203f b6cc 9cbe 0c6b b53e
00000310: 7ec0 00be 291d ab3d 83fd eb3d 6ed2 7c3e
00000320: c431 aabd b1ae 363e 9ae5 d83c 1986 533e
00000330: 3627 1e3f 93a1 b4be 055e fa3d e4a7 6b3e
00000340: 69e9 873e 0f65 77bb 1c16 62bd 2a3b 983c
00000350: db95 febc d116 a13d 7768 a83c 74d8 a83e
00000360: 5a17 e33e a1b2 44be 5234 a2be 8588 f9bd
00000370: 98a8 543e 3ce4 08bf 2685 103e 28d9 8cbe
00000380: c1cd f1bd efe3 fbbd 7c27 393e 0fbc 12be
00000390: bdfc 24be 24ab f8bc c3d5 8dbd eaa8 023e
000003a0: 287d c03e 9c85 fabd 0cda 32be 69cb 8fbe
000003b0: 7d5b 79be 435b 3c3d 6197 54bd 4ee4 f03d
000003c0: 325e efbd 1b24 97bd 0cf3 0abd d153 9b3d
000003d0: 00fc 21be e22a 3abe e91c 8c3e 23b7 a43e
000003e0: 748e 01be 82e7 3dbe 15c8 603e c124 613e
000003f0: 3a34 c93e 53e8 09bd 3291 1a3e 1645 8a3e

affine_layers.0.bias f4 [64]
-0.25393343 0.27145845 -0.28228378 -0.090005346 -0.10365266 0.095135316 0.044632383 0.07955753
0.04002888 0.1299798 -0.04144241 -0.08762083 0.036440104 -0.20450297 0.093612686 0.06445746
0.1072271 -0.32378072 -0.0009606662 -0.18256778 0.12670857 -0.26437467 0.11501414 -0.2608414
-0.009966444 -0.28935936 -0.053988926 -0.059356827 -0.028169699 -0.25154623 -0.067313045 -0.22198312
-0.1610902 0.17507751 -0.25614816 -0.091915965 0.009622274 0.06978674 -0.065189674 -0.063443296
-0.121535555 -0.28468186 0.09350976 0.34402442 0.22880521 -0.015622581 0.00020405558 -0.022474727
-0.22524758 0.016436191 0.29280466 -0.077859 -0.09331449 -0.27975896 0.29713148 0.17189161
0.24212566 0.17694615 0.4120789 -0.067549706 -0.13081606 -0.006607195 -0.026764568 0.24757296
00000000: 9003 82be 9afc 8a3e 8087 90be b954 b8bd
00000010: d947 d4bd 4ed6 c23d 72d0 363d 0fef a23d
00000020: 53f5 233d 6d19 053e 84bf 29bd 8d72 b3bd
00000030: 3842 153d 3a69 51be 02b8 bf3d 4602 843d
00000040: e299 db3d 96c6 a5be 38d5 7bba 0cf3 3abe
00000050: e4bf 013e 1e5c 87be 898c eb3d 018d 85be
00000060: 4c4a 23bc e926 94be 7e23 5dbd 2520 73bd
00000070: 24c4 e6bc abca 80be 6cdb 89bd 8b4f 63be
00000080: d4f4 24be 8547 333e da25 83be 703e bcbd
00000090: bea6 1d3c 5aec 8e3d 2a82 85bd 8fee 81bd
000000a0: a2e7 f8bd d2c1 91be 0c82 bf3d f823 b03e
000000b0: ea4b 6a3e dbf5 7fbc c1f7 5539 eb1c b8bc
000000c0: 4da7 66be 31a5 863c 7eea 953e 8a74 9fbd
000000d0: ab1b bfbd 913c 8fbe 9e21 983e 5b04 303e
000000e0: caef 773e 5f31 353e 01fc d23e 8057 8abd
000000f0: a5f4 05be 2b81 d8bb 5e41 dbbc c483 7d3e

affine_layers.1.weight f4 [64, 64]
0.22006588 0.0007848355 0.05752046 -0.0743299 0.05084366 0.06825952 -0.08966953 0.10278265
-0.061133023 -0.16456628 0.13801615 0.10377059 -0.053215697 0.6606079 -0.003275072 0.11106332
-0.21303125 -0.41638947 0.15661679 0.33067864 0.31846505 -0.15062004 -0.35934293 0.035392165
0.16842355 -0.011458336 0.2407006 0.00806501 -0.09827592 -0.33244878 -0.384363 0.14456461
0.46030274 -0.011904571 0.27180275 -0.20208736 0.095097214 -0.5024018 -0.036597483 -0.21895395
-0.0635031 -0.059838943 0.040274035 0.0148470225 0.16760406 0.16469409 -0.21664463 -0.4692315
-0.09322478 -0.012042145 0.2088625 -0.18336263 0.45759192 0.11727197 0.12424305 -0.018189095
0.107227854 0.22845179 0.12660056 -0.048939023 0.16930051 0.26910606 -0.15133262 -0.1181347
0.1060968 -0.2433421 0.17190535 -0.25043967 0.42117178 -0.055957325 -0.32553473 0.0493976
-0.25731683 0.049078345 0.50197387 0.18240836 0.10143803 -0.13478884 0.07487796 0.21277705
0.19898517 -0.045020662 0.39912426 -0.10547224 0.33843276 0.10280307 -0.020225635 0.16488975
0.12027541 0.088054664 -0.09356051 -0.04559673 0.1146886 0.15286233 0.025443342 0.10527395
-0.5886659 -0.0739234 0.05225499 -0.17205846 -0.08245754 -0.23217784 0.082151875 -0.14552592
-0.12541856 -0.09797619 -0.32855186 -0.012466461 0.33083212 0.10993081 0.19801743 -0.053592477
0.47074467 0.11632811 -0.2183254 -0.20073737 0.20696025 0.101395614 0.11248841 -0.078793906
-0.063712135 0.299176 -0.43170744 -0.01743725 0.15867667 0.2005776 0.19552912 -0.0012150222
-0.021621278 0.46227095 0.08145299 -0.1526472 -0.004524938 0.118498676 -0.0363724 -0.15904303
-0.016231798 -0.18256694 0.015597199 0.23930351 -0.20452002 -0.088313185 0.05381844 0.049211938
-0.3892811 -0.07136322 -0.20576546 -0.06895393 -0.1293306 0.16354719 -0.12956938 0.059536275
-0.19100139 0.29978773 0.29082504 -0.39205977 0.018406956 0.0851506 -0.28530592 0.08448253
0.48360017 0.22271591 -0.2114888 0.4387524 -0.13530591 -0.21990173 -0.07913149 0.11037992
0.0016046442 0.34113842 -0.10149517 0.07387004 -0.088030025 0.049955335 -0.250018 -0.118427575
-0.18484081 -0.39580685 -0.122313015 0.06401565 -0.18485162 0.28102213 -0.06526002 -0.41138402
0.13762066 -0.09042924 -0.060148165 0.18440476 0.22454664 0.25814554 0.30479988 -0.014898376
0.41746777 0.16656898 0.03977161 -0.39900517 0.098809116 0.21629098 0.26662832 -0.1610578
0.30671132 0.24734847 -0.15813401 0.15323265 -0.5113194 0.3414784 0.18131633 -0.33159783
0.00018895866 -0.0631939 0.24341562 0.20215751 -0.18900768 -0.0012404567 -0.4462703 0.11249401
0.35253248 0.12135063 0.031995695 0.060908135 -0.2553391 0.17697683 -0.59715134 -0.03949516
-0.08577126 -0.41457453 0.26877055 0.13002543 0.092287876 -0.1966974 0.13052186 -0.4572957
-0.19922753 0.15802698 0.0436357 -0.09583136 -0.010630414 0.028053658 -0.013612834 -0.17915678
0.16039364 0.1358866 -0.11228633 -0.2084447 0.25939333 -0.36756667 0.086136326 -0.11618852
-0.37566143 0.11144758 -0.059964553 0.23406284 -0.07665262 0.04376578 -0.05642719 -0.28837535
00000000: f358 613e 6bbd 4d3a 939a 6b3d 463a 98bd
00000010: 7141 503d a6cb 8b3d a9a4 b7bd b67f d23d
00000020: 9f66 7abd 1084 28be 1b54 0d3e ad85 d43d
00000030: b4f8 59bd 991d 293f 97a2 56bb 2a75 e33d
00000040: dd24 5abe 0031 d5be 2760 203e b64e a93e
00000050: da0d a33e 243c 1abe ccfb b7be 60f7 103d
00000060: 3977 2c3e bfbb 3bbc 387a 763e 1b23 043c
00000070: e344 c9bd ba36 aabe 3acb c4be bf08 143e
00000080: cdac eb3e 640b 43bc bb29 8b3e fdef 4ebe
00000090: 54c2 c23d 689d 00bf 3ee7 15bd 7735 60be
000000a0: ea0d 82bd ae19 75bd 63f6 243d ed40 733c
000000b0: 66a0 2b3e 91a5 283e 17d8 5dbe 1c3f f0be
000000c0: a2ec bebd 6b4c 45bc 0de0 553e 6ac3 3bbe
000000d0: 7d49 ea3e 492c f03d 2473 fe3d 4c01 95bc
000000e0: 479a db3d 44ef 693e 94a3 013e 4974 48bd
000000f0: 1d5d 2d3e 45c8 893e f0f6 1abe 9bf0 f1bd
00000100: 4749 d93d ac2e 79be f507 303e a139 80be
00000110: d4a3 d73e 8233 65bd 7dac a6be 2355 4a3d
00000120: 08bf 83be 6006 493d 5c81 003f 42c9 3a3e
00000130: bebe cf3d 1606 0abe 9e59 993d 3ae2 593e
00000140: c5c2 4b3e 9667 38bd 045a cc3e d401 d8bd
00000150: 0f47 ad3e 6a8a d23d 3bb0 a5bc dcd8 283e
00000160: f452 f63d 0156 b43d a79c bfbd a3c3 3abd
00000170: dbe1 ea3d f187 1c3e 8e6e d03c de99 d73d
00000180: cfb2 16bf 2765 97bd 5409 563d 1830 30be
00000190: 80df a8bd 07c0 6dbe 3e3f a83d bf04 15be
000001a0: b96d 00be bea7 c8bd f337 a8be 2140 4cbc
000001b0: d462 a93e 6823 e13d 15c5 4a3e c983 5bbd
000001c0: 7205 f13e 6f3d ee3d b290 5fbe 198e 4dbe
000001d0: 63ed 533e 81a8 cf3d 5360 e63d b35e a1bd
000001e0: 827b 82bd 992d 993e c208 ddbe 90d8 8ebc
000001f0: 237c 223e 3764 4d3e c938 483e 6141 9fba
00000200: 1b1f b1bc c7ae ec3e d3d0 a63d 8c4f 1cbe
00000210: ee45 94bb 6faf f23d 3afb 14bd 2ddc 22be
00000220: 8cf8 84bc d4f2 3abe 658b 7f3c fb0b 753e
00000230: b26d 51be 8bdd b4bd b970 5c3d 7592 493d
00000240: da4f c7be e126 92bd 2eb4 52be b837 8dbd
00000250: 3e6f 04be ea78 273e d6ad 04be 4fdc 733d
00000260: de95 43be c77d 993e 05e7 943e 0fbc c8be
00000270: 2fca 963c 7063 ae3d 9e13 92be 2d05 ad3d
00000280: 719a f73e a40f 643e 8590 58be 28a4 e03e
00000290: a28d 0abe eb2d 61be b10f a2bd de0e e23d
000002a0: ed52 d23a b2a9 ae3e b3dc cfbd 2d49 973d
000002b0: 1649 b4bd f79d 4c3d 5c02 80be 288a f2bd
000002c0: e946 3dbe 32a7 cabe 3f7f fabd a31a 833d
000002d0: be49 3dbe 22e2 8f3e 0ca7 85bd eda0 d2be
000002e0: 6eec 0c3e f732 b9bd ec5d 76bd 9ad4 3c3e
000002f0: 8eef 653e a72b 843e bb0e 9c3e 5118 74bc
00000300: 56be d53e 0f91 2a3e 8ee7 223d 684a ccbe
00000310: 6f5c ca3d 627b 5d3e 8283 883e 56ec 24be
00000320: 4409 9d3e eb48 7d3e e2ed 21be 05e9 1c3e
00000330: d4e5 02bf 42d6 ae3e fdaa 393e 31c7 a9be
00000340: 3423 4639 ce6b 81bd f241 793e 6102 4f3e
00000350: 3b8b 41be d296 a2ba 8a7d e4be 4263 e63d
00000360: 237f b43e ae86 f83d eb0d 033d cf7a 793d
00000370: cebb 82be 6a39 353e e9de 18bf adc5 21bd
00000380: d8a8 afbd 1d43 d4be 4b9c 893e 6325 053e
00000390: 6d01 bd3d 0b6b 49be 86a7 053e a922 eabe
000003a0: 4d02 4cbe d3d1 213e 59bb 323d 3b43 c4bd
000003b0: 302b 2ebc c9d0 e53c 5d08 5fbc e074 37be
000003c0: 3b3e 243e db25 0b3e 60f6 e5bd 8772 55be
000003d0: 34cf 843e b331 bcbe 3e68 b03d 3ff4 edbd
000003e0: b256 c0be a13e e43d 649d 75bd 2bae 6f3e
000003f0: 0dfc 9cbd bf43 333d 3220 67bd efa5 93be

affine_layers.1.bias f4 [64]
-0.043146532 -0.21205911 -0.032341965 -0.14317614 -0.15307084 0.1257689 0.07376149 -0.2533348
-0.0873604 -0.15578812 0.070158824 0.20673893 0.08413788 0.1772275 -0.09484968 0.19732442
-0.11779326 -0.37596303 -0.08546733 -0.07902711 0.04758237 -0.22048958 -0.15993069 -0.11874301
0.10135301 -0.115383014 -0.12118609 -0.0635621 -0.09460215 0.054697998 0.17409049 -0.009261986
0.16342707 -0.066277534 -0.070702806 -0.25059086 0.054011833 0.18455528 -0.088921666 0.23036456
0.05211052 -0.17730363 0.18314816 -0.0215438 -0.30186427 0.06000682 0.058128223 0.15917693
0.029058918 0.031615652 0.12341216 -0.012658971 -0.31371692 0.07023395 0.26824984 -0.24160632
0.13594925 -0.100584865 0.049458247 -0.024402486 -0.22877523 0.13247286 -0.08497701 0.074364915
00000000: 6bba 30bd 0626 59be 0279 04bd c49c 12be
00000010: 9abe 1cbe 90c9 003e 4410 973d 19b5 81be
00000020: 02ea b2bd ec86 1fbe 6eaf 8f3d 5fb3 533e
00000030: 7b50 ac3d 207b 353e 8d40 c2bd 6a0f 4a3e
00000040: 983d f1bd 3a7e c0be 7f09 afbd f7d8 a1bd
00000050: bbe5 423d 05c8 61be dfc4 23be 892f f3bd
00000060: 2b92 cf3d ee4d ecbd 6a30 f8bd d92c 82bd
00000070: c6be c1bd 020b 603d c744 323e 96bf 17bc
00000080: 6d59 273e 84bc 87bd a2cc 90bd 724d 80be
00000090: 833b 5d3d 0ffc 3c3e 901c b6bd b0e4 6b3e
000000a0: d771 553d 158f 35be 318b 3b3e a07c b0bc
000000b0: f48d 9abe b6c9 753d dc17 6e3d 47ff 223e
000000c0: f80c ee3c 6a7f 013d 84bf fc3d 9367 4fbc
000000d0: 819f a0be d1d6 8f3d 0b58 893e a667 77be
000000e0: 4836 0b3e 70ff cdbd bb94 4a3d b9e7 c7bc
000000f0: 0e44 6abe f7a6 073e 6d08 aebd a24c 983d

final_mean.weight f4 [6, 64]
-0.049580123 -0.23689662 0.11877503 -0.030106446 -0.11592042 0.06884239 0.070845254 -0.034107514
-0.047354918 -0.09306432 -0.058588292 0.085385844 0.070036896 0.006044992 -0.17708273 -0.067026824
0.011751269 0.015812257 -0.10781532 -0.039654713 -0.03351259 -0.0812796 -0.20608144 0.06169722
0.057543922 0.09098392 -0.025140379 0.020497728 -0.09047246 0.06692762 0.010514153 -0.1801584
0.052053623 -0.018549483 0.062444843 0.060748484 0.068609744 -0.06998371 0.10249887 -0.058233958
-0.057263773 0.023463778 -0.009036683 0.057567623 -0.07516835 0.022217456 0.036968473 -0.030067867
0.07280677 0.08915557 -0.07989107 -0.06644571 0.011867545 -0.104300044 0.13109174 0.004953198
0.08917233 -0.020264024 -0.027087277 -0.09273151 -0.011916612 0.054798733 -0.011508626 -0.027613403
-0.02101424 -0.021047082 -0.0008570053 0.071559295 0.03175098 -0.02005751 0.055121683 -0.12547773
0.019814426 -0.039865218 -0.03642364 -0.030425012 0.098409005 0.16649075 0.053669937 -0.15339747
-0.05154319 -0.16491142 0.06351951 -0.20262031 -0.105775505 -0.29292375 -0.0906639 0.22255877
-0.007529753 -0.0058467872 -0.14833094 0.014758105 -0.104294844 0.017591542 0.03457049 0.024201563
-0.08881998 -0.0063879034 0.09675421 -0.15797219 -0.045131464 0.19000418 -0.1294636 0.07597687
-0.008968465 0.047048602 -0.071658134 0.109190315 0.115688115 -0.0061770454 0.028462313 -0.17973936
0.08216074 0.019164182 -0.10635057 0.013578754 0.025384782 -0.08863971 -0.09283714 -0.002206168
0.04063733 -0.19401148 -0.00060527277 0.063150324 -0.01736758 0.15354833 -0.0182093 -0.01699281
0.066213526 -0.029492589 0.035096366 -0.039948568 -0.11155646 0.08511497 0.0606542 0.0039069457
-0.06971904 0.007845342 -0.12495605 0.04075894 -0.019959822 -0.11865753 -0.013514076 0.10679748
-0.007933585 0.09682543 -0.054619085 0.047877222 0.103426374 0.0027505967 0.025006967 -0.23171435
0.0028344488 -0.006161131 0.028466487 -0.112988874 -0.08613486 0.14525113 0.068890825 -0.090846196
-0.054203995 0.15983528 -0.01313947 0.042431816 -0.023779137 -0.14322676 -0.05166843 -0.016982572
0.0651948 -0.044857766 0.10246643 -0.077908956 -0.14530046 0.099446125 -0.092298016 0.08890068
-0.078761406 -0.043392967 -0.0012863775 -0.08773999 -0.109735966 -0.14067018 0.099367864 -0.012187494
-0.0126546435 0.12252001 -0.049875528 -0.09828945 -0.047441963 -0.05922429 0.04974176 0.13168858
0.16673678 -0.06092501 -0.038300645 0.21101505 -0.18090646 0.06259313 -0.17717275 -0.029768815
-0.09613018 0.14573069 0.071592785 -0.16997126 -0.017870162 0.041001584 0.06317227 -0.046968836
-0.06808792 -0.09273671 -0.046802513 -0.13292591 0.004826235 -0.09504097 0.065610714 0.026277827
-0.021867618 -0.112721376 -0.09036426 -0.1243224 0.038536336 -0.02049535 0.14293699 0.039680824
0.018419344 0.01755422 -0.06528991 -0.22391343 0.051945604 0.026742086 -0.034685615 0.22658852
0.078486085 -0.10765089 -0.22092178 0.07138968 0.18266995 0.075407594 0.037362367 0.010626253
-0.0027039656 0.094095126 -0.030110678 -0.19976677 0.10173159 0.10403757 0.021224232 -0.21461873
-0.24581769 -0.052081738 0.041403946 -0.027008524 -0.07023211 0.029766392 -0.1358293 0.04345834
00000000: 8714 4bbd 0795 72be 5340 f33d cba1 f6bc
00000010: af67 edbd 3dfd 8c3d 5117 913d 52b4 0bbd
00000020: 3bf7 41bd 8298 bebd 47fa 6fbd c6de ae3d
00000030: 816f 8f3d 1115 c63b 2d55 35be 5c45 89bd
00000040: 6588 403c b588 813c 47ce dcbd fb6c 22bd
00000050: 7f44 09bd eb75 a6bd 0307 53be 39b6 7c3d
00000060: 2db3 6b3d c755 ba3d 32f3 cdbc daea a73c
00000070: a049 b9bd 5911 893d 8e43 2c3c 727b 38be
00000080: 2e36 553d 16f5 97bc 2ac6 7f3d 67d3 783d
00000090: 4483 8c3d 9f53 8fbd edea d13d bb86 6ebd
000000a0: 6b8d 6abd 1c37 c03c 980e 14bc 07cc 6b3d
000000b0: ddf1 99bd 6201 b63c 416c 173d e350 f6bc
000000c0: b71b 953d 3297 b63d ee9d a3bd b014 88bd
000000d0: 1770 423c 439b d5bd ea3c 063e 704e a23b
000000e0: fc9f b63d bd00 a6bc 23e6 ddbc 05ea bdbd
000000f0: e53d 43bc a374 603d ad8e 3cbc 8135 e2bc
00000100: 0e26 acbc ee6a acbc a7a8 60ba ae8d 923d
00000110: 510d 023d a64f a4bc 46c7 613d 3c7d 00be
00000120: dd51 a23c b649 23bd f430 15bd e03d f9bc
00000130: a98a c93d 8d7c 2a3e 02d5 5b3d 3a14 1dbe
00000140: f41e 53bd 8ade 28be 8416 823d b37b 4fbe
00000150: d4a0 d8bd 1afa 95be ffad b9bd 72e6 633e
00000160: 25bc f6bb 6896 bfbb 11e4 17be fbcb 713c
00000170: 8998 d5bd 231c 903c c999 0d3d 5b42 c63c
00000180: 40e7 b5bd 9e51 d1bb 1227 c63d 76c3 21be
00000190: c5db 38bd 7590 423e 1b92 04be c399 9b3d
000001a0: 78f0 12bc 09b6 403d 80c1 92bd 2c9f df3d
000001b0: e4ed ec3d d068 cabb cc29 e93c 980d 38be
000001c0: e443 a83d 34fe 9c3c 54ce d9bd 6c79 5e3c
000001d0: bff3 cf3c bc88 b5bd 6621 bebd 5b95 10bb
000001e0: 5473 263d f2aa 46be 2bab 1eba f554 813d
000001f0: 7546 8ebc c63b 1d3e ab2b 95bc 8134 8bbc
00000200: f59a 873d 719a f1bc 35c1 0f3d 1ca1 23bd
00000210: b777 e4bd c250 ae3d 8a70 783d d605 803b
00000220: dbc8 8ebd c089 003c f5e8 ffbd d9f2 263d
00000230: c882 a3bc b802 f3bd 256a 5dbc a3b8 da3d
00000240: defb 01bc 694c c63d 43b8 5fbd e81a 443d
00000250: 35d1 d33d 5b43 343b 69db cc3c 8746 6dbe
00000260: 29c2 393b 50e3 c9bb 8d32 e93c b666 e7bd
00000270: 7967 b0bd b6bc 143e a216 8d3d 920d babd
00000280: 0205 5ebd dcab 233e ee46 57bc fccc 2d3d
00000290: 77cc c2bc 09aa 12be 47a2 53bd 091f 8bbc
000002a0: da84 853d c7bc 37bd ebd9 d13d bb8e 9fbd
000002b0: a5c9 14be 69aa cb3d be06 bdbd 8f11 b63d
000002c0: a94d a1bd d3bc 31bd ab9b a8ba 06b1 b3bd
000002d0: 40bd e0bd d80b 10be 6181 cb3d 0eae 47bc
000002e0: 6c55 4fbc c5eb fa3d 484a 4cbd fb4b c9bd
000002f0: 8152 42bd 2b95 72bd 04be 4b3d 5fd9 063e
00000300: 0cbd 2a3e 818c 79bd 23e1 1cbd 5414 583e
00000310: 8b3f 39be d430 803d c66c 35be bbdd f3bc
00000320: e6df c4bd 6d3a 153e 3d9f 923d f20c 2ebe
00000330: 7264 92bc 47f1 273d 7760 813d 6562 40bd
00000340: ae71 8bbd bfec bdbd feb3 3fbd bb1d 08be
00000350: 6525 9e3b d7a4 c2bd e95e 863d 9944 d73c
00000360: b823 b3bc 77da e6bd e610 b9bd be9c febd
00000370: 47d8 1d3d dde5 a7bc 135e 123e 5c88 223d
00000380: 2ae4 963c decd 8f3c b7b6 85bd 9049 65be
00000390: eac4 543d 3812 db3c 8112 0ebd d206 683e
000003a0: 50bd a03d 1278 dcbd 5239 62be c134 923d
000003b0: d50d 3b3e 4c6f 9a3d 4809 193d bc19 2e3c
000003c0: 0435 31bb f2b4 c03d abaa f6bc a98f 4cbe
000003d0: a758 d03d a611 d53d 71de ad3c 03c5 5bbe
000003e0: a2b7 7bbe a953 55bd 2f97 293d fb40 ddbc
000003f0: dad5 8fbd a6d8 f33c d616 0bbe 5f01 323d

final_mean.bias f4 [6]
0.070516594 0.0401335 0.029151393 0.079194285 -0.09831747 -0.03924814
00000000: 016b 903d 0663 243d e7ce ee3c 9d30 a23d
00000010: ab5a c9bd a8c2 20bd

exp_avg f4 [64, 17]
-7.4849106e-07 8.945507e-08 -1.4073428e-05 1.3671977e-05 -1.7194729e-05 3.4169545e-07 5.337164e-06 -3.2144562e-06
1.7338925e-05 8.1160415e-06 -1.0617546e-05 2.8469206e-06 8.465177e-06 -1.7560236e-05 6.8843683e-06 1.301593e-05
3.9908605e-06 -1.7861563e-05 -1.3364809e-06 1.7610862e-05 -2.947841e-05 2.0772479e-05 -7.2379135e-06 -2.2451777e-05
-1.5711994e-05 -7.428558e-05 -2.218079e-05 -2.9059762e-05 -9.537848e-06 3.723391e-06 6.5582266e-05 4.4508142e-05
-1.7955921e-05 -3.896637e-06 -2.6400518e-05 3.146975e-05 -3.6447873e-05 -1.2900093e-06 6.0489765e-05 -3.58336e-05
-3.641956e-05 -8.256984e-05 -1.1979142e-05 -8.5151856e-05 1.1103675e-05 -0.00011790554 4.6851535e-05 -4.2727697e-05
5.7245248e-05 -7.656486e-05 -9.279068e-05 2.2877934e-05 -2.2864797e-06 6.6069726e-05 -5.454458e-05 4.1383587e-06
1.7131664e-05 4.3692446e-05 7.50011e-05 3.7655855e-07 7.0679234e-05 6.169429e-05 5.0822626e-05 -8.036201e-05
5.7188372e-05 -6.76339e-05 7.61718e-05 5.579664e-05 -6.7475355e-07 3.2379528e-06 -1.333815e-06 9.263959e-07
-2.7823444e-06 1.3751382e-05 6.674028e-07 1.2300718e-05 -9.254747e-06 -7.57508e-06 -1.0692208e-05 -1.5794608e-06
3.1427114e-06 -3.5288947e-06 4.2905053e-06 -4.054183e-06 5.4030334e-06 -1.0069416e-06 -2.6151067e-06 -7.440658e-06
1.4569957e-05 -1.6613214e-05 -1.3925352e-05 -2.4586318e-05 -1.7972006e-05 -1.666718e-05 -1.5113231e-07 -1.6823375e-05
1.36204235e-05 6.634786e-07 -2.890873e-06 3.1565064e-06 -8.080331e-06 -1.21330995e-05 2.1899827e-05 -1.6823739e-06
-2.8595377e-05 -8.441939e-06 3.2835271e-06 -2.191551e-05 1.5476946e-05 -1.9922769e-05 3.1607226e-05 -4.1836693e-06
-6.5256186e-06 -1.1113156e-05 2.1991573e-06 -2.0931118e-05 8.196435e-06 2.793616e-05 1.3893558e-05 1.0346851e-05
5.8117985e-06 -5.4915887e-05 3.869079e-05 3.3169002e-07 1.2746151e-05 -9.039637e-06 -1.5932756e-05 5.311931e-05
-1.4495821e-05 -1.2951885e-05 -6.0702387e-05 6.295129e-05 -5.2997177e-05 2.8965613e-05 -3.4803015e-05 -1.9853573e-05
1.51643535e-05 -1.3191132e-05 -7.257809e-07 2.077951e-05 2.2643007e-05 1.9114535e-05 1.5560025e-05 7.5191333e-06
3.3850283e-05 -9.151754e-06 -6.268895e-06 -2.6861499e-05 2.6108863e-05 -1.7191081e-05 2.6490141e-05 1.6591548e-05
2.0692405e-05 1.6776177e-05 3.517289e-07 4.637798e-05 -5.14265e-05 -1.0048187e-05 1.9044322e-06 5.7376627e-05
6.2402854e-05 -3.7774453e-06 -2.7160142e-05 3.4778608e-05 6.221868e-05 -0.00010570024 4.2661282e-05 -3.803768e-05
5.7961573e-05 1.9866451e-05 6.2433073e-06 -1.8210721e-05 4.252714e-05 1.0064546e-05 -1.8775664e-06 -2.5958687e-05
1.9943081e-05 8.183552e-06 4.101549e-05 3.090237e-05 3.467806e-05 5.2366555e-05 -6.261736e-05 4.676841e-05
-5.9221748e-05 2.1215508e-05 -4.5897073e-06 -8.4915606e-05 4.3638407e-05 -0.0001656363 8.006368e-05 -1.34544825e-05
-4.7691934e-05 -4.834497e-05 -0.00017546747 8.491729e-06 -0.00015536041 -0.00015223512 -7.629119e-05 0.00014356706
-4.9896986e-05 0.00018758129 -5.8516955e-05 -2.80883e-05 2.1141943e-05 -9.019627e-06 8.649292e-05 -6.353702e-05
-2.5858633e-05 3.3344293e-06 1.3710525e-05 8.990381e-05 -2.563437e-05 3.198234e-05 6.0504157e-05 0.00012003867
-0.00012955078 8.8051085e-05 -0.00010180509 5.2588486e-05 1.6377518e-05 1.5176281e-05 3.4663315e-06 1.5828566e-05
-3.3380307e-05 -1.7895232e-05 -1.1538913e-05 2.0172072e-05 3.867967e-05 -1.3726896e-05 -4.6485898e-06 -2.2400725e-06
5.297901e-05 -4.3034794e-05 2.817359e-05 -3.0907875e-05 6.7858135e-05 5.1359886e-05 -7.074006e-05 2.8289474e-05
-5.8316895e-05 -1.9369452e-05 -7.8333396e-05 -2.7351594e-05 -3.973763e-06 -7.178876e-05 -2.601891e-05 -6.179496e-05
-6.0485305e-05 3.409927e-05 5.3150798e-06 2.1179924e-06 4.0991377e-05 7.942599e-05 1.3581069e-05 4.2035408e-05
00000000: eaeb 48b5 721a c033 ea1c 6cb7 b260 6537
00000010: 663d 90b7 4472 b734 e415 b336 f0b7 57b6
00000020: 0f73 9137 222a 0837 0322 32b7 b90d 3f36
00000030: a905 0e37 524e 93b7 4600 e736 fe5e 5a37
00000040: 3be9 8536 6ad5 95b7 2261 b3b5 0abb 9337
00000050: 6748 f7b7 8f40 ae37 34dd f2b6 d356 bcb7
00000060: 40cd 83b7 c4c9 9bb8 e210 bab7 5dc5 f3b7
00000070: bf04 20b7 5fdf 7936 3689 8938 41ae 3a38
00000080: 0ca0 96b7 dbbf 82b6 ae76 ddb7 63fe 0338
00000090: 9bdf 18b8 6224 adb5 64b6 7d38 094c 16b8
000000a0: 34c1 18b8 5829 adb8 06fa 48b7 8e93 b2b8
000000b0: ec49 3a37 0e44 f7b8 7482 4438 8436 33b8
000000c0: 9e1a 7038 7291 a0b8 9e98 c2b8 fde9 bf37
000000d0: 6c71 19b6 ea8e 8a38 ccc6 64b8 3bdc 8a36
000000e0: f8b5 8f37 6842 3738 e949 9d38 d029 ca34
000000f0: a039 9438 df61 8138 612a 5538 0788 a8b8
00000100: 8cdd 6f38 acd6 8db8 6cbe 9f38 3007 6a38
00000110: b620 35b5 9b4b 5936 8905 b3b5 71ad 7835
00000120: 50b8 3ab6 bcb5 6637 9227 3335 2e5f 4e37
00000130: d644 1bb7 712d feb6 af62 33b7 dcfd d3b5
00000140: 5fe7 5236 f3d1 6cb6 29f7 8f36 2b09 88b6
00000150: b44b b536 4026 87b5 317f 2fb6 c4aa f9b6
00000160: 7d71 7437 9b5c 8bb7 eea0 69b7 b73e ceb7
00000170: 97c2 96b7 7fd0 8bb7 ef46 22b4 ec1f 8db7
00000180: 4683 6437 e719 3235 d200 42b6 5ed4 5336
00000190: c290 07b7 448f 4bb7 85b5 b737 edcd e1b5
000001a0: 1be0 efb7 daa1 0db7 915a 5c36 33d7 b7b7
000001b0: 7dd4 8137 d21f a7b7 0092 0438 7261 8cb6
000001c0: a3f6 dab6 a472 3ab7 3c95 1336 3c95 afb7
000001d0: 6c83 0937 7258 ea37 6118 6937 6397 2d37
000001e0: f802 c336 7c55 66b8 eb47 2238 2113 b234
000001f0: 4dd8 5537 f2a8 17b7 55a7 85b7 6dcc 5e38
00000200: 1433 73b7 ec4b 59b7 b19a 7eb8 b704 8438
00000210: 4949 5eb8 2efb f237 74f9 11b8 398b a6b7
00000220: 676a 7e37 7b4f 5db7 49d3 42b5 a84f ae37
00000230: 7df1 bd37 2758 a037 e686 8237 dd4c fc36
00000240: 77fa 0d38 7c8a 19b7 6659 d2b6 a154 e1b7
00000250: 5b04 db37 9135 90b7 2537 de37 142e 8b37
00000260: 9a94 ad37 91ba 8c37 40d5 bc34 fa85 4238
00000270: c9b2 57b8 a294 28b7 cb9b ff35 afa7 7038
00000280: 47de 8238 0480 7db6 f6d5 e3b7 3fdf 1138
00000290: 667b 8238 62ab ddb8 34ef 3238 a68a 1fb8
000002a0: c41b 7338 e1a6 a637 9a7d d136 3ac3 98b7
000002b0: 2b5f 3238 e5da 2837 b100 fcb5 dbc1 d9b7
000002c0: 714b a737 174c 0937 0c08 2c38 2b9d 0138
000002d0: 4973 1138 29a4 5b38 7051 83b8 3329 4438
000002e0: de64 78b8 f5f7 b137 4901 9ab6 b814 b2b8
000002f0: 6208 3738 a8ae 2db9 dce7 a738 90ba 61b7
00000300: d308 48b8 04c6 4ab8 b1fd 37b9 b377 0e37
00000310: 3ee8 22b9 4ea1 1fb9 85fe 9fb8 7d8a 1639
00000320: 7b48 51b8 78b1 4439 1a70 75b8 2a9f ebb7
00000330: fa59 b137 0153 17b7 8863 b538 2e3f 85b8
00000340: feea d8b7 0fc5 5f36 4206 6637 be8a bc38
00000350: 6409 d7b7 c724 0638 d8c5 7d38 45bd fb38
00000360: 06d8 07b9 11a8 b838 3180 d5b8 7592 5c38
00000370: 7462 8937 a19d 7e37 1f9f 6836 96c7 8437
00000380: d501 0cb8 b81d 96b7 4197 41b7 3237 a937
00000390: fb3b 2238 924c 66b7 15fb 9bb6 2754 16b6
000003a0: c735 5e38 4280 34b8 5356 ec37 14a3 01b8
000003b0: 0f4f 8e38 426b 5738 485a 94b8 2f4f ed37
000003c0: 4a99 74b8 957b a2b7 ec46 a4b8 1a71 e5b7
000003d0: 5d56 85b6 4c8d 96b8 2f43 dab7 eb97 81b8
000003e0: 9ab1 7db8 d005 0f38 3058 b236 d522 0e36
000003f0: 28ee 2b38 8191 a638 3fda 6337 2d4f 3038
