src/models/atla_release/ATLA-PPO/attack-atla-ppo-walker.model (torch, 312493 bytes, 72 tensors)

affine_layers.0.weight f4 [64, 17]
0.087959684 0.17862198 0.25905246 0.11467512 -0.030376269 -0.058304753 0.028992446 0.11337879
0.14134452 -0.36136514 -0.22442794 0.44068125 0.15310521 0.10539066 -0.09252761 -0.011049838
0.09701806 -0.74492645 0.27216807 -0.030486992 -0.34033394 -0.46450672 0.12999628 0.04804037
-0.15862185 0.8023951 -0.20093226 -0.3408793 0.1766306 -0.006915195 -0.09136795 0.11531494
-0.015272597 0.0326445 0.52917904 -0.31351972 -0.39621437 -0.21710047 0.15621185 0.49828082
0.15468732 -0.31623006 -0.2212193 -0.056254163 -0.15716831 0.39025813 0.17100511 0.2994603
-0.1115465 -0.0065610735 -0.009392665 -0.16581811 -0.19209139 0.2923868 -0.16648555 -0.053954452
0.41179764 0.19338223 0.22568421 -0.02056242 -0.023531256 -0.2862461 -0.0592279 -0.043848023
0.08861101 0.32901523 0.09678888 0.0042405827 -0.091284364 -0.46415892 0.18943785 0.0067357295
-0.07899867 0.37650517 0.052553013 -0.048823774 0.093699194 -0.5739513 -0.5544627 0.23655412
0.059714235 0.1888748 0.42006424 0.026751028 0.0837472 0.5944031 -0.54283226 0.36628556
-0.1804446 0.07559746 -0.0024147483 0.16705509 0.60265845 0.07484041 -0.18799494 -0.2943736
-0.20020156 -0.08591226 0.16321075 0.35950425 0.018274343 0.10332407 -0.63323355 -0.2412051
-0.13681045 -0.22002296 -0.21306387 -0.00077533576 -0.05514647 0.052996993 0.26614118 -0.8751956
-0.2601481 0.0023768186 -0.090678565 -0.008225819 0.060341254 -0.010752449 0.011010559 0.17440489
0.1839377 0.563012 -0.11395053 -0.53006643 -0.5110832 -0.071583085 -0.116435386 -0.6084535
-0.65789056 0.098060004 -0.5354185 -0.18013883 0.060659166 0.32898074 0.06642726 0.027005972
-0.36216983 -0.620169 0.19785406 -0.072273634 0.23799132 0.0088110175 0.19503647 0.16791208
0.3865779 -0.35263947 -0.5543275 0.7036347 0.27713275 -0.061940916 -0.04645352 -0.00034621882
-0.019477593 -0.54358107 -0.049108632 0.3388651 0.18421233 -0.38119924 0.3079044 -0.09986163
-0.08719555 0.15217 -0.22167471 0.47078076 -0.23747174 -0.14820923 -0.1523896 -0.4444795
-0.14972165 -0.19143386 -0.94178104 0.4101839 -0.104733 0.1555482 0.11952408 -0.010541572
-0.03057383 0.26059934 0.27567744 -0.10252847 -0.4288537 0.37363312 0.09507363 0.04904786
0.10117443 0.008276471 -0.10992803 0.38873893 0.806791 0.017698074 -0.10055615 0.29132554
-0.5476664 0.014558305 0.17712429 0.17538357 0.09278796 -0.19303934 -0.23347448 -0.0347569
-0.040865097 0.11853347 -0.024548713 -0.060747124 -0.24488074 0.55179405 -0.110632606 -0.22107162
-0.03510004 -0.015012002 -0.067427956 -0.2661387 0.015232982 -0.20488171 -0.15043192 -0.2770063
-0.09821777 -0.00444468 0.34921792 0.16432576 0.08083304 -0.5532106 0.33251914 0.2404447
-0.0030783585 0.07298867 -0.14066654 -0.01451416 0.09800233 -0.15639502 -1.0109054 0.19696938
0.14415078 0.043691814 0.091012836 -0.34039393 -0.14567201 -0.06718033 0.27256963 -0.13081887
0.17585753 -0.051505607 0.17678903 -0.032594215 0.012159179 0.017536154 0.32344517 0.010796143
-0.13807514 0.13015248 0.023500865 -0.08819322 0.08705027 -0.07913679 -0.0048863287 0.022482427
00000000: 3524 b43d aee8 363e 86a2 843e cada ea3d
00000010: a7d7 f8bc f7d0 6ebd 9181 ed3c 2433 e83d
00000020: 9ebc 103e da04 b9be 70d0 65be f9a0 e13e
00000030: 9dc7 1c3e 0fd7 d73d 1e7f bdbd 610a 35bc
00000040: 68b1 c63d 80b3 3ebf 9d59 8b3e dbbf f9bc
00000050: 4040 aebe d3d3 edbe bf1d 053e fbc5 443d
00000060: c46d 22be c469 4d3f 30c1 4dbe bb87 aebe
00000070: a7de 343e dc98 e2bb 1f1f bbbd 3d2a ec3d
00000080: ea39 7abc 3db6 053d 4778 073f a885 a0be
00000090: 9cdc cabe 964f 5ebe 00f6 1f3e aa1e ff3e
000000a0: 5a66 1e3e e8e8 a1be 5087 62be c46a 66bd
000000b0: bbf0 20be eacf c73e f71b 2f3e dc52 993e
000000c0: 7e72 e4bd 46fe d6bb b1e3 19bc 39cc 29be
000000d0: 9bb3 44be b9b3 953e 307b 2abe 58ff 5cbd
000000e0: 24d7 d23e fe05 463e c319 673e 8572 a8bc
000000f0: 9fc4 c0bc d98e 92be f498 72bd fc99 33bd
00000100: b079 b53d af74 a83e 4039 c63d 96f4 8a3b
00000110: 4cf3 babd 3da6 edbe fffb 413e 65b7 dc3b
00000120: 0eca a1bd 49c5 c03e d441 573d 70fb 47bd
00000130: 5de5 bf3d 79ee 12bf 44f1 0dbf 3e3b 723e
00000140: ea96 743d 6568 413e a912 d73e f924 db3c
00000150: a783 ab3d cd2a 183f 0ef7 0abf c889 bb3e
00000160: 78c6 38be d7d2 9a3d c140 1ebb 7d10 2b3e
00000170: d347 1a3f ee45 993d bf81 40be 23b8 96be
00000180: a301 4dbe c4f2 afbd b820 273e f110 b83e
00000190: 13b4 953c 929b d33d 981b 22bf 78fe 76be
000001a0: 0a18 0cbe b34d 61be 6a2d 5abe e73f 4bba
000001b0: 44e1 61bd 6013 593d a843 883e d20c 60bf
000001c0: 2232 85be 66c4 1b3b afb5 b9bd 96c5 06bc
000001d0: 6428 773d 0a2b 30bc a265 343c 3297 323e
000001e0: 2a5a 3c3e 8e21 103f e55e e9bd 6fb2 07bf
000001f0: 59d6 02bf 279a 92bd ad75 eebd 9cc3 1bbf
00000200: 846b 28bf afd3 c83d 3011 09bf 5076 38be
00000210: bf75 783d 2a70 a83e 040b 883d a13b dd3c
00000220: 536e b9be 65c3 1ebf 419a 4a3e 3304 94bd
00000230: ffb3 733e 165c 103c a4b7 473e 25f1 2b3e
00000240: 8aed c53e 298d b4be 68e8 0dbf 6721 343f
00000250: 58e4 8d3e c2b5 7dbd 0c46 3ebd b484 b5b9
00000260: 798f 9fbc 2128 0bbf 2226 49bd ba7f ad3e
00000270: 28a2 3c3e 8c2c c3be a5a5 9d3e 4184 ccbd
00000280: 9593 b2bd 74d2 1b3e b2fe 62be 2d0a f13e
00000290: cb2b 73be 29c4 17be 050c 1cbe d192 e3be
000002a0: a250 19be 3d07 44be 9018 71bf a003 d23e
000002b0: 417e d6bd 0748 1f3e 0ac9 f43d 8fb6 2cbc
000002c0: f875 fabc 476d 853e 9825 8d3e 72fa d1bd
000002d0: b692 dbbe d74c bf3e f7b5 c23d 69e6 483d
000002e0: 8a34 cf3d 099a 073c f221 e1bd ca08 c73e
000002f0: db89 4e3f 8dfb 903c 62f0 cdbd 9f28 953e
00000300: dd33 0cbf f585 6e3c 1260 353e c097 333e
00000310: 9d07 be3d 1bac 45be ef13 6fbe 405d 0ebd
00000320: 2962 27bd adc1 f23d 621a c9bc fad1 78bd
00000330: 04c2 7abe 6042 0d3f 5993 e2bd 9960 62be
00000340: 0fc5 0fbd e6f4 75bc ab17 8abd 5543 88be
00000350: c293 793c 83cc 51be d30a 1abe c5d3 8dbe
00000360: 6626 c9bd aea4 91bb b1cc b23e 0345 283e
00000370: cb8b a53d 369f 0dbf f33f aa3e 2337 763e
00000380: 49be 49bb 157b 953d e40a 10be cdcc 6dbc
00000390: 72b5 c83d 0426 20be 5965 81bf 57b2 493e
000003a0: 439c 133e 30f6 323d f064 ba3d 1d48 aebe
000003b0: 0b2b 15be d795 89bd 3f8e 8b3e 62f5 05be
000003c0: ff13 343e 8bf7 52bd 2f08 353e 8381 05bd
000003d0: 4b37 473c fba7 8f3c 9b9a a53e 4ee2 303c
000003e0: 9263 0dbe b146 053e e384 c03c a69e b4bd
000003f0: 6947 b23d 7812 a2bd 7f1d a0bb 112d b83c

affine_layers.0.bias f4 [64]
0.2415063 0.20228113 0.15475237 -0.41589177 0.44887114 0.5364081 -0.7515955 0.14650515
0.60748947 -0.35733512 -0.049176443 0.33946022 -0.4613526 -0.58714265 0.51778114 0.73282987
-0.47797114 -0.68955576 0.95480144 -0.050149933 -0.55702907 -0.5043733 1.1000148 -0.6805202
0.39979064 0.03503149 -0.7193174 1.0218236 -0.8677196 -1.2395911 -0.33472535 -0.80505234
-0.9200131 -0.6017443 0.30262917 -0.8013728 0.9931461 0.76697 -0.043019447 0.49204564
-0.077904634 0.48298788 0.3297967 0.5043599 -0.8179164 0.20425127 -0.38297075 -0.9243226
0.17924972 0.93333954 0.20969693 -0.26579744 0.8075218 -0.08263076 -0.93914247 -0.03230989
0.16458337 -0.88904756 0.5684384 0.60935247 0.6369416 -0.12619062 -0.0934487 0.7793408
00000000: 6d4d 773e c922 4f3e 6877 1e3e c4ef d4be
00000010: 70d2 e53e 0b52 093f 9068 40bf 7205 163e
00000020: 6e84 1b3f a1f4 b6be 3d6d 49bd bbcd ad3e
00000030: 6836 ecbe fb4e 16bf 4e8d 043f bd9a 3b3f
00000040: a2b8 f4be ba86 30bf de6d 743f 046a 4dbd
00000050: 7599 0ebf 9c1e 01bf 49cd 8c3f 9236 2ebf
00000060: 5cb1 cc3e 2e7d 0f3d 2f25 38bf 1ecb 823f
00000070: df22 5ebf ecaa 9ebf 1f61 abbe e917 4ebf
00000080: fb85 6bbf ea0b 1abf 36f2 9a3e c526 4dbf
00000090: d33e 7e3f 2558 443f 2935 30bd 68ed fb3e
000000a0: 778c 9fbd 304a f73e 1ddb a83e bb1d 013f
000000b0: f862 51bf 3f27 513e be14 c4be 68a0 6cbf
000000c0: 3d8d 373e 57ef 6e3f cbba 563e 9a16 88be
000000d0: c0b9 4e3f 513a a9bd a46b 70bf 6057 04bd
000000e0: 8b88 283e 9f98 63bf 2e85 113f 86fe 1b3f
000000f0: 9b0e 233f 1d38 01be 0862 bfbd e182 473f

affine_layers.1.weight f4 [64, 64]
-0.30634058 0.39794424 0.2918695 0.14795609 0.043704607 -0.29561716 0.20898677 -0.0774059
0.42675912 -0.06137008 0.09697068 -0.054097 0.12478141 0.06931685 -0.1359073 -0.105154745
-0.27008626 -0.12006696 -0.387662 -0.19933867 0.26227665 0.11744054 0.23255953 0.12831607
-0.03361829 -0.1194911 0.10634177 0.15737846 -0.30615222 0.07139049 -0.051997777 -0.009890565
0.27385053 -0.049951166 -0.22357725 0.26329228 0.003551942 -0.71022874 0.03161273 0.25302464
-0.2655166 0.17481078 -0.4171997 -0.08665177 0.18912357 0.4636839 -0.098673046 0.05713236
-0.01226752 -0.041366473 0.19196396 0.13718674 0.10800429 -0.026808497 -0.22250798 -0.14039099
-0.45129463 0.4589762 0.09973695 -0.33278334 0.13284741 -0.17641239 0.09092087 -0.42518142
0.5554995 -0.04766664 -0.327413 -7.278301e-05 -0.35795832 -0.11122662 0.046241023 -0.005259836
0.044014625 0.094298765 -0.099421546 0.44026467 -0.3216161 -0.03066099 0.35603544 -0.057325825
0.43975314 0.048211645 0.04673078 -0.5233672 -0.06697578 -0.30784807 -0.15819849 -0.06590976
-0.1802017 -0.054026704 0.14069587 -0.46026278 0.12667689 0.26178247 0.017662106 0.1815909
0.5554006 0.22455886 0.23019393 0.3443566 -0.30048662 0.17235254 0.50588065 0.1668082
0.074917205 -0.09643143 -0.05544714 0.4777314 -0.15889387 -0.22594577 -0.049652666 0.36806786
0.39874136 -0.09100251 -0.08362925 0.123188354 -0.3464312 0.10774811 -0.037242778 0.71593255
0.22785237 0.1326938 -0.0072133364 -0.21432395 0.026559263 -0.20344666 0.5251579 0.3314633
-0.27098674 -0.20207767 0.3424678 0.55821246 0.35267478 -0.16740613 -0.25309435 -0.030300083
0.41670725 -0.14608653 0.2521891 -0.25432754 0.32970577 0.061074935 -0.33885252 -0.053658094
-0.018748228 0.05983337 -0.42880732 0.014066304 0.066920325 0.5596955 -0.082376406 0.20890614
-0.056169543 0.35898975 0.34023705 -0.0131655345 0.0039555966 0.1402062 0.06963585 0.35771072
0.029649867 -0.104950115 -0.13766652 0.15077795 -0.24711987 -0.18793489 -0.3021432 0.14620458
-0.47232622 0.23605889 0.23644818 -0.13679914 0.5549589 0.11998994 -0.09996781 -0.06972643
-0.12039321 0.076472245 0.1548434 0.24097596 0.005012077 0.5329674 -0.041171484 -0.06220964
-0.56109864 0.34431964 -0.15169702 -0.06706198 -0.0047823195 -0.023092229 0.006582127 -0.0152952755
-0.123477526 -0.34928352 0.57563484 -0.05323743 -0.36079842 -0.048499405 0.0185587 -0.12551586
0.017283488 -0.20465203 -0.55206245 0.2708016 0.14405414 0.2394352 0.16862497 -0.095452785
0.0952242 -0.003387042 0.20156306 0.28181976 0.20634443 -0.1609182 -0.16879985 0.51666224
-0.0468285 -0.384483 0.078130424 -0.34663022 -0.12531008 0.38539413 -0.12861721 -0.29927528
0.01978682 0.30946153 0.14864078 0.16862415 -0.35002825 -0.054281667 0.5279735 -0.16943307
-0.19518122 0.15334448 0.5030594 0.3792423 0.3106274 0.11661538 0.04228146 0.2005434
-0.24078065 -0.28682074 -0.6678002 -0.010560778 -0.54387623 -0.20842433 0.48711655 0.2830449
-0.28608498 -0.27482206 -0.06874429 0.233736 -0.11192808 0.42644078 -0.36127242 0.005331734
00000000: acd8 9cbe 59bf cb3e eb6f 953e cd81 173e
00000010: 9a03 333d 225b 97be a100 563e fc86 9ebd
00000020: 2c80 da3e 315f 7bbd 9098 c63d d194 5dbd
00000030: 658d ff3d fef5 8d3d 492b 0bbe 5f5b d7bd
00000040: bf48 8abe abe5 f5bd a27b c6be 701f 4cbe
00000050: 2049 863e aa84 f03d 1624 6e3e 4a65 033e
00000060: 55b3 09bd c0b7 f4bd b7c9 d93d d227 213e
00000070: fcbf 9cbe 2d35 923d 9ffb 54bd 090c 22bc
00000080: 2336 8c3e 9899 4cbd 6ff1 64be 3fce 863e
00000090: b3c7 683b 8dd1 35bf 5a7c 013d 728c 813e
000000a0: cbf1 87be 9901 333e 339b d5be 7c76 b1bd
000000b0: 9ca9 413e fa67 ed3e 1815 cabd 9f03 6a3d
000000c0: b5fd 48bc e46f 29bd 3392 443e ae7a 0c3e
000000d0: 5a31 dd3d 7e9d dbbc 22d9 63be a8c2 0fbe
000000e0: 1710 e7be eefe ea3e e342 cc3d 9462 aabe
000000f0: 2709 083e 73a5 34be b934 ba3d 61b1 d9be
00000100: 3735 0e3f 183e 43bd ada2 a7be 15a3 98b8
00000110: 5046 b7be c8ca e3bd 3a67 3d3d b45a acbb
00000120: ae48 343d b61f c13d 869d cbbd 5f6a e13e
00000130: deaa a4be c22c fbbc 474a b63e 7cce 6abd
00000140: 5327 e13e 9379 453d c668 3f3d 65fb 05bf
00000150: 992a 89bd 439e 9dbe c9fe 21be b2fb 86bd
00000160: cb86 38be 1b4b 5dbd 9412 103e 90a7 ebbe
00000170: 96b7 013e 5a08 863e 1fb0 903c f7f2 393e
00000180: bc2e 0e3f c2f2 653e f5b7 6b3e 824f b03e
00000190: 62d9 99be 2f7d 303e 6581 013f c5cf 2a3e
000001a0: 316e 993d d77d c5bd 8a1c 63bd 3699 f43e
000001b0: 13b5 22be 545e 67be 9860 4bbd 6473 bc3e
000001c0: d427 cc3e 865f babd d045 abbd 2d4a fc3d
000001d0: 6e5f b1be 0bab dc3d e28b 18bd 5b47 373f
000001e0: 2252 693e e2e0 073e da5d ecbb bd77 5bbe
000001f0: d092 d93c 5254 50be c070 063f 8fb5 a93e
00000200: c6be 8abe 73ed 4ebe f157 af3e 03e7 0e3f
00000210: ca91 b43e 836c 2bbe 9595 81be e137 f8bc
00000220: a75a d53e b597 15be ee1e 813e 3837 82be
00000230: 32cf a83e b629 7a3d 147e adbe 97c8 5bbd
00000240: e295 99bc d613 753d a28c dbbe 5b76 663c
00000250: 860d 893d 3448 0f3f f6b4 a8bd 7eeb 553e
00000260: 0912 66bd 81cd b73e 8d33 ae3e 41b4 57bc
00000270: f39d 813b 3792 0f3e 3e9d 8e3d dc25 b73e
00000280: 47e4 f23c 16f0 d6bd 74f8 0cbe 8965 1a3e
00000290: fe0c 7dbe 0172 40be 83b2 9abe a7b6 153e
000002a0: bed4 f1be 6cb9 713e 791f 723e 1315 0cbe
000002b0: c911 0e3f 49bd f53d ecbb ccbd bbcc 8ebd
000002c0: b790 f6bd 7b9d 9c3d 458f 1e3e 67c2 763e
000002d0: 593c a43b 8d70 083f 6ea3 28bd 89cf 7ebd
000002e0: 29a4 0fbf aa4a b03e 7756 1bbe cb57 89bd
000002f0: 01b5 9cbb ea2b bdbc e2ae d73b 0999 7abc
00000300: c9e1 fcbd 4ad5 b2be ce5c 133f 7e0f 5abd
00000310: 92ba b8be 50a7 46bd 6a08 983c 3b87 00be
00000320: 1a96 8d3c 4d90 51be f753 0dbf 82a6 8a3e
00000330: ee82 133e 802e 753e 06ac 2c3e c07c c3bd
00000340: e804 c33d 23f9 5dbb 8c66 4e3e ae4a 903e
00000350: f44b 533e bec7 24be ded9 2cbe fa43 043f
00000360: 3ecf 3fbd f5da c4be d802 a03d 8479 b1be
00000370: 4951 00be 6152 c53e 3bb4 03be 9c3a 99be
00000380: f817 a23c be71 9e3e 4a35 183e cfab 2c3e
00000390: e736 b3be 7456 5ebd 4529 073f dd7f 2dbe
000003a0: 96dd 47be 5606 1d3e 80c8 003f 0c2c c23e
000003b0: 8e0a 9f3e 0bd4 ee3d 532f 2d3d 405b 4d3e
000003c0: 348f 76be 2bda 92be f4f4 2abf 1d07 2dbc
000003d0: 793b 0bbf 306d 55be 5767 f93e 43eb 903e
000003e0: bb79 92be 7ab5 8cbe cec9 8cbd 7d58 6f3e
000003f0: 8d3a e5bd 7256 da3e b3f8 b8be d4b5 ae3b

affine_layers.1.bias f4 [64]
0.11657498 0.032423094 0.10919976 -0.042400375 -0.20903525 0.50416315 -0.35363412 -0.21580938
-0.48785043 0.26036626 0.31747243 0.16760162 0.280889 0.18157905 -0.1531237 0.28191075
0.5374838 -0.5912578 -0.014041363 0.46930915 -0.14506072 -0.3381681 -0.13222863 0.10772587
-0.10705668 -0.1639844 0.13657536 -0.20581533 0.19037175 -0.1470345 0.14746003 0.3518501
-0.12555428 0.106259465 -0.44705737 0.00898644 -0.44612738 0.4967299 -0.3845376 0.3039923
-0.5520972 0.28342304 -0.6643432 0.25858542 -0.0766558 0.21100962 -0.16683662 0.59848714
0.35728315 -0.2610484 0.28388438 -0.53000695 0.35191935 0.42249206 0.12751193 -0.47911137
-0.17320324 -0.45850635 0.07208403 0.19041736 -0.40230328 0.22519645 0.09294013 -0.43877706
00000000: ddbe ee3d 14ce 043d 20a4 df3d 04ac 2dbd
00000010: 560d 56be d610 013f 880f b5be 22fd 5cbe
00000020: 88c7 f9be ba4e 853e bf8b a23e c29f 2b3e
00000030: afd0 8f3e dcef 393e 76cc 1cbe 9b56 903e
00000040: 8a98 093f ac5c 17bf bf0d 66bc 4a49 f03e
00000050: cc8a 14be 5f24 adbe f166 07be 629f dc3d
00000060: 8840 dbbd 87eb 27be 69da 0b3e 41c1 52be
00000070: d0f0 423e 3690 16be c3ff 163e b225 b43e
00000080: 4d91 00be 909e d93d b4e4 e4be dc3b 133c
00000090: cf6a e4be 6253 fe3e 1de2 c4be e1a4 9b3e
000000a0: 3e56 0dbf d31c 913e 6512 2abf 4f65 843e
000000b0: b7fd 9cbd e812 583e 38d7 2abe 7436 193f
000000c0: d1ed b63e 23a8 85be 4b59 913e 89ae 07bf
000000d0: c62e b43e e150 d83e 7d92 023e 164e f5be
000000e0: 315c 31be 58c1 eabe cba0 933d c5fc 423e
000000f0: b2fa cdbe e699 663e 6557 be3d 63a7 e0be

final.weight f4 [1, 64]
0.1978285 0.082642704 0.23336478 0.14211479 -0.17861737 0.31020603 -0.055852544 -0.10323318
-0.16636112 0.04585194 0.15913323 0.17660913 0.17906293 0.08236914 -0.1757599 0.046714332
0.038929164 -0.2297209 -0.13728653 0.31010798 -0.13449478 -0.12806998 -0.051899508 0.083408676
-0.17118755 -0.1041458 0.100951 -0.11408892 0.09157468 -0.08663317 0.08971711 0.26655316
-0.203964 -0.029800035 -0.22235985 -0.10433586 -0.14273882 0.32000613 -0.1650643 0.056819476
-0.02885381 -0.029652555 -0.3870937 0.03574031 -0.19305268 0.06311813 -0.056602992 0.19884019
0.08200243 -0.046302564 0.12434819 -0.1742472 0.0939508 0.07058581 0.09775799 -0.1676098
-0.08013075 -0.25725666 -0.046874266 0.09024953 -0.08490707 0.10323007 0.054050036 -0.058562994
00000000: 8e93 4a3e 9440 a93d 2df7 6e3e 8a86 113e
00000010: 79e7 36be 53d3 9e3e a3c5 64bd eb6b d3bd
00000020: 925a 2abe 3ecf 3b3d d2f3 223e 06d9 343e
00000030: 465c 373e 27b1 a83d 67fa 33be 8757 3f3d
00000040: 3074 1f3d f53b 6bbe d794 0cbe 79c6 9e3e
00000050: 00b9 09be c724 03be 9494 54bd 2bd2 aa3d
00000060: ca4b 2fbe 654a d5bd 66bf ce3d 74a7 e9bd
00000070: 818b bb3d bb6c b1bd 9bbd b73d a879 883e
00000080: f0db 50be 341f f4bc 4db2 63be 0aae d5bd
00000090: 202a 12be d8d7 a33e 9e06 29be 8abb 683d
000000a0: d35e ecbc eae9 f2bc 2531 c6be 6e64 123d
000000b0: 9aaf 45be 1444 813d 8ad8 67bd c39c 4b3e
000000c0: e4f0 a73d c2a7 3dbd 44aa fe3d dc6d 32be
000000d0: 4769 c03d 4b8f 903d 5735 c83d e7a1 2bbe
000000e0: 971b a4bd 25b7 83be 3bff 3fbd bfd4 b83d
000000f0: c2e3 adbd 496a d33d 9263 5d3d c0df 6fbd

log_stdev f4 [6]
-100.0 -100.0 -100.0 -100.0 -100.0 -100.0
00000000: 0000 c8c2 0000 c8c2 0000 c8c2 0000 c8c2
00000010: 0000 c8c2 0000 c8c2

affine_layers.0.weight f4 [64, 17]
-0.13874635 -0.13502769 -0.024165733 0.27036303 0.027676329 0.79046136 -0.060386296 -0.5848572
-0.585893 0.20985918 -0.03534099 -0.08996105 0.4343312 -0.31756815 0.2827925 0.3965665
-0.0026648769 -0.117888615 -0.12973407 0.42065856 -0.5009557 0.41590944 0.01481597 0.29334632
-0.008819201 -0.4180482 0.31854537 0.39543748 0.7219512 -0.48804492 0.3046055 0.23981601
0.097072646 -0.05098523 0.03682336 0.14135936 0.25023675 0.44929197 0.40954491 0.44118637
0.2516508 0.36031684 -0.10240653 -0.18152635 -0.11528261 -0.23580988 -0.27203843 0.27901834
-0.1483754 -0.5950527 -0.5124068 -0.29969436 0.100564055 0.18373232 -0.5140225 0.5305058
0.31851688 0.2601328 -0.30295715 0.013465575 -0.39897206 -0.11801246 -0.2412168 0.2000097
0.58351845 -0.336255 -0.5440889 -0.15378705 0.3097478 0.0066413954 -0.22209527 0.22526331
0.62242794 0.524066 0.6273683 -0.08142389 0.04820564 0.046801556 0.10186603 -0.30946544
-0.057769448 -0.30703562 -0.31579903 -0.30780682 -0.030340431 0.1666306 0.27740714 0.38084713
0.59193945 -0.44675517 0.18286487 0.77610105 0.06073082 -0.06481229 0.0045040045 0.09299136
0.074159175 -0.16178012 -0.550137 -0.11116661 0.5120451 0.17401896 -0.48099238 -0.019850621
0.48738977 0.8473274 -0.44807035 0.12464832 -0.09620965 0.02790284 0.19178572 -0.16215916
0.15268876 0.059420355 0.1820793 0.24472715 0.02015613 0.43628162 0.082393155 -0.21310492
0.1760487 0.028724426 -0.05833656 -0.10646634 1.0346879 -0.11829028 0.28250623 0.26823813
0.04640501 0.015799139 0.3318574 -0.3933288 0.6418598 -0.14230451 0.23846632 0.40831032
-0.11203902 -0.10170231 0.4710228 0.23475024 -0.4258757 0.24570403 -0.77841663 0.27137586
0.3597555 0.0330399 0.031346556 -0.11585203 0.401418 -0.047297616 0.10608583 -0.8358507
-0.042074315 0.96376985 0.44878337 0.26092634 -0.38480812 0.15606505 -0.16861549 0.6370668
0.013984013 -0.2709777 0.19018203 -0.23456016 -0.15282522 0.05592948 0.45210606 -0.23121513
-0.041740507 -0.035195574 -0.09287826 0.42536068 -0.04265181 0.27219832 -0.7772347 -0.40152165
0.03605609 -0.35011014 0.03292285 0.039557848 -0.2055965 0.14451106 -0.4753351 -0.12374969
0.46318698 -0.33242366 0.5035306 -0.15211144 -0.36462677 0.24917881 -0.467674 -0.2232558
-0.19779974 -0.00024406693 0.2037751 -0.112325326 0.0064106747 -0.0092455605 -0.08485676 0.44859073
-0.099511534 0.39373705 -0.5168085 -0.626309 0.16268064 0.3357235 0.1412926 -0.12701288
-0.3424563 0.12719801 0.26496866 -0.20689969 -0.07030611 -0.41364613 0.3876378 -0.2888544
-0.2491185 0.106377065 0.5762019 0.056567788 -0.058125935 0.23291677 0.06676569 -0.012552646
-0.048004277 -0.22908959 0.053578127 -1.1072148 0.11302698 -0.28159124 0.30758405 -0.38025346
-0.0877936 0.33887228 0.4703608 0.14228712 -0.31397426 0.05814012 -0.26246715 0.19221352
-0.18997021 -0.31509686 -0.47391638 -0.6687272 -0.80350345 0.0796919 0.5037327 -0.25589988
-0.15139608 -0.4563406 0.047706906 -0.02703611 0.14124495 -0.71374446 -0.52193797 -0.5669799
00000000: 8613 0ebe b344 0abe 37f7 c5bc 066d 8a3e
00000010: 78b9 e23c ad5b 4a3f 9f57 77bd 34b9 15bf
00000020: 15fd 15bf 53e5 563e b7c1 10bd 803d b8bd
00000030: a960 de3e 4b98 a2be 2eca 903e c40a cb3e
00000040: 37a5 2ebb 966f f1bd 02d9 04be 8f60 d73e
00000050: a23e 00bf 15f2 d43e afbe 723c 7d31 963e
00000060: 697e 10bc 6a0a d6be 6118 a33e c876 ca3e
00000070: cbd1 383f 06e1 f9be 41f5 9b3e 5492 753e
00000080: 06ce c63d e3d5 50bd 17d4 163d 82c0 103e
00000090: 081f 803e 9909 e63e dfaf d13e 2ee3 e13e
000000a0: 60d8 803e 737b b83e 84ba d1bd 0be2 39be
000000b0: 4a19 ecbd 2578 71be 9f48 8bbe 7edb 8e3e
000000c0: b9ef 17be 6055 18bf 182d 03bf 8a71 99be
000000d0: 87f4 cd3d 5324 3c3e fb96 03bf 3acf 073f
000000e0: a514 a33e 2030 853e 331d 9bbe b79e 5c3c
000000f0: 1146 ccbe 84b0 f1bd 8901 77be 58cf 4c3e
00000100: 7761 153f 9e29 acbe 6949 0bbf 5a7a 1dbe
00000110: 4397 9e3e 10a0 d93b f16c 63be 6dab 663e
00000120: 7057 1f3f 3029 063f 359b 203f 92c1 a6bd
00000130: 4773 453d fdb2 3f3d 239f d03d 4172 9ebe
00000140: a89f 6cbd c633 9dbe 69b0 a1be db98 9dbe
00000150: 7f8c f8bc 36a1 2a3e 4f08 8e3e 65fe c23e
00000160: 5889 173f 18bd e4be ee40 3b3e 8fae 463f
00000170: e1c0 783d 4ebc 84bd 5496 933b 4172 be3d
00000180: c4e0 973d b0a9 25be c7d5 0cbf 52ab e3bd
00000190: 6315 033f 0732 323e a244 f6be c59d a2bc
000001a0: 278b f93e 73ea 583f 7a69 e5be 9e47 ff3d
000001b0: 9109 c5bd 7f94 e43c 7a63 443e 0d0d 26be
000001c0: 715a 1c3e c262 733d ff72 3a3e c199 7a3e
000001d0: 781e a53c 4e60 df3e bebd a83d 2d38 5abe
000001e0: 1c46 343e 7d4f eb3c 51f2 6ebd 060b dabd
000001f0: a770 843f 2d42 f2bd a8a4 903e 8256 893e
00000200: 2e13 3e3d 326d 813c 37e9 a93e 6462 c9be
00000210: ed50 243f 46b8 11be 8430 743e 0d0e d13e
00000220: b774 e5bd 4d49 d0bd e729 f13e 5e62 703e
00000230: 610c dabe d699 7b3e 5046 47bf c7f1 8a3e
00000240: df31 b83e d954 073d 3f65 003d d443 edbd
00000250: a986 cd3e 25bb 41bd 8743 d93d 50fa 55bf
00000260: 1e56 2cbd 9fb9 763f efc6 e53e 2398 853e
00000270: 9205 c5be 84cf 1f3e 8aa9 2cbe cf16 233f
00000280: 341d 653c 97bd 8abe 14bf 423e 8a30 70be
00000290: 377e 1cbe 4f16 653d 727a e73e a9c3 6cbe
000002a0: 18f8 2abd 3c29 10bd f536 bebd e0c8 d93e
000002b0: aab3 2ebd 945d 8b3e daf8 46bf 3f94 cdbe
000002c0: 8daf 133d a341 b3be 1cda 063d 6907 223d
000002d0: e487 52be b5fa 133e 1f5f f3be 7a70 fdbd
000002e0: d826 ed3e 6f33 aabe 62e7 003f 1ac3 1bbe
000002f0: 5cb0 babe bb28 7f3e f772 efbe 2b9d 64be
00000300: 048c 4abe 38ec 7fb9 6baa 503e d20a e6bd
00000310: a310 d23b b17a 17bc 62c9 adbd afad e53e
00000320: b4cc cbbd e797 c93e 904d 04bf c955 20bf
00000330: c195 263e f3e3 ab3e 02af 103e aa0f 02be
00000340: 6f56 afbe 3240 023e f9a9 873e 83dd 53be
00000350: a6fc 8fbd 6dc9 d3be 7678 c63e b9e4 93be
00000360: ec18 7fbe 38dc d93d f881 133f a0b3 673d
00000370: 7615 6ebd bc81 6e3e 73bc 883d 9da9 4dbc
00000380: 22a0 44bd 7696 6abe bd74 5b3d 37b9 8dbf
00000390: b07a e73d ba2c 90be a87b 9d3e 95b0 c2be
000003a0: 22cd b3bd ab80 ad3e 21d3 f03e b7b3 113e
000003b0: 3cc1 a0be 5624 6e3d 1862 86be 9fd3 443e
000003c0: 8d87 42be 6054 a1be 2ba5 f2be b531 2bbf
000003d0: 67b2 4dbf 8235 a33d a0f4 003f 4f05 83be
000003e0: 9307 1bbe 7aa5 e9be 5168 433d d57a ddbc
000003f0: 84a2 103e f5b7 36bf ba9d 05bf 9825 11bf

affine_layers.0.bias f4 [64]
0.33446056 0.3678461 -0.100532085 -0.15613852 -0.22736104 -0.14390692 -0.13121136 0.30577844
0.22106354 0.17748807 0.32265034 0.29137915 -0.459249 0.16118579 -0.056046877 -0.44030863
0.06897846 0.5116077 0.3157276 0.3081817 -0.4317748 -0.4122036 -0.19259992 0.45968968
-0.22639203 0.1714768 -0.54829025 -0.3723214 -0.21321657 0.20602103 0.4291265 0.42004392
0.09129335 0.025213981 0.048099928 -0.67176867 0.16950622 -0.27537397 0.13810979 0.023012497
-0.18777896 0.23027538 -0.47821987 -0.41602376 -0.16818525 -0.01692097 -0.5825165 -0.029733717
0.03204787 -0.5416489 -0.2901661 0.3020605 -0.2548744 -0.46261942 0.21428636 0.21372327
-0.017491078 -0.35379007 0.2836403 -0.34315342 0.19731629 0.27350146 -0.009886583 0.10884441
00000000: 6a3e ab3e 5356 bc3e c4e3 cdbd c7e2 1fbe
00000010: 55d1 68be 565c 13be 455c 06be fe8e 9c3e
00000020: 7b5e 623e 6fbf 353e 6d32 a53e a62f 953e
00000030: af22 ebbe e30d 253e 6991 65bd 2270 e1be
00000040: 9444 8d3d b9f8 023f 0ca7 a13e fec9 9d3e
00000050: 9611 ddbe 5a0c d3be ea38 45be 725c eb3e
00000060: 50d3 67be 9d97 2f3e c05c 0cbf e9a0 bebe
00000070: 7255 5abe 2df7 523e 78b6 db3e ff0f d73e
00000080: 02f8 ba3d 8d8d ce3c 6e04 453d 08f9 2bbf
00000090: 0a93 2d3e d1fd 8cbe a76c 0d3e b484 bc3c
000000a0: 2149 40be 4fcd 6b3e 3cd9 f4be 1101 d5be
000000b0: c138 2cbe d99d 8abc cd1f 15bf 2094 f3bc
000000c0: a144 033d 81a9 0abf a790 94be ada7 9a3e
000000d0: e67e 82be 74dc ecbe e26d 5b3e 46da 5a3e
000000e0: 7349 8fbc f923 b5be 4d39 913e ceb1 afbe
000000f0: 480d 4a3e 6208 8c3e 56fb 21bc d1e9 de3d

affine_layers.1.weight f4 [64, 64]
0.4602488 0.2086922 0.13300042 0.029313784 -0.4144564 -0.50650805 -0.30799934 -0.42481142
0.3439421 0.0009054892 0.15101388 0.7474293 -0.3480038 0.04932554 0.025217291 0.040262472
0.11901008 -0.44608214 -0.31268066 -0.054122545 -0.21786988 -0.23646465 -0.29200107 -0.034524184
0.00916644 0.06625132 -0.27442133 0.22830665 0.12526993 -0.84007937 -0.463316 -0.12159787
-0.07118741 0.2828932 0.17227702 0.090561576 0.26879734 0.19013369 0.30503613 0.11992564
0.24447967 0.14800255 0.06257435 0.3892322 0.1819432 0.10250407 0.2230969 -0.6717869
0.03244194 0.17872813 -0.24254192 0.4186842 0.09030191 0.18688011 -0.5283325 0.8351983
0.46424156 -0.5452543 0.4396862 0.21693058 -0.06508824 -0.108402215 -0.17194912 0.09060254
-0.40906116 0.13562325 0.13165452 -0.44036186 0.06509315 0.034442928 0.2827197 0.6038265
-0.26431975 -0.20842324 0.46233648 -0.4851725 -0.21207677 -0.5402467 -0.10897788 0.11311755
-0.24847734 0.19315805 0.6014109 0.093697734 -0.20571211 -0.37852955 0.31678042 0.29091814
-0.3450931 0.13292627 -0.360284 0.4905401 0.10972872 -0.028326875 0.08844448 0.41739467
0.64624834 0.07606873 -0.033900212 -0.47855777 -0.033613548 -0.16877104 0.21528164 -0.011993091
-0.15009323 0.5377676 -0.055482797 -0.057746023 -0.030597199 -0.06289934 0.11002974 -0.1408889
-0.118018515 -0.10074505 0.17591813 -0.39305288 -0.4414708 -0.15969151 0.18717413 0.5132677
-0.12576434 0.3802828 0.15743674 -0.5577189 0.14582041 0.08144124 0.14312977 -0.38436458
0.052968927 0.027154295 0.35662913 0.01934529 -0.3016436 -0.0038148626 0.6385727 0.30442315
0.64582145 -0.2926645 0.14021435 0.069479704 0.4547561 0.4849925 0.1005317 0.5611323
0.49071538 0.1276757 -0.6832704 0.17380354 0.2732801 0.19857246 0.026202468 -0.400729
0.11865419 -0.35067257 0.044666447 0.117645904 0.06429579 -0.1982323 -0.45073152 -0.19221994
-0.09557068 -0.25791895 0.16494408 0.26643974 0.10670628 -0.72145236 -0.12073972 -0.08215945
0.8583482 0.10015123 0.20425572 0.08702323 -0.13983761 0.4045917 -0.041223425 -0.0011386229
0.29962307 0.52680635 -0.21867718 -0.21283785 0.08565228 0.31213212 -0.25015098 -0.3133224
0.356066 -0.054821923 -0.48933053 0.0137559315 0.37097433 -0.36729324 -0.19063914 -0.38046136
0.6238663 -0.4901573 -0.03747283 -0.21242031 0.32304445 0.5167308 -0.24170044 -0.29079074
-0.11671171 -0.6117152 -0.115522824 -0.31292877 -0.24917677 -0.44345278 -0.12559684 0.37528566
0.19761457 -0.1927194 0.52034956 -0.78960764 0.21312179 0.5486624 0.23670739 -0.022209767
-0.49988383 0.14428774 0.13729914 0.5323075 -0.1730519 0.30951214 -0.22689824 0.040700663
-0.2839695 -0.4295164 0.11644326 0.2572832 0.18360044 0.039461132 -0.34000474 0.4077891
0.06794106 0.21987978 0.22570199 -0.40290385 -0.17310664 -0.31807694 -0.53792953 -0.35180357
0.19266076 0.3900079 0.13220581 -0.22922906 -0.13038127 0.21654463 -0.5262661 -0.121848576
-0.39130515 0.44224796 0.24240942 -0.069840334 -0.32526848 0.28990147 -0.1261925 -0.20811509
00000000: bba5 eb3e 68b3 553e 4331 083e 7623 f03c
00000010: a133 d4be 83aa 01bf 17b2 9dbe e280 d9be
00000020: 2e19 b03e 5a5e 6d3a 62a3 1a3e 8757 3f3f
00000030: 8e2d b2be 9409 4a3d 7e94 ce3c 43ea 243d
00000040: 8fbb f33d e164 e4be ae17 a0be 9aaf 5dbd
00000050: 4819 5fbe ca23 72be 2a81 95be 3b69 0dbd
00000060: d62e 163c c6ae 873d f480 8cbe 38c9 693e
00000070: c346 003e 710f 57bf c137 edbe 4e08 f9bd
00000080: b4ca 91bd 61d7 903e 6369 303e 5978 b93d
00000090: ce9f 893e 68b2 423e b22d 9c3e 939b f53d
000000a0: e158 7a3e fb8d 173e fb26 803d 7149 c73e
000000b0: 514f 3a3e a7ed d13d 8473 643e 3afa 2bbf
000000c0: d7e1 043d 8204 373e e95c 78be c75d d63e
000000d0: 35f0 b83d 805d 3f3e cc40 07bf 8ecf 553f
000000e0: 12b1 ed3e c995 0bbf 8d1e e13e 0d23 5e3e
000000f0: fc4c 85bd fb01 debd 6e13 30be d38d b93d
00000100: 7770 d1be d2e0 0a3e 71d0 063e 1c77 e1be
00000110: 8f4f 853d 0714 0d3d a3c0 903e 6094 1a3f
00000120: eb54 87be e76c 55be 5eb7 ec3e 8868 f8be
00000130: a72a 59be 9c4d 0abf cb2f dfbd 2daa e73d
00000140: d870 7ebe 39cb 453e 11f6 193f 99e4 bf3d
00000150: 32a6 52be a0ce c1be 0b31 a23e 39f3 943e
00000160: 0bb0 b0be d31d 083e 2577 b8be 1228 fb3e
00000170: 73b9 e03d c30d e8bc 6122 b53d c1b4 d53e
00000180: 8870 253f ecc9 9b3d f3da 0abd 8605 f5be
00000190: 5cae 09bd 51d2 2cbe ca72 5c3e ab7e 44bc
000001a0: 0ab2 19be 23ab 093f ee41 63bd 1887 6cbd
000001b0: faa6 fabc 5fd1 80bd 4657 e13d 2e45 10be
000001c0: b1b3 f1bd 6c53 cebd e223 343e 3a3e c9be
000001d0: 7608 e2be 2c86 23be 93aa 3f3e 8365 033f
000001e0: 5ec8 00be 6db4 c23e 1937 213e aac6 0ebf
000001f0: f251 153e aaca a63d 9c90 123e 6fcb c4be
00000200: f2f5 583d af72 de3c 1898 b63e 037a 9e3c
00000210: 0871 9abe c602 7abb 8079 233f 5add 9b3e
00000220: 8e54 253f 1fd8 95be 5a94 0f3e 604b 8e3d
00000230: cbd5 e83e f050 f83e 90e3 cd3d 5ea6 0f3f
00000240: 0c3f fb3e 6bbd 023e cfea 2ebf 8ef9 313e
00000250: 5feb 8b3e 9456 4b3e 8fa6 d63c 5a2c cdbe
00000260: f800 f33d 5b8b b3be 2af4 363d 56f0 f03d
00000270: 83ad 833d 68fd 4abe 48c6 e6be 4ed5 44be
00000280: 90ba c3bd f40d 84be 1ae7 283e ca6a 883e
00000290: d288 da3d 1ab1 38bf 6346 f7bd 3743 a8bd
000002a0: b5bc 5b3f 171c cd3d 6928 513e 3c39 b23d
000002b0: 9731 0fbe a526 cf3e e5d9 28bd d83d 95ba
000002c0: 3268 993e c8dc 063f e9ec 5fbe 2af2 59be
000002d0: 766a af3d c8cf 9f3e ca13 80be cb6b a0be
000002e0: 484e b63e f48c 60bd 8889 fabe 8f60 613c
000002f0: 59f0 bd3e dc0d bcbe e836 43be d5cb c2be
00000300: b4b5 1f3f e6f5 fabe 1c7d 19bd b684 59be
00000310: 1566 a53e 7848 043f 5280 77be 86e2 94be
00000320: 8d06 efbd 5e99 1cbf 3b97 ecbd 3338 a0be
00000330: 3228 7fbe 3e0c e3be 759c 00be 7125 c03e
00000340: 795b 4a3e 3c58 45be a135 053f ba23 4abf
00000350: 993c 5a3e 2475 0c3f 6c63 723e 42f1 b5bc
00000360: c6f0 ffbe 2ac0 133e 2598 0c3e 4e45 083f
00000370: 8434 31be 6078 9e3e 0358 68be bdb5 263d
00000380: 7364 91be 93e9 dbbe ce79 ee3d a0ba 833e
00000390: c101 3c3e ffa1 213d 1a15 aebe bcc9 d03e
000003a0: af24 8b3d 2a28 613e 6c1e 673e 6a49 cebe
000003b0: de42 31be fbda a2be c0b5 09bf 991f b4be
000003c0: dd48 453e 1eaf c73e f660 073e 06bb 6abe
000003d0: ab82 05be e0bd 5d3e 60b9 06bf bf8b f9bd
000003e0: 2659 c8be 536e e23e 2d3a 783e 7308 8fbd
000003f0: 9789 a6be f76d 943e 9b38 01be 1f1c 55be

affine_layers.1.bias f4 [64]
0.16912253 0.31745204 -0.30238593 -0.1698972 0.4067727 0.12993492 -0.16903125 -0.5551909
-0.39203134 -0.21700725 0.1926855 0.51891994 -0.14880073 0.08455651 -0.27256277 0.1192842
-0.2566526 0.65102285 -0.42714137 0.01661868 0.11890736 -0.62179923 -0.17069669 0.3780594
-0.37954825 0.41966012 -0.22067596 -0.08180304 -0.07458082 -0.08131316 -0.09697627 0.46826917
0.26134992 0.30151892 -0.256649 -0.5065885 0.20786281 -0.1408627 -0.36612484 0.071474455
-0.28688234 -0.37924966 0.036184184 -0.5676343 -0.37170678 0.32100764 -0.22765933 0.3692288
-0.02758066 -0.39687133 -0.28487474 -0.03980373 -0.13060582 0.024418017 0.04329771 -0.018609125
-0.20496774 0.26906124 0.11526772 -0.18885612 -0.5173972 -0.21125515 0.40473348 -0.26417422
00000000: 752e 2d3e 1389 a23e 54d2 9abe 88f9 2dbe
00000010: 8344 d03e a90d 053e 8716 2dbe fe20 0ebf
00000020: 55b8 c8be 2637 5ebe 594f 453e f0d7 043f
00000030: 385f 18be f72b ad3d 598d 8bbe 464b f43d
00000040: f867 83be 6fa9 263f 46b2 dabe e623 883c
00000050: b485 f33d 3c2e 1fbf 1dcb 2ebe 0091 c13e
00000060: 2654 c2be b1dd d63e e1f8 61be 5a88 a7bd
00000070: d4bd 98bd 8487 a6bd 7f9b c6bd fac0 ef3e
00000080: a8cf 853e b060 9a3e 7f67 83be c9af 01bf
00000090: fdd9 543e 503e 10be b774 bbbe 3361 923d
000000a0: 3ee2 92be 032d c2be de35 143d 7b50 11bf
000000b0: 5a50 bebe 1d5b a43e 871f 69be 8f0b bd3e
000000c0: d6f0 e1bc b832 cbbe 1adb 91be 3c09 23bd
000000d0: 88bd 05be 4b08 c83c f158 313d 2a72 98bc
000000e0: 10e3 51be 65c2 893e 7b11 ec3d 8063 41be
000000f0: 2574 04bf 4553 58be 3a39 cf3e d841 87be

final_mean.weight f4 [6, 64]
-0.110724 -0.08044097 -0.052680843 0.24395385 -0.12507169 0.42188662 -0.054461867 0.28319317
0.10388396 -0.28232208 -0.19015071 0.22645432 0.16551329 -0.09463694 -0.024839833 0.22231652
-0.503071 0.2536498 -0.12651294 -1.4587116e-05 0.10197136 -0.16786851 -0.11222015 0.32686666
0.099051185 -0.0016260218 -0.13493858 -0.05257698 -0.073369876 0.26484442 -0.030138938 0.094053365
0.15739182 0.17721757 0.29812068 -0.09101578 -0.008777552 0.15362816 0.07336286 0.15751123
-0.12739664 0.14029069 0.065114714 -0.24998789 -0.18017039 0.0075869053 -0.25791684 -0.09892248
0.07299863 -0.021076176 -0.20796517 -0.2125806 -0.1163533 -0.24421053 -0.20137367 -0.013461566
-0.06980517 0.21512172 0.1010154 0.17755961 0.00559209 -0.3372497 0.23065718 0.13700853
-0.14823304 -0.106245995 -0.06299077 0.030834604 0.1660729 0.008730724 0.3761773 0.0055464036
-0.3631376 -0.008956485 0.10558256 -0.21339813 0.08127086 0.07819167 0.14188036 0.0958645
-0.10152934 0.18670927 0.12696432 0.18008175 -0.092254296 -0.118860304 0.15062967 0.13690443
-0.11025776 0.22319101 -0.062473882 -0.16516578 0.42406416 0.078030065 -0.060012665 0.07994423
-0.09128088 0.4073604 0.38608587 -0.12885533 0.032946505 -0.24658205 -0.18510453 -0.22920182
0.10584656 0.15108895 -0.2138666 -0.060709994 -0.25420654 -0.16966888 -0.22632226 0.05718182
-0.23234794 0.019839758 0.16753812 -0.09708248 -0.107840985 0.25667444 0.11947861 0.18437418
-0.12849256 0.25346547 0.27986008 0.0946113 -0.17728949 -0.09567058 0.15343472 0.1390214
0.08684456 -0.1225873 -0.050357837 -0.19710134 -0.16553578 0.1784106 0.08397309 0.02381694
-0.05632597 -0.07091827 0.011863575 0.123937935 -0.20192698 0.024381192 -0.14326082 -0.011891374
-0.18771054 0.030144658 0.3351329 -0.029378925 0.041679982 -0.20450568 -0.2024392 0.14209865
0.055935696 -0.08763503 0.14875647 -0.2090198 0.057569697 -0.21000396 -0.09317543 -0.08830607
0.06603879 -0.03922327 0.111763306 -0.06843894 -0.16426818 -0.0900473 -0.02981924 0.13446857
-0.18507527 0.067918696 0.10354178 -0.11416019 0.09488114 0.23926438 -0.16577159 0.18370005
-0.19656509 -0.16370323 -0.13810603 -0.42235446 -0.055172507 0.20105371 0.14854781 -0.37013572
0.04877546 -0.05959007 0.14864144 -0.16657281 -0.19644976 0.059803497 -0.04495342 0.25104898
0.10847868 -0.13888398 -0.26132995 -0.26629397 -0.13523296 0.06980926 0.122721344 -0.26048118
-0.19616157 0.13930832 0.22633512 -0.049513996 -0.058585323 0.07153937 -0.1089664 -0.13862118
-0.23606525 -0.048564997 -0.02316278 0.19121195 -0.017110586 -0.3168405 -0.11754137 0.07568578
-0.0008123063 0.08153095 0.02473809 -0.048527718 0.3062174 0.023264557 0.06987333 -0.048292365
0.3008457 0.019972635 -0.05548219 0.1912456 0.336851 -0.03544141 0.006178029 -0.14320198
0.07814834 0.04725593 0.14745185 0.016016819 0.23321688 -0.1501387 0.17420696 0.027361449
0.039838426 -0.1925273 -0.08962108 0.2656721 0.14013578 0.15296736 -0.136453 0.09543188
0.27529564 -0.13185656 -0.073370114 0.1305216 -0.12424525 -0.08814578 0.0890621 -0.17936425
00000000: 44c3 e2bd 3cbe a4bd dec7 57bd 0acf 793e
00000010: cb12 00be 8601 d83e 6813 5fbd b2fe 903e
00000020: 1dc1 d43d 858c 90be deb6 42be a4e3 673e
00000030: 517c 293e 03d1 c1bd e87c cbbc f1a6 633e
00000040: 43c9 00bf 63de 813e 9c8c 01be 30bb 74b7
00000050: 5cd6 d03d b9e5 2bbe aed3 e5bd 115b a73e
00000060: 59db ca3d 3d20 d5ba 572d 0abe f65a 57bd
00000070: f242 96bd b099 873e efe5 f6bc 0d9f c03d
00000080: 522b 213e 8678 353e 46a3 983e 7b66 babd
00000090: b9cf 0fbc b350 1d3e 443f 963d a04a 213e
000000a0: 4474 02be 5da8 0f3e dd5a 853d d3fc 7fbe
000000b0: 967e 38be 939b f83b ad0d 84be df97 cabd
000000c0: 4e80 953d f2a7 acbc d2f4 54be bbae 59be
000000d0: a44a eebd 5312 7abe e634 4ebe e68d 5cbc
000000e0: 03f6 8ebd de48 5c3e 29e1 ce3d 30d2 353e
000000f0: da3d b73b feab acbe 6531 6c3e f74b 0c3e
00000100: 67ca 17be 8097 d9bd 4e01 81bd da98 fc3c
00000110: 040f 2a3e 500b 0f3c 509a c03e 9bbe b53b
00000120: 2ced b9be 39be 12bc ab3b d83d 0a85 5abe
00000130: 5671 a63d f422 a03d 1649 113e 9b54 c43d
00000140: 9dee cfbd b730 3f3e ef02 023e 5a67 383e
00000150: d2ef bcbd 086d f3bd aa3e 1a3e ad30 0c3e
00000160: d2ce e1bd 2f8c 643e 9de4 7fbd 3821 29be
00000170: f01e d93e 3ace 9f3d d7cf 75bd cdb9 a33d
00000180: 78f1 babd 8b91 d03e 0cad c53e a7f2 03be
00000190: eaf2 063d 0180 7cbe 0b8c 3dbe e2b3 6abe
000001a0: 15c6 d83d 10b7 1a3e d9ff 5abe 0bab 78bd
000001b0: 5c27 82be aebd 2dbe 06c1 67be 7c37 6a3d
000001c0: 9eec 6dbe fd86 a23c 1d8f 2b3e 2ed3 c6bd
000001d0: bcdb dcbd d56a 833e 34b1 f43d 96cc 3c3e
000001e0: 8e93 03be 3ac6 813e d249 8f3e 92c3 c13d
000001f0: 608b 35be f0ee c3bd fe1d 1d3e a05b 0e3e
00000200: 90db b13d 0d0f fbbd 0544 4ebd efd4 49be
00000210: 3682 29be 45b1 363e 15fa ab3d be1b c33c
00000220: 0fb6 66bd 993d 91bd 715f 423c 2cd3 fd3d
00000230: f2c5 4ebe 11bb c73c f7b2 12be 0ad4 42bc
00000240: 3137 40be eef1 f63c 8a96 ab3e 12ac f0bc
00000250: a1b8 2a3d f069 51be 394c 4fbe 4f82 113e
00000260: d41c 653d ff79 b3bd 9e53 183e 4909 56be
00000270: 34ce 6b3d 470b 57be c3d2 bebd d0d9 b4bd
00000280: 583f 873d 94a8 20bd 29e4 e43d b729 8cbd
00000290: eb35 28be b86a b8bd 7b47 f4bc 21b2 093e
000002a0: 5f84 3dbe f518 8b3d b60d d43d d1cc e9bd
000002b0: 0b51 c23d b901 753e 07c0 29be de1b 3c3e
000002c0: 5c48 49be d2a1 27be ab6b 0dbe d83e d8be
000002d0: 91fc 61bd 06e1 4d3e eb1c 183e 6e82 bdbe
000002e0: c7c8 473d b814 74bd 7635 183e 1092 2abe
000002f0: 202a 49be 83f4 743d 1421 38bd 7e89 803e
00000300: 122a de3d 9a37 0ebe 0acd 85be af57 88be
00000310: 827a 0abe 28f8 8e3d 5455 fb3d ca5d 85be
00000320: 94de 48be d7a6 0e3e 65c4 673e 30cf 4abd
00000330: 2af7 6fbd 3c83 923d c729 dfbd b6f2 0dbe
00000340: 17bb 71be 17ec 46bd dfbf bdbc 11cd 433e
00000350: 802b 8cbc eb38 a2be 88b9 f0bd 2501 9b3d
00000360: f4f0 54ba b3f9 a63d 89a7 ca3c 00c5 46bd
00000370: 87c8 9c3e 5095 be3c c019 8f3d 37ce 45bd
00000380: 7308 9a3e a79d a33c 4b41 63bd e3d5 433e
00000390: bc77 ac3e 032b 11bd 1071 ca3b 8aa3 12be
000003a0: 3d0c a03d 6f8f 413d 9efd 163e b435 833c
000003b0: 68d0 6e3e f6bd 19be 4f63 323e 1e25 e03c
000003c0: 9e2d 233d e025 45be 428b b7bd 2c06 883e
000003d0: c17f 0f3e 7aa3 1c3e 56ba 0bbe ca71 c33d
000003e0: 8df3 8c3e 6805 07be 1243 96bd 74a7 053e
000003f0: 4b74 febd c685 b4bd 3166 b63d 43ab 37be

final_mean.bias f4 [6]
0.23029602 0.06757293 0.23741351 -0.062355056 0.34210357 -0.21073085
00000000: b8d2 6b3e ad63 8a3d 871c 733e 0468 7fbd
00000010: 3328 af3e d4c9 57be

exp_avg f4 [64, 17]
0.00034214236 0.00033141652 -0.0023824833 -0.002037824 0.0016230706 0.0015864713 0.00037317388 0.002213684
0.0005388991 -0.0018001386 -0.00049463444 -0.0011261756 0.0002707868 -0.0008710643 6.853316e-05 -3.215301e-05
0.0005182881 -0.00013130496 -0.0004887648 0.0019664527 0.00028634453 -0.000305707 -0.000143327 -0.00023075611
-0.0008165526 -0.000696694 0.00079245586 0.00046050287 0.0010202226 -0.000425369 0.0003835109 0.0002304914
-0.00021385704 0.0003795816 0.0012963371 0.0007627026 0.0020517535 0.00034256175 -0.0010424075 -0.0004937767
-0.00021175526 -0.0018700904 0.000751292 0.00188116 0.00037646195 -0.00042081546 -0.00019766953 0.0017603922
0.0005546236 1.665217e-05 0.00089435006 -0.00016847167 -0.0013728752 0.0013022341 0.0003545644 -0.0009486732
-0.0006679166 -0.00044714115 -0.00033358697 -0.0005158786 0.00032138318 -0.00010868823 0.0003105334 0.0005779669
-3.6632457e-05 -0.00028734774 6.9590125e-05 -0.000633741 0.006624419 0.0063563823 0.002401397 -0.0010559233
0.0027554657 0.0024652744 0.0010311354 -0.0051579815 0.004779561 0.0014044071 -0.0010962437 -0.0014047704
-0.003422974 0.004110995 0.0003969461 0.0003089921 0.004077959 -0.001534557 -0.0016453774 0.0005357723
-0.0008155853 -0.0007627472 -0.0014992133 -0.00035626284 0.0011674977 -0.0015439661 0.00011258723 -0.00027367947
-0.00036055417 0.00072991726 -0.0019690867 -0.000304263 -9.531937e-06 -0.0010849622 0.0011645327 0.00035077747
-0.0004888364 -0.0013130992 0.00029205246 0.0017683048 9.744467e-05 0.00060371 0.0008413921 -0.00026042302
-6.0562685e-05 -0.0010822495 3.005481e-05 0.0005591388 0.00071897765 7.5364194e-05 0.0005646685 0.0031127683
0.0031765313 0.00094176095 -0.0003250485 0.001097073 0.0011868287 0.00046927354 -0.0025168639 0.0028117977
0.0014857217 -8.325224e-05 -0.00088387175 -0.0013612497 0.0022619483 0.00046229555 0.00016962866 0.0011939801
0.0014741063 0.0014109362 -0.00015280063 -0.00019077242 0.0016226163 0.00091412733 0.0004273811 -0.0006322057
0.0010203917 -0.00024623534 4.0740237e-05 0.00011982215 -0.0010400965 1.9364936e-06 0.00023504051 -9.683294e-06
0.0008726277 -0.0038376262 -0.0029544327 -0.0030433205 -0.00045452212 0.00044405143 -0.00015156492 -4.301308e-05
0.004243932 -0.0031022427 -0.0035539186 -0.00051525695 0.0006385501 0.0014359166 -0.0036145842 -0.0010577611
-0.00023157244 -0.0018124839 0.0030033214 0.0028550269 0.00080550904 -0.0010153526 0.0010991243 0.0018088303
0.00040066495 -0.0017111225 0.002333275 0.0008956695 -9.129451e-05 -0.00061126234 -0.001213526 0.001992158
0.0008105962 0.000116667106 0.0018952155 -0.00038704337 -0.0002861253 -0.0016881755 5.1356266e-05 0.0008988446
0.0006706027 0.00016639849 0.0011332699 0.00010137604 -0.0020152817 0.00021312351 0.00030979584 -4.3011914e-05
0.00028306028 0.00012950902 2.620815e-05 0.0003156453 -2.3770484e-05 -0.00044228137 0.0012303725 0.0002725649
-0.00023455174 -0.00033974627 -0.00023787077 -0.0005504055 -5.7517642e-05 5.1310406e-05 0.00011170086 0.00035359053
-0.0005549041 0.0004365236 -7.123999e-05 -3.419246e-05 -1.9279527e-05 0.0004221779 -2.5685396e-05 -0.0005833462
-0.0005149916 0.00016905411 0.00058888237 6.110611e-05 0.00088393077 -3.2965032e-05 -0.0010542154 -0.00033707626
-0.0009969037 0.00037762854 0.00018942995 0.00015864901 0.00010859573 0.00037041778 -0.0002506739 -8.600234e-05
-0.00076579954 0.00021310536 0.00010421391 0.00053316675 0.0001467284 0.0006212664 0.00030740397 -0.0006341939
0.00062822876 0.00027282845 -0.00044942164 -6.784262e-05 0.00035014 4.0786754e-06 0.00022073042 0.003136172
00000000: 9261 b339 f9c1 ad39 7023 1cbb 038d 05bb
00000010: 36bd d43a 25f1 cf3a 8da6 c339 7413 113b
00000020: e844 0d3a a1f2 ebba 5baa 01ba 2f9c 93ba
00000030: 64f8 8d39 2358 64ba 76b9 8f38 08dc 06b8
00000040: badd 073a e8ae 09b9 7320 00ba 9adf 003b
00000050: 8320 9639 4d47 a0b9 0c4a 16b9 1ff7 71b9
00000060: eb0d 56ba 58a2 36ba d0bc 4f3a a66f f139
00000070: fdb8 853a 1004 dfb9 f611 c939 10b0 7139
00000080: d03e 60b9 9402 c739 dbe9 a93a 1bf0 473a
00000090: b676 063b dc99 b339 64a1 88ba cb70 01ba
000000a0: 9f0a 5eb9 d21d f5ba 5af2 443a 4191 f63a
000000b0: de5f c539 e5a0 dcb9 8345 4fb9 f6bc e63a
000000c0: 2964 113a 43b0 8b37 d172 6a3a c5a7 30b9
000000d0: 0cf2 b3ba baaf aa3a d4e4 b939 61b0 78ba
000000e0: 2017 2fba 456e eab9 49e5 aeb9 073c 07ba
000000f0: 527f a839 8def e3b8 16cf a239 b482 173a
00000100: cda5 19b8 29a7 96b9 eaf0 9138 a321 26ba
00000110: a711 d93b 3349 d03b c260 1d3b e866 8aba
00000120: 0b95 343b 7190 213b 2a27 873a 4904 a9bb
00000130: dd9d 9c3b 1514 b83a d6af 8fba 4620 b8ba
00000140: f953 60bb 87b5 863b 341d d039 3800 a239
00000150: 66a0 853b 3023 c9ba b4a9 d7ba 1273 0c3a
00000160: 01cd 55ba 19f3 47ba 4081 c4ba cac8 bab9
00000170: b906 993a e85e caba cf1c ec38 a37c 8fb9
00000180: c308 bdb9 eb57 3f3a cb0b 01bb 7d85 9fb9
00000190: 5ceb 1fb7 4a35 8eba 3ca3 983a 8ee8 b739
000001a0: 4125 00ba 4c1c acba 9e1e 9939 77c6 e73a
000001b0: 355b cc38 4b42 1e3a de90 5c3a 6389 88b9
000001c0: b004 7eb8 44da 8dba 371e fc37 2b93 123a
000001d0: c679 3c3a d80c 9e38 4306 143a 96ff 4b3b
000001e0: 5a2d 503b 82e0 763a 456b aab9 a9cb 8f3a
000001f0: 5d8f 9b3a d408 f639 f8f1 24bb 2346 383b
00000200: 8cbc c23a b597 aeb8 a1b3 67ba f66b b2ba
00000210: 323d 143b 4260 f239 59de 3139 537f 9c3a
00000220: cd36 c13a 2aef b83a 1b39 20b9 150a 48b9
00000230: f8ad d43a 0ca2 6f3a 1f12 e039 9bba 25ba
00000240: aabe 853a 2619 81b9 7fe0 2a38 0749 fb38
00000250: d953 88ba b5f4 0136 3575 7639 6e75 22b7
00000260: 0ec1 643a af80 7bbb 289f 41bb 7272 47bb
00000270: ed4c eeb9 93cf e839 66ed 1eb9 f168 34b8
00000280: af10 8b3b ff4e 4bbb dce8 68bb 4f12 07ba
00000290: 5f64 273a 5e35 bc3a a9e2 6cbb 93a4 8aba
000002a0: 41d2 72b9 de90 edba 5fd3 443b 671b 3b3b
000002b0: cc28 533a 9415 85ba 7e10 903a 4616 ed3a
000002c0: 5710 d239 be47 e0ba dce9 183b 5dcb 6a3a
000002d0: 5e75 bfb8 1f3d 20ba 2d0f 9fba dd8e 023b
000002e0: 317e 543a 2dab f438 e168 f83a 15ec cab9
000002f0: 1603 96b9 c545 ddba 5f67 5738 71a0 6b3a
00000300: 63cb 2f3a 417b 2e39 3a8a 943a d999 d438
00000310: d112 04bb e879 5f39 186c a239 b167 34b8
00000320: b567 9439 d0cc 0739 93d9 db37 327d a539
00000330: ba66 c7b7 00e2 e7b9 7344 a13a 0be7 8e39
00000340: 01f2 75b9 f91f b2b9 f36c 79b9 1649 10ba
00000350: 193f 71b8 2136 5738 f140 ea38 1e62 b939
00000360: fc76 11ba 35dd e439 ae66 95b8 e069 0fb8
00000370: 78ba a1b7 c257 dd39 f876 d7b7 b3eb 18ba
00000380: 8000 07ba 1e44 3139 3a5f 1a3a 1826 8038
00000390: 97b7 673a ef43 0ab8 992d 8aba 9cb9 b0b9
000003a0: 8aaa 82ba 72fc c539 b7a1 4639 055b 2639
000003b0: e3bd e338 a234 c239 e26c 83b9 285c b4b8
000003c0: f0bf 48ba 0975 5f39 6b8d da38 37c4 0b3a
000003d0: 1bdb 1939 7bdc 223a 102b a139 0840 26ba
000003e0: b8af 243a 6a0a 8f39 5aa0 ebb9 bb46 8eb8
000003f0: ff92 b739 8edb 8836 df73 6739 3c88 4d3b
