src/models/atla_release/ATLA-PPO/attack-atla-ppo-ant.model (torch, 681325 bytes, 72 tensors)

affine_layers.0.weight f4 [64, 111]
00000000: 230c d53d 786f 5abe daf7 1a3e e5cc 9f3e
00000010: f111 1c3c 77ea 8a3d 45ea fe3d 57c1 9f3d
00000020: fc1f 62be f972 ef3d 5454 e6bb c17a 84bd
00000030: cf95 173d c363 75bd 03ec 2fbd 19ed 8f3c
00000040: d1a5 3e3d 4c4b 0fbe 86e9 933d b82d 0e3e
00000050: 2767 0ebd c140 d83d 4b52 11bd 6e52 ddbd
00000060: da90 b9bd 2da7 013e bc30 bd3b 60f5 1fbd
00000070: 43b8 d93d d7d9 b3bd 5a17 cdbd 7486 37be
00000080: ba4c 72be 14cf d53c 863e 35be 6a09 38bd
00000090: 3964 cf3d 408c f93c 890e 863d b0d9 80bc
000000a0: 161f 633e 0f91 1cbd 3874 50bd 933c 033d
000000b0: ac78 f93d 8817 25be 2307 c73c dd3e e9bb
000000c0: fc47 a13d 92c3 9dbd 1d4b 213e 7968 853e
000000d0: 98f1 3e3e b660 0e3d 845d e93c 50dc 2c3d
000000e0: 7940 913d 21ba 60bd 5bea 183e 4bbc 073e
000000f0: 8a39 093d 0ce8 03be a827 ec3c ae45 0b3e
00000100: 932d f53d f4e0 22be cabb f2bd 824a 0dbc
00000110: 8e0f b0bd 8356 1fbd a9bf 643d e01c 62bd
00000120: ddce 0e3d a31d 003e 2813 6abe 209f 24be
00000130: 0fd9 0bbe e70b 23bd 0564 9dbd f459 fd3d
00000140: a4e4 8f3d 2988 423e 67b1 5dbe 632c c83c
00000150: 8b91 183d fcf7 26be 55c3 1cbd 1631 3b3e
00000160: d514 11be 4c66 4ebd fe24 f93d 8b9f 20bd
00000170: baa2 2dbe 3e18 15be 43cc e83d 667d d2bc
00000180: 6bee 12be 07c5 7a3d f654 b4bc aa12 a3bc
00000190: c2c1 af3b 2ca6 93bd 8b7c 3aba ec6d b33d
000001a0: 10b9 4abe a7ab 363c 96bf 4fbe 7a59 c63d
000001b0: 2e04 0dbe edfb 3bbe a57e 0bbe 2be3 b53d
000001c0: 6dfb 4abe 095e 053b 268d 1c3d ccbe 973d
000001d0: ed37 53bc 8d32 3ebd c6b9 1d3d 7f6d 7f3d
000001e0: ba5f e1bd 418f dc3c 46d6 9b3c de82 21be
000001f0: ffd0 f43c 53e1 28be d29e d23d b3a0 f33d
00000200: 2dfb ccbc d012 b53d 5890 11bd 0222 1fbe
00000210: 2e7c e03b 89de 003e 5c1b 3d3d 9133 c6bd
00000220: 583d ac3d f7e5 acbd 89d2 4a3e e41f 6cbe
00000230: ca5f 2b3c 61d2 3a3d 8a89 ff3d c61b 01be
00000240: 9a1b 063e 72c4 b13d e60b 97bd e28a ed3d
00000250: 8399 d7bc e3b6 a2bb 1b5d eb3b 59c0 3e3e
00000260: cafa 20bc d5d0 043c 682d 1bbd a483 91bd
00000270: a4fd b43b 6e15 78bd dc73 823d ae83 4d3e
00000280: 5827 16bd 1888 11be a8fc 043e 9a1e bcbc
00000290: 08b6 55bd ffcc 4f3d 7df2 9dbd 516a afbd
000002a0: 3e66 9d3d e801 543d fa8b f43d ce1c 8d3e
000002b0: 5d4e 693d ec94 b8bd 737b 9d3d b719 d53d
000002c0: d12b 9ebd dfcb 47bd a35b 05be b78f ab3d
000002d0: 0779 74be 5d00 b3bd 38d4 59bd ba9a c73c
000002e0: 7310 903d 31bc 47bd d68c c33c e448 293d
000002f0: c084 87bd c554 3d3d 3953 f1ba 5a22 e93d
00000300: 2ae0 2e3d 8292 eb3d 2ccd 41be 8821 c83d
00000310: ddd6 9fbe ef8f 4d3d 8a5e 6c3d 188a 383e
00000320: d0a3 80bd 2ff4 633d bfa6 5a3b 7233 87bb
00000330: ddd5 14bd a668 b7be d477 ca3b 3992 8dbc
00000340: c20d 87bd 341a 17be 48b9 55bd 696c 4e3e
00000350: 64ac 62be e701 79bd 7fd5 b6bb 8a54 173d
00000360: 2096 6d3d aacd bf3c 462e 82bb 6765 8d3c
00000370: f515 563e 6193 1a3e e45a 883e 3c24 743e
00000380: 386f b2bd 9287 e4bd 32d2 703e 8c3b 553e
00000390: f48e 62bb 9a07 58bb 97c2 5b3c 861f 043e
000003a0: 7bfd 8fbd 47ec 23bd d211 7d3d 135d 333d
000003b0: 1591 433d 6451 0e3d 0238 293d 11a2 c43c
000003c0: d13d a63d 84ec 233e 25e1 093e b7aa 273c
000003d0: 3b26 5c3d ff1e e93c 3c39 c43d c537 963d
000003e0: c47a 8f3d e522 72bd 9440 9c3d 9bd7 c23a
000003f0: e82f 4fbd 2b0f 033e d2bc ba3d 4bce 133e
0.104027055 -0.21331584 0.1513361 0.3121101 0.009525762 0.06783002 0.12447027 0.078005485
-0.22082514 0.11691851 -0.0070290957 -0.06468726 0.037008103 -0.059909593 -0.042949688 0.017569112
0.046544854 -0.13993567 0.072222754 0.13884628 -0.034766342 0.10559226 -0.03547887 -0.10806738
-0.09060831 0.12661429 0.005773632 -0.039052367 0.10630848 -0.08781784 -0.100142196 -0.17922384
-0.23662081 0.02609972 -0.17699632 -0.044930853 0.10126538 0.030462384 0.06545741 -0.015728801
0.22179827 -0.038224276 -0.050892085 0.03204019 0.121812195 -0.16122258 0.024295395 -0.0071180896
0.07875058 -0.07703318 0.1575131 0.2605627 0.18646848 0.0347602 0.028486975 0.042202294
0.07092375 -0.054865006 0.1493315 0.13255422 0.03350214 -0.12881488 0.028827503 0.136008
0.11971583 -0.15906125 -0.11852224 -0.008623721 -0.08596717 -0.038900863 0.055846844 -0.05520332
0.03486525 0.12511306 -0.2285887 -0.16076326 -0.1365702 -0.039806273 -0.07685093 0.12370673
0.070260316 0.18997253 -0.21649705 0.024435228 0.037248176 -0.16305536 -0.03827222 0.18280444
-0.14168103 -0.050390527 0.12165259 -0.039214652 -0.16956607 -0.14560029 0.11367085 -0.02569456
-0.14348762 0.061223056 -0.022013169 -0.01990636 0.005363674 -0.07209429 -0.0007113895 0.087612
-0.19797158 0.011149324 -0.20287928 0.09685035 -0.13771126 -0.18357821 -0.1362253 0.088812195
-0.19822474 0.0020350239 0.038220547 0.074094385 -0.012891752 -0.046434928 0.038507245 0.062360283
-0.110045865 0.026923778 0.019023072 -0.15772578 0.029884813 -0.16492204 0.10284199 0.11895885
-0.025022114 0.08841479 -0.035538048 -0.15540317 0.006850741 0.1258489 0.04616867 -0.09677804
0.08410138 -0.084423 0.19806875 -0.2305904 0.01045985 0.04561079 0.12477405 -0.12608251
0.13096467 0.08680047 -0.07375316 0.115987554 -0.026318317 -0.0049656495 0.00718273 0.18628062
-0.009825418 0.00810643 -0.0378851 -0.071051866 0.0055234004 -0.060567312 0.06369755 0.20069763
-0.036658615 -0.14212072 0.12987006 -0.02296381 -0.05217555 0.05073261 -0.077122666 -0.085652
0.07685517 0.05175963 0.11940761 0.2756104 0.0569595 -0.090127796 0.07689562 0.10405295
-0.07723201 -0.04877841 -0.13023238 0.08377021 -0.23874293 -0.08740304 -0.053180903 0.024365772
0.070343874 -0.048763458 0.023870867 0.04132928 -0.06617117 0.04622342 -0.0018411643 0.11383505
0.04269425 0.115025535 -0.18925923 0.097720206 -0.31218615 0.050186094 0.057707347 0.18021429
-0.06281245 0.055652793 0.0033363549 -0.004126006 -0.03633677 -0.35822028 0.0061788354 -0.017281638
-0.06594421 -0.1475609 -0.05217865 0.20158543 -0.22136074 -0.06079283 -0.00557965 0.036945857
0.0580045 0.023413498 -0.0039728014 0.017260266 0.20906813 0.15095283 0.26631844 0.23841947
-0.087126195 -0.111586705 0.23517683 0.20823497 -0.003457007 -0.0032963515 0.013413093 0.1290265
-0.070307694 -0.040020254 0.061784573 0.043789934 0.047745783 0.03474559 0.04131318 0.02400306
0.08117259 0.16008192 0.13464792 0.010233573 0.053747397 0.028457163 0.09581229 0.07334856
0.070058376 -0.05911531 0.07629505 0.0014865281 -0.050582796 0.12798755 0.09118046 0.14434163

affine_layers.0.bias f4 [64]
00000000: 20c0 20be 11c9 bd3e 05a5 87bd 4683 bcbd
00000010: 60c5 883e 710f 25be ce17 5cbe f090 e03d
00000020: 76ba 853d a17e c4bd 3e9b 613e 9c0d 973e
00000030: a829 b9be c1b8 a23d fd7d 963d 30ad 21be
00000040: 6a52 8dbd 1db5 8b3e 2847 b4bd ca7d 8fbd
00000050: 419f 1fbb 3e64 8abe f0ba 9e3d f2d1 be3d
00000060: ceb4 3d3e 2b2e 983a 4e83 763e 0d10 ab3e
00000070: db32 52be 4257 403e 68a2 6c3e bf7c aebe
00000080: d334 09be f923 2a3e 1220 b83e 569c afbd
00000090: e6d3 ac3e 73fe 7dbd 4555 27be 6bd7 6cbe
000000a0: 8dc4 55be 3faa babd d5df 77bd a727 92bd
000000b0: d69f 113e 5c93 3c3e a183 73be 8273 85bd
000000c0: 51e6 c1be d121 633d 827d ec3d b561 38bd
000000d0: c3e2 b7bd 770e cbbd 38d5 3cbe 89cc b83e
000000e0: 2370 45be 1eb4 b5be 652e 453e 7753 af3d
000000f0: a848 43be 4256 62bd 2bfe bf3d 71b0 e13d
-0.1569829 0.37067464 -0.06623272 -0.09204726 0.26713085 -0.16119172 -0.21493456 0.10965145
0.06529705 -0.09594465 0.22031876 0.2950257 -0.36164594 0.07945395 0.07348249 -0.15788722
-0.06900485 0.27286616 -0.088026345 -0.07006414 -0.0024356397 -0.27029604 0.07750499 0.09317388
0.18526003 0.0011610439 0.24073526 0.33410683 -0.20527212 0.18783286 0.23108828 -0.3407955
-0.13399057 0.16615285 0.35961968 -0.085747406 0.33755416 -0.06201024 -0.16341121 -0.2312905
-0.2087576 -0.09114503 -0.060516197 -0.07136469 0.14221129 0.18415588 -0.23780681 -0.06516172
-0.3787103 0.05545217 0.11547376 -0.045015056 -0.08978798 -0.09914868 -0.18440711 0.36093548
-0.19281058 -0.3548898 0.1925598 0.085608415 -0.19070685 -0.055258043 0.093746506 0.11019982

affine_layers.1.weight f4 [64, 64]
00000000: 563b 993c b95d db3c 42b5 2dbe 1351 873d
00000010: de4f 03be dd57 f9bd ae2a edb9 1786 55be
00000020: 6842 40bd 013c d3bd 1723 a63c e45d 8b3d
00000030: 680d b1bc c291 3c3e 2d26 1bbe f896 3b3e
00000040: 02d6 c73e 52e8 1fbe 2b27 a13d c9f3 c03c
00000050: e0ee 4b3e 46ee 27be ad19 783e 670a 5b3e
00000060: 5167 afbd 7890 18bd fb76 27be 9e36 b63d
00000070: 996b 583c cb88 14bd 4206 a3bd 822d b73c
00000080: 0d1f 16be 36ae ccbe 4d17 06be 159b b0be
00000090: d39e 0d3e 2c42 e0bc c73c 64be dcfa 423d
000000a0: d59d 12be 09ea 503e 2bd4 71be 533b 16be
000000b0: 70df 0dbe c626 ca3d a6de c0bd 4b37 87be
000000c0: 4fd3 d8bd da31 babe 55fa d6bc f63c 3fbe
000000d0: 6712 0d3d ece1 f73e c6de 9c3d 690d 2dbc
000000e0: e52b 563e 4cf1 893e 9733 ccbe 6466 713e
000000f0: 3d30 d63d 812d 0cbd 1fd4 b6bd 7811 de3d
00000100: 58ce 06be b8cb 143d b726 e83d e9e1 4fbe
00000110: 5efd da3d 355a 1ebe 0b74 813c bc21 c63c
00000120: 44b5 373d 8c28 ea3e 55f9 05be 4a19 94bd
00000130: 47b2 9f3e 3ac9 2d3e 4a1f f3bc bcf5 833d
00000140: ed92 57bd 8649 9d3d 33f6 60be 2a16 f13d
00000150: 42d4 8e3d c767 23bb 71fc 013e 08eb a9be
00000160: 6b5a a7be 64b7 ba3e 96a1 9a3d 08f0 8a3d
00000170: 8708 0bbe e4ed 08be 8c1f a73c 8e3f 5fbe
00000180: 2e1d a73e d4f7 a93c 9a5c cd3d 8d97 133d
00000190: 914d 09be 24b7 c83e 3199 c53b e74d 8a3d
000001a0: 4f4a 353e ed56 fd3d 855a 483e 41e9 373d
000001b0: a06b 023d aecb 23be 1eee 19be d735 b3be
000001c0: 0709 ad3d 05ee 31bd 7f7c 03be 59d8 90bd
000001d0: 2a49 a63d 42c6 bc3d ed5c 94bb a1d1 08bd
000001e0: 7167 6b3e 48ce 23bd 1a60 3abe c244 893e
000001f0: 0296 90bd 49ac f5bd ec25 c6bc 5687 febd
00000200: bd53 453d 30cb dcbd 9309 e43d 480b e7bb
00000210: 191f 483e 268e ed3d 5f8c 63bd 788d 0f3e
00000220: 2548 de3d 4da4 153c bb06 56be f213 0bbe
00000230: 8d71 88bd d5d1 573e 387e 9ebd 6d27 093e
00000240: 6430 413c 47ae 263e 857c 6dbe 5e8d 26bd
00000250: ef6e f8bd a02c c3be b42c 2b3e 53ef f9bd
00000260: 1af8 913d d9df c03d d1a1 833e ba39 763d
00000270: 9561 28be 6725 c23e cea1 7cbd 8dab a03e
00000280: 75ae 36bd 3900 f2bd 8cea 963e c3e0 11be
00000290: 2596 2ebd 152a d7bd a857 afbc 6392 243d
000002a0: 71fa f5bc ed0a 323e d5a9 88bd 9a48 303e
000002b0: 4123 e4bd 87f4 953d ae96 5fbe 0ef3 a4bd
000002c0: 6312 86be 4203 bc3d 58bf ec3d c743 0f3e
000002d0: b603 d33d 5639 43bd 4f6b 303d 5d19 85be
000002e0: f6a3 4bbd 1520 12be 5ae0 ce3b 208b afbe
000002f0: 240b 513e 430a 3d3e 038d abbe 6bea e53d
00000300: b239 01be 0764 a3bd b605 8c3e 61dc b5bd
00000310: 3b76 20bd 943e 333e dfd8 73be 6d95 3bbe
00000320: 73ff 413e ec6c 97bc 8832 b3be 99e5 01bd
00000330: 2673 0b3e c133 b2bd 4b39 a9bd 15e6 e7bc
00000340: 44d6 2fbe cac7 8f3c 21e9 893d 3909 e13c
00000350: 3bd7 683d 8ed3 8bbd ae62 b23c 0d34 fdbc
00000360: 439e 8b3d ce33 c93d 786f aebe 6301 c7bd
00000370: 7294 7cbe f3e7 62be 5df0 a3bd 66f4 0a3e
00000380: 67d9 03bc 0ada 85bc f113 6abe 366f c4bd
00000390: ab5f 93be ccae bfbd 379c af3d 1168 11be
000003a0: fad0 c6be b0e5 ca3d e075 2dbe 9bd7 8cbe
000003b0: cf70 e4bd 80c3 ab3d c103 48be 6fe7 3a3d
000003c0: e3f5 16bd 42e8 663e ae73 153e e3c0 943d
000003d0: 19ca 2d3e be87 f8bd 0120 8c3d 1b86 8cbd
000003e0: a64c cbbd 83f3 9a3e 6960 033e 504d ec3d
000003f0: e07b 733e 0ce7 3fbc 79ae c03d bfe2 69bd
0.018705051 0.026778089 -0.16963676 0.066072606 -0.12823436 -0.12174962 -0.0004523596 -0.20851932
-0.04693833 -0.10314179 0.020280404 0.068050176 -0.021612838 0.18414977 -0.15151282 0.18319309
0.39030463 -0.15615967 0.07868799 0.023553746 0.19915342 -0.16399488 0.24228545 0.21390687
-0.08564628 -0.03724715 -0.16353981 0.08897136 0.013209247 -0.03626327 -0.07960178 0.022360567
-0.14660282 -0.39976662 -0.13094826 -0.34493318 0.13830118 -0.027375303 -0.2228881 0.04760252
-0.1431802 0.20401777 -0.23616092 -0.14671068 -0.13854766 0.09870677 -0.09417467 -0.26409373
-0.10587179 -0.3636616 -0.026242414 -0.18675599 0.034441378 0.48414552 0.07659678 -0.010562279
0.20915182 0.26941907 -0.3988311 0.23574215 0.104584195 -0.034223083 -0.08927178 0.10843176
-0.13164651 0.036327094 0.11335509 -0.20301022 0.10692857 -0.15464099 0.015802404 0.024186008
0.044850603 0.4573406 -0.13083394 -0.07231386 0.31190702 0.16971293 -0.029678006 0.064433545
-0.052630354 0.07680039 -0.21968918 0.117718056 0.06974079 -0.0024933682 0.12693955 -0.33187127
-0.3268617 0.3646804 0.07550351 0.067840636 -0.13577472 -0.13371998 0.020400785 -0.21801588
0.3263945 0.020748056 0.10027428 0.036033202 -0.13408495 0.39202225 0.0060302247 0.0675314
0.17704128 0.123700954 0.1956578 0.044900183 0.03184092 -0.15995666 -0.15032241 -0.35002014
0.084489875 -0.043439884 -0.1284046 -0.07072515 0.08119424 0.09217502 -0.004527679 -0.033403043
0.22988679 -0.039991647 -0.18200722 0.2681027 -0.07059862 -0.119957514 -0.024188004 -0.12428157
0.048175562 -0.107809424 0.11134639 -0.0070509054 0.19543113 0.11599378 -0.05555379 0.1401881
0.10853604 0.009133411 -0.20901005 -0.13581827 -0.06662283 0.21076138 -0.07738918 0.13393946
0.011791322 0.16277419 -0.23192032 -0.040662162 -0.12130534 -0.38119984 0.16716272 -0.122038506
0.071274 0.094176956 0.25709394 0.060113646 -0.16443475 0.3791916 -0.061677746 0.31380883
-0.04459997 -0.11816449 0.2947582 -0.14245896 -0.042623658 -0.105060734 -0.021404102 0.040178668
-0.030026646 0.1738698 -0.06673018 0.17215195 -0.11139537 0.073220305 -0.21834823 -0.080541715
-0.26185903 0.09180309 0.115599334 0.13990699 0.10303442 -0.0476621 0.043071087 -0.25995913
-0.049716912 -0.14270051 0.006313366 -0.3428583 0.20414406 0.18460946 -0.3350602 0.11226352
-0.12619665 -0.07978063 0.27348107 -0.088799246 -0.039175253 0.1750434 -0.23813199 -0.1831872
0.18945102 -0.018484555 -0.3499949 -0.031713102 0.13618144 -0.087012775 -0.08262881 -0.028307954
-0.1717158 0.017551322 0.06733919 0.027470218 0.056845885 -0.0682746 0.02177557 -0.030908609
0.068172954 0.09824334 -0.3406942 -0.09717061 -0.24666002 -0.22158794 -0.0800483 0.13569793
-0.008047438 -0.01633932 -0.2285917 -0.09591524 -0.28783926 -0.09359512 0.085747175 -0.14199854
-0.3883131 0.09907091 -0.16939497 -0.27508244 -0.11154329 0.08386898 -0.19532682 0.04563087
-0.03685559 0.22549537 0.1459491 0.07263353 0.16971625 -0.12135266 0.06842042 -0.06861516
-0.09926729 0.3026391 0.12829746 0.11538184 0.23777723 -0.011712801 0.09408278 -0.057101008

affine_layers.1.bias f4 [64]
00000000: d16c 1bbe 081c 3c3e 940b 32be 2794 523e
00000010: 5324 43be 0477 31be 3bc7 023e 2e4b 6fbe
00000020: b234 4d3e a779 543e 3fcd 2dbe 2cd5 293e
00000030: 8324 4f3e 367f 553e fcef 64be 1c50 3c3e
00000040: 0b3b 66be d5bf 68be d42f 4a3e 4609 53be
00000050: aec4 43be 523e 5a3e 8f09 123e 8c52 563e
00000060: 3ffa 2f3e 5209 363e a1a6 723e 2ff2 653e
00000070: 4643 4fbe d932 233e 3f8d 3d3e e3fa 93be
00000080: 61e9 26be f38e c1bd fe2a 413e dcde 7fbe
00000090: 8095 2ebe 978c 4cbe 6cbd 373e c4cb 3b3e
000000a0: c5af 74be 6992 043e 6afc 76be b041 2f3e
000000b0: cebf 3fbe f62c 2cbe 5142 7ebe d924 6a3e
000000c0: 50e8 393e f8ba 663e e5d1 3f3e 7d62 6abe
000000d0: 1aac 223e 4186 d93d 24d3 70be f34d 063e
000000e0: 39de b5be 2d05 78be 1e12 89be f87f 2fbe
000000f0: 63a7 7c3e ebad 3c3e 02eb 6b3e 1960 70be
-0.15178229 0.18370068 -0.17387229 0.20564328 -0.19056825 -0.17330557 0.12771313 -0.23368523
0.20039633 0.20749532 -0.16972826 0.16585225 0.20228772 0.20849308 -0.22357172 0.18389934
-0.2248346 -0.22729428 0.19744807 -0.20609006 -0.19117996 0.21312836 0.14261459 0.20929927
0.17185305 0.17776993 0.23696376 0.22455667 -0.20240507 0.15937366 0.18510912 -0.2890235
-0.16299964 -0.094510935 0.18864056 -0.24987358 -0.17049217 -0.19975506 0.17943352 0.18339449
-0.23895176 0.12946476 -0.24119726 0.17114902 -0.18725511 -0.16814026 -0.24829985 0.22865619
0.18155026 0.2253226 0.18732412 -0.22889133 0.15885964 0.1062131 -0.23518044 0.13115673
-0.35521105 -0.24220724 -0.26771635 -0.1713866 0.24673228 0.1842572 0.23038867 -0.23474158

final.weight f4 [1, 64]
00000000: 51f1 fdbd a004 9d3c 6c6b b2bd 99b2 d13d
00000010: fd4f 18bd 5f7f 1abe 0569 1a3d 5c27 97bd
00000020: 8c2a e93d 9f0c 2c3c 892e b2bd a163 2d3e
00000030: 7e51 1a3d b08d 853d b90e 8fbd 6b84 143d
00000040: 9c25 13be d6e9 34bd b2ff dc3c b704 38be
00000050: 2989 b3bd 8f0f 073e 6d71 7e3d bb13 e83c
00000060: 1bdd c03c ba12 603d bfb8 0c3e 4eca 133e
00000070: 0049 79bd 2d6f e33c 20aa a23d 9b16 13be
00000080: d10c 51be b599 32bd c42d 7c3d 3b83 c7bd
00000090: 6497 e4bd 494b 10be cde6 8a3d 2cc9 f23d
000000a0: ad7b 95bd 942b 483d 3148 f1bd 522f 293d
000000b0: 77cc ccbc 6396 4fbd 3ad7 0bbe 58b5 583d
000000c0: 0d83 9c3d f3ff 8f3b 1373 573d d080 dbbd
000000d0: e132 403d 21b3 8c3e b7f7 85bd 752b ff3c
000000e0: afda 37be b9e4 2abd 763d 6dbd 9889 47bd
000000f0: 915c e63d 0a69 0d3d fe58 8d3d 2e25 a5bd
-0.12399543 0.019167244 -0.08711895 0.10239143 -0.037185658 -0.1508765 0.03769781 -0.07380554
0.11385068 0.010501056 -0.08700282 0.16932537 0.037675373 0.06521165 -0.0698523 0.036259096
-0.14369816 -0.044168316 0.026977394 -0.17970549 -0.087663956 0.13189529 0.06211989 0.02832972
0.023542931 0.05470536 0.1374235 0.14432642 -0.060860634 0.027762974 0.07942605 -0.14364092
-0.20415045 -0.043603618 0.061567083 -0.09741827 -0.11161688 -0.14091219 0.06782303 0.11854777
-0.0729898 0.048869684 -0.117813475 0.041304894 -0.02499984 -0.05068053 -0.13656321 0.052907318
0.076421835 0.004394525 0.052599978 -0.107179284 0.046923522 0.27480415 -0.065413885 0.031148652
-0.17954515 -0.041722033 -0.05791994 -0.048715204 0.112481244 0.034524 0.069017395 -0.08063732

log_stdev f4 [8]
00000000: 0000 c8c2 0000 c8c2 0000 c8c2 0000 c8c2
00000010: 0000 c8c2 0000 c8c2 0000 c8c2 0000 c8c2
-100.0 -100.0 -100.0 -100.0 -100.0 -100.0 -100.0 -100.0

affine_layers.0.weight f4 [64, 111]
00000000: 13f1 39bd d01e 4c3e 865d edbd 130c 62be
00000010: d9ff 6dbd 44db b0bc 755a dabd 99c5 d23d
00000020: 8b08 cabd 5d51 56bd 622c dd3a 50ff c43d
00000030: 38d7 a1be b87b 7a3c b8c7 da3d 87d1 813d
00000040: 793d 57bc a782 86be cb39 3b3e a0a9 033e
00000050: 0a69 e4bd 10eb ec3d 6a00 fe3d 268a 973e
00000060: a38f 303e 5df8 623e 411d d23d 0ffe 3e3d
00000070: 3e43 34be 6777 0abe db64 a3bc 9ec5 d4bd
00000080: 860c 34be e39e 413e 5b6e 573d 6730 9bbe
00000090: f210 6b3e 1da1 11be 9ff3 01bc 13fc c3bc
000000a0: 3f90 7d3d 97a4 38bd f447 993d 9fcf 7cbe
000000b0: 8acf c3bd 4216 11be f9da dfbd 014c 01be
000000c0: 2d9c 4c3d f936 ccbc d4d9 10bd 380d c0be
000000d0: 158e 73bd e9ed 94bd 2684 4b3e bf73 07be
000000e0: f488 723d e9f9 ddbd ef4e f9bc a7b9 3b3d
000000f0: 5ac2 663e cd9a 2abb 5022 18be 95e7 ea3d
00000100: 1716 083e 267b 9bbd b9eb 01bd 13e1 b83e
00000110: 0349 863d b79c ddbc a8ef cebd 2701 bcba
00000120: a323 f9bd 5892 2abd b01b 0c3e 06d6 bbbc
00000130: 9412 a6bd 2f3f 68bc 9b11 17be 0dd2 10bc
00000140: 7fc5 fb3d d517 1fbe 0b52 0a3e 5f86 afbc
00000150: a02f 3bbc 9bcb 2abd f34d 453d c52d 9f3d
00000160: 24e2 613d 6ef2 173d 0662 723d c844 10be
00000170: 9971 593d be1d 36be 59ce dd3d a056 fe3d
00000180: 606a 053e e8ef bf3e 6af0 713e 844e ed3d
00000190: 6568 603e 736c 8a3d 4cef 33be 68d4 fcbc
000001a0: 4935 333e dc55 46bb 8d06 25be 9270 863d
000001b0: 2ee5 36be b13e d0bd 47ed 3dbd 4a15 9ebe
000001c0: d82b 033e 9e58 3cbe bbf4 c43c ed72 1e3e
000001d0: 0862 bc3d 63b6 cf3c cd88 043e 512a 32bd
000001e0: 3902 6b3d 349a 013d c7f5 babd 7361 fd3d
000001f0: 913e 8abb 1c9d 1abe 3092 1d3e 014c 353e
00000200: e474 2ebc eb03 353c 3ba2 90be bb49 053e
00000210: 3ad3 5e3d 658b 3e3c a4a0 95bc 80bc fdbd
00000220: e015 eb3d 72c3 923d c5bb 30be e110 67be
00000230: c576 a43d 3413 423e a3f2 33be e047 44be
00000240: 52ee 4bbd 43f1 6e3e 3b35 a1bd a83a 5abe
00000250: a466 053e a46b 413d b3e6 a6bd 4f8a 5f3e
00000260: bfd3 323e fd1c 803e 7c34 c1bd 2ec3 0e3d
00000270: efd2 febd b30a 8cbd 8c1c 353e 89e9 99bd
00000280: 8552 9e3d 5245 97be 8348 42be 2757 9ebe
00000290: 53b6 2abd 7d9d 413e 04ec 403e c77c 233c
000002a0: 5122 d93b 1463 95bd 09dc 9f3b 56d3 55bd
000002b0: 7502 b03e 9c95 303e 28a1 11be 8a3e 3d3d
000002c0: 8678 833d 5554 473b 614f c83c f8b6 913d
000002d0: 7956 d13c 34e9 c73d 91c2 0abd 035a 7fbc
000002e0: 9660 9fbc 3a2e 95bc ae8d e0bd b663 fcbd
000002f0: 6bfa 5c3e 2761 893b a57b 34be 22aa 69bd
00000300: a161 113b e56b 00be 1941 adbb 54e6 96bd
00000310: 213a a3bd a14e 84be 0315 393e 348b bdbd
00000320: 2446 423e 4b52 e33d 2b32 4fbc aa38 44bb
00000330: 137f 883d fa26 3a3d 7866 2f3e 0077 b93c
00000340: c192 763d fc88 513e 6a54 bcbc 4d72 7abe
00000350: f4a3 803e d592 8ebd 8da2 c1bd b96d 833d
00000360: 5d7f ad3e 0fdd 14be e44a 0d3e 627a dd3d
00000370: fe25 6fbd 9562 8e3d 6457 1a3e 7e58 95bc
00000380: 23e0 9ebe e244 8abe 24b5 45be 9c7f 9cbd
00000390: 28eb 5b3d f2da 1bbe 95ae 67be cb6e 1abe
000003a0: 4203 2a3d 2656 8bbd 3dfa f03c d2e6 5c3e
000003b0: d394 2e3b ac72 d03d 9ef2 47bd 62e6 4ebd
000003c0: 35ae 5fbc 8435 1fbe 5b18 fcbd ae95 f83d
000003d0: c846 183e e41b dcbd 2025 23bc 37c8 3dbd
000003e0: 1532 acbc b995 3ebe 3bf9 d93d fbf1 99bd
000003f0: 96e1 a5bc 4e63 3cbd b832 7ebd 9f96 fa3d
-0.045395922 0.19933629 -0.11590104 -0.22074918 -0.058105323 -0.021588929 -0.106617846 0.10291595
-0.09864911 -0.052323688 0.0016874189 0.096190095 -0.3160951 0.015288286 0.106826246 0.06338792
-0.013137215 -0.26271555 0.18283765 0.12857676 -0.11152847 0.11568272 0.12402423 0.29597586
0.17242293 0.22165056 0.10259486 0.046629008 -0.17603776 -0.13522111 -0.019945553 -0.10389255
-0.17582902 0.18908267 0.052595478 -0.30310366 0.22955683 -0.14221616 -0.007931619 -0.02392391
0.061905142 -0.04507884 0.07484427 -0.24688576 -0.09561069 -0.14168647 -0.109304376 -0.1262665
0.04995363 -0.024928557 -0.035363987 -0.37510085 -0.05946167 -0.0727194 0.1987463 -0.13227747
0.05921264 -0.10838682 -0.030433146 0.04583135 0.22535077 -0.002603221 -0.14856839 0.11469952
0.13289677 -0.07591848 -0.031718943 0.36109218 0.06556895 -0.027052267 -0.101043046 -0.0014343605
-0.12165 -0.04164347 0.13682437 -0.022929203 -0.08109012 -0.01417522 -0.1475281 -0.0088391425
0.12293529 -0.15536435 0.1350786 -0.021426378 -0.011424929 -0.04169808 0.04817004 0.07772402
0.055147305 0.037096433 0.059175514 -0.14088738 0.05308685 -0.17784783 0.10830373 0.12418866
0.1302886 0.3748772 0.23626867 0.11587241 0.21914823 0.06758966 -0.17571753 -0.030863002
0.17500795 -0.0030263579 -0.1611578 0.0656444 -0.17860863 -0.101682074 -0.046368863 -0.30875617
0.12809694 -0.1839318 0.024042478 0.15473528 0.091983855 0.025355523 0.1294281 -0.043497387
0.057375167 0.0316412 -0.091289096 0.123721026 -0.0042188843 -0.15098995 0.15387797 0.17704774
-0.010647986 0.011048297 -0.28248772 0.13016407 0.05440066 0.011629914 -0.018265076 -0.12389469
0.11478782 0.071661845 -0.17259128 -0.22565033 0.08030466 0.18952638 -0.17573027 -0.19168043
-0.049787827 0.23334222 -0.07871481 -0.21311438 0.13027436 0.047221795 -0.08149471 0.21830104
0.17463587 0.25022116 -0.09433839 0.034854107 -0.12442576 -0.06837978 0.17686671 -0.075152464
0.07730583 -0.29545075 -0.18972974 -0.30925867 -0.041677784 0.18907733 0.18840033 0.00997848
0.0066264053 -0.07294288 0.004878525 -0.0522035 0.34376875 0.17244571 -0.14221632 0.04620222
0.064194724 0.0030415256 0.024451913 0.07114977 0.025553929 0.09761277 -0.03387696 -0.015585425
-0.019455235 -0.01821052 -0.10964523 -0.12323706 0.21579902 0.0041924897 -0.17625292 -0.057047017
0.0022183436 -0.12541158 -0.0052873013 -0.0736815 -0.079700716 -0.2584124 0.18074422 -0.092550665
0.18972069 0.110996805 -0.012646238 -0.0029941 0.066648625 0.045447327 0.17128932 0.022639751
0.06019855 0.20462412 -0.02298947 -0.24457665 0.25125086 -0.069616 -0.09454832 0.06417412
0.33886233 -0.14537452 0.137981 0.10814358 -0.05838584 0.06952397 0.150724 -0.018230673
-0.31030378 -0.27005678 -0.19307381 -0.07641527 0.05369106 -0.1522024 -0.22625192 -0.15081327
0.041507013 -0.06803541 0.029416198 0.21572426 0.0026639 0.10178122 -0.048815362 -0.05051268
-0.013652374 -0.15547758 -0.12309333 0.12137924 0.14870751 -0.10747507 -0.009957582 -0.046333518
-0.021019975 -0.18611802 0.1064324 -0.07516857 -0.02024917 -0.04599314 -0.062060088 0.1223576

affine_layers.0.bias f4 [64]
00000000: 88d3 05ba 0311 8d3d cdfe 403d 7a45 61bd
00000010: fa2f 6cbd ea14 02bd 5fef f5bd e8bd dfbd
00000020: 433f 8dbd e96f 0c3e 020f 15bd cec2 c93d
00000030: 23b7 b83d b4b7 193c 19ac 7a3d 8e30 803d
00000040: 8805 49bd 03f4 fa3c cce3 b43d 34b3 10bd
00000050: 7e6d b4bd baec f3b9 8b93 4dbd 0ecf 983d
00000060: d8ae 8e3d c1d4 d3bc e324 1abc f39b 783d
00000070: fe1c 2a3c 41d7 553c 6ab7 223d 7eb1 343e
00000080: 8a26 4f3d 42e1 b1bc 4247 80bc 139b 903b
00000090: 3aca a7bd edc2 423d ddfc 503d 6b48 cabc
000000a0: b068 44bc a59e a4bd 75c5 313d 6b9c eebd
000000b0: 4d4e 42bb 14a2 293d e022 60bd eed1 4e3d
000000c0: db29 2a3c 0167 073e 5623 103e 3257 933c
000000d0: 2ec8 26bd f0c3 f839 416d 05be b7f3 843c
000000e0: 3453 4c3d cd07 db3d 7d97 1cbd 8298 adbd
000000f0: 8816 92bc 5f68 173d 28f4 f3bc 0a84 383b
-0.0005105068 0.0688801 0.047117997 -0.0549979 -0.05766294 -0.031758226 -0.12008547 -0.109248936
-0.06896832 0.13714565 -0.036391266 0.09851609 0.090193056 0.009382177 0.06119928 0.06259261
-0.04907754 0.030633932 0.08832511 -0.03532715 -0.088099465 -0.00046524947 -0.050189536 0.074613675
0.069669425 -0.025858285 -0.009408209 0.0606956 0.010382889 0.013051809 0.0397257 0.17645833
0.050573863 -0.021713857 -0.015658978 0.0044130175 -0.081928685 0.047549177 0.0510224 -0.024692735
-0.01198785 -0.080380715 0.0434012 -0.11650928 -0.0029648722 0.041414335 -0.05472076 0.050493173
0.010385956 0.13222887 0.1407598 0.017985914 -0.04071825 0.0004744823 -0.13029958 0.016229494
0.049884036 0.10694847 -0.038230408 -0.08476354 -0.01783301 0.03696477 -0.029779509 0.0028154873

affine_layers.1.weight f4 [64, 64]
00000000: 362c 35bc b53a a1be 38d7 7fbc 8655 9c3d
00000010: b07f 8a3e cefe 48bd a6d6 96be 676e 173d
00000020: eb60 413e eb71 63be 4351 923d 32dd e93e
00000030: 665c 1abe 06db 323e 4d30 33bc 6bda 5bbe
00000040: 616c 5cbd ac7f 403e 5027 4a3e 3fbf 1bbe
00000050: 49d6 b73d 8469 d6be c3c0 073c 504e 6d3e
00000060: 9683 6fbd 8e66 e73d a641 e4bd 31c5 e13d
00000070: 4901 7d3d 80fa 893d b972 82bd 9be7 7c3e
00000080: 27d4 37be fcf2 1b3e 6e3c 89bd ec17 82bc
00000090: 887d 7d3d 4b0f 353c f633 fabd 675d adbe
000000a0: 3dd0 76bd abff da3d 8e6a b23e 2aae 143c
000000b0: 0433 0ebe 8dae 453e a7fd d0bd 9d8c a0bd
000000c0: 5a89 aa3e fc22 05bd f0cf 13be 8268 f33e
000000d0: d1d0 273e 4dbd 96bd 991d fcbd 2482 8fbd
000000e0: 97e5 b0be c35f 8e3e e143 85be 7c05 61bd
000000f0: 8196 823e 5a8a ee3c 10b0 96bd c655 bcbe
00000100: 95bd 613e 4315 a4be 6779 bb3d bb1c b6bd
00000110: 2e2d 443e ac22 fa3c d1b8 cf3c d883 f03b
00000120: d185 4abe 5e01 873e 5518 683e d17f 48be
00000130: 7da0 2ebe 0a56 fd3b 4ad0 4e3e 1505 a0bd
00000140: 35a9 2c3e ee91 99be f8e4 903d 7b65 cf3d
00000150: 84e7 2b3d cf40 eebd f3cf 3b3e eaf2 1fbe
00000160: 05ef 6cbe ce40 1fbe f553 c83d 6be0 373e
00000170: b345 e63d b12d 313e 9909 f7be 382f 9a3d
00000180: 26e5 143d a4d0 ebbc 90aa 553e 77f4 253e
00000190: 4119 183f 24e1 c53d 3934 1cbe fdbb 36be
000001a0: 358b 00be 6bea 8abd d652 0f3d 46e2 fe3d
000001b0: fdac fd3e a61f ecbd b97d ce3c f39a 263e
000001c0: 64e5 c33d ead4 1c3e 50fd 453e fb81 a4bc
000001d0: 9da6 0cbe 922e a6be dfa4 1ebe 5571 883c
000001e0: 7a8f 573e 29a2 26bd af09 7ebd 59e5 d7bc
000001f0: 3359 29be a06f 0cbe 509d 75be 3b1b a13b
00000200: 33e1 9cbe 7b7a 4f3e 2276 0bbe eab2 5d3e
00000210: b6e2 e23d 226f 143c 48cb 233e 509b da3e
00000220: 95e8 cf3d f762 b03d b7fc 6fbd 4184 2bbe
00000230: cad8 293d 54ca 923e 1554 0abe 7296 3d3e
00000240: c09d 583e d93a b9bc 8442 2abe 8cd6 93be
00000250: 48ac 41be e218 a9be 0b95 8dbd a03b 09bc
00000260: 410e 46be 0ae1 0cbd 7f5c ddbd 073f b93e
00000270: 7170 893d fbcb 803e da34 80bd 2c39 67be
00000280: c9df c33c 5dd3 ac3d 8161 b63b 558d ef3d
00000290: c346 0d3e 8caa b13d 10a5 933e b722 06be
000002a0: 1ada 47b9 7a5f ccbd 7dbd 0dbe fabd afbe
000002b0: c0c2 3fbd e4f5 933e 0e1a 863d 7358 123e
000002c0: 49f7 1e3e 4b17 ed3d dc31 a83c 9517 41bd
000002d0: 72ca 8e3d 379a ddbe 2c01 ba3e 1e80 07be
000002e0: 7635 3dbe f066 733e ed36 2dbe a4ee 4abe
000002f0: f79e 333d 743b 793e 75f4 8c3e bf6c f2bd
00000300: 4f9b 18be 2761 a7be 5a7e 09be f02e 443d
00000310: 6973 303e 5871 8b3c 0881 303e d1aa 953d
00000320: a95c 73bc 09d7 5dbd dbda e2bd c3a9 aabe
00000330: c125 b43e 16da 97be 12fa 11be db90 1d3d
00000340: 4eff b63e 9386 843e 6f5f dc3c b60a 7bba
00000350: 6abd 833d 5841 aa3e adf7 923e 998e 34be
00000360: 1a3e 153e 12c2 31bd 9c47 debd 9e5c 00be
00000370: 59f3 263e bbc0 e1bc d877 26be 4a4f da3d
00000380: 5d6f 5bbd 1732 94be bd26 3b3c 7694 df3d
00000390: 4fd8 91bd 0467 853e cd51 35be a92e 203e
000003a0: 87e9 a73e e144 b5bc 8956 973e 8bac c8be
000003b0: ea06 883e 836b debd 6579 3d3e 3a9b 553d
000003c0: 70c9 443d b860 813e e540 0fbf c259 77bc
000003d0: 51c7 523e 96c6 813c 3624 1f3e c939 34bd
000003e0: 872f 4e3d f3d3 523e 949a 9fbd ea3c 75bb
000003f0: 6761 a73d 19f7 c6be afcc 383d 51ad 42bd
-0.011057904 -0.31490102 -0.015615277 0.076335 0.27050543 -0.049071126 -0.2946064 0.036970522
0.18884628 -0.22211425 0.07144406 0.4567657 -0.1507431 0.17466363 -0.010936809 -0.21470039
-0.053814296 0.18798703 0.19741559 -0.15209673 0.089764185 -0.41877377 0.008285704 0.23174405
-0.0584751 0.11298858 -0.11145334 0.110239394 0.061768804 0.06737232 -0.06369538 0.24697725
-0.17952023 0.1522941 -0.06700979 -0.015880547 0.061887294 0.011051009 -0.12216942 -0.33860323
-0.060257185 0.10693296 0.3484692 0.009074727 -0.13886648 0.19304867 -0.1020463 -0.0783932
0.33307916 -0.032504067 -0.1443479 0.4754067 0.16388251 -0.07360325 -0.12310333 -0.07007244
-0.34550163 0.27807435 -0.2602835 -0.05493687 0.2550545 0.029118706 -0.073578 -0.3678419
0.22044976 -0.3204747 0.09154015 -0.08892199 0.1915786 0.030534111 0.025356682 0.0073399357
-0.1977761 0.2636823 0.22665532 -0.19580008 -0.17053409 0.007731204 0.20196643 -0.07813469
0.16861422 -0.29994148 0.07074922 0.10126778 0.041968837 -0.11633455 0.18341045 -0.15620008
-0.23138054 -0.15552065 0.097816385 0.17956702 0.11243763 0.17302586 -0.4824951 0.075285375
0.036351345 -0.028786011 0.20865846 0.16206537 0.59413534 0.09662083 -0.15254296 -0.1784515
-0.12553103 -0.06782993 0.034991108 0.12445502 0.49546042 -0.11529474 0.025206434 0.16270046
0.09565237 0.15315595 0.19334912 -0.02008151 -0.13735433 -0.32457405 -0.15492581 0.016655603
0.21050826 -0.04068199 -0.062020954 -0.026354479 -0.16537933 -0.13714457 -0.23985791 0.004916576
-0.30640563 0.20261566 -0.13619283 0.21650282 0.11078398 0.009059699 0.15995514 0.4269662
0.101517834 0.08612626 -0.058590617 -0.1674967 0.04146651 0.2866999 -0.13508637 0.18514422
0.21153927 -0.022611069 -0.16626936 -0.28874624 -0.18913376 -0.33026797 -0.06913193 -0.008376032
-0.19341375 -0.0343943 -0.10808658 0.361809 0.067108996 0.25155625 -0.06260081 -0.22580403
0.02391042 0.08438752 0.0055658226 0.11696879 0.13796525 0.08675107 0.2883687 -0.1309918
-0.00019059368 -0.09979148 -0.13841815 -0.34324628 -0.046816587 0.28898537 0.06547938 0.14291553
0.1552402 0.115767084 0.020531587 -0.04714163 0.06972207 -0.4328172 0.3632902 -0.13232467
-0.18477425 0.23769736 -0.16915484 -0.19817597 0.043852773 0.24339086 0.27530256 -0.11837148
-0.14902996 -0.3269131 -0.13427106 0.047896326 0.17231525 0.01702182 0.17236722 0.07307971
-0.014853635 -0.05416015 -0.110768996 -0.33332643 0.35185054 -0.29658574 -0.1425555 0.038468223
0.35741657 0.25883922 0.026900975 -0.0009576486 0.06432612 0.33252978 0.28704587 -0.17632522
0.14574471 -0.04339797 -0.10853502 -0.1253533 0.16303767 -0.027557721 -0.16256654 0.106596544
-0.053573 -0.28944466 0.01142281 0.109169886 -0.07121336 0.26055157 -0.17706986 0.156428
0.32795355 -0.02212757 0.2955821 -0.3919414 0.26567775 -0.1086035 0.1850334 0.05214999
0.04804367 0.25269103 -0.55958396 -0.0150970835 0.20583846 0.015841763 0.15541157 -0.04400042
0.050338294 0.20588665 -0.07793155 -0.003742034 0.08172875 -0.38860396 0.045117076 -0.04752857

affine_layers.1.bias f4 [64]
00000000: e22e cb3d 9000 04bd 0c4a fe3c 37ff d2bd
00000010: b252 debc bdaa 0c3d ac64 913d 9177 e93c
00000020: cfda ac3d 76fa 663d 4012 ad3c 1956 84ba
00000030: feec 443d 67ec df3b a14c 02be eb5f 06be
00000040: 7155 c13d a5f0 8ebc 6d33 0fbd ae65 c4bd
00000050: 9d2d a73d e4ff 5ebd d06e 69bd 8631 0c3e
00000060: 08a6 d53c 805e 3dbc 072e 01bc f9a2 0fbd
00000070: 9ba1 5a3d e67c 6ebd 4528 a9bd 6318 923a
00000080: 163c cebd 590a 69bd bbdd 2b3d 265d 8a3d
00000090: 824a 683d 48d3 523c c7be 7cbd 873a 0c3d
000000a0: d367 9a3d cb7d 73bd 5f0d 58bd 2ca7 acbd
000000b0: 06b9 c6bd 9815 073e 36f5 ba3d bf93 ab3c
000000c0: 7d78 ae3c 8082 abbd d6ea 083e 024d cf3d
000000d0: cd2d b8bb cebf 733d bc44 c5bd 30a6 62bd
000000e0: 6ef4 f43d 4180 763d 498a 603d 99f5 7dbc
000000f0: beda f6bc 1942 86bd 7283 ba3d e795 f03d
0.099210516 -0.0322271 0.031041168 -0.103025846 -0.027139042 0.034342516 0.0709928 0.028499397
0.08440172 0.056391202 0.021126866 -0.001009646 0.048077576 0.0068336013 -0.12724544 -0.13122527
0.09440125 -0.017448733 -0.034961153 -0.09589706 0.08162997 -0.054443255 -0.056990445 0.13690767
0.026080146 -0.011558175 -0.007884509 -0.035067532 0.053376775 -0.05822458 -0.08259634 0.0011146184
-0.10070054 -0.056894634 0.041959506 0.06756048 0.05671168 0.012867756 -0.061705377 0.034235504
0.07539334 -0.059446137 -0.052747127 -0.08430323 -0.09703259 0.13191831 0.091288015 0.020944474
0.021297688 -0.083745 0.13370833 0.1012211 -0.0056206943 0.05950909 -0.09632251 -0.05533427
0.11960684 0.060180906 0.05481938 -0.01550045 -0.030133601 -0.06555576 0.091071025 0.117473416

final_mean.weight f4 [8, 64]
00000000: 9ae5 eebd 8889 6a3d ff00 70bd 692f 0ebc
00000010: 5e5f 1abb 77f0 223b c7f8 60bd 9b03 5fbd
00000020: 96f5 143d 25ad b6bc 6634 89bd 7d19 be3c
00000030: 48a5 0c3d 2d45 56bc b5c0 023d 26dd 23bd
00000040: a526 54bd d6e9 233c dbeb 6c3d fc22 273c
00000050: 0a75 41bd 709e 363d 594b a73d a3fe 95bc
00000060: c48d 383d 6b7b 12bd 2da5 2aba e955 c7bc
00000070: 8f71 943d f72a 873d 89ce 2bbd c513 55bc
00000080: e3a1 66bd 1c36 613c e96d d9bc 2dc5 5cbd
00000090: 25e0 263d beae 91bd d1ad 3e3b f077 623c
000000a0: cd24 f23a 4894 143c 7949 423d bdeb 45bd
000000b0: 2074 e4bd 92f6 953d a99b 6d3c dc73 f4bd
000000c0: f520 34bd 7f4c 063d 1d71 563d b08c e23c
000000d0: 9b05 00be 1d30 253b 735a 44bd c776 23bc
000000e0: 4fc7 673c 734c 133d bc65 7a3d f43b 62bd
000000f0: 5599 67bd 1418 cdba d07b bc3c 9213 f23c
00000100: 98f7 e8bc ee1e 343d 74f0 8ebd f49a 15bc
00000110: 0b5f b8bd 4745 33bd fe11 86bc e580 1ebd
00000120: 3742 6d3c 1719 30bc 9890 0dbd f2f6 e0bc
00000130: 21b3 91bc 40c7 dbbd f1fd eabc 1964 9e3c
00000140: bab7 203d 574d 0dbd c5fc d5bd 703e d13c
00000150: 60f8 303d 959a 573d cb62 763d 1c13 27bd
00000160: 92c4 933d b104 1cbc 0461 c5bc effb ecbc
00000170: 4850 3abd 3b75 103d 6154 d63d 418e f7bd
00000180: 4b27 6b3c adbe ea3c 0070 a5bc c137 b53d
00000190: 8fd8 0cbd 089c 8bbd 79bd b03d ffe3 943d
000001a0: c982 4b3d 72e6 343d 7b8a eabd cdfc 0cbc
000001b0: 74a2 a3bc 4db3 40bd cd6b 6b3c 1160 ed3c
000001c0: 74ed 173c ed03 8a3d 2852 8e3d 0b52 1e3c
000001d0: e979 85bd e790 49bd 0000 293c f541 49bd
000001e0: 0024 82bb 0e29 ae3d f9df 8cbb daf1 423d
000001f0: 1b52 2c3d 55a3 203d 5566 f83b e6f1 333d
00000200: d60e ad3d 49a1 033d a8bd 573d 351f 21bd
00000210: 5e7c 7b3d b9bb 67bd 8a41 563d f407 763d
00000220: fa17 1fbd 82f2 5abd 8658 c73d f19b 06bc
00000230: f215 cf3d 2555 7fbd ccef 95bd fe2d 433d
00000240: e8f1 613d 9247 a53d 17a2 86bc f0b9 cb3c
00000250: 0a0d 21bd ddfd 03bd 6f2e 0dbd 0696 b13d
00000260: a3a8 3d3c bbcf 9cbc 8884 c4bd 05b7 c53c
00000270: 60ce e43c bed0 99bc 8cb2 89bd ee64 3f3c
00000280: 6e97 5a3c 8e6b 2fbd ebc4 903c 9671 cdbc
00000290: a012 f8bd d0e8 293d 3234 afbc a78c 453d
000002a0: 7008 4cbd 2514 233d 2f29 2f3d 70f6 e53c
000002b0: 9038 66bd a843 6bbc 50db d33d 3e50 63bc
000002c0: 0512 f03d da3c d1bd b18c 32bd 86ba bebc
000002d0: bbb7 563d 0fbb 1b3d b0b0 bb3d d9f9 cebc
000002e0: 87f6 72bc 9eab b7bc 68d8 35bd 61f6 ae3d
000002f0: 6757 23bd 2354 973d 3f0b 9f3d 8a6f 7cbc
00000300: cff7 fb3d 87e1 9abd 7efa 1e3c c18c 383d
00000310: 14d6 c83c 781f 46bd e7b3 a2bb 9686 a43d
00000320: 15a6 16bd 6287 e9bd d6c9 a8bd 03d2 46bb
00000330: 21ba ec3c 48a7 c7bd 0a0f 7dbc fc1d da3d
00000340: 1551 23bd c209 ec3c 1a37 8a3d bcca 80bd
00000350: 529e 15be 33aa 88bc fdcc 87bc 8d1d 83bd
00000360: 9eaa e43c dbc6 cd3c 3291 293d 0781 5d3c
00000370: f44c 0d3d 2a5f e23b 198b c33c cc8e 203d
00000380: 32e6 263a 027a 14bd 1692 f73b 4d23 bbbb
00000390: 8308 acbc 33a7 ab3d d381 db3d 2955 773d
000003a0: c29a 5f3d 536e 933d 5cb5 a23c 50f6 e2bb
000003b0: bbbc ebbc 9abd 6f3b 4f80 2a3d 4a8c 0c3d
000003c0: a48c fe3c 085c 59bb 9dd9 21bd f26b f2bc
000003d0: 260e 67bd a294 3938 74cd 8f3c fa2d 7e3d
000003e0: 3409 97bc 5d09 17bd 1192 c43c ac7d 073d
000003f0: e43c 16bd 45f5 023d ad56 c2bd b9ab 413d
-0.11664887 0.057260066 -0.0585947 -0.008678296 -0.0023555378 0.0024862566 -0.054924753 -0.054446798
0.03636702 -0.022299359 -0.06699447 0.023205513 0.034337312 -0.013078016 0.03192206 -0.040005825
-0.051794667 0.010004481 0.057842117 0.010201212 -0.047230758 0.04458469 0.08168668 -0.018309897
0.045057073 -0.03576223 -0.00065095985 -0.024332957 0.07248222 0.06599992 -0.041945014 -0.013005202
-0.05630673 0.013745811 -0.026541667 -0.05389898 0.040741105 -0.071134076 0.0029095302 0.013822541
0.0018474102 0.009068556 0.04743335 -0.04832052 -0.111549616 0.0732242 0.014502444 -0.11936161
-0.043976743 0.032787796 0.052353967 0.027654976 -0.12502138 0.002520568 -0.04793782 -0.009977049
0.01414664 0.03596158 0.061132178 -0.055232957 -0.056542713 -0.0015647435 0.023008257 0.029550347
-0.028438374 0.04397481 -0.069794565 -0.009131182 -0.09002503 -0.04376724 -0.016366001 -0.038697142
0.014481119 -0.010748169 -0.034561723 -0.027461503 -0.01778561 -0.10731363 -0.028685542 0.01933484
0.039237715 -0.034497585 -0.104486026 0.025542468 0.04320562 0.052637655 0.06015281 -0.04078971
0.07215227 -0.009522603 -0.024094112 -0.028928725 -0.04548672 0.03526805 0.10465313 -0.1208768
0.01435263 0.028655374 -0.020195007 0.08848525 -0.034386214 -0.0681687 0.08629889 0.07270049
0.049685273 0.044165082 -0.11452194 -0.008605194 -0.019974925 -0.047045995 0.014368963 0.028976472
0.009272922 0.0673903 0.06949264 0.009663115 -0.06517393 -0.049210455 0.010314941 -0.049135167
-0.0039715767 0.08503924 -0.0042991606 0.04759393 0.04207049 0.039218266 0.0075805583 0.043931864
0.08450095 0.032136235 0.052671105 -0.039336402 0.061397903 -0.05657551 0.052308597 0.06006618
-0.038841225 -0.05345393 0.097336814 -0.00821589 0.101116076 -0.06233706 -0.07321128 0.047651283
0.05516234 0.080702916 -0.016434712 0.024868935 -0.039319076 -0.032224525 -0.03446811 0.08671193
0.011575851 -0.019142022 -0.09595591 0.024135122 0.027930439 -0.018776294 -0.06723508 0.011681778
0.013341768 -0.04282718 0.017672023 -0.025078576 -0.121129274 0.041481793 -0.021387193 0.04822984
-0.049812734 0.039814133 0.042763885 0.028071612 -0.056206286 -0.014359392 0.10344565 -0.013874112
0.11722187 -0.10216685 -0.043591205 -0.0232823 0.052421313 0.03802019 0.0916456 -0.025265621
-0.0148292845 -0.0224207 -0.044395834 0.08543087 -0.039878275 0.07389095 0.07765817 -0.015407452
0.12303125 -0.07562547 0.009703277 0.04505611 0.024516143 -0.048369855 -0.0049652937 0.08033483
-0.036779482 -0.11402775 -0.08241622 -0.003033758 0.028897347 -0.09748703 -0.01544548 0.1065025
-0.039872248 0.028813247 0.06748791 -0.062886685 -0.14611176 -0.01668272 -0.016577238 -0.06402121
0.027913388 0.025119236 0.041398235 0.013519532 0.034497216 0.006908317 0.023870038 0.03919868
0.0006366699 -0.03624917 0.0075552566 -0.0057109953 -0.021000152 0.083815 0.107181214 0.06038395
0.054590948 0.07198777 0.01986187 -0.0069263354 -0.028776517 0.0036581517 0.04162627 0.034313478
0.031072922 -0.0033166427 -0.039514173 -0.029592488 -0.056409977 4.4245862e-05 0.017554022 0.062055565
-0.018437006 -0.036874164 0.023995431 0.033078834 -0.036679164 0.03197219 -0.09489188 0.047282908

final_mean.bias f4 [8]
00000000: be15 04bc 08db 12bc fcae 8e3d fe8a 49bc
00000010: dc52 41bd 8931 cd3d 4e82 8bbb 9bde 8d3d
-0.008061824 -0.008963354 0.06966969 -0.012301205 -0.04719816 0.10019214 -0.004257477 0.06927224

exp_avg f4 [64, 111]
00000000: e4c4 3f3a 0ea0 b2b8 d2a7 5639 b3bd 9839
00000010: b114 063a c975 0aba 0bfa a5b9 28d0 fd39
00000020: a69f 0a39 a7ee ff39 8f3d fe38 ca46 0c3a
00000030: 8204 1ab9 1e39 19b9 7c2f 95b9 7ca5 a8b9
00000040: b14f 3339 4006 5b39 2ade f239 9a58 b9b9
00000050: 74a8 9d38 0e45 4e39 31e5 9cb7 153a 5c39
00000060: 8440 ebb8 edb5 4c37 f63a 42b9 d48e 0fb8
00000070: 2207 c136 851f 12b8 ac5b e937 5587 0137
00000080: 8005 9436 bdf6 4737 5d38 55b8 91ca 01b6
00000090: 46ef 7037 0190 1537 9872 28b9 275f 72b7
000000a0: 1493 6536 7763 3ab6 127a 8fb5 85dc c5b6
000000b0: 980c 92b7 d56e c3b7 a3b0 c7b5 73af c437
000000c0: ddc6 c337 9376 8eb5 61ea 0938 cfd1 46b9
000000d0: 1dee 7139 3e14 0bb7 ca7d 7ab7 77ac 4638
000000e0: 27d4 71b9 77e5 24b7 bd93 e5b7 4f8c 6138
000000f0: 4fcc a937 bd0f 2a37 fc4a 9b36 b499 11b7
00000100: 1910 5eb7 25da acb6 2a06 ffb7 fbbf e437
00000110: 595f 9537 b980 ac38 0602 8fb8 af22 6837
00000120: 1c2f 1738 4e0a 99b8 ec87 a7b8 e18e eb36
00000130: 2c8e 39b7 6226 2ab8 e1d2 af37 5d14 7eb7
00000140: 64e0 e836 45a3 4fb7 09fa 1638 d711 5434
00000150: e37f d636 59c1 10b8 8cf8 b3b7 eaff 4838
00000160: 3909 31b9 ee35 e0b9 1514 9db9 e625 13b9
00000170: b1fe 12b7 f4d2 6937 76a7 c9b7 d268 a1b7
00000180: a95e 95b6 baa1 dc37 bb72 dbb7 7931 1e38
00000190: 0552 a0b7 74ee 0a38 1350 92b7 71fe 1437
000001a0: 200b d836 90f4 f337 ad1d 8937 2dfc 4738
000001b0: 7f31 f537 55bd 2835 25f3 39b8 31e4 2ab9
000001c0: 9dcc 25b8 d44a e3b7 9e69 9eb6 9ed7 d339
000001d0: 139c 2c39 ee72 3bb8 2791 46b8 eb1d 0639
000001e0: b806 6db9 251b 8a38 426d 3439 e6f4 0539
000001f0: 64b7 3239 50bf 9338 c9d1 7e39 ae40 9b39
00000200: 14ef 9c39 668e 0038 2026 c4b8 a1ca 79b8
00000210: 15b9 e738 df00 dd38 2704 0639 aa80 6237
00000220: a3ef b438 d191 acb8 4be9 8eb7 d487 b536
00000230: 18a3 8b36 eca8 2636 b996 5c36 8e5e b037
00000240: db4a 94b6 bec6 9f37 633f 69b6 54e9 49b8
00000250: 8f37 8237 ad37 98b7 a5be 12b8 9796 0937
00000260: c0ee 7436 a5e3 0336 b31a c337 4d21 e4b7
00000270: 1b16 c3b7 a1eb 8337 45c2 5337 8106 1537
00000280: be52 1b37 6fd9 d2b6 4bf5 d6b8 c228 8938
00000290: 86a9 8438 05df 23b9 46d4 0bb8 a239 c5b8
000002a0: 0b1c 1938 1814 ba37 ed84 5138 a7a8 8bb7
000002b0: 8c72 dcb7 ef8f dcb7 9d74 1438 a520 2c37
000002c0: f27b 3cb7 efeb 1137 20bf eb37 3c55 1a37
000002d0: 75e9 ce38 e6c8 dd38 2aa5 4038 3bcb 2bb8
000002e0: f9f9 7936 484d a638 e23e 0437 14da b937
000002f0: 28af a136 f037 1e37 2f27 a8b7 6b81 f036
00000300: abaf 9f37 bc04 bab5 3a41 4eb7 289d 08b7
00000310: e93b e336 b08c 3ab7 a6ff 43b9 1dbf 3bb9
00000320: 3461 0db8 3fe9 2bb8 4b59 b339 e365 3239
00000330: 4242 fcb7 0ce9 0bb8 2563 e337 07d1 6435
00000340: e811 7136 407f 6436 dc2f b937 0259 76b6
00000350: 15d1 6f35 5ac3 8537 1862 5638 fe60 4b37
00000360: efdf a2b7 7f7d 3bb8 f9b2 dfb8 2e09 27b8
00000370: d529 a9b8 cd6f a938 0bc6 f839 8355 51b9
00000380: 79d0 8839 9ef6 4c39 70dc 30b9 1b77 b2b9
00000390: 480a 2e38 01fa 413a e3c2 69b9 d8ca de39
000003a0: 75ca 42b6 91a6 8239 6fc2 b4b9 3ddd 08ba
000003b0: fd48 9bb8 84d8 6cb7 7868 a2b9 1a26 fdb9
000003c0: a01c 073a 0d0d 8bb8 be78 3ab8 b36f 15b9
000003d0: aa99 0bb7 fda8 d0b9 d096 e8b7 b92b c7b8
000003e0: a878 ba39 2c18 02b8 a284 6a37 b65f e3b8
000003f0: ca52 37b8 9ac2 fa36 60dc d736 8491 b138
0.0007315411 -8.517514e-05 0.00020471148 0.00029133036 0.00051147776 -0.00052818336 -0.0003165755 0.0004841101
0.00013220179 0.000488152 0.0001212313 0.00053511246 -0.00014688264 -0.00014612495 -0.00028454873 -0.00032166752
0.00017100458 0.00020887796 0.00046323362 -0.00035351963 7.51772e-05 0.00019671416 -1.8703375e-05 0.00021002472
-0.0001121769 1.2201705e-05 -0.00018523246 -3.4226876e-05 5.7526786e-06 -3.4838467e-05 2.7818453e-05 7.720509e-06
4.411384e-06 1.19187725e-05 -5.083565e-05 -1.9340407e-06 1.4360825e-05 8.914621e-06 -0.00016064418 -1.4446478e-05
3.420927e-06 -2.7774056e-06 -1.0689857e-06 -5.8967294e-06 -1.741042e-05 -2.3297422e-05 -1.4878063e-06 2.344672e-05
2.3338414e-05 -1.0614334e-06 3.2881628e-05 -0.00018960911 0.00023072255 -8.289759e-06 -1.4930449e-05 4.73675e-05
-0.00023062584 -9.828588e-06 -2.7367723e-05 5.3774853e-05 2.0241509e-05 1.0136454e-05 4.6280893e-06 -8.67846e-06
-1.3235979e-05 -5.151395e-06 -3.040124e-05 2.7269116e-05 1.7806584e-05 8.2255756e-05 -6.819148e-05 1.3836353e-05
3.604508e-05 -7.297528e-05 -7.988498e-05 7.020179e-06 -1.1059961e-05 -4.0566905e-05 2.0959824e-05 -1.5144321e-05
6.9402613e-06 -1.2376176e-05 3.599565e-05 1.9750529e-07 6.392585e-06 -3.4512344e-05 -2.1454201e-05 4.7922054e-05
-0.00016883471 -0.0004276479 -0.00029960336 -0.0001403313 -8.761578e-06 1.3936999e-05 -2.4039047e-05 -1.9241506e-05
-4.451566e-06 2.6301354e-05 -2.616026e-05 3.771621e-05 -1.911168e-05 3.312384e-05 -1.7441844e-05 8.880729e-06
6.4385968e-06 2.908174e-05 1.6345492e-05 4.7680154e-05 2.9229324e-05 6.286039e-07 -4.4333883e-05 -0.00016297471
-3.9529627e-05 -2.7095353e-05 -4.7210624e-06 0.00040405703 0.0001646134 -4.469131e-05 -4.7342062e-05 0.00012790381
-0.00022604584 6.585409e-05 0.0001720684 0.000127751 0.00017043721 7.045141e-05 0.00024301479 0.00029612094
0.00029932766 3.0650197e-05 -9.3531096e-05 -5.955494e-05 0.000110494126 0.000105382635 0.00012780783 1.3500607e-05
8.627705e-05 -8.2287595e-05 -1.7036355e-05 5.410033e-06 4.1615094e-06 2.4834253e-06 3.2870287e-06 2.1024865e-05
-4.419458e-06 1.9046824e-05 -3.4756602e-06 -4.8139438e-05 1.552308e-05 -1.8145738e-05 -3.4986664e-05 8.200898e-06
3.6497804e-06 1.9653028e-06 2.3258244e-05 -2.7195225e-05 -2.3256105e-05 1.572614e-05 1.2621812e-05 8.882606e-06
9.257985e-06 -6.2838003e-06 -0.000102500046 6.540261e-05 6.325827e-05 -0.00015627973 -3.3337878e-05 -9.404427e-05
3.650416e-05 2.2182285e-05 4.995328e-05 -1.6648626e-05 -2.6279384e-05 -2.6293068e-05 3.5394554e-05 1.02596e-05
-1.12345315e-05 8.697606e-06 2.8103183e-05 9.1989605e-06 9.86633e-05 0.000105755214 4.593019e-05 -4.095885e-05
3.7249395e-06 7.9298916e-05 7.882454e-06 2.215527e-05 4.818565e-06 9.430558e-06 -2.0045407e-05 7.1676236e-06
1.9036079e-05 -1.3859458e-06 -1.2293744e-05 -8.1428225e-06 6.7721016e-06 -1.111922e-05 -0.00018691886 -0.00017904905
-3.3707547e-05 -4.0986804e-05 0.0003420807 0.00017013359 -3.0071595e-05 -3.3357224e-05 2.7106676e-05 8.5240794e-07
3.5922221e-06 3.4048717e-06 2.2076005e-05 -3.6708666e-06 8.933869e-07 1.5945803e-05 5.1112933e-05 1.2122326e-05
-1.9416182e-05 -4.470115e-05 -0.00010666805 -3.9824452e-05 -8.06634e-05 8.0793725e-05 0.000474498 -0.00019963649
0.00026095266 0.00019546828 -0.00016866787 -0.00034039546 4.1494408e-05 0.0007399619 -0.00022293213 0.0004249427
-2.9026098e-06 0.00024919634 -0.0003447714 -0.00052209554 -7.404571e-05 -1.4117108e-05 -0.00030976883 -0.00048284308
0.0005154107 -6.6304674e-05 -4.4458306e-05 -0.00014251359 -8.320823e-06 -0.00039798758 -2.7726783e-05 -9.4972034e-05
0.0003556658 -3.1016927e-05 1.3978368e-05 -0.00010842031 -4.3707703e-05 7.473235e-06 6.4331543e-06 8.467122e-05
