src/models/atla_release/ATLA-PPO/model-atla-ppo-hopper.model (torch_old, 273626 bytes, 72 tensors)

affine_layers.0.weight f4 [64, 11]
000000 4a 09 f2 be fe d3 a0 be 50 ee 1a 3f 7d 2f 22 3f
       -0.47272712 -0.31411737 0.60519886 0.6335371
000010 49 90 8e 3e fc 00 c5 be db a2 87 3e 81 67 de 3d
       0.27844456 -0.38477314 0.26491436 0.108595856
000020 9f 91 cc bc f8 61 bd 3d 00 c2 78 3e 00 63 10 bd
       -0.024971781 0.09247202 0.24292755 -0.035250664
000030 3d c7 1e be 03 ba a7 be 75 73 0d be 14 c1 18 3e
       -0.15505691 -0.32759103 -0.13813575 0.14917403
000040 3c 2f c5 3d f0 a7 f8 3d 67 e0 1c 3d d8 31 83 bd
       0.0962815 0.121414065 0.038299944 -0.06405991
000050 50 06 f1 3d 79 70 9a be 0a 97 cd 3e 41 90 8c bd
       0.11768782 -0.30163935 0.40154296 -0.06863452
000060 09 9c 82 3e a5 c5 02 3e e2 63 57 be 68 ce 4d be
       0.2550967 0.12770708 -0.21034196 -0.20098269
000070 d7 99 27 3e e3 30 25 3e 30 47 e3 bd 40 3c 40 be
       0.16367279 0.1613193 -0.11097562 -0.18772984
000080 dd 27 4e bd ce 44 6e 3d 8e e3 d1 bd be 45 1a 3e
       -0.050330985 0.058171086 -0.10248481 0.15065667
000090 3d bc 9a 3e 4f 0f a3 be ef 31 f4 be 69 97 22 3e
       0.3022174 -0.31847617 -0.47694346 0.15878071
0000a0 4f f6 af 3d ff a5 f1 bd 0c d9 7e 3c e8 a9 22 3d
       0.085919015 -0.11799239 0.015554678 0.039712816
0000b0 28 b2 82 3d 42 29 45 be 7f 56 58 3e ba e1 ce 3e
       0.06381637 -0.1925402 0.21126746 0.4040659
0000c0 20 2f a5 3e 03 c2 52 be 3c 6d 83 3d 66 fd f2 bc
       0.32262516 -0.20581822 0.06417319 -0.029661845
0000d0 97 ee 77 3d 3d 03 77 3e 4f 50 a1 3d cf ec 15 be
       0.06053027 0.24122329 0.07876646 -0.14641117
0000e0 98 2f cb be 39 02 6e 3f 78 8c 1c 3f 1d 08 6d 3e
       -0.3968475 0.9297214 0.6115184 0.23147626
0000f0 a0 0b a2 3d 64 be fa 3d 05 46 e2 bc d3 ff 59 bb
       0.079123735 0.122433454 -0.027621279 -0.0033264055
000100 ef 4b a4 3b 72 70 66 3d 99 66 24 3e 45 ba 90 bd
       0.005013935 0.05625958 0.16054763 -0.07066778
000110 98 5f d4 3d 07 69 60 3e e7 85 81 3d 41 8e ff bc
       0.103697956 0.21915065 0.06324368 -0.031195762
000120 d0 78 97 3e 9f 72 47 bd 99 98 02 3e 0d 66 f5 3d
       0.2958436 -0.048693296 0.12753524 0.11982355
000130 4d 05 fa bd 49 94 86 bd 3d c9 e0 be 1d 2f ff 3e
       -0.12208042 -0.06571252 -0.43903533 0.49840632
000140 97 a9 e4 3e 6a 55 ee 3e 80 28 34 be 1e 37 96 bc
       0.44660637 0.4654954 -0.17593575 -0.018336829
000150 51 65 cd 3d d3 c0 c3 bd 1f 2f fa bd b2 95 64 be
       0.1002909 -0.09558263 -0.12216019 -0.22322729
000160 d8 3c 87 3e 2d 02 87 3e e2 61 14 bf a1 80 8b be
       0.26413608 0.26368847 -0.5796186 -0.27246574
000170 c6 14 02 be 49 6a d3 bd 90 a8 96 3e 42 22 bd 3d
       -0.12703237 -0.10323007 0.29425478 0.0923505
000180 fd b1 33 be e8 a5 d1 bd 48 fe b5 3c 90 da c5 be
       -0.17548366 -0.10236722 0.022215977 -0.38643312
000190 3b d6 0b 3d 41 7b c8 3e 7f 1b 5d 3e e7 bc 36 bf
       0.034139853 0.39156535 0.2159252 -0.7138199
0001a0 c6 b7 98 3c 46 ab a6 3d ea c6 2c 3e a6 5a 20 be
       0.018642318 0.081381366 0.16872755 -0.1565958
0001b0 62 59 a7 3d 3b 1c 19 bc 7d bf ac bd 83 a9 95 bd
       0.08171345 -0.00934511 -0.08434961 -0.073077224
0001c0 5a 06 df 3d 3b aa ba 3e 18 52 83 3e 6b b8 a8 be
       0.10889883 0.36458 0.2564857 -0.329532
0001d0 58 80 cb 3c 5d 71 5c 3e 6b 44 14 be b9 9c 27 be
       0.024841473 0.2152762 -0.14479224 -0.16368379
0001e0 5c 89 53 be 1f 2f 09 be 07 cc 26 3e a4 2a 34 3e
       -0.20657867 -0.13396882 0.16288768 0.17594391
0001f0 a9 73 66 be c2 01 90 3b 6f 1f 21 3c 67 b1 60 be
       -0.22505058 0.004394741 0.0098341545 -0.21942674
000200 56 61 5f 3d 04 a6 94 3d aa c4 2f 3e bd 13 1c 3c
       0.054536186 0.072582275 0.17164865 0.00952619
000210 17 78 02 3e c5 f6 b3 bb 35 95 0d bf 38 ed 92 be
       0.12741123 -0.0054920637 -0.55305797 -0.2869661
000220 ac 2d f9 be c3 f6 13 be b5 1c ed 3e ab e2 c1 3c
       -0.48667657 -0.14449601 0.46310964 0.023667654
000230 5c c0 87 bd 63 79 74 3c 65 62 cd bd a7 64 6b 3e
       -0.066284865 0.014921519 -0.10028533 0.22987615
000240 6c ec 46 be a4 08 10 3e d4 a9 2f 3e 45 05 c4 bd
       -0.19426125 0.14065796 0.17154628 -0.095713176
000250 09 50 ba bd e0 69 56 be fb 2a b9 be dd b9 c3 3e
       -0.09097297 -0.20938826 -0.36165604 0.3822774
000260 aa 88 02 3f 73 2c b6 3e d0 5f 40 3d 8c 25 98 3e
       0.5098978 0.35580787 0.046966374 0.29716146
000270 82 f5 93 be 31 2b 81 be 07 c7 30 3e 07 90 e9 3e
       -0.28898245 -0.25228265 0.17263423 0.45617697
000280 1e da 31 be a9 f3 6e 3d 57 be a0 3c 9f b7 7b be
       -0.17368361 0.05833784 0.019622011 -0.24581765
000290 38 c4 a9 bc 1c 3b a2 bd b3 fe 82 3d 7d a2 50 be
       -0.020723447 -0.079214305 0.06396236 -0.20374484
0002a0 5b 30 05 bf 6b 99 52 3e 0f 1d d4 bd ca 62 60 be
       -0.5202691 0.20566337 -0.10357105 -0.21912685
0002b0 51 c4 f0 bc b0 27 e0 bd 6c f5 1c be 36 7a 6e 3e
       -0.029390486 -0.1094507 -0.15327996 0.23288807
0002c0 46 43 89 be f2 f0 cb bd 95 6f d7 3e 20 ad ed 3e
       -0.26809138 -0.09958066 0.42077318 0.46421146
0002d0 6d 83 e4 3d 66 67 26 be 80 9b 17 3e b7 a2 59 bc
       0.1115788 -0.16250381 0.14805412 -0.013283423
0002e0 f6 6f ac 3d 23 fa 8b 3e c0 0e 27 3d 3c f4 e3 bd
       0.08419792 0.27339277 0.04078555 -0.111305684
0002f0 96 3e 0e bd 85 5f 4c be 7e 7b 2b be 86 d1 35 bd
       -0.034727655 -0.19958313 -0.16746327 -0.04438927
000300 ea 8f e9 bd 58 61 9b be 9e 01 cb bb f1 f0 94 3c
       -0.114044026 -0.30347705 -0.006195261 0.018181296
000310 db 3f f7 3c 7a 6a b8 bb 34 b3 8b 3d 0b 08 56 3e
       0.030181816 -0.0056279274 0.0682129 0.20901506
000320 50 39 e1 be 95 4c 83 be 7a 2e da bd 37 73 c6 bd
       -0.43989038 -0.25644365 -0.10653396 -0.09689944
000330 4e 16 71 be 7b 10 36 3e f3 0b d7 bd ec c7 4b bd
       -0.23543665 0.17779724 -0.10500326 -0.049751207
000340 fc 6d 1d be af da 3f 3e 5c b8 b5 3d 48 8f f2 3d
       -0.15373987 0.18735765 0.088730544 0.11843735
000350 b3 56 05 3e ef e2 02 3e 40 db 44 3e 6a c5 14 3e
       0.13021354 0.12781881 0.19224262 0.14528432
000360 5e 49 6c be ce ef 57 3e 68 5c 84 3e 1d e8 81 bd
       -0.23074862 0.21087572 0.2585175 -0.063431
000370 32 0c db 3d 3f 95 ea bd 31 82 e4 3b f0 a7 fe 3d
       0.106956854 -0.11454248 0.006973528 0.12434375
000380 ab 8c 9a 3d b7 18 cd be d8 54 dd 3d 9b 08 dc bc
       0.075463615 -0.40057918 0.10807198 -0.026859572
000390 1d 51 5a bd 64 b6 e5 3d 42 e2 94 3c 2e d0 c4 3e
       -0.053300012 0.11216429 0.018174294 0.38440078
0003a0 e4 a2 56 bc 36 48 6c 3f 36 d8 b3 3e f2 84 8a 3d
       -0.01310036 0.92297685 0.35125893 0.067636386
0003b0 fb d7 42 be ef b0 47 be 01 b9 59 bd d4 e0 2a 3d
       -0.19027703 -0.19501089 -0.05315495 0.04171832
0003c0 67 5e 95 3e 9c 04 93 3b 49 c6 00 bd c1 cf 2b 3d
       0.29173586 0.0044866335 -0.0314391 0.041946176
0003d0 f4 fa 55 3d 04 82 9a 3e 87 a2 87 3e e6 06 6d bf
       0.05224128 0.3017732 0.26491186 -0.9258865
0003e0 c8 5b fd 3e 74 8a ea be 64 50 f7 3e 8f a9 2a 3f
       0.49484086 -0.45808756 0.4830352 0.66664976
0003f0 10 28 b1 3e d9 df c1 bd 8d 5a 91 3d c3 9c 0d bd
       0.34600878 -0.09466524 0.07097349 -0.034573328

affine_layers.0.bias f4 [64]
000000 de af 4d 3f 23 a2 cb bc f4 98 5c bf 3c 64 da be
       0.8034648 -0.024857586 -0.8617089 -0.42654598
000010 e5 68 76 3f 5b 3a 8a bd d7 34 4d bf b4 97 fa 3d
       0.96253806 -0.06749412 -0.8015875 0.12235966
000020 6d 34 58 3d d1 83 d9 be 4b 44 4e 3e c7 5b 6c 3f
       0.052784372 -0.4248338 0.20143239 0.9232754
000030 bd 58 71 be 11 0a eb be 98 a1 03 3f 53 48 22 3f
       -0.23569007 -0.45906118 0.5141845 0.6339161
000040 27 18 02 3f ca 76 02 bf fd 6e 7a 3f 69 cc 1c bf
       0.50818104 -0.5096251 0.97825605 -0.61249405
000050 dd 65 8c 3e e5 a7 39 3e d4 d9 80 3d 9d 78 3f 3f
       0.27421466 0.18130453 0.062915474 0.74793416
000060 be 9d 7e 3f fd 89 bc 3e 2b e8 07 3f ea a6 91 3f
       0.99459445 0.36824027 0.53088635 1.1379063
000070 b6 3d 4d 3f dc 56 e6 3e 2f b0 b8 3e b7 df 2b be
       0.8017229 0.44988143 0.36071917 -0.16784559
000080 c5 bc 07 bd 19 1d 81 3f f2 25 3e be 3a e0 0c bf
       -0.03313901 1.0087005 -0.18569162 -0.5502964
000090 8e 64 be 3e f5 2e 71 bd f6 cd 1b 3e fa ae b6 3e
       0.37186092 -0.058882672 0.15215287 0.35680372
0000a0 fb 57 5d 3f 85 e9 1d bf 55 8d c7 bd 9a 80 d2 be
       0.8646237 -0.6168445 -0.09743754 -0.4111374
0000b0 e2 98 45 bf 5a 47 40 bf f0 ce 85 3f 28 6b c2 3d
       -0.77186406 -0.75108874 1.0453777 0.09493095
0000c0 7b 98 55 3f a5 5e 50 bf 73 7c c0 be 91 09 a0 3e
       0.8343579 -0.81394416 -0.37594947 0.312573
0000d0 4b f6 9a be 38 88 bc 3e 01 ff 5f be d6 54 0f be
       -0.30266032 0.36822677 -0.2187462 -0.13997206
0000e0 b7 78 84 bd bb 5c 5b bf 33 1e 48 bc 9b e4 57 3f
       -0.06468337 -0.8568837 -0.012214231 0.843332
0000f0 cd 6a 82 bf 3a 2d 96 3e 54 88 3d 3e 96 8a 3e be
       -1.0188843 0.2933138 0.18509036 -0.18607554

affine_layers.1.weight f4 [64, 64]
000000 9f 17 bc be 30 98 ac bd 41 71 50 3e ad 5d 06 be
       -0.3673677 -0.08427465 0.20355703 -0.13121672
000010 8f 43 29 3e 2a 92 07 be 3c ab a3 bd fa 92 b8 3d
       0.16529678 -0.13239351 -0.07991645 0.090124086
000020 3f 3c 6b bd 9f de 9f bd 5c 3e ab 3e 7f 38 6a 3e
       -0.057430502 -0.078061335 0.33446014 0.22873114
000030 77 2d b5 3e cc 18 19 be c4 c7 db 3d f5 a2 6a 3e
       0.3538625 -0.14950866 0.10731462 0.22913726
000040 d3 d4 5a be 3c 73 90 bd 54 23 06 3f b2 7f 2c bd
       -0.21370248 -0.07053229 0.52397656 -0.042113967
000050 63 35 ea be e1 90 9d be 14 67 ae be be 80 96 3e
       -0.45743856 -0.30774596 -0.34063017 0.29395097
000060 72 1e 45 3e 4f bf 5d 3e 24 7d 4c 3e e8 a0 6d bd
       0.19249895 0.2165501 0.19969612 -0.05801478
000070 26 8e f9 bd 31 5e a9 3e 9e b5 ec be 08 52 68 3d
       -0.12185316 0.33079675 -0.46232313 0.056718856
000080 2d 0e 3a bc 9d 87 92 3d e2 0d 82 3e 12 46 41 be
       -0.011355919 0.071547724 0.25401217 -0.18874386
000090 e3 a8 18 3e 70 1f 97 3e 29 1c 0b bc 5e 08 27 3f
       0.14908175 0.29516172 -0.008490601 0.6524714
0000a0 de 95 56 bc ac ee ee bd ed 85 5f 3d 80 c3 95 be
       -0.013097255 -0.11666617 0.05457108 -0.29250717
0000b0 03 9f 29 be 36 87 93 3e 93 4b 36 3e cc 5f fd bd
       -0.16564564 0.28814095 0.17802267 -0.123717874
0000c0 e5 67 a2 bc c0 be af be 99 3e 1a be 14 42 9b bd
       -0.019824931 -0.34325218 -0.15062942 -0.07580963
0000d0 85 8d 94 3e 21 0b b2 bd 3b fb da bd 01 39 5e 3e
       0.2901422 -0.08693529 -0.1069245 0.21701433
0000e0 df 92 dc bd d3 8b c7 be a0 47 97 be 04 5d 11 3d
       -0.10770201 -0.38973865 -0.29546833 0.035489097
0000f0 2c 84 bc bd 1a d4 38 bd 3e e0 ea bd ba d7 3a be
       -0.09204897 -0.04512415 -0.11468552 -0.18246356
000100 1b 39 bc 3e 78 57 61 bd fc 01 35 3e 70 b3 a9 bd
       0.36762318 -0.055015057 0.17676538 -0.08286178
000110 d1 e4 61 bd 93 d2 c8 3d 1d 8c 47 3e de 0e 12 3f
       -0.055149857 0.09805789 0.19487043 0.57053936
000120 39 5a 9a be 31 8d 11 bf e4 bc 33 be de bc c9 3d
       -0.3014696 -0.56856066 -0.17552525 0.09850477
000130 2d 43 34 3d c5 e8 27 be 0b 05 49 3e 88 66 02 be
       0.044009376 -0.16397388 0.1963083 -0.12734425
000140 bb 86 1c 3d 8d 82 f7 bb 76 6c b0 3d 00 37 12 bd
       0.038214426 -0.0075534047 0.08614437 -0.035696983
000150 e0 a5 de 3d 68 f1 c2 3d 8c 63 fb 3d b3 56 ba bd
       0.10871482 0.09518701 0.122748464 -0.09098568
000160 04 66 01 3e ae 18 ca 3d d5 75 4b 3e 69 9b f1 3e
       0.12636572 0.098679885 0.19869168 0.4718888
000170 1e ae 5a 3d c8 8f 7a be 64 0e cc 3d ad e4 ff 3d
       0.053388707 -0.2446891 0.09963682 0.12494788
000180 26 02 c0 be 0c 63 32 be e9 6b f3 3e f4 77 71 3e
       -0.3750164 -0.17420596 0.47543266 0.23580915
000190 56 75 3c 3e 0d 63 f4 be 85 7b 26 3d 34 4b 43 3e
       0.18404135 -0.4773182 0.04064514 0.19071656
0001a0 b3 17 8f bd 9b a3 a8 be 59 74 c5 3e ff b9 02 3e
       -0.06986942 -0.3293732 0.3856533 0.12766264
0001b0 ee c8 e5 3e b7 fd 9d 3e 9c cf 3f be 1a c3 fa 3e
       0.4487986 0.30857632 -0.1873154 0.48976976
0001c0 69 5d 61 3d 9a dc 86 3c 33 d8 ce be 83 72 9f 3d
       0.055020723 0.016462613 -0.40399322 0.07785513
0001d0 c9 27 5e be 0c d5 53 be 82 c3 f6 bc 18 e2 77 3e
       -0.21694864 -0.2068674 -0.030122522 0.24207342
0001e0 62 77 d8 bd 76 89 23 be 80 57 36 bd 56 ba f0 bc
       -0.105696455 -0.15970406 -0.04451704 -0.029385727
0001f0 bb b4 d6 3c 63 d0 2d 3e 0a 58 f7 3c 11 5c d3 bc
       0.026209226 0.16974024 0.030193347 -0.025800737
000200 d0 5d 92 3e e5 82 45 3e 1f 8a b1 3e 94 2a 34 be
       0.28587198 0.19288214 0.3467569 -0.17594367
000210 73 6e 11 3f 5c 0b ba 3e a3 d2 7c be 33 b1 b5 bd
       0.5680916 0.36336792 -0.24689727 -0.08871689
000220 00 ca b6 be 80 b4 ce bd 7f 63 3c 3e 5d a8 12 3d
       -0.3570099 -0.100930214 0.1839733 0.035805095
000230 a5 70 68 be 80 80 79 3e 5b 03 47 3e 16 50 e0 bd
       -0.2269922 0.24365425 0.19434874 -0.10952775
000240 57 2b 13 3e 68 17 a3 3e 8f a8 42 3a 82 6a f6 bd
       0.14372002 0.31853795 0.000742563 -0.120320335
000250 f3 53 f3 3e 06 52 8e 3e 4f 1a b1 3e 05 37 2c be
       0.47524986 0.27796954 0.34590384 -0.16817863
000260 20 6a 0b 3c a5 75 a5 3d e4 b2 88 3d 9e ec 37 3f
       0.008509189 0.080790795 0.06674746 0.71845424
000270 ce 95 8b be 2e 6a d9 be d9 46 88 3e b5 4c c0 be
       -0.2726273 -0.4246382 0.26616552 -0.37558523
000280 85 0d 6c be 6c dc 7a 3e 1a b7 10 3f ae 86 ca be
       -0.23052032 0.24498147 0.5652939 -0.39555877
000290 46 ac 50 be 35 04 1d bd 7b ca ea 3e 7b ab b9 be
       -0.20378217 -0.03833409 0.45857605 -0.36263642
0002a0 3f a9 15 3f 6e c1 88 bd 68 fb aa 3c a7 04 a7 3d
       0.58461374 -0.06677519 0.020871833 0.08155184
0002b0 af df a9 bc 98 92 25 be 77 41 ad bc b0 47 c7 be
       -0.020736543 -0.16169202 -0.02114938 -0.3892188
0002c0 1d ab 81 bc 35 2e 49 3d f7 f2 95 be d6 96 22 3e
       -0.015828663 0.049116332 -0.2928693 0.15877852
0002d0 05 9a c3 be 52 28 bf bc 58 23 1b 3e bf ae ec bd
       -0.38203445 -0.023334656 0.15150201 -0.11556768
0002e0 59 7a 76 be b1 06 73 be 06 2d ad 3e 54 8d 33 bb
       -0.2407011 -0.23733021 0.33823413 -0.002739747
0002f0 f1 ce f3 bd 84 b1 c9 bd 08 e2 6f be 07 49 39 be
       -0.11904705 -0.098483115 -0.23426068 -0.18094264
000300 e3 52 99 be cc 44 51 3b 43 02 2f 3e 59 c8 fa bd
       -0.2994605 0.0031931875 0.17090707 -0.122452445
000310 40 d7 e9 be c0 b1 1d be 15 ea 6c bd 49 03 9c be
       -0.45672035 -0.15399837 -0.057840426 -0.30471256
000320 11 fd af be d1 4e 18 bd 41 82 14 be c4 f7 50 3e
       -0.34372762 -0.03718454 -0.14502813 0.20407015
000330 99 4d 6c 3d 92 54 54 be 48 b8 8b 3e 9e 03 d1 bd
       0.05769119 -0.20735386 0.27289033 -0.10205768
000340 e2 95 12 3e 43 0e c4 bd dd 7e 27 be 70 1c 20 bd
       0.14314988 -0.09573033 -0.16356988 -0.03908962
000350 41 5a 08 bd 12 9b 9a be 2a 64 d8 be 5f b7 14 be
       -0.033289198 -0.30196434 -0.4226392 -0.14523076
000360 0a ab 2b be 47 21 78 3d 60 37 34 3e 89 9c 1c bf
       -0.16764465 0.06057861 0.17599249 -0.61176354
000370 b7 84 ae bd 61 34 ac 3d 38 f4 b3 be 7c 29 be 3e
       -0.08521407 0.08408428 -0.35147262 0.37141025
000380 19 9e 8d 3e 54 b7 d7 be ea e0 d4 be 7d 2b 62 3d
       0.2765968 -0.42132056 -0.41577846 0.055217255
000390 fe b8 82 3e 40 a8 29 bd c6 ed 46 3e de c9 39 3e
       0.25531763 -0.04142022 0.19426641 0.18143412
0003a0 63 4a 3e bf 3b a3 84 3e ae 75 86 be d1 11 0b be
       -0.74332255 0.25905785 -0.26261657 -0.13581015
0003b0 32 9d e5 bd fc fc 10 3e a2 eb 7b be 27 0d c6 3d
       -0.11211623 0.14159006 -0.24601606 0.09670477
0003c0 d9 4f 25 be f0 27 a2 3a e0 ef 0e bc 9f 02 05 bf
       -0.1614374 0.0012371521 -0.008724183 -0.51957124
0003d0 01 d7 0c 3f 53 19 7b bc 83 e2 9a be 5f 6f fa bc
       0.5501557 -0.015325862 -0.3025094 -0.030570684
0003e0 31 ca 34 3e 6f d7 9f 3e 54 52 81 3e 7b 39 0a 3d
       0.17655255 0.3121905 0.25258124 0.033746224
0003f0 ac bf 2b 3e 09 c0 b7 3d ef a8 18 3d 6c 0d b3 be
       0.16772336 0.08972175 0.037270483 -0.34971178

affine_layers.1.bias f4 [64]
000000 03 55 30 be df e7 85 be 19 c2 12 be c8 0a 68 be
       -0.1721993 -0.26153466 -0.14331855 -0.22660363
000010 de 5d 81 bd 09 83 82 3e bc 16 6b be f1 59 47 be
       -0.06316732 0.25490597 -0.22957891 -0.19467904
000020 b8 94 56 be f6 15 6f be 2e 99 73 be 8d d2 87 bd
       -0.20955169 -0.23348221 -0.23788902 -0.06631956
000030 3d bf a6 bd 6b 29 89 be cf 11 67 be 96 16 c2 3d
       -0.081419446 -0.26789412 -0.22565387 0.09476964
000040 ba 5f 61 3e b4 89 13 be 52 ae 83 be 29 d2 1f 3e
       0.22009173 -0.14407998 -0.25718933 0.15607513
000050 60 9c 23 be 26 26 7b 3d 1c 0f 87 3d 66 ec 6e be
       -0.15977621 0.061315678 0.06594679 -0.23332366
000060 8a 0a 4e 3e 6c 65 83 be 6f 1a 26 be 17 c2 27 be
       0.20121208 -0.25663316 -0.16221021 -0.16382633
000070 6a e1 20 be e9 ef 0e be 2a 09 f3 3c 46 7f c8 be
       -0.15710989 -0.13958706 0.029667456 -0.39159602
000080 55 b3 37 be 19 99 a5 be 36 30 8b be b0 33 20 be
       -0.17939503 -0.32343367 -0.2718522 -0.15644717
000090 01 4d 70 be 00 39 c5 be c5 9a 30 be 6c bb 82 be
       -0.23466875 -0.3852005 -0.1724654 -0.25533617
0000a0 05 82 36 3e f9 bf 7f be d5 2c 8f be d1 78 4f be
       0.17823036 -0.24975576 -0.27963892 -0.20260932
0000b0 29 8e 1f be f0 d7 a4 be b2 d6 2f 3e d8 80 33 3e
       -0.15581574 -0.32195997 0.17171744 0.17529619
0000c0 9a 81 4e be db ca 19 3e 90 79 8d be 57 6c 5f be
       -0.20166627 0.1501879 -0.27631807 -0.21818672
0000d0 fc ba 9f bc c9 79 43 3e d3 6d c3 3e a7 50 36 3e
       -0.01949834 0.19089426 0.38169727 0.17804204
0000e0 c0 02 a8 be 9b 7b c0 be e4 62 f7 3d 0d 7d 9f 3d
       -0.32814598 -0.37594303 0.12079409 0.077875234
0000f0 a5 95 8f 3e 92 ef 44 be a6 64 f9 bd 8d 40 85 bc
       0.28043857 -0.19232014 -0.121774 -0.016266132

final.weight f4 [1, 64]
000000 05 6e 9d bd 64 db 0c bd a5 0e 78 bd 62 cc 5a be
       -0.07687 -0.034388915 -0.06056084 -0.21367028
000010 3a 39 94 bd 7e da 0c 3d f3 ba 37 3c 26 f6 06 be
       -0.072374776 0.034388058 0.011214006 -0.13179836
000020 52 1f ab bc 4d 12 9f bd 45 79 10 be 35 54 23 3d
       -0.020888958 -0.077671625 -0.1410876 0.039875228
000030 89 42 f0 bd c4 2b 0b bf 45 73 82 be 25 a7 2a 3e
       -0.117314406 -0.54363656 -0.2547857 0.16665323
000040 86 9c 06 3e dc a0 20 be 41 be 13 be 32 9c b1 3d
       0.13145646 -0.15686363 -0.14428045 0.0867237
000050 73 eb a2 bd 31 d6 1a bd 8e d9 1f 3d 9f 63 98 bd
       -0.079550646 -0.037801925 0.039025836 -0.07440876
000060 19 b2 67 3e eb 29 c6 bd 6b b6 89 bd 7f ec 1c be
       0.22626533 -0.09675964 -0.067242466 -0.15324591
000070 d4 4c 8b bd b6 52 9d bd ab e8 f4 3d 14 d0 64 be
       -0.06801763 -0.076817915 0.119584404 -0.22345
000080 36 58 ef bd 1c 90 90 bd 3f c1 4b bd b6 08 62 bd
       -0.11686747 -0.07058737 -0.04974484 -0.05518409
000090 78 a8 c9 bc e9 0a 22 be 56 66 9b bd 25 7e 51 bd
       -0.024616465 -0.15824474 -0.075878784 -0.05114569
0000a0 56 e9 28 3e 16 00 3a bd 8a 86 55 bd bb e0 33 bd
       0.1649526 -0.04541024 -0.05213026 -0.04391549
0000b0 7b 31 d8 bd c0 f4 8f be b7 13 b9 3c 9c bf c7 3d
       -0.10556313 -0.28116417 0.022592409 0.097533435
0000c0 2d 52 11 be d4 0f b9 3d 50 4a 2f be bc 84 e6 bb
       -0.14191504 0.09036222 -0.17118192 -0.007034866
0000d0 f9 26 f1 bc d6 86 02 3d 0c 2c 09 3e d8 a8 87 bc
       -0.029437529 0.03186687 0.13395709 -0.016560003
0000e0 b1 dd f1 bd 31 85 4b be 19 46 89 3d 43 11 b2 3d
       -0.118098624 -0.19875027 0.06702823 0.08694699
0000f0 d6 04 8c 3d 10 2b 5a be cb a7 24 be e6 b8 29 be
       0.0683686 -0.2130549 -0.16079633 -0.1657444

log_stdev f4 [3]
000000 58 62 0f 3f 86 a1 87 3f 2d ef 0b bf
       0.56009436 1.0596168 -0.5466183

affine_layers.0.weight f4 [64, 11]
000000 8e c5 1f 3f 82 2c 0c bf b1 49 ac bd c7 bd ca be
       0.6241082 -0.54755414 -0.08412493 -0.39597914
000010 60 28 6a 3e d1 c4 6d 3e c8 ad 55 bf 32 c3 89 be
       0.22866964 0.23219611 -0.83468294 -0.26906735
000020 8a 98 3a 3e e5 db 3b be 2f 53 8e 3d 2e 74 87 3e
       0.18222252 -0.18345602 0.0694946 0.26455826
000030 b1 49 2f 3d 8c 57 70 bd 67 dc 37 bb 08 2b 91 be
       0.042794887 -0.05867724 -0.0028054954 -0.28353143
000040 7a 20 d3 3e 2a 15 8d 3e a5 e3 ac 3e 6d ac 79 be
       0.41235715 0.2755521 0.3376743 -0.24382181
000050 7c 54 d5 3e b2 2e 91 3e d3 4d 72 3e 7d d4 8c be
       0.4166602 0.28355938 0.236625 -0.27505866
000060 5f a8 ac 3e dc d3 95 be da f5 d1 be da 0b ab be
       0.33722207 -0.29263198 -0.41007882 -0.3340748
000070 a7 b7 06 bf 1d de 2d 3e 75 dc 87 3e 58 3f 92 be
       -0.5262398 0.1697926 0.26535383 -0.28563952
000080 92 36 11 3f 09 a1 62 bf 4b f7 39 3b 68 48 85 bd
       0.5672389 -0.8852697 0.0028376158 -0.06507951
000090 4d 68 0e 3e fc b5 3f bd 00 eb 98 3e bb e1 ba be
       0.13906975 -0.046804413 0.2986679 -0.36500344
0000a0 00 b3 81 3d f5 b5 6c be 75 f7 7d bc dc 62 ac be
       0.0633297 -0.23116286 -0.015500893 -0.33669174
0000b0 31 54 35 bf f3 69 c8 3c de d0 6e be a6 62 77 3e
       -0.7083159 0.024464583 -0.23321864 0.24158725
0000c0 eb 82 b5 3e 47 c5 c6 3e 89 f6 09 3e bb 21 9d bc
       0.35451445 0.38822386 0.13472952 -0.019181123
0000d0 d5 2e 1a 3e 45 7f 97 bd 51 89 46 bf 33 3f d2 bd
       0.15056928 -0.073973216 -0.7755328 -0.102659605
0000e0 ad a0 34 bd d6 53 81 be 0a e9 63 3e 61 f1 21 be
       -0.044098545 -0.25259274 0.22256866 -0.15814735
0000f0 ed 35 37 3e 44 e3 56 3f 4f 66 93 be e2 dd 5f be
       0.17891665 0.8394053 -0.28788993 -0.21861985
000100 25 61 38 3f 2b 74 74 3e 3a 14 e6 bd ce ac 5c 3e
       0.7202323 0.2387244 -0.11234327 0.21550295
000110 01 68 0f be 7b 58 f4 be 50 34 ca 3d 6f 6f 53 bb
       -0.14004518 -0.47723755 0.09873259 -0.0032262465
000120 2c e7 29 3f b5 f2 6e 3c 6f 9d f8 b8 cf c9 c0 3e
       0.66368365 0.014584233 -0.00011854886 0.37653968
000130 09 33 bc bd 2e 1a 5c 3e 9d 1a 1a be ca ab dd 3e
       -0.09189422 0.21494362 -0.15049215 0.43295127
000140 27 33 68 bd 5c ef 26 3f f6 c0 24 bf 6b c3 f0 bb
       -0.056689408 0.65208983 -0.64356935 -0.0073475144
000150 3d 17 13 be 72 69 a5 3e 31 a5 06 bf 19 32 79 be
       -0.14364333 0.3230701 -0.5259581 -0.24335517
000160 2f 00 94 3b a5 5e a6 bb 6a 23 97 3d c2 b5 64 bf
       0.0045166234 -0.0050772005 0.073798016 -0.8933984
000170 23 96 d5 3d 2d af fe be ff 56 5f be c9 20 dd 3e
       0.10429027 -0.49743024 -0.2181053 0.43189076
000180 b5 ba 3a be 59 15 65 3e 4b c7 83 be 77 ee 6b 3e
       -0.18235286 0.22371425 -0.25737986 0.23040186
000190 da ac b6 3b 75 35 c1 be 58 0c 86 be 75 ff 53 be
       0.0055748047 -0.37736097 -0.26181293 -0.20702918
0001a0 06 e0 8b be ca ea 11 be e5 48 f1 be 85 6d 30 bd
       -0.27319354 -0.14249721 -0.47125927 -0.043073196
0001b0 d6 4a 0c be 80 cb b5 be 91 74 0e bc 4c fd 49 3c
       -0.13700423 -0.3550682 -0.008694784 0.012328457
0001c0 39 fb ba bc 27 25 92 be bd 2a 9f 3d 0c 4f 3d 3c
       -0.02282487 -0.2854397 0.077718236 0.011554491
0001d0 af a4 29 3f a3 f6 7f 3e 9f 7a c7 3e 66 df 0d 3e
       0.6626691 0.24996428 0.3896074 0.13854751
0001e0 2f 32 0c bc d8 c7 de 3e 9a da e6 be c1 45 61 3e
       -0.008556887 0.43511844 -0.45088655 0.21999265
0001f0 5e 3f 77 bd bf b6 15 3d 2a 41 9e 3d c8 5a dc 3d
       -0.060363166 0.036551233 0.07727273 0.10759503
000200 3c 06 4e bf 44 bd f0 3e 9d a4 0a be 87 fa ca 3d
       -0.8047826 0.47019398 -0.13539357 0.099110655
000210 77 4d f0 bd 46 43 cc be fe 8e 2c 3e 73 eb d5 3e
       -0.11733525 -0.39895076 0.16851422 0.41781196
000220 f9 d1 9a 3d 66 99 2f 3e 77 29 be be e6 68 a4 be
       0.0755958 0.1714836 -0.3714101 -0.3211128
000230 65 cf a7 be 0d a6 be 3d 62 4f b8 3c 1c 3b 70 3d
       -0.32775417 0.093090154 0.02249879 0.05865012
000240 cf 73 3d 3f 45 92 1a bf 87 14 0b 3f b4 a9 63 bd
       0.74004835 -0.6037944 0.543282 -0.055581763
000250 33 b0 89 3e ee cb 21 3d 25 75 01 be d6 d8 f1 bc
       0.26892242 0.039501123 -0.12642343 -0.02952234
000260 c4 cb 75 3e 93 54 47 bd 9f 2d 9e ba 2f 9f 8d bd
       0.24003512 -0.04866464 -0.001206804 -0.069151275
000270 49 19 9a be 38 74 4a 3e 65 10 cd be 8e b9 b7 3e
       -0.30097416 0.19770896 -0.4005157 0.35883754
000280 0e 85 6d be 7e ed 1c 3f 24 cd 38 3e 5c 09 da 3e
       -0.23195288 0.61299884 0.18047005 0.42585266
000290 02 78 2b 3e dd fa 05 3e 8d 18 ea 3e d2 5d d1 3d
       0.16744998 0.13083978 0.45721856 0.10222973
0002a0 2b c6 02 bd 1d 9a 47 be e9 a1 1d 3f 8c f5 54 3e
       -0.03192727 -0.19492383 0.6157518 0.20796794
0002b0 95 b7 03 3e 96 4c 33 3e d1 c1 6b be d5 17 0d 3e
       0.12863 0.17509684 -0.23023154 0.13778622
0002c0 fe a7 b0 3e 65 a7 4f be 4d c6 9f 3e 2e 3f a6 3c
       0.34503168 -0.202787 0.3120598 0.020293798
0002d0 7b 3d 9d 3e ef 0a 5e be de 23 cb bc 5d 69 ce 3c
       0.30710968 -0.21683858 -0.024797376 0.025196726
0002e0 9e c7 50 bf c7 d1 ef 3d 68 2f 95 be ed 24 bb 3d
       -0.8155459 0.11709934 -0.2913773 0.091379024
0002f0 c2 bb 08 bf 62 c9 ff be 7f 90 22 3c 4f 23 3a bd
       -0.53411496 -0.4995833 0.009922146 -0.04544383
000300 90 3f 4e be 1a 20 86 3d 68 ff 95 3e 19 c1 56 3e
       -0.20141435 0.06549092 0.29296422 0.20972098
000310 71 84 0e 3e 99 a3 92 bc 39 cd 84 3e a8 b7 98 3d
       0.1391771 -0.017900275 0.25937822 0.07456905
000320 e9 c4 86 be 35 d1 3e be 92 f0 43 bd f3 03 e2 be
       -0.26322106 -0.18634494 -0.047836848 -0.44143638
000330 f8 10 07 bf d6 af 38 3e 71 3d db 3e 7d 6e 84 be
       -0.5276027 0.18035826 0.42820314 -0.25865546
000340 a0 e8 8b 3d b3 05 02 bd 38 e1 c2 be b9 89 8d be
       0.06831479 -0.031743716 -0.38062453 -0.27644137
000350 84 e0 da 3d f2 10 fa 3d 86 73 97 3c 97 ae 11 bf
       0.10687354 0.12210263 0.018487703 -0.5690703
000360 be 07 58 be 9b a4 c0 3d 47 ed 52 be a6 43 1f bc
       -0.21096703 0.09406396 -0.20598327 -0.0097207185
000370 54 d7 95 3e 0e 55 14 bd 0f 8f 72 be a5 a3 2d 3d
       0.29265845 -0.036213927 -0.23687385 0.04239239
000380 bc 8b 2b 3f 98 52 47 be 1e bc 6c 3e 18 38 93 3e
       0.6701009 -0.19465101 0.23118636 0.28753734
000390 7e 7a 32 bf 3f 2e bc bd da 14 0f 3e 2f ea c6 bd
       -0.6971816 -0.09188508 0.13972798 -0.09712636
0003a0 43 dd 01 be db 3f 6e 3f 48 9e fb be cf 36 69 bc
       -0.12682061 0.93066186 -0.49144197 -0.014234259
0003b0 b5 e9 f9 be fa 0f e3 bc a1 e4 3f 3e 03 35 8f 3e
       -0.48811117 -0.02771758 0.18739559 0.27970132
0003c0 03 cb ee 3d d7 ff 95 3e 27 3f 5c bf 42 58 90 3e
       0.11659815 0.29296753 -0.8603386 0.28192335
0003d0 cd 68 9f 3d 59 87 61 be 96 7c 81 be 2c 8c 9c 3d
       0.07783661 -0.22024287 -0.25290364 0.07643923
0003e0 28 f8 be be 6c 7d 9b 3e a7 c7 2b 3d 75 a7 84 3d
       -0.37298703 0.30369127 0.04193845 0.064772524
0003f0 00 16 4b 3d 2f cc 95 3e 93 7a eb bc 47 77 d0 3b
       0.049581528 0.29257342 -0.028744971 0.006361875

affine_layers.0.bias f4 [64]
000000 35 41 23 3d 92 9f e8 3c 53 27 20 3e b0 5d fb be
       0.03985711 0.028396402 0.15640001 -0.49094915
000010 df d2 73 bb 39 0e 6f 3d 65 a5 9f be e6 c4 46 bd
       -0.0037204546 0.058363173 -0.31180874 -0.04852762
000020 67 8d 21 be 08 65 4a 3d 3a db ad be fe ea 10 3e
       -0.15776597 0.049412757 -0.3395632 0.14152142
000030 14 41 36 be 28 fd 7b be 9a c8 a0 be d1 84 59 bd
       -0.17798263 -0.2460829 -0.31403047 -0.05310518
000040 3e 1c 09 3e e8 1a 96 be 1e 13 8d be 05 03 05 bf
       0.1338968 -0.29317403 -0.27553648 -0.5195773
000050 68 c4 b4 3e 51 3c 84 3e 34 e3 47 bf 65 10 ca be
       0.35306096 0.25827268 -0.7808106 -0.39465633
000060 ea 2c d5 be 66 6e 9a 3e a4 92 0d 3f a7 54 7b 3e
       -0.4163583 0.30162352 0.5530188 0.24544011
000070 4d e8 51 3e 91 0f 3c be 4b f5 86 3e 76 a1 1b be
       0.20498772 -0.18365313 0.2635902 -0.15198311
000080 fb 1a 93 be 76 cb b7 be 6a 7f 4e be 54 e4 0e be
       -0.28731522 -0.35897416 -0.20165792 -0.13954288
000090 0d d1 ae 3e 63 e3 bc be bb d9 1b 3e 54 89 80 be
       0.34143868 -0.36892232 0.15219776 -0.25104773
0000a0 8f cf 8a 3b 33 3e fb 3d 8a c1 a0 bd 52 80 19 be
       0.0042361687 0.12267723 -0.07849415 -0.14990357
0000b0 b5 64 06 be 69 ef aa 3e 4e 5d 9c be 51 1f 64 bd
       -0.13124354 0.3338578 -0.30539936 -0.05569393
0000c0 ac 35 5b be 79 0f 54 be 6b 40 06 3e 56 82 a5 be
       -0.21407193 -0.20709027 0.13110511 -0.32326
0000d0 41 3b 23 bf df 81 a5 3e 38 77 b4 3e 24 23 ba 3d
       -0.6376229 0.32325646 0.35247207 0.09088734
0000e0 69 84 35 be 84 50 d6 bd ad 50 40 bf 03 97 15 be
       -0.17726292 -0.10464576 -0.751231 -0.14608388
0000f0 78 b0 6b be 20 9c 03 bb df 1e 94 ba f2 46 8b 3d
       -0.23016536 -0.0020082071 -0.0011300704 0.06800641

affine_layers.1.weight f4 [64, 64]
000000 a4 59 08 be 4e 34 cf bd 0a a3 1d bd d8 bc 8c be
       -0.13315445 -0.10117398 -0.038485564 -0.27487826
000010 42 03 ec be a9 5e 96 be 29 7e 92 be 79 51 d9 3e
       -0.46096236 -0.29369095 -0.28611878 0.4244497
000020 8d 99 35 3d e0 40 40 be 63 91 98 3e 46 63 6d 3b
       0.04433589 -0.18774748 0.2979842 0.0036222502
000030 0a ad c0 be aa 97 80 3e d7 11 e1 3c 95 32 9e 3e
       -0.37632018 0.2511571 0.027474327 0.30897966
000040 d0 a3 09 be 68 65 81 3e 24 2c 15 3f c5 19 99 bd
       -0.13441396 0.2527268 0.5827048 -0.07475618
000050 c6 ba c1 bd 9d b2 a8 3e 15 d4 8e 3c 63 97 bb 3e
       -0.09459452 0.3294877 0.017435113 0.36638936
000060 6c d2 41 be 64 e0 12 bf 94 11 b0 3e 87 14 e4 3d
       -0.18927926 -0.5737364 0.3438841 0.11136728
000070 85 a3 cf 3e 3d 47 96 3b c1 26 47 3d a6 0b 99 be
       0.40554443 0.004586129 0.048620943 -0.298917
000080 48 ee 3c bd 97 3a 10 3f 94 ab 6d 3e 17 e8 00 3f
       -0.04612568 0.563394 0.23209983 0.5035414
000090 a9 ff bc bd 49 60 0e 3f f0 cd d5 bd 64 24 1b 3e
       -0.09228451 0.5561567 -0.1043967 0.151506
0000a0 81 48 ef bd dd 6b fb 3e 1b 22 ba 3e 40 78 78 bf
       -0.11683751 0.4910573 0.36354145 -0.97058487
0000b0 37 94 20 3f 87 1a da 3e 23 6d bd 3e 11 9b 6b b9
       0.6272616 0.42598364 0.36997327 -0.00022469113
0000c0 df dd 21 be 58 cf 46 be 99 c8 05 bf c4 2b d1 bd
       -0.15807293 -0.19415033 -0.5225921 -0.10213426
0000d0 e9 0e b2 bd fa ca 77 3e 09 78 b6 3b 64 cc 3a 3e
       -0.0869425 0.24198523 0.0055685085 0.18242031
0000e0 15 bb 88 3e a0 31 de bd 42 02 a1 3e 70 40 17 3f
       0.26705232 -0.10849309 0.31447035 0.590827
0000f0 a7 8c e9 3e 27 5d 8a bd f1 0a e0 3e 3b cb 05 bf
       0.45615122 -0.06756049 0.43758348 -0.5226323
000100 ef 80 06 be a6 30 89 bd b9 fc df be 73 37 bc 3e
       -0.13135122 -0.06698732 -0.437475 0.36761054
000110 ea 01 4c 3f 22 8f 2d 3e 8e c0 b4 bc 8e a5 76 bd
       0.7969042 0.16949132 -0.022064473 -0.06021648
000120 f8 8b dd be 9b 00 0b 3f e3 61 bb 3c c6 31 6a 3e
       -0.4327085 0.542978 0.022873824 0.2287055
000130 b4 90 0a be 4d b2 fe 3c 7f 30 1f bf 65 df 27 3e
       -0.13531762 0.03109088 -0.62183374 0.16393812
000140 b9 c6 1c 3e 31 1a 51 be 4b 91 88 be 29 ae 0b be
       0.15310182 -0.20420147 -0.2667335 -0.13640656
000150 69 1c a9 be 5a 5c 7e 3c 5d 24 68 be 04 2d 07 bf
       -0.33029488 0.015524948 -0.22670121 -0.52803063
000160 c6 04 db be 9b 5e 7b 3e a1 62 e4 be 69 00 11 be
       -0.4277708 0.24547808 -0.44606498 -0.14160313
000170 8b 25 87 3e d6 34 8e bc cd 0b 38 be 6d 48 e6 3d
       0.2639583 -0.017359179 -0.17973252 0.11244283
000180 49 50 1b bd 49 1d 12 bf 80 cd 0a bf 8f b6 cf bd
       -0.037918363 -0.57075936 -0.5421982 -0.10142242
000190 b2 0e 98 be d8 32 2f 3e 95 6f 93 3e 5b 4a fa bd
       -0.29698712 0.17109239 0.28796068 -0.122212134
0001a0 43 e2 c2 be e2 0f 38 bf ca 00 85 be 55 a1 f0 3e
       -0.3806325 -0.71899235 -0.25977165 0.46998087
0001b0 e9 f9 05 bf db cb 72 3d 19 d9 17 bf cb ab eb bb
       -0.5233446 0.059276443 -0.5931564 -0.00719211
0001c0 0b 36 65 be aa 86 72 3e 33 db 0d 3f b0 42 51 3f
       -0.22383897 0.23684183 0.55412596 0.8174238
0001d0 c3 de 0f be b9 84 b7 3e 46 5d 14 bf aa 9b cd bd
       -0.1404982 0.35843447 -0.57954824 -0.10039456
0001e0 8e fb f4 3e b8 06 25 be 56 1d c6 3e c7 51 b7 be
       0.4784817 -0.16115844 0.38694257 -0.3580458
0001f0 a9 cc 2e be c0 f5 eb 3e ac 24 0d 3f 26 dd 52 3f
       -0.17070259 0.4608593 0.5513408 0.82368696
000200 a7 0e db bd 69 c3 f6 be 6f f0 61 be 34 cb d8 3e
       -0.10696154 -0.4819596 -0.22064374 0.42342532
000210 57 ed 75 bb fa f9 1e bf ac 1d 20 3e 83 17 79 3d
       -0.0037525499 -0.62100184 0.15636319 0.06081344
000220 8b e1 e4 3e 1c 5e cc bd e1 d9 16 3e 7b 25 08 be
       0.44703326 -0.099788874 0.14731552 -0.13295548
000230 22 6e 9c 3d 72 cd da be 67 9c ed 3d fb 07 91 3e
       0.07638194 -0.42734867 0.11602097 0.283264
000240 62 d6 a7 3e 6a da 99 3d 3e df 77 bd b8 e7 b8 3e
       0.3278075 0.07512362 -0.060515635 0.36114287
000250 5e c8 97 be 3a 74 4f 3d 00 45 14 3f 1e aa c7 bd
       -0.29645056 0.05064795 0.57917786 -0.09749244
000260 ec 17 62 3e 88 06 01 bf 60 62 48 bf 9a 39 bb be
       0.22079438 -0.5040059 -0.7827511 -0.36567384
000270 ef f0 d7 be 77 aa 67 be 36 66 7e bd 0f 48 06 3f
       -0.42176005 -0.22623621 -0.062109195 0.524537
000280 5e 62 be 3d 26 44 8b 3d 40 ce 12 bd 37 cd d6 3d
       0.09296106 0.06800108 -0.035841227 0.104883604
000290 36 27 3c 3e e3 64 bf bd c3 c0 8b 3e 26 bd ce bd
       0.18374333 -0.093454145 0.27295503 -0.10094671
0002a0 68 75 a5 3e 3d d5 eb be 61 84 77 bc 99 a4 28 3f
       0.32316136 -0.46061125 -0.015107245 0.65876156
0002b0 ca 98 cd bd a2 de 48 bf e4 5b a4 bd 22 eb a4 bd
       -0.10038908 -0.7846471 -0.08025339 -0.080526605
0002c0 a6 f5 e9 3e ec 2f 55 3e 26 7a 1d 3e 37 38 04 3f
       0.45695227 0.20819062 0.15378627 0.5164828
0002d0 ac 45 49 3f 49 01 cf bd d0 89 84 3c 5a 2c 07 3e
       0.78621936 -0.10107667 0.016178995 0.13200513
0002e0 d8 84 30 bc 28 51 d6 3e 09 d6 a6 3e e0 0b c0 bd
       -0.01077386 0.41858792 0.3258517 -0.09377265
0002f0 b0 31 92 be dd 7c d7 3d 98 1f c8 bd 36 9e d9 3e
       -0.28553534 0.10521863 -0.09771651 0.42503518
000300 e4 c4 c1 bd c6 5e bb be 38 60 f9 3d 6e 07 e5 3e
       -0.09461382 -0.36595744 0.121765554 0.4473223
000310 61 94 4a 3e 24 95 48 be bf c0 d6 be 62 2b 9f bd
       0.19783165 -0.19588143 -0.4194393 -0.077719465
000320 20 6d 2b bf 80 3c a1 be 0b 62 af be 4f e7 71 be
       -0.66963387 -0.3149147 -0.34254488 -0.23623393
000330 41 7a e6 3d a8 d2 f2 3d 6f 66 d7 b9 35 d2 e4 3e
       0.11253787 0.11856586 -0.00041084315 0.44691625
000340 84 7d af be 89 34 5e be 60 72 11 be 64 8d 6c 3e
       -0.34275448 -0.21699728 -0.14203787 0.23100811
000350 a0 4a 8d be 5b d9 ab bd 80 ae 35 3e 6e 9b 0b bf
       -0.27595997 -0.08391067 0.17742348 -0.5453404
000360 77 46 c6 3e 5d fa 39 be f9 b8 da bd de ca e2 3e
       0.38725635 -0.18161912 -0.10679812 0.442954
000370 97 a8 2d 3e a9 d2 2c be a2 4f a9 3e e6 ea 30 be
       0.16958843 -0.16877235 0.33068568 -0.17277107
000380 f4 40 f1 bd be b5 e4 be 1a f2 77 bb 98 f7 2b be
       -0.11779967 -0.44669908 -0.0037833513 -0.16793668
000390 09 4b 0c 3f 90 d3 49 3d 66 02 04 3f a5 1c 01 bf
       0.54801995 0.049274027 0.5156616 -0.50434333
0003a0 ec a5 ff bd f2 3e d2 be 1e 44 f9 3d d8 49 e9 bd
       -0.12482819 -0.41063648 0.121711954 -0.11391038
0003b0 b5 97 b3 bd 8c 9c a0 bd 4b 16 34 bd 3c e7 bb 3d
       -0.0876917 -0.07842359 -0.043966573 0.09174964
0003c0 d2 e3 fa be 84 33 e9 3d 0d d4 c3 be 60 69 71 bd
       -0.49001938 0.11386779 -0.3824772 -0.058938384
0003d0 0c 81 0e 3e a1 c2 eb 3e 08 20 6d 3e 8b 37 a4 bb
       0.13916415 0.46046928 0.2315675 -0.005011504
0003e0 cd aa 06 3f 10 c1 b2 bc a9 37 23 3e d7 0a 99 be
       0.5260437 -0.021820575 0.15939201 -0.29891083
0003f0 04 85 78 bf 62 37 cc 3e 70 db d2 be d4 9c 92 3e
       -0.97077966 0.39886004 -0.41183043 0.28635275

affine_layers.1.bias f4 [64]
000000 f0 b8 8d be 14 4a 1d 3e cf 97 e6 be 84 41 87 3e
       -0.2768016 0.1536029 -0.45037696 0.26417172
000010 70 db 9d 3d 2f cc 33 be de d7 a2 bd 91 ac 13 3e
       0.0770787 -0.17558359 -0.0795133 0.14421298
000020 f2 53 fd bd 8f 9b f5 3e 45 98 2c 3d d3 76 8f 3d
       -0.12369527 0.47970244 0.042137403 0.07005086
000030 db 15 7e be 22 da 6d be 81 21 57 be 7d e4 b0 be
       -0.24813025 -0.23227742 -0.21008874 -0.34549323
000040 5c 37 d0 bc 14 11 d0 be c3 e6 d8 3e 73 07 be 3e
       -0.025417022 -0.4063803 0.42363557 0.37115058
000050 0a e3 5f 3e bf 1f 99 bd b7 af bf 3e 73 a3 51 be
       0.21863952 -0.07476758 0.37438747 -0.20472507
000060 ce d4 41 be aa bb 32 bd 41 ad 94 3c 77 f6 5c 3e
       -0.18928835 -0.043636 0.01814902 0.21578394
000070 f0 c3 35 be e5 d0 f4 bd 4f 7b 03 bd 56 00 4e 3e
       -0.17750525 -0.11953906 -0.032100018 0.20117316
000080 12 94 b6 3e 81 e1 7c 3c 18 4e 2f 3e 1c b5 63 be
       0.35659844 0.015434624 0.17119634 -0.22237056
000090 3d 9e 29 be 5e 26 16 3d 92 c9 c8 bd 10 53 20 3d
       -0.1656427 0.036657684 -0.098040715 0.039141715
0000a0 9a 06 43 ba 82 bb 3e 3d c6 91 ea be 71 a9 c5 be
       -0.00074396434 0.04656554 -0.4581434 -0.38605836
0000b0 dc 6d 11 3e 9e 6a b8 bd 6f bd 11 3e 36 ec e5 3d
       0.14202064 -0.090047106 0.1423242 0.11226694
0000c0 56 e2 d9 3e fb 7f 9e 3d 84 54 0e bc 2a 9e 4c 3e
       0.42555493 0.07739254 -0.008687142 0.1998221
0000d0 e3 30 d8 3d c8 70 e6 3e db 65 39 be 28 2c 85 3d
       0.105561994 0.4500792 -0.18105261 0.06502563
0000e0 18 61 73 3e 0c d4 93 3d 2d 26 10 bd 32 d0 91 be
       0.23767507 0.07218179 -0.035192657 -0.28479153
0000f0 04 3e 98 3e 89 31 a7 3e 84 96 b4 be 99 89 d8 3e
       0.29734814 0.3265498 -0.35271084 0.4229248

final_mean.weight f4 [3, 64]
000000 cc a2 03 be dc cc e2 bd 26 34 d9 3e 68 91 c5 3e
       -0.12855071 -0.1107423 0.424226 0.385875
000010 ba 80 5a bd f7 b0 9d be 10 d1 d0 be 4f 71 2d bf
       -0.05334542 -0.30799076 -0.40784502 -0.6775102
000020 ce 0c d2 3c 90 24 24 3e 09 f3 bd 3d cb 4a d1 3e
       0.025640871 0.16029572 0.09274871 0.40877375
000030 51 8a a0 3e e7 fb e8 bc 3e 05 c9 be 3d 30 b2 3e
       0.31355527 -0.028440429 -0.39261812 0.34802428
000040 1d 52 92 3d 9c 63 f5 3e da 57 4c 3e fb 8c a2 be
       0.07144568 0.47927558 0.19955388 -0.31748185
000050 85 b3 55 3e 3f c2 b5 3e 66 35 21 be d5 e2 20 bf
       0.20869263 0.3549976 -0.15743026 -0.6284612
000060 15 48 8f 3d 10 60 19 bf d7 5d a3 3e a1 fa e8 3e
       0.069961704 -0.59912205 0.31907532 0.45503715
000070 12 9f 1b 3f 0f 1a aa 3e 5a 15 a0 be 11 0a 96 bd
       0.607896 0.33223006 -0.3126629 -0.07326139
000080 75 72 76 3e f5 43 d9 be 4a b1 68 be a4 b8 18 be
       0.240671 -0.4243466 -0.2272388 -0.14914185
000090 d1 a0 02 bf ea e3 32 3f 35 fc 76 be de 44 96 bc
       -0.51026636 0.6987902 -0.24119647 -0.018343385
0000a0 08 1c b7 3d c3 39 89 be b9 85 ea 3d 2c bd 7c be
       0.089408934 -0.2680188 0.11451287 -0.24681538
0000b0 34 0e c2 bd 7d df ba bd 41 41 d7 be 6a 6c c6 3d
       -0.09475365 -0.09124658 -0.42041972 0.09688647
0000c0 91 c3 52 3d c3 b6 b7 bd ff d9 c6 be 9f d0 3f 3d
       0.051456038 -0.08970406 -0.38838193 0.046829816
0000d0 08 f3 86 be 85 ba 49 bf 76 e3 a7 3e 12 86 b7 3e
       -0.26357293 -0.7880023 0.32790726 0.35844475
0000e0 e3 0a 19 bf ba bf 0f bf 4b 0f ce 3d a9 21 6d 3e
       -0.59782237 -0.56151927 0.10061511 0.23157372
0000f0 16 99 6d bd b2 9b 99 3e 9d 9a cd bd 4e 12 2f be
       -0.058007322 0.300016 -0.10039256 -0.17096826
000100 2b e9 5a be 55 db 80 3f 08 cf 16 3e ed e8 72 3e
       -0.21378009 1.0066935 0.14727414 0.23721667
000110 1d 63 3b be cb a4 24 bd f5 e0 94 3e 6a ea ec be
       -0.18299527 -0.04019622 0.2907788 -0.46272594
000120 52 92 06 3f a0 6a 7e 3e 17 82 8c 3e f4 b1 1e 3e
       0.5256702 0.24845362 0.27443 0.15497571
000130 4c 11 80 3e 4e 47 c7 3e 8e be 14 3f 3e e6 ea be
       0.25013196 0.3892159 0.58103263 -0.45878786
000140 d2 c1 11 3f 97 69 29 bf e4 77 32 3e fc 53 18 3f
       0.5693637 -0.6617674 0.17428547 0.5950315
000150 46 c9 91 3e c0 2c 06 3f 9a 68 f3 3e 23 af db 3d
       0.28473872 0.52412033 0.47540742 0.10726764
000160 43 9c 05 be a7 54 30 3e 25 d7 20 3f 4c 73 73 3d
       -0.1304789 0.17219792 0.62828285 0.059436128
000170 a1 31 3f be 14 bd 66 bd 07 82 75 be b1 0d 9d 3d
       -0.18671276 -0.056332663 -0.23975383 0.07668627
000180 e5 60 05 3f 0d b4 3a be f1 3a 5e 3e 52 b5 0d 3e
       0.52100974 -0.18232746 0.21702172 0.138387
000190 62 d4 0c be f6 80 f4 bd c0 10 c7 3e b8 a6 9b be
       -0.13752893 -0.1193866 0.38879967 -0.30400634
0001a0 75 de 11 bf e6 45 ea 3e 01 1e 4f be b9 cc 20 bf
       -0.5698007 0.45756453 -0.2022629 -0.6281238
0001b0 85 2e 1b be b9 85 3c 3f f9 64 3c bd 57 77 6b 3f
       -0.15154465 0.73641545 -0.045994733 0.91978973
0001c0 c6 46 8c 3c 7f 0c 5f bf 38 c5 82 bc eb 32 fd bb
       0.017123591 -0.8712844 -0.015963182 -0.007727017
0001d0 d5 44 38 bf 6f 6c 38 be 14 b2 86 bc ef db 20 bf
       -0.7198003 -0.18010114 -0.016442336 -0.6283559
0001e0 ff 3c 90 3e f6 18 99 3e 27 fb 9c 3e 11 ae e3 3d
       0.28171536 0.29901856 0.30660364 0.11117185
0001f0 3f c2 82 be b7 7b a2 be c6 1a 0c be 76 35 03 be
       -0.25538823 -0.31735012 -0.13682088 -0.12813362
000200 b6 ff de 3e 9f 2f a5 bc ae 16 92 be ae f9 3b 3e
       0.43554467 -0.02016431 -0.28532928 0.18356964
000210 4f 51 82 be d2 98 0c bf c5 ee 8d 3e 57 35 e0 bd
       -0.2545266 -0.54920685 0.2772123 -0.10947674
000220 ee db 01 3f 9c 0a 0a 3f 39 fa dd 3e 7f 7a 53 bf
       0.5072621 0.5392244 0.43354967 -0.8260879
000230 df 1b 63 3e 75 9d 87 3e b8 4f 36 be 5a f5 97 3e
       0.221786 0.26487318 -0.17803848 0.29679376
000240 84 e6 cd bd d1 20 2f 3e f6 01 d0 3e 4c d1 0a bf
       -0.10053733 0.17102362 0.40626496 -0.5422561
000250 5e 5e cb 3d 79 5e 36 3e 4f da 58 3e c9 44 ed 3c
       0.099301085 0.17809476 0.21177028 0.028963463
000260 b3 1b e0 be f4 16 5d be 1c 9c a3 3e e8 2a 69 be
       -0.43771133 -0.21590787 0.3195504 -0.22770274
000270 5d 88 9b 3d 04 96 16 3e 95 a9 ac be ae 02 77 be
       0.075943686 0.14705664 -0.3372313 -0.24122116
000280 a1 58 4d 3e 03 63 86 bd f2 ce b6 3e 7f 4a ac 3e
       0.2005334 -0.06561854 0.35704762 0.33650586
000290 95 17 cf 3e 9e d7 99 be 4c 26 fd 3d 9c 3f a0 3e
       0.4044768 -0.30047315 0.1236082 0.3129853
0002a0 3b 2e d8 be ec 28 03 3f 8b 67 df 3e 5b 86 3b 3e
       -0.4222277 0.51234317 0.43633685 0.18312971
0002b0 8f 19 de 3e 77 36 ed 3d 48 9c 44 3c 7c 11 1b bd
       0.43378875 0.11582654 0.012000151 -0.03785847
0002c0 71 15 01 3f 2b 30 82 3d 68 da a0 3e c7 1a b6 3e
       0.5042334 0.063568436 0.3141663 0.35567304
0002d0 ee 21 d9 bd e4 b9 66 3e a5 40 9f 3d 24 74 17 3e
       -0.10602175 0.22531849 0.07776002 0.14790398
0002e0 ad 5b 29 3e 7e be 1c 3c 85 a2 f8 3e df 1e cc be
       0.16538878 0.009566901 0.48561493 -0.39867303
0002f0 b7 c1 e8 be c1 b1 de bc e2 f6 d2 be 82 0a 8d be
       -0.45460293 -0.027184369 -0.41203982 -0.2754708

final_mean.bias f4 [3]
000000 36 8c cc be e0 06 67 bc 7e bd 76 be
       -0.39950722 -0.01410076 -0.24095723

exp_avg f4 [64, 11]
000000 6d 3f 7c b9 4b bd c7 39 35 9f 1a 38 67 0d 98 39
       -0.0002405622 0.00038097272 3.6864734e-05 0.00029001685
000010 19 f3 02 39 a4 6c 41 39 78 96 a4 b9 63 62 67 39
       0.00012488327 0.00018446386 -0.00031392626 0.00022066529
000020 c1 1f 65 b9 f2 3a 57 39 f4 5f 75 b9 ad fb 25 39
       -0.00021850971 0.00020525957 -0.00023400766 0.00015829383
000030 b7 eb 5b 39 ab c6 11 b8 3d 7a 1b 39 cc 77 35 38
       0.00020973278 -3.4755718e-05 0.00014827489 4.3265332e-05
000040 c2 ec c7 37 53 2f 68 b9 3d 95 bc 38 45 f9 8b 38
       2.3832898e-05 -0.00022142874 8.9923364e-05 6.6744666e-05
000050 3c e5 61 39 67 42 a7 39 ad 81 e8 b8 9f 61 14 39
       0.00021543069 0.00031902196 -0.00011086776 0.00014150747
000060 9f 5f b5 b8 61 53 18 39 54 8a 6d 39 1b cd e8 38
       -8.6485634e-05 0.0001452691 0.00022653613 0.00011100826
000070 8f ce f8 b8 83 f6 02 39 ec 1d 32 b9 07 8b 3f 39
       -0.00011864036 0.00012489599 -0.0001698655 0.00018266971
000080 7f 3e 9a b9 ba b9 fb 36 18 ae e6 b8 8d 18 3c 39
       -0.00029419732 7.5020043e-06 -0.00010999682 0.00017938223
000090 4f 97 85 b8 13 bd b3 b6 ea 93 27 39 20 59 23 b9
       -6.3701176e-05 -5.356627e-06 0.00015981463 -0.00015578093
0000a0 1b 81 2f 39 a2 e1 7a b8 44 09 f3 38 46 90 ea b6
       0.00016737396 -5.981478e-05 0.00011588869 -6.990539e-06
0000b0 a4 ee 02 b9 52 55 c3 b7 fe 1a 3e b9 91 2e 1b b9
       -0.00012486667 -2.3285542e-05 -0.00018129867 -0.00014799299
0000c0 65 e1 13 b9 d9 33 88 39 e6 40 03 b9 f8 1b 8e b8
       -0.00014102978 0.0002597857 -0.0001251731 -6.776297e-05
0000d0 57 05 43 38 ac 3d 18 b9 20 e1 8c b8 41 b3 5c b9
       4.6496596e-05 -0.00014518824 -6.717653e-05 -0.00021047612
0000e0 f5 7f 2d b9 ca 7d 04 39 de 9b 4e b9 e3 8c bb b9
       -0.00016546233 0.00012635361 -0.00019703756 -0.00035772388
0000f0 44 ed 8f 38 ee a7 fc 38 15 ae d1 b8 d8 d3 0f 35
       6.8629655e-05 0.00012047576 -9.998322e-05 5.3579924e-07
000100 fc 84 97 b9 76 c4 2d b7 16 06 82 b7 11 8b 3f 39
       -0.00028900045 -1.0357346e-05 -1.5500042e-05 0.00018266986
000110 cf eb 30 b8 7c eb b8 38 5e d1 7a 38 02 71 ed 37
       -4.2181284e-05 8.817666e-05 5.9799633e-05 2.8305225e-05
000120 76 ce 7b b8 00 7d 86 38 87 54 f7 b8 32 40 2c 39
       -6.0035345e-05 6.412901e-05 -0.00011793622 0.00016427113
000130 b9 c3 84 b2 f5 9d 81 39 f9 2d e4 b9 f4 b9 51 39
       -1.5455827e-08 0.00024722485 -0.000435218 0.00020001066
000140 87 0c ac b9 4c 8e 6a b9 89 f8 f8 b8 70 6b 75 39
       -0.0003281573 -0.00022368989 -0.00011871855 0.00023405044
000150 45 4f 9f b8 f7 69 27 39 ce f2 92 b8 90 a6 b9 39
       -7.596476e-05 0.00015965836 -7.0070484e-05 0.00035410048
000160 5c 86 ec b7 ff e5 d2 b8 cd b0 10 b9 59 be fb b8
       -2.8195958e-05 -0.000100564204 -0.00013798774 -0.00012004068
000170 37 d1 7e b9 79 3d 0e b9 95 4c b8 39 56 e7 5c b9
       -0.00024301266 -0.00013565076 0.00035152273 -0.00021067014
000180 58 43 4b 39 69 da b2 b9 32 7f 5d b8 16 0d 42 39
       0.00019384676 -0.00034113534 -5.2808966e-05 0.00018506157
000190 d5 ec 03 39 4f 79 be 39 72 08 db 38 11 fb 49 39
       0.0001258136 0.00036330006 0.00010444307 0.00019262383
0001a0 c7 99 5a 38 65 37 8a b9 c6 c0 d3 39 fa ed c4 b8
       5.2118467e-05 -0.00026362683 0.00040388684 -9.390335e-05
0001b0 7f 83 be 39 08 12 43 39 96 b1 d5 b8 ce 3c 4b b9
       0.00036337596 0.00018603366 -0.000101897094 -0.0001938224
0001c0 95 79 ce b9 e3 16 4e b9 f2 c1 2f b9 67 09 ab 37
       -0.00039381968 -0.00019654217 -0.00016761551 2.0389167e-05
0001d0 dd bb 3a 39 77 ef a6 b9 9e f6 99 38 54 41 6a b9
       0.00017808327 -0.00031840403 7.3415446e-05 -0.00022340316
0001e0 d7 b7 f9 b8 76 12 ea 38 ff a5 2d b9 81 2b 35 b8
       -0.00011907488 0.00011161428 -0.00016560404 -4.319428e-05
0001f0 63 f2 1e b9 39 2b 65 38 59 d6 9f 38 ee 7e d4 b8
       -0.0001515835 5.463811e-05 7.621636e-05 -0.0001013259
000200 8c 4f 6a 38 79 d0 4a b8 63 4e 42 39 d0 a7 02 39
       5.586403e-05 -4.835471e-05 0.00018530483 0.00012460281
000210 eb 8f c4 38 b8 66 ce b8 88 c4 54 39 fc 98 29 39
       9.372815e-05 -9.841978e-05 0.00020291109 0.00016174087
000220 3c 52 65 39 42 51 29 b9 ff 42 c9 38 38 d5 ab b7
       0.00021869777 -0.00016147367 9.596906e-05 -2.0484076e-05
000230 a3 50 0a b8 1f 00 2b b6 24 c0 69 b9 8e 98 28 b9
       -3.2976863e-05 -2.5481056e-06 -0.0002229219 -0.0001607856
000240 00 1c af 39 77 21 02 b9 d5 74 2c 38 8f f7 07 ba
       0.00033399463 -0.00012410233 4.1116804e-05 -0.00051867304
000250 a5 78 1b 38 b0 fa 4f 38 75 9b 7f b9 dc 65 9b 38
       3.706724e-05 4.9586117e-05 -0.00024376607 7.409949e-05
000260 b7 8a 9c b9 e3 4f a9 39 27 14 51 b9 c9 f9 d7 39
       -0.0002985799 0.00032293712 -0.000199393 0.000411941
000270 d0 51 00 b9 19 c4 a6 39 14 95 14 39 1b 49 61 b8
       -0.00012237509 0.0003180809 0.00014169916 -5.3712265e-05
000280 cb 37 b1 b8 dd 4b 8e 37 06 05 ab b8 07 9c 26 b7
       -8.45041e-05 1.6963046e-05 -8.154851e-05 -9.930699e-06
000290 43 85 51 b9 32 b0 37 b8 8d 76 58 b9 a6 95 24 b9
       -0.00019981437 -4.3794695e-05 -0.00020643529 -0.00015696007
0002a0 07 29 86 b7 33 0d 02 b8 27 ed da b8 d8 3e a1 39
       -1.599315e-05 -3.1006708e-05 -0.00010439223 0.00030755135
0002b0 64 56 a9 b9 e5 14 ea 38 34 0d a7 b9 93 33 30 b9
       -0.00032298558 0.000111618814 -0.0003186256 -0.00016803881
0002c0 18 84 7f b9 d3 61 b3 39 ea 83 8d b8 33 d8 44 39
       -0.00024367904 0.00034214425 -6.747975e-05 0.00018772557
0002d0 69 ac 41 b9 31 da 85 37 b9 c3 28 b9 a5 d7 a2 38
       -0.00018470142 1.5956439e-05 -0.00016094641 7.764929e-05
0002e0 e8 dc ab 38 4f 88 19 b9 a5 f8 c9 b8 ba ba 98 39
       8.1950624e-05 -0.00014641996 -9.6307405e-05 0.0002913082
0002f0 8b 4f 1d ba 79 dd ea 39 ff 00 c1 38 18 86 bb 39
       -0.00060009275 0.00044796968 9.203143e-05 0.00035767327
000300 7d e8 b4 b9 45 40 a6 39 98 ad b3 b8 32 13 2d 39
       -0.00034505493 0.00031709872 -8.5677195e-05 0.00016505716
000310 a3 28 14 b8 0a 3a a4 b9 9b 37 51 38 d7 c5 94 b8
       -3.5323796e-05 -0.0003132376 4.988127e-05 -7.0940405e-05
000320 41 fc 00 39 bd b8 87 b8 a4 b1 ff b8 15 f1 cb b8
       0.00012301003 -6.471712e-05 -0.00012192436 -9.724699e-05
000330 3b bf 71 38 10 24 fa b7 fc a9 fc 37 08 9e 0f b8
       5.7636975e-05 -2.9819115e-05 3.0119896e-05 -3.4241035e-05
000340 f4 6e 2c 39 b2 2a 62 b8 78 6d 5d 38 32 41 13 b8
       0.00016444532 -5.3922362e-05 5.2792457e-05 -3.510825e-05
000350 35 ce 19 39 29 d2 3d 38 14 fd e7 37 88 d8 d4 b8
       0.00014668035 4.525684e-05 2.7655195e-05 -0.0001014928
000360 61 f6 1e b8 b1 27 71 38 ef 25 0f b9 6c 5d 14 b9
       -3.7899594e-05 5.7495843e-05 -0.00013651674 -0.00014149182
000370 89 94 49 38 d4 b1 1b ba 49 ec 54 b8 74 1b 89 b9
       4.806047e-05 -0.0005939279 -5.0764796e-05 -0.0002615113
000380 d0 c0 33 b9 7e 46 8e 38 03 09 7d 39 96 47 76 b9
       -0.00017142599 6.784218e-05 0.00024131317 -0.00023487056
000390 0b 74 75 39 60 c6 a8 b9 a6 43 d6 b8 e2 25 fe 38
       0.0002340825 -0.00032191258 -0.00010216916 0.0001211872
0003a0 ce 63 09 39 aa 47 aa 38 b3 57 2f b8 19 3b 8d b9
       0.00013102518 8.11958e-05 -4.1804928e-05 -0.00026937647
0003b0 1e 0e 45 b9 c1 0a 7b 39 50 09 d0 b8 ad cb 04 39
       -0.00018792643 0.00023941231 -9.9199475e-05 0.00012664376
0003c0 e5 3b 03 b9 55 2f 9e 39 22 15 92 38 a2 26 05 b8
       -0.00012515446 0.00030171374 6.965759e-05 -3.174565e-05
0003d0 17 4e df 37 8c 7d 91 b8 ca 04 10 b9 41 a3 d9 35
       2.6620035e-05 -6.937524e-05 -0.00013734694 1.6215273e-06
0003e0 b1 e3 d9 38 4c a1 b0 b8 f0 f0 bb 38 71 3e ef b8
       0.00010389777 -8.422378e-05 8.961733e-05 -0.00011408039
0003f0 32 eb b9 38 83 0b ee 38 bc 6d 38 b9 8f 8e 07 b6
       8.865296e-05 0.000113508686 -0.00017588487 -2.0199548e-06
