src/models/atla_release/PPO/attack-ppo-hopper.model (torch_old, 273599 bytes, 72 tensors)

affine_layers.0.weight f4 [64, 11]
000000 37 e9 69 3d 6d 86 ac bc 3c b9 7c 3e 72 0a 99 3d
       0.057107177 -0.021060193 0.24680036 0.074726954
000010 b1 0a d6 bd 1d 78 bb bd ea f3 c6 bc 9f 9f 16 3e
       -0.10451258 -0.09153769 -0.02428623 0.14709328
000020 fa 4e 91 be 62 70 9c be fe be e3 bb 01 3e e1 3d
       -0.28380567 -0.3055449 -0.0069502583 0.109981544
000030 de f0 e9 bd 20 a6 49 3f 5b cb 84 bd bb a3 29 3d
       -0.11422895 0.7876911 -0.064840995 0.04141591
000040 13 45 11 bf 64 8b 9d 3c 20 94 ec 3d 49 4e 7f be
       -0.56746024 0.019231506 0.1155169 -0.24932207
000050 47 ed e8 3c dc 66 27 be 8b 7c b6 bc 3b 68 80 bd
       0.028433455 -0.16347831 -0.022276184 -0.062698804
000060 d6 7a f9 be 90 7d 92 be 44 fa f9 3c a0 b3 99 3e
       -0.4872653 -0.28611422 0.030514844 0.30019855
000070 8c 48 4b be f5 c3 89 3c 26 fd 3c bd 30 5e 00 be
       -0.19851893 0.016817072 -0.04613986 -0.1253593
000080 b2 e5 9c bd f4 ba 24 be d0 95 e0 bd 66 2d d2 3e
       -0.076609984 -0.16086942 -0.109660745 0.4105026
000090 5f 41 16 bd 6c 90 06 3d 32 89 3f 3d 5e 77 39 3e
       -0.036683436 0.032852575 0.0467617 0.18111941
0000a0 09 23 8b be 1c 0e b8 3e 41 fb 23 3d af 02 de 3b
       -0.27175167 0.35948265 0.040034536 0.0067752223
0000b0 54 32 c9 be 30 a2 14 3e 5e 15 22 bd 23 16 2b 3e
       -0.3929621 0.14514995 -0.03957116 0.16707663
0000c0 0f be 3e be dd 73 46 3e 9e ff da bd 84 a0 24 bc
       -0.18627189 0.19380136 -0.10693286 -0.0100480355
0000d0 5a 9e 81 bd fb 44 90 bd ea 6d bf bd 6f 27 f4 3c
       -0.06329031 -0.07044407 -0.09347136 0.02980396
0000e0 15 72 e7 3d cd e7 84 bd 52 d7 da bd 1f c3 b8 3e
       0.11301056 -0.06489525 -0.106856 0.36086366
0000f0 c0 af 8a 3e 0c 67 52 3d 5b 5d 80 3c 61 93 a4 bd
       0.27087212 0.051367804 0.015669515 -0.08035923
000100 58 5b b5 bd 08 dd 8d be c5 e5 63 3e 8e 5e 14 3e
       -0.08855313 -0.27707696 0.22255619 0.14489195
000110 09 34 05 be f9 fe 60 be f9 69 ec be e1 f5 93 3e
       -0.13008131 -0.21972264 -0.461746 0.28898528
000120 c3 9f 85 3e 0c 5a a5 bc 57 04 b1 bd b2 b5 7c bd
       0.2609845 -0.02018454 -0.08643406 -0.061696716
000130 89 af 00 bd bb d9 7e be b2 83 59 3e 1c f1 02 3e
       -0.031417403 -0.24887745 0.21241644 0.12787288
000140 96 b3 04 be dd fb 94 be 4c a3 11 be 1f 1d 68 be
       -0.12959132 -0.29098406 -0.14222449 -0.22667359
000150 91 d2 07 be 27 0e fd 3d 8f 0f fa b9 47 84 bb 3b
       -0.13263918 0.12356215 -0.00047695308 0.005722556
000160 67 65 af be 9a ea ce 3d 0c 00 43 bb 41 ae 50 bd
       -0.3425705 0.101033404 -0.0029754667 -0.05094743
000170 c1 99 0d 3e ca ab f6 3b 8c 22 e2 3d 53 34 f2 3d
       0.13828184 0.007527803 0.110417455 0.11826386
000180 0e 2a 2c be 09 83 8d bb 31 3b 26 3e aa 44 18 bf
       -0.16812918 -0.004318599 0.16233517 -0.59479773
000190 35 e2 03 be 70 ec 4e 3e 36 9c fc bd d3 f4 0c 3f
       -0.1287926 0.20207381 -0.12334482 0.5506107
0001a0 1c 38 73 be 80 ae 16 3e 53 4c f5 3d b3 40 38 be
       -0.23751873 0.14715004 0.11977448 -0.17993431
0001b0 ea 1d 30 3d 49 eb 9f be 82 a2 8a 3c 81 36 1f 3e
       0.04299728 -0.31234196 0.016923193 0.15548135
0001c0 4a f6 39 be 77 fc 9d 3e 03 92 49 3e a8 22 b0 bd
       -0.18160358 0.30856678 0.19684605 -0.0860036
0001d0 01 db 12 bd 7d 7d 2b bd 2d fe 48 3e 7f 01 43 3e
       -0.03585339 -0.04186772 0.1962821 0.1904354
0001e0 09 b5 80 be 4a da 72 3e 46 1c 2e 3d 89 5d 15 3f
       -0.2513812 0.23716083 0.042507432 0.5834585
0001f0 47 cc 1f 3d d3 4f 53 bc de 4b 48 be f1 c7 32 be
       0.039013173 -0.01289745 -0.19560191 -0.17459084
000200 e7 a2 9f 3d af ac 80 bd 87 06 2e 3d c1 88 9a 3d
       0.07794743 -0.06282937 0.042486694 0.07545615
000210 39 1e d7 be 33 5d 3f be 9b ce 88 bf 49 1f a5 be
       -0.42015246 -0.18687896 -1.0688051 -0.3225043
000220 c7 20 36 be bd fb a3 3d 0c 28 92 bd a5 79 b2 bc
       -0.17785941 0.08007 -0.071365446 -0.02178652
000230 bc e9 7f bc fc 1b 9e bc fa db 15 be a7 fb 26 be
       -0.015619691 -0.019300453 -0.14634696 -0.16306935
000240 e4 d8 16 be 2c fd 83 3f c5 d5 52 3e 0c 9e 1e 3d
       -0.14731175 1.0311637 0.20589359 0.038724944
000250 5f 92 35 bf 3b 33 37 3e a8 70 82 bd e9 7f 0b 3e
       -0.7092647 0.17890637 -0.06369144 0.13623013
000260 4e e4 dc 3d c9 2a a5 bd b4 55 ca 3d 1e 5a ef bd
       0.10785733 -0.08064801 0.09879628 -0.1168711
000270 d3 73 cd be 95 d1 63 be 3b 57 2e 3e 77 47 09 be
       -0.4012743 -0.22247918 0.17025463 -0.13406168
000280 f2 7d 6c be 9e a6 54 bd 8d d5 02 bd ea d1 b3 3d
       -0.2309492 -0.05191671 -0.03194194 0.08780272
000290 b1 93 38 bc 57 52 3b bd 5f 2d e6 3d 63 ad 4f be
       -0.011265681 -0.045732822 0.112391226 -0.20280986
0002a0 13 50 48 bc 69 64 be bd 61 20 91 3d 66 a8 d2 bd
       -0.012226122 -0.092964955 0.07086254 -0.10286026
0002b0 0d 45 b0 3d 69 fe 0c be 3a 0e 33 be 7d 71 85 bd
       0.086069204 -0.13768925 -0.17485896 -0.06515787
0002c0 cb 17 2e bc 78 19 95 3d f2 91 41 be 19 8b 87 be
       -0.01062579 0.072802484 -0.1890333 -0.2647331
0002d0 2d 19 3e 3d 7f 77 ab be 0b de 0b 3e fb 1e 70 3c
       0.04641073 -0.33489606 0.13658921 0.014655824
0002e0 0b 81 1c bd 64 79 38 3c 25 32 79 3d 8e f3 69 be
       -0.038209002 0.0112594105 0.060838837 -0.22846815
0002f0 11 2a db bd 31 85 5d bd 79 42 a6 be 12 ba 0d be
       -0.10701383 -0.0540821 -0.3247259 -0.13840511
000300 76 df b8 3e b5 45 a8 be b4 86 be bd 6c 08 df 3d
       0.36107987 -0.32865682 -0.09303036 0.10890278
000310 36 7f 7d 3d e5 ad 1d be 77 c2 da 3d 20 4a 51 be
       0.061888896 -0.15398367 0.106816225 -0.20438433
000320 af c2 9e bd cd 98 42 3e fe 48 06 bc 5e e1 89 be
       -0.07751977 0.19003601 -0.008196114 -0.26929754
000330 0a bd 74 3e 4a 5e e9 3d 1e 9e f8 bd 8c 39 36 bd
       0.23900238 0.11394937 -0.121395335 -0.044488475
000340 da 75 5a 3e 1e 98 1d be 73 00 75 3e 6d 5c 21 3f
       0.2133402 -0.1539006 0.23925953 0.63031656
000350 f6 f4 52 3e 94 dc aa bd a2 7e 0b bf 11 b8 fb 3d
       0.20601258 -0.08342853 -0.544901 0.12290967
000360 7d 63 da bd c4 0f c0 3e ed 6d 71 3e 8b 43 98 3c
       -0.10663507 0.37512028 0.2357709 0.018586894
000370 a9 d3 b0 bd 28 d9 9c 3e 50 3a 32 bf 94 f0 ae be
       -0.08634121 0.30634427 -0.6962023 -0.34167922
000380 1c 6d a0 be 96 6f 17 3e 8f f2 8f be 56 a7 dc bb
       -0.31333244 0.1478866 -0.28114745 -0.006733815
000390 4b 5e 82 bc 27 d4 13 be 28 86 2f be 89 a1 64 3d
       -0.015914103 -0.14436398 -0.1714102 0.055818114
0003a0 78 a8 01 be b0 50 73 3e c0 0f 75 3e 68 4f f8 bc
       -0.12661922 0.23761249 0.2393179 -0.030311301
0003b0 87 9a 8d be 58 67 06 3e 22 b7 cb bc 24 21 2b bc
       -0.27656958 0.1312536 -0.024867598 -0.010444913
0003c0 63 22 3a 3e ee a1 15 3e 5c 95 be 3d 2e dd 6d be
       0.1817718 0.14612553 0.09305832 -0.23228905
0003d0 d5 3b 01 3f 66 2b a4 3e 39 31 08 3e 2b e2 f9 bc
       0.5048192 0.3206436 0.13300027 -0.030503353
0003e0 36 01 89 be 83 91 35 be 8c e7 d5 3e 56 ec 62 3e
       -0.26758736 -0.1773129 0.4177822 0.22160468
0003f0 2c bc 82 be 4c 31 7a 3d cc 98 b3 3d 09 51 20 3e
       -0.2553419 0.06108217 0.08769378 0.15655912

affine_layers.0.bias f4 [64]
000000 2f ff 21 3e 32 f4 16 bd 1a 8c 9a be e8 64 8c 3e
       0.15820001 -0.036853977 -0.30185014 0.27420735
000010 e2 82 48 3e 79 dd 06 bd e7 ea 4c 3e 88 9c d7 be
       0.19581178 -0.032926057 0.20011483 -0.4211161
000020 d9 ba 11 3f 35 6e a0 bd 63 70 96 be d4 62 f2 3e
       0.5692573 -0.0783352 -0.2938262 0.47341025
000030 55 b4 54 be a7 bd 4f 3f d8 dd aa be 2d 17 c9 be
       -0.20771916 0.8114876 -0.33372378 -0.39275494
000040 21 33 9b 3e a1 7e 7d 3d 76 23 33 be 16 1a b0 3e
       0.30312446 0.06188834 -0.17493996 0.34394902
000050 dc f7 ce 3b 59 22 63 3e b1 2a e1 3e f4 79 52 be
       0.0063161682 0.22181071 0.43977883 -0.20554334
000060 b6 a7 ca 3e a8 1d bf 3e 49 b9 82 be 2c 3f a0 be
       0.39581078 0.37327313 -0.25531986 -0.31298196
000070 fe 58 06 bf 02 2f 1c 3e 2c 9c 2f be 9c e7 bf be
       -0.5247954 0.15252307 -0.17149419 -0.3748139
000080 d0 85 af 3e 78 0f 0e 3f 36 4b e8 be e2 55 f1 be
       0.34281778 0.55492353 -0.4536988 -0.47135836
000090 12 0e 68 be 37 6a d5 bd 3a e2 ae 3e b4 c0 7f be
       -0.22661617 -0.104206495 0.34156972 -0.24975854
0000a0 2c 50 29 3e 6e 58 06 3f f2 37 49 bf ea e0 77 3d
       0.1653449 0.52478683 -0.7860099 0.06051723
0000b0 f7 53 21 3e ec df a0 3e b5 bb d1 3d 9e c0 1b be
       0.15754686 0.3142084 0.102408804 -0.15210196
0000c0 c0 53 2a bf 7c e5 13 3f eb 4a 40 3e e7 b4 cd 3e
       -0.6653404 0.5777204 0.18778579 0.4017708
0000d0 82 da b9 3e 2f 7c be 3e 80 b5 5d 3e 59 af 8e 3e
       0.3629952 0.3720412 0.21651268 0.27868155
0000e0 32 63 c1 bd 0b e4 23 be dc 45 40 3e 54 e2 37 3f
       -0.09442748 -0.1600496 0.18776649 0.71829724
0000f0 ff b5 8b 3e 14 8a 90 be 68 45 86 be f7 44 59 3e
       0.2728729 -0.28230345 -0.26224828 0.21217714

affine_layers.1.weight f4 [64, 64]
000000 ce ea be 3d db 80 3f bd 33 f0 34 bd e8 85 df 3d
       0.09322129 -0.046753746 -0.044174384 0.109142125
000010 b8 1b 63 be b8 b7 e8 be f6 13 63 3b a7 17 05 3b
       -0.22178543 -0.45452666 0.0034649349 0.0020308287
000020 45 4a d7 bd a6 3a c9 be b2 a2 19 3e 0b bf 97 bd
       -0.10512213 -0.39302558 0.1500347 -0.074094854
000030 d4 a4 03 bd 9e f2 9d bd 11 a0 e0 bd 65 bd 51 bd
       -0.032139614 -0.07712291 -0.1096803 -0.05120601
000040 4a 4f 5d 3d 05 17 84 3d a6 e3 84 bd fb 26 12 be
       0.054030694 0.06449703 -0.06488733 -0.14272682
000050 7b ac 29 3e 32 13 ff be 53 9d 46 be e2 90 48 3e
       0.16569702 -0.49819332 -0.19395952 0.19586518
000060 56 21 97 be a3 ff 8c 3e 0d 95 47 3e b9 4a b6 3e
       -0.2951762 0.27538785 0.19490452 0.35603884
000070 db 7a 3d 3e 95 ec 55 be 77 d2 ba 3d b4 cd 0e be
       0.18503897 -0.2089103 0.09122174 -0.13945657
000080 cd f4 31 3e 2a da 43 bd 55 1c 5f bd ae d3 1a 3e
       0.1737854 -0.04781548 -0.05447038 0.15119812
000090 26 1d 93 be 2b ba c3 bd 9b e9 4f be e5 81 a5 be
       -0.28733176 -0.09556993 -0.20303957 -0.32325664
0000a0 f4 72 0f bd c2 7f 08 3f d8 a9 83 bd e9 89 5f be
       -0.035021737 0.5331994 -0.064288795 -0.21829952
0000b0 9e bf 00 be 23 9f cc bc 50 9c cd bd f2 4b 0d be
       -0.12573096 -0.024978226 -0.1003958 -0.13798502
0000c0 3a f4 1f be 9d 5e ab be b0 56 2f bd d9 f9 61 3d
       -0.15620509 -0.33470622 -0.04280728 0.055169914
0000d0 e6 b4 23 be 1b cb 67 be 4b 09 ef bd 07 30 5f be
       -0.15986976 -0.22636072 -0.11671694 -0.21795665
0000e0 b1 da 9f be 1e 33 70 3e 3a 7c 1e 3e 5d b2 a3 be
       -0.31221536 0.23457 0.15477076 -0.31972018
0000f0 8e 2f 0b 3e 13 31 e8 3d d8 fb 49 3e 93 c7 73 be
       0.1359236 0.11337485 0.19724977 -0.238066
000100 e1 d7 7f be e8 b2 77 be 58 a9 54 bd 73 63 6c bb
       -0.24984695 -0.24189341 -0.05191931 -0.0036070019
000110 16 cc 31 3e dc b9 56 3d 9f 04 7c be a8 fb ad 3d
       0.17363009 0.052423343 -0.24611138 0.08495265
000120 75 ee da 3e d1 3f ab 3d 9f 05 65 be fc 83 00 bd
       0.42760053 0.083617814 -0.22365426 -0.03137587
000130 cb 45 8b bd 31 02 05 3d 2a 77 e2 bd c4 bc 21 3e
       -0.06800421 0.032472793 -0.11057885 0.15794665
000140 ce be 16 be 38 c5 90 3e 5f ad bb bd f4 a7 06 bd
       -0.14721224 0.28275466 -0.09163927 -0.032875016
000150 7a 2f 53 bd ad 9d af bd 64 26 0c bd 44 3f 0b 3e
       -0.05155895 -0.08574996 -0.0342163 0.13598353
000160 c2 b6 6b bd 5f d3 89 3c 2c 82 63 3e 3e ab 8b bc
       -0.05754734 0.016824422 0.22217625 -0.017049428
000170 f0 e2 b2 3d 67 fa 75 be 2e 4e 37 bb 61 b9 9f be
       0.08734691 -0.24021302 -0.0027970183 -0.3119612
000180 9e ba 4f 3e ea 3c cb 3d 2b fe fd bd 46 94 f6 3b
       0.20286033 0.09923728 -0.12401994 0.007525
000190 dd 64 b5 bd 79 87 90 3e d1 56 04 bc 5e 6f 08 be
       -0.08857129 0.28228357 -0.008077339 -0.13323733
0001a0 24 a6 10 ba ae 34 3f be 3a 74 8c 3d 12 1e d1 bb
       -0.0005517921 -0.1867244 0.06858106 -0.0063817585
0001b0 45 90 30 3e 43 73 3d bd b2 a6 ac 3e 71 75 35 3e
       0.17242534 -0.0462525 0.33720928 0.17720582
0001c0 1e ee 24 be a3 79 c7 3e a6 e0 ae be ca a0 cc be
       -0.1610646 0.3895999 -0.34155768 -0.39966422
0001d0 ae 05 3d 3e fd 8e 51 bd 96 1f 19 3e 63 be 4a 3e
       0.18459198 -0.051161755 0.14953455 0.1979919
0001e0 7f d1 00 bc 94 e3 53 bd e2 9c 5f bc c3 f8 6f bd
       -0.007862448 -0.051730707 -0.013648244 -0.058586847
0001f0 ac cd 11 3d e6 60 7f be a2 19 a2 bd 81 48 a3 be
       0.035596535 -0.24939308 -0.07915045 -0.31891254
000200 a9 86 6d be 43 4f 9d 3e a8 40 af bd ff b8 38 be
       -0.231959 0.30724534 -0.08557254 -0.1803932
000210 12 69 09 bf 1f 92 8a be dc 47 dd be b7 91 26 be
       -0.5367595 -0.27064607 -0.43218887 -0.16266523
000220 0b e5 b1 be 30 b9 53 3d f4 6f 61 3e 14 c1 70 be
       -0.34745058 0.05169028 0.22015363 -0.23511153
000230 ad 5c ea 3e 1a 9f a1 be aa 27 f2 3d 22 e8 48 bd
       0.4577383 -0.31566697 0.118239716 -0.049049504
000240 24 a0 36 3e 10 a5 4c bd 14 fc 7c 3d 92 00 b6 bd
       0.17834526 -0.049962103 0.061763838 -0.088868275
000250 63 8e 90 be 27 45 01 3d 1d dc 2c bd 62 bd 83 bd
       -0.28233632 0.03156009 -0.042202104 -0.06432606
000260 55 28 22 3d 69 56 79 be 70 1a 48 be f9 b2 af 3d
       0.039589245 -0.24349369 -0.19541335 0.08579058
000270 c9 39 c7 3e c1 eb 82 3e 89 36 c4 3d 5e 59 c1 bd
       0.38911274 0.2557049 0.09580714 -0.094408736
000280 85 38 ee 3c 2d 01 98 be 4f c3 01 3e b8 a8 fd bb
       0.029079685 -0.29688397 0.1267216 -0.00774106
000290 9f 3d be bd df f0 e9 3e 38 67 8e 3e 26 f3 a8 bc
       -0.09289097 0.45691583 0.27813125 -0.020623755
0002a0 83 bd 42 be fa f5 f8 be 70 69 ef bd ba 27 3c bd
       -0.19017605 -0.48625165 -0.116900325 -0.045936324
0002b0 88 35 67 be 5b bc 1c 3e 0a 71 21 3d 8c 7f 8c 3d
       -0.22579014 0.15306227 0.039414443 0.06860265
0002c0 9b db 21 3e 82 ea 96 be cf 21 b6 bc b0 e1 36 be
       0.15806429 -0.2947579 -0.022232918 -0.1785953
0002d0 a0 28 f5 bc e7 e8 94 be 98 ce dd 3d 1c ea 43 be
       -0.029926598 -0.2908394 0.1083042 -0.19132274
0002e0 e6 30 ed bc 8a 62 29 be 82 23 1d be 4a 04 7c be
       -0.02895398 -0.16541496 -0.15345576 -0.24611011
0002f0 39 e6 db be 3c 85 7a bd ce 1c 1d 3e 44 c3 b3 3e
       -0.42949083 -0.06116222 0.1534302 0.35109913
000300 dc fb 14 bf ea a1 16 bf 15 2c bb 3e ae 49 0b be
       -0.58196807 -0.5884081 0.3655707 -0.13602325
000310 77 db ed bb 03 4b 3c 3d aa 6f dd bd 59 88 00 3e
       -0.0072588283 0.045969974 -0.10812314 0.12552013
000320 18 ab ee bd fe 9c 02 bf f5 a5 ad bd fd e3 14 be
       -0.11653727 -0.510208 -0.084789194 -0.14540096
000330 eb fe ce 3e 39 35 51 bf 24 5e 5d 3c 6c 8d 15 3f
       0.40428862 -0.81721836 0.013511214 0.5841892
000340 02 de a2 3d 1e 6a 22 bd 11 00 ca be a7 71 0c be
       0.07952501 -0.039651982 -0.39453176 -0.1371523
000350 b5 76 b1 3e dd cd ca bd d4 03 76 be 31 4e 39 3e
       0.3466088 -0.099025466 -0.24024898 0.18096234
000360 d8 5b c2 bc 87 b3 46 be de c8 29 be 66 bc 0e 3f
       -0.023725435 -0.19404422 -0.16580531 0.55756223
000370 8b 7d c3 3e 35 90 f8 be 02 c0 4e bd 4b ba 90 3e
       0.3818172 -0.4854752 -0.05047608 0.2826713
000380 04 9d 57 be 70 3c ad be ef d1 e5 3e e9 e4 2e be
       -0.2105599 -0.33835173 0.4488673 -0.1707951
000390 64 13 a7 3e 40 34 87 be 25 db 87 be 57 ef d3 bc
       0.3263198 -0.2640705 -0.26534382 -0.025870962
0003a0 6c fb 08 3e b3 b2 b9 be b5 6a 57 3e 15 66 13 bf
       0.1337716 -0.3626915 0.21036799 -0.5757764
0003b0 ce f6 5a bc 27 30 0c bf fb 22 31 3e b4 fc 2c be
       -0.013364507 -0.54760975 0.172985 -0.16893274
0003c0 53 83 05 3f 0a 61 71 bc 94 31 8b be d5 9e 95 be
       0.5215351 -0.014732609 -0.27186263 -0.29222742
0003d0 57 2b 94 3e 11 57 e1 bd 4b 78 91 bd 5d b0 10 bf
       0.28939316 -0.11002935 -0.07103022 -0.5651911
0003e0 e2 00 ab 3e 45 41 46 be 15 4e cd 3d bc d7 af be
       0.3339911 -0.19360836 0.100246586 -0.3434428
0003f0 59 2c 30 3e e3 cf 78 3e 11 72 d5 3e 79 74 7a be
       0.17204417 0.24298052 0.41688588 -0.24458493

affine_layers.1.bias f4 [64]
000000 7d 2f 2e be b6 07 39 3e 01 02 e2 be 99 e2 86 be
       -0.17010303 0.18069348 -0.44142154 -0.26344755
000010 9e 0a 2c 3e c1 64 fc bc 6d fa 40 3e 8b 67 75 3e
       0.16800925 -0.030809762 0.1884553 0.2396528
000020 37 e3 33 bc c8 b3 18 3e d6 93 c3 3b de 4d 3f 3e
       -0.010979465 0.14912331 0.005968551 0.18682048
000030 20 f2 70 be 26 80 a2 3d 06 a4 1b be 52 0c 1a bd
       -0.23529863 0.079345986 -0.15199289 -0.037609406
000040 93 f6 bc 3d bf bd 8e be 87 c1 dc 3d ec e0 f8 bd
       0.09226718 -0.2787914 0.107791 -0.121522754
000050 9a d6 79 be 68 33 cc 3e 44 60 ba 3d cb fb 7e bd
       -0.2439827 0.3988297 0.091003925 -0.062251847
000060 51 ff a6 be d6 fe 2c bd 6c d2 49 be 4b 57 1c be
       -0.32616666 -0.042235218 -0.19709176 -0.15267675
000070 8a c5 a8 3e 6b af 90 be 2b eb 6b be e2 14 12 3e
       0.3296321 -0.28258833 -0.23038928 0.14265779
000080 08 e6 82 3e 4e bc 93 be e3 03 fb 3d 86 6b 37 bd
       0.25566125 -0.28854603 0.12256601 -0.044780277
000090 fa 6e 50 be e5 05 a1 be 1e e7 12 be 61 d1 40 be
       -0.20354834 -0.3144981 -0.14345977 -0.18829872
0000a0 13 64 e8 bd df 29 85 3e c0 15 5b 3d 46 e1 31 be
       -0.11347213 0.26008508 0.05348754 -0.17371091
0000b0 a6 74 8c bd 19 8d f8 3e 42 d3 83 3e e2 4c ac bd
       -0.068581864 0.4854515 0.25747114 -0.08413102
0000c0 f6 a3 5d be f1 06 4b be 33 c0 96 be b1 6e 01 be
       -0.21644577 -0.19826867 -0.2944351 -0.12639882
0000d0 84 cf 28 be 5d 59 75 3e 7e 13 ee bd 99 27 88 3e
       -0.16485411 0.2395987 -0.116248116 0.2659271
0000e0 a2 4d 02 3e 19 2f 19 be 34 54 69 be 1b a1 dc be
       0.12724927 -0.14959373 -0.22786027 -0.43091664
0000f0 93 56 b2 be b8 9f b4 be 1d 8b 25 be 09 ca a7 bd
       -0.34831676 -0.35278106 -0.16166349 -0.08192832

final.weight f4 [1, 64]
000000 1f 4f 38 be e1 84 fc 3d 80 1e 69 be 67 55 3f be
       -0.17998932 0.12330032 -0.22765541 -0.18684922
000010 25 b1 c6 3d 40 77 ce bd 66 35 03 3e 4f 7a 5e 3c
       0.097017564 -0.10081339 0.12813339 0.013578965
000020 11 0d 2d be 5d 71 f2 3d b1 d8 12 be b7 ce 00 3e
       -0.16899516 0.118380286 -0.14340474 0.12578855
000030 ec fd bb bc 51 96 88 3d 3b 52 0e be 06 08 48 3e
       -0.022948228 0.066692956 -0.13898556 0.1953431
000040 77 e0 61 3c 9d 09 a7 bd 7a e7 ac bd a3 44 cb bd
       0.013786427 -0.081561305 -0.08442588 -0.09925201
000050 f8 86 27 be d5 f1 ab 3e b1 40 5d 3d 4d c8 04 3e
       -0.1636008 0.3358294 0.054016773 0.12967034
000060 3c b9 48 be bd ce 47 be 2e 26 c8 bd 7c 6f eb bd
       -0.19601911 -0.19512458 -0.09772907 -0.11495873
000070 7a a5 77 3e ca 62 1b be 4a 5e 49 be 0d cb bd 3d
       0.24184218 -0.15174404 -0.19664875 0.092672445
000080 3b 2f a6 3c d2 de 59 be 95 98 2e 3c df e5 72 3b
       0.020286193 -0.21276405 0.010656496 0.0037063283
000090 e7 2a 03 be 8d db 97 be d9 10 fb bd b6 25 02 be
       -0.12809335 -0.2965969 -0.12259073 -0.12709698
0000a0 9b 3f e0 bd 34 ce 48 3e 6d a0 0b 3e 0a 13 7b bd
       -0.10949632 0.1960991 0.13635416 -0.061297454
0000b0 1e ff 1a 3e cf c5 c7 3e 88 33 17 3e 73 13 96 bd
       0.15136382 0.39018103 0.14765751 -0.073279284
0000c0 7d d8 53 bd 7d 54 92 bc d3 81 5a be c1 34 06 be
       -0.05172013 -0.017862553 -0.21338587 -0.13106062
0000d0 0b c6 e7 bc 89 c2 68 3d 7d be b3 bd a8 80 c2 3e
       -0.028292676 0.05682615 -0.08776567 0.37988782
0000e0 03 7b 57 3e c9 6a 3a be 56 61 ae 3c 8f 61 09 be
       0.21043019 -0.18204798 0.021286648 -0.13416122
0000f0 3b 09 31 be c3 ea 3d be d5 47 0b bd 92 6b 77 be
       -0.17288677 -0.18546586 -0.03400405 -0.24162129

log_stdev f4 [3]
000000 3a f6 a6 bf 97 68 9d bf 65 27 bb bf
       -1.3043892 -1.2297543 -1.4621397

affine_layers.0.weight f4 [64, 11]
000000 42 ab 7f bd 56 01 d5 3e a8 91 05 3f f8 23 42 bd
       -0.062419184 0.41602582 0.5217538 -0.047397584
000010 9b ec 75 3e bc 10 b3 bc 39 85 83 3e c7 9a 67 be
       0.24016039 -0.021858566 0.25687578 -0.22617637
000020 c2 b1 13 3e 68 10 c7 3e d0 84 af 3e a0 5f 82 3d
       0.14423278 0.38879704 0.34281015 0.06365895
000030 e3 91 35 be c8 cb 3c 3e 49 30 22 be 25 74 80 be
       -0.17731433 0.18437111 -0.15838732 -0.2508861
000040 4a c4 cc be 04 00 b1 be 10 d1 b1 be 76 6b b8 3e
       -0.39993507 -0.34570324 -0.34729815 0.36019486
000050 de 31 ac be 05 da c3 be 39 3f b9 3c 51 be fa bd
       -0.33631796 -0.38252273 0.022613155 -0.12243331
000060 ab e4 75 3e a6 8d e8 3d 27 d4 a6 be 4d 88 71 bc
       0.24013011 0.11355142 -0.32583734 -0.014741969
000070 9b 7f d4 ba a2 17 73 be bd a4 6a 3e 2d 52 f1 3d
       -0.0016212346 -0.23739484 0.22914405 0.11783252
000080 73 13 43 be 06 aa 00 3e c1 e9 2e bd dd b7 1a be
       -0.19050388 0.12564859 -0.042703394 -0.15109201
000090 a2 97 13 be a8 58 45 3e 2c 7f e8 3e a8 26 89 3e
       -0.14413312 0.19272101 0.45409524 0.26787305
0000a0 41 80 0e 3e 89 a5 03 bd 80 10 73 be 41 38 0a be
       0.13916112 -0.03214029 -0.23736763 -0.13498022
0000b0 d0 11 e6 3d ec 9c ab be 3e 19 84 be 5c 27 00 3e
       0.11233866 -0.3351816 -0.25800508 0.12515014
0000c0 cb 7f 57 be e6 77 0b 3f e5 82 58 be 78 2c b8 3c
       -0.21044843 0.54479825 -0.21143682 0.022482142
0000d0 13 4d e5 be bc 17 a6 bd 47 81 20 be 9a ff bf bc
       -0.44785365 -0.08109996 -0.15674315 -0.02343731
0000e0 68 b9 cb be 5c 26 de 3e 8c a5 6f 3e 21 f1 ae 3c
       -0.3978989 0.4338864 0.23402995 0.021355214
0000f0 2f 8c 9f be 72 e0 17 be 13 80 8b bd cd d8 f1 3d
       -0.3116164 -0.14831713 -0.068115376 0.118089296
000100 6b 23 89 3e a8 84 a6 3e e0 fb 1e 3f c1 8f a7 bd
       0.26784834 0.32523084 0.6210308 -0.08181716
000110 ea 4e 71 3d 8a ba 09 3f 60 74 d7 3d 8b 62 63 bd
       0.05891315 0.5380026 0.10520244 -0.0555139
000120 4c 77 77 be ec 3d 21 be 7a 88 af be 14 35 5a bd
       -0.24166602 -0.15746278 -0.3428381 -0.053273275
000130 87 a9 9c bd 84 93 fe 3e 7e 6e 3b be e1 16 b0 bd
       -0.07649522 0.4972192 -0.18303868 -0.08598114
000140 ca e0 df 3e 73 13 31 be 9a 41 56 bd b9 d2 bf 3e
       0.43726188 -0.17292576 -0.052308656 0.37465456
000150 b9 b7 fe be 83 03 0f bd d8 c4 62 3e 14 1f 03 be
       -0.49749544 -0.03491546 0.22145402 -0.12804824
000160 1f 45 85 bd 59 5b b1 3e ae c0 85 3e 34 e7 11 be
       -0.065073244 0.34640005 0.26123565 -0.14248353
000170 82 4d 70 be 21 1c 12 be a5 05 22 bc 98 09 3d 3e
       -0.23467067 -0.14268543 -0.009889041 0.18460691
000180 0f 62 28 3e da fa bc bc ba b8 22 be e1 b8 34 bc
       0.16443656 -0.023068834 -0.1589078 -0.011030407
000190 64 06 8c be 49 d3 51 be 89 16 6a be 68 79 b0 3e
       -0.27348626 -0.20490755 -0.22860159 0.34467626
0001a0 db c1 c5 3e 01 60 b4 be 61 18 d0 be d4 dc 1f be
       0.38624462 -0.35229495 -0.406436 -0.15611583
0001b0 ae 63 e3 3d 55 5f 8f be fa e1 91 be 9f fb bc be
       0.11102997 -0.2800242 -0.2849272 -0.36910722
0001c0 3c 81 43 3d 7d e9 53 3d 62 cf c7 bd a7 e8 38 bc
       0.04773067 0.051736344 -0.09756352 -0.011285937
0001d0 ce f9 48 3d 1c 65 ef bc 8b e9 7f bc b5 cb 25 bc
       0.049066357 -0.029223017 -0.015619646 -0.010119368
0001e0 57 80 de bd 54 a8 9c 3d 44 21 82 3e 21 16 94 be
       -0.10864323 0.076492935 0.25416005 -0.28923133
0001f0 57 f2 eb bd 7a a7 c0 bd 81 40 8a be 4f a1 f0 3c
       -0.11520832 -0.094069436 -0.27002338 0.029373793
000200 a5 95 49 be bf 12 2f bf 1e 20 02 bd 5f 7b 8b 3d
       -0.19685991 -0.6838798 -0.03176891 0.068106405
000210 32 b6 c3 3c 04 82 35 3e dc 4d 09 be 35 59 6e 3e
       0.023890588 0.17725378 -0.13408607 0.23276217
000220 ab 65 f1 3b 21 12 f5 3e 55 4d da 3d 46 41 49 3d
       0.007366856 0.47865394 0.10659281 0.049134515
000230 ed b7 d7 3b 9a c3 89 bd 3a 59 b1 3d 8f a5 a2 3d
       0.006583205 -0.06726761 0.08659597 0.07941734
000240 74 3b 90 3e cf d7 9f 3d e3 35 9b bc 6f 85 49 bd
       0.2817036 0.07804834 -0.018946594 -0.049199518
000250 df 5a 17 3e fc 3d 55 3e ce 52 61 3e 3a bd 8f 3d
       0.14780758 0.20824426 0.22004244 0.07018514
000260 8d 07 f6 bd 00 6f 18 be 86 0f e4 bd 7f e8 b2 be
       -0.12013159 -0.14886093 -0.11135773 -0.34943005
000270 69 ae b4 be 73 ff 21 3e 8b 99 8a 3e 8c f4 b6 3e
       -0.35289314 0.15820102 0.2707027 0.3573345
000280 74 59 01 3f 98 9d 41 3e 01 3a a0 bd 2d 61 12 be
       0.5052712 0.18907773 -0.07823563 -0.14294882
000290 62 5d 0e 3e 69 77 ce be 67 b5 01 be eb e8 19 bf
       0.1390281 -0.40325478 -0.12666856 -0.6012103
0002a0 31 41 64 bd fd 1d df be fc de 42 3e 20 84 37 3e
       -0.055726234 -0.43577567 0.19030374 0.17921495
0002b0 ec c4 ba 3c bf b4 09 be 26 f5 97 3e 95 ef 76 ba
       0.022798978 -0.13447855 0.2967922 -0.0009419856
0002c0 db 9b 55 3d 49 7f 09 3d 31 73 29 3c 7e 95 7d be
       0.05215059 0.033568654 0.010342405 -0.24764058
0002d0 d8 5b 1d 3e 7f dd 0f 3d 2d b3 06 3e 48 6a d5 3d
       0.15367067 0.035123345 0.13154288 0.10420662
0002e0 5f b8 d2 3d 34 7a 55 bf 7e b1 0e bd aa 89 e0 bd
       0.10289072 -0.8338959 -0.03483724 -0.10963757
0002f0 c5 56 8d 3e 4d 31 b2 be 8e 4a 94 3e 35 22 18 be
       0.27605262 -0.3480324 0.2896313 -0.14856799
000300 07 25 36 bd 8d 75 6a be 33 31 2b 3d 60 3b b9 be
       -0.044468906 -0.22896405 0.041794967 -0.36178112
000310 51 fa 09 be 51 f5 24 be 02 47 d3 bc 3f 83 10 3e
       -0.13474394 -0.16109206 -0.025790695 0.14112566
000320 e9 05 8c 3e 89 0d 0c be d6 b4 e1 3d 50 bf 0d be
       0.2734826 -0.13677038 0.1102082 -0.13842511
000330 bd fe 2c be bb 06 0f 3f 8e 21 cf 3e e7 64 de bd
       -0.1689405 0.55869645 0.40455288 -0.10859089
000340 af 53 bc bc c2 af 18 be b4 e5 19 3d e2 dc 3b 3e
       -0.022989122 -0.14910796 0.037572578 0.18345979
000350 d5 b6 e1 3c e6 d7 13 bf 16 a8 a4 3d e9 fe 91 bd
       0.027553001 -0.5775131 0.08039872 -0.071286984
000360 67 3a 9f be 60 6d 71 3d d1 ec 42 be a5 f4 a0 be
       -0.31099245 0.0589422 -0.19035651 -0.3143665
000370 c7 0d f9 3d 1c 48 06 be a1 66 44 be ca d0 d6 be
       0.12160831 -0.13113445 -0.19179775 -0.41956168
000380 81 be cf 3e be 15 09 3d c6 e4 0c 3d 9d 5e f2 bd
       0.4057503 0.033468 0.034397863 -0.11834452
000390 92 fc 40 bf 19 a9 34 bd 46 d2 07 3e 1e 2d 68 3f
       -0.7538539 -0.044106577 0.13263807 0.90693843
0003a0 a9 9c 8a 3e e2 b5 54 3e 9c 15 31 3f 9c 79 df 3c
       0.27072647 0.20772508 0.691736 0.027279668
0003b0 43 a0 c3 be 54 96 05 3d a8 9b 5d 3e f9 5d b9 bd
       -0.38208207 0.032614067 0.2164141 -0.09051127
0003c0 44 42 40 bd 61 c3 9f ba b4 e5 3b be 3f 42 9b 3e
       -0.046938196 -0.0012188965 -0.18349344 0.3032398
0003d0 1c 5b 0b be c8 92 66 3e 73 41 17 be a2 62 3f 3e
       -0.13608974 0.2251693 -0.1477106 0.18689969
0003e0 a9 e2 a0 be 2e d5 10 3e b7 ac 81 3e ef be 7f bc
       -0.31422928 0.14143822 0.25327083 -0.015609487
0003f0 01 7e 24 be d6 95 a1 bd f2 1d 10 be ad 94 0a bd
       -0.16063692 -0.07889907 -0.14073923 -0.033833195

affine_layers.0.bias f4 [64]
000000 6a 6e 18 bd 15 8b 7b bc 11 f9 7e bd 5a 67 9c 3e
       -0.037214674 -0.015352984 -0.062249247 0.305476
000010 95 b8 60 3e 31 aa 7e be 9c b0 8b be 29 2f fa 3d
       0.21945412 -0.2486961 -0.2728318 0.12216026
000020 8b cb d6 bd c7 b1 9f 3e 88 bd 39 3e 92 c2 24 3e
       -0.104880415 0.3119032 0.18138707 0.16089848
000030 db ee 0b bd bd 8f 6f be 79 7f 24 bd 4a 07 31 3c
       -0.034163337 -0.23394676 -0.04016063 0.0108049605
000040 07 d7 cf 3d 76 dd aa 3c 8c eb af bd 02 b9 f9 bd
       0.10148435 0.020857554 -0.08589849 -0.121934906
000050 b8 e2 87 3d 9d 66 1c 3e 2f 23 00 be 3f 92 59 be
       0.0663504 0.15273519 -0.12513421 -0.21247195
000060 8e 2e 24 3d b5 5d 6a 3e 92 f3 13 3d 64 5e 1a be
       0.04008346 0.22887309 0.03612096 -0.1507507
000070 32 4f b8 be 89 2e 07 3e 5c 43 92 3e a5 80 bb bd
       -0.3599792 0.13201346 0.28567016 -0.09155396
000080 6e 5d 16 bc 03 71 9b be a3 b2 bc 3d 59 17 84 bd
       -0.009177549 -0.3035966 0.0921376 -0.06449766
000090 94 34 1e be b2 98 7b bc ee d2 a2 be dc 99 f9 3c
       -0.15449744 -0.01535623 -0.31801552 0.030468874
0000a0 e7 44 06 3e a8 03 ac 3a f2 0e b2 3d 19 29 c4 3d
       0.13112222 0.0013123648 0.08694257 0.09578151
0000b0 43 bd 7e 3e 0a 18 0a bd 6e 0e f4 bd 25 c4 5b bd
       0.24876885 -0.03371433 -0.11916815 -0.053653855
0000c0 08 79 5f 3e 8e 4d 96 bd 13 6e bf be 1a f7 b8 bd
       0.21823514 -0.07339011 -0.37388667 -0.09031506
0000d0 66 48 86 bd c8 f3 6f 3e e0 37 85 3e 1d 8b e7 bc
       -0.06556778 0.23432839 0.26019192 -0.028264577
0000e0 3f 4a 10 3e c0 ad 65 3d f7 13 db 3d 9c 1a 4e be
       0.14090823 0.056073904 0.10697167 -0.20127338
0000f0 4d 58 3c be 7a 9a ef 3d 31 39 84 be 21 46 02 be
       -0.18393059 0.11699386 -0.25824884 -0.12722065

affine_layers.1.weight f4 [64, 64]
000000 6f d8 75 be 05 1d 0f 3e 68 cf 03 3d 7e 9e 8d be
       -0.24008344 0.13975914 0.03218022 -0.27659982
000010 d2 fb a1 be 92 79 ef 3c a3 5f bc be 53 ce c9 bd
       -0.31637436 0.029232774 -0.36791715 -0.09853806
000020 29 e8 1b 3f bc 2b 15 be 28 d0 35 bd 3f e0 dd bd
       0.60901123 -0.14567465 -0.044387966 -0.10833787
000030 54 e3 63 bd c8 80 65 3e e7 bc b4 be 11 26 8a be
       -0.05563672 0.22412407 -0.3530037 -0.26982167
000040 bc d5 24 3e 61 13 59 3e b4 e3 69 3d bd 2f e7 3e
       0.16097158 0.21198799 0.05710192 0.4515361
000050 ec 40 30 3c 21 8d 07 3d 91 b5 88 3e c1 a5 41 be
       0.010757666 0.033093575 0.26701024 -0.18910886
000060 3e 4e 4a be c6 67 79 bc dc b7 92 3d 80 19 52 3d
       -0.1975641 -0.015222495 0.07163975 0.05129385
000070 93 47 25 be 1a e5 8c 3e 96 3b 3c 3d e3 3c 43 3f
       -0.16140585 0.2751854 0.045955263 0.7626478
000080 57 c6 19 bf 05 09 15 3e 3a fc 98 3d b8 92 8b bd
       -0.6006827 0.14554222 0.074699834 -0.06815094
000090 a2 b3 91 3c 53 50 a8 be fa d6 dc bd 5a 1d 4a 3e
       0.01778585 -0.32873783 -0.10783191 0.19737759
0000a0 ed 83 5d 3b 6f d5 25 bd 71 ba 0f 3e b8 fd 67 be
       0.0033800558 -0.04048675 0.14035966 -0.2265538
0000b0 dd db cf be 0a 45 83 be d6 7b d7 3e ae 7f 82 be
       -0.4059743 -0.2563861 0.42086667 -0.25488037
0000c0 19 5e d2 bd b7 31 5b 3e 13 25 7d be 5c b0 b9 3d
       -0.10271854 0.21405683 -0.24721174 0.09066841
0000d0 f1 8c 73 bc 04 6a 0e bf 60 10 e6 3b e4 87 53 3d
       -0.014865146 -0.55630517 0.007020995 0.051643267
0000e0 af 62 51 be 15 d0 6d 3e bb 31 18 be 63 2a 3d 3e
       -0.20447801 0.23223908 -0.1486272 0.184732
0000f0 ab ad 4c 3e 5e ff b7 bd c2 f0 c3 3d 74 c0 35 3d
       0.19988124 -0.08984254 0.09567405 0.04437299
000100 fd 39 c8 3d 20 8b 2d be 49 86 61 3d 62 fa 20 be
       0.097766854 -0.16947603 0.055059705 -0.15720513
000110 df 69 19 3e 27 3a 79 be e0 a3 4a be 75 4f ba be
       0.14981793 -0.2433859 -0.19789076 -0.36388746
000120 09 18 80 be c2 4b fd 3d 68 08 95 bd 46 bb bc 3e
       -0.25018337 0.12367965 -0.07276994 0.36861628
000130 7c a8 53 3d 1c 16 e7 3d db d9 c3 bd b4 3d f4 3e
       0.05167435 0.11283514 -0.09563037 0.47703326
000140 44 57 86 3e 64 0e 58 3e cd dd 50 be c3 4e 06 be
       0.26238453 0.2109924 -0.2039711 -0.13115983
000150 07 40 80 3e 7c 34 e6 be a4 d4 60 3e c5 cb bc 3d
       0.2504885 -0.44961917 0.21956116 0.092185535
000160 8f 51 7d 3d ce 9d 6c be c6 24 56 bd 76 0a f2 3e
       0.06184536 -0.23107073 -0.052281164 0.47273606
000170 03 f1 ec bd 7a 49 09 bf 2e b6 23 3f 77 76 55 3e
       -0.11569407 -0.5362774 0.6394986 0.20845972
000180 f3 0a 3f 3e 94 5e 50 bd 3e 03 0e bf 56 5d 8d 3e
       0.1865652 -0.050871447 -0.554737 0.27610272
000190 08 7b 32 bd 7c 78 ee 3e a0 68 0d be 8a f0 b9 bd
       -0.043574363 0.46576297 -0.13809443 -0.09079082
0001a0 71 38 5d 3d 6e 27 a7 3d 28 23 3c bd 5f 28 f6 be
       0.054008905 0.081618175 -0.045931965 -0.48077676
0001b0 cf e2 65 be e4 09 03 be be 19 db 3d 3e af 66 bd
       -0.22449802 -0.12796742 0.10698269 -0.056319468
0001c0 7f 3f 1d 3d 01 ec 8a bd 2d 13 39 3e 04 77 99 3e
       0.038390633 -0.067832954 0.18073721 0.29973614
0001d0 c1 9d 39 be ff fc d4 be f8 36 28 bf b9 ab 57 3d
       -0.18126585 -0.4159927 -0.65708876 0.052654
0001e0 fb c3 03 3e 8c ce 0a 3e c8 31 57 be 30 40 fc 3e
       0.1286773 0.13555354 -0.21015084 0.4926772
0001f0 86 d4 1e 3f f0 34 e1 be 08 0d 50 be de 28 14 bd
       0.62043035 -0.439857 -0.20317471 -0.036171786
000200 30 42 54 3f 2b 28 33 3c 7a 12 0f be 4d 8f 76 be
       0.82913494 0.01093487 -0.13971892 -0.24078102
000210 d3 8b bc be 81 1e 70 3e ac b0 df be 8d 9c 8f 3d
       -0.36825427 0.23449136 -0.43689477 0.070122816
000220 3a 79 fb ba 5d a9 89 bd da 1b 07 bf 2f 00 0d 3e
       -0.0019185909 -0.067217566 -0.52776873 0.13769601
000230 28 42 e1 be 6a 23 d0 3d e8 bc 93 bd 86 e7 db be
       -0.43995786 0.10163005 -0.072137654 -0.42950076
000240 cd d8 94 3e 7a ed 87 be 2b 7c df bb 39 32 af bd
       0.29071656 -0.26548368 -0.006820222 -0.08554501
000250 f4 5a cc 3d 96 d1 56 3d 9c 57 95 be 6c 5a 53 bd
       0.099782854 0.05244597 -0.29168403 -0.051599905
000260 4a 2e b0 3c 8d d3 b2 be 0f d2 8a be 14 22 85 3c
       0.021506447 -0.34927025 -0.27113387 0.016251601
000270 8c b6 5c 3e d6 92 88 3d f4 2b a3 3e a0 f0 1b bf
       0.21554011 0.06668632 0.3186947 -0.6091404
000280 ce 09 72 3e 93 bb de 3e eb a9 8b be 08 aa 17 3e
       0.23636553 0.43502483 -0.27278075 0.14810956
000290 1c f3 8c be 57 f5 77 3e 51 02 16 3e 0b a4 83 bd
       -0.27529228 0.24214683 0.14649321 -0.06427773
0002a0 b6 88 8d 3d ff e9 57 be 22 dd 32 be 0b a3 88 3e
       0.06910841 -0.21085356 -0.17467168 0.26686892
0002b0 43 7f 20 bc 25 20 c4 be 6e dc 7b be f0 a6 33 3d
       -0.009795967 -0.38305774 -0.24595806 0.043860376
0002c0 f8 5b a1 be 74 3f 32 bf 7d 26 97 bd 47 19 34 3d
       -0.3151548 -0.6962807 -0.07380388 0.04396942
0002d0 4a c5 92 3d 2c fa 5e be b6 a5 ca bd 79 51 29 be
       0.07166536 -0.2177512 -0.09894888 -0.16534986
0002e0 6d 6a 1d 3d f0 17 6f bc 2d 1b cc bd 5e f3 df 3e
       0.038431574 -0.0145931095 -0.09966121 0.43740362
0002f0 e2 48 8c 3d 8c 04 d1 be d3 9e a7 bc 0f 85 8c 3e
       0.06849839 -0.40823781 -0.020461475 0.27445266
000300 d7 25 07 be 09 b0 6e bd 24 b7 26 bc dc e2 55 be
       -0.13198029 -0.05827335 -0.0101755 -0.20887321
000310 dd c7 34 3e 4a ac 94 bd 66 3d 73 3e c3 01 c6 3e
       0.17654367 -0.07259424 0.2375389 0.3867322
000320 74 1c 33 be c3 c3 d0 3d 92 a1 04 3f c2 6e ab 3e
       -0.17491323 0.101935886 0.51809037 0.3348294
000330 05 a5 94 3d 6a 7e 7d 3c c4 60 9d 3d cf 65 81 bd
       0.072580375 0.015472034 0.07684472 -0.063182466
000340 67 b6 f3 bd 0a 56 09 be b2 8d 0c be d7 31 38 3e
       -0.11900025 -0.13411728 -0.13725927 0.17987762
000350 19 27 1b be 07 b6 c0 3e 9a 95 14 be 7e 9f 8f 3d
       -0.15151633 0.37638876 -0.14510193 0.070128426
000360 84 98 07 3e a5 66 9b be 63 a1 9c bd af 8d 25 3f
       0.13241774 -0.3035175 -0.076479696 0.64669317
000370 c3 91 3d 3e a9 ce 72 be 0a a9 a1 3c 2a cc a9 bd
       0.18512635 -0.23711647 0.019733924 -0.08290894
000380 82 cb df 3e 42 25 89 3e b9 bf 65 3d 59 3f 7c 3e
       0.43709952 0.26786238 0.056091044 0.2463354
000390 f7 de 9c 3b 59 8c 0d 3e e7 e4 4e 3e cc 84 92 3e
       0.0047873217 0.1382307 0.20204507 0.2861694
0003a0 17 2d c0 3e b1 ed a4 be 97 54 62 be 61 8d 85 3c
       0.375344 -0.32212594 -0.22102581 0.016302766
0003b0 a6 e2 bc 3e f1 04 06 3f 32 4f c2 bd 05 9f aa 3e
       0.3689167 0.5235129 -0.094877616 0.33324447
0003c0 f4 48 27 be 73 aa a7 3d 18 9c 79 be 41 1d 40 be
       -0.16336423 0.081868075 -0.24375951 -0.1876116
0003d0 f3 5a 1c be 9e 75 e1 be 4c 30 fd bd 7d ab 6a bd
       -0.1526907 -0.44035047 -0.123627275 -0.05729245
0003e0 14 79 89 3d 48 72 58 be db 20 c9 3e 54 ab 14 be
       0.06712547 -0.21137345 0.3928288 -0.14518481
0003f0 46 c2 cd bb 1e 1a 1c be 5b f5 20 be 81 87 83 be
       -0.0062792627 -0.15244338 -0.15718596 -0.2568932

affine_layers.1.bias f4 [64]
000000 20 a9 92 bd 32 71 6d be 03 65 9c bd 80 69 83 bd
       -0.07161164 -0.23187712 -0.07636454 -0.06416607
000010 ae db 90 bd 26 37 73 bd 9e 2b e2 3b 60 45 9a 3d
       -0.070731506 -0.059378766 0.006902172 0.075327635
000020 6a cf 6e 3e f8 3d 12 3e 92 f6 45 be 1a 21 75 bd
       0.2332131 0.14281452 -0.1933234 -0.05984602
000030 3f 59 b4 bd df 61 35 3d 6a 1b d7 3c 54 46 1c 3e
       -0.08806085 0.04428279 0.02625819 0.15261203
000040 4f ab 30 be e1 82 03 be 6f c6 83 be 58 dd 91 3d
       -0.17252849 -0.12842895 -0.2573733 0.07122296
000050 a0 fa e1 3d 38 a4 f0 bd 89 98 07 bd 75 ae 96 3e
       0.11034131 -0.11750072 -0.033104453 0.29429975
000060 0f 85 19 be 85 93 1a bd 46 8d 64 3e e7 70 07 be
       -0.14992164 -0.03773834 0.22319517 -0.13226663
000070 d9 5c 1b be a0 5e 6c be a3 8d 60 3b 32 d9 48 3e
       -0.15172137 -0.23082972 0.003426411 0.19614103
000080 d9 88 92 3e 96 c2 8d 3e 56 4c 1f 3d 94 38 d3 be
       0.2862003 0.2768752 0.03889116 -0.41254103
000090 4a 39 8b 3e a0 35 62 3d ae a7 9c be 13 15 c0 bd
       0.27192146 0.055226922 -0.3059668 -0.093790196
0000a0 0d 6d 36 bd cc 0b e3 3c d3 c0 d8 3d bd 54 d9 3c
       -0.044537593 0.027715586 0.10583653 0.026529664
0000b0 39 61 37 3e ae 03 89 3e 20 40 a5 bc 42 7f 8f be
       0.17908181 0.2676062 -0.020172179 -0.28026778
0000c0 e1 5d 6c 3d 96 87 24 3d 77 f8 2c 3e 8e fc 90 be
       0.057706717 0.040168367 0.16891657 -0.28317684
0000d0 07 46 69 3e b7 24 be be c6 a2 36 3e 25 2d f7 3d
       0.2278062 -0.37137386 0.1783553 0.120691575
0000e0 c5 a7 06 be 7a 93 24 be 85 a3 00 3e be ae 0c 3e
       -0.13149936 -0.16071883 0.12562378 0.13738534
0000f0 02 d9 72 3e 72 ff 24 3e 4c f1 f2 3c d7 07 f0 bd
       0.23715594 0.1611307 0.029656075 -0.11720245

final_mean.weight f4 [3, 64]
000000 2a dd 6c bd d1 14 70 be 0c 98 31 be 40 a2 74 3e
       -0.057828106 -0.23445441 -0.17343158 0.23890018
000010 6c 49 27 bc 53 38 96 bd 32 97 e5 3c d9 62 3c 3e
       -0.010210376 -0.07334962 0.028026197 0.18397082
000020 09 5e 1f 3d df 1c 91 bd e3 b0 1e be 43 84 2b 3e
       0.03890804 -0.07085585 -0.15497164 0.16749673
000030 cc 4d 28 3e 85 20 30 3e ed 79 c0 bc b8 9a 17 bd
       0.16435927 0.17199905 -0.023495639 -0.037012786
000040 40 b7 e6 bd a1 cf 56 bc 8f f0 2a bb 90 da 80 bd
       -0.11265421 -0.013111026 -0.0026083326 -0.062916875
000050 40 1f 18 3e 6e 8b 4b be 96 fe ef bd 29 4c 35 3e
       0.14855671 -0.19877407 -0.1171848 0.17704834
000060 3c 72 5b be 85 16 41 3e 2c 73 ef 3c 3e df 32 3d
       -0.21430296 0.18856247 0.029229723 0.04366993
000070 2b b1 24 3e 7a 3d fc bd c9 50 6d bb cb 8a 03 3e
       0.16083209 -0.12316413 -0.0036211482 0.12845914
000080 db af 3c 3d 87 48 15 be 5a 7c 37 3d 3a df 42 bd
       0.046066146 -0.14578448 0.044796325 -0.047576167
000090 d4 34 8d 3d 52 7a d1 3d bf f0 9c 3d d5 51 c6 bd
       0.06894842 0.10228409 0.07663106 -0.09683577
0000a0 54 cb 08 be 7d 6a 3a 3e c3 e9 94 3d e9 c6 2e be
       -0.13358814 0.18204685 0.07271149 -0.17068066
0000b0 28 ab c4 3d 6b db a5 3d b0 48 6f 3e 69 b8 cd 3d
       0.09602958 0.08098491 0.23367572 0.10044939
0000c0 b5 6e ac bd 6c 79 81 3d 94 d2 7d 3c ae 4d 14 3e
       -0.08419553 0.063219875 0.0154921 0.14482757
0000d0 d5 c0 73 3c 0d 4e 67 bd 6d dc 82 3b 13 9a 33 3e
       0.014877518 -0.05647092 0.003993562 0.17539243
0000e0 73 f9 02 bd a2 d5 9d 3d 54 f4 07 3e ab ab f1 3c
       -0.031976175 0.07706763 0.13276798 0.029500803
0000f0 84 fe 7e bc 96 3c 92 bd e2 ba 9f bd af 0a e1 bc
       -0.015563611 -0.07140462 -0.07799317 -0.027470915
000100 ae 32 0e 3e e4 8a 19 be b8 bf 89 3e 14 d8 17 bd
       0.1388652 -0.14994389 0.26904082 -0.037071303
000110 57 e9 08 3e 5d f6 3d 3e 29 93 29 3e 8a 1c 80 3b
       0.13370262 0.18551011 0.16560043 0.003909652
000120 77 f3 5d 3e 90 39 81 3d a6 8d 0b 3e 1a 02 7d be
       0.21674906 0.06309807 0.13628253 -0.24707833
000130 99 1c 56 3d 79 79 69 3e e4 96 1c 3e ea be b3 3d
       0.052273367 0.22800244 0.15291935 0.08776648
000140 64 ae b7 3b b7 9b ce bd 3a e7 bb 3d 9a 36 83 bd
       0.005605506 -0.10088294 0.09174962 -0.06406899
000150 9b ff 88 bc 5a fa 27 3e b0 6e 89 be d4 b1 cb bd
       -0.016723445 0.16404095 -0.2684226 -0.099460274
000160 f8 07 94 bd 5a 8f f9 bd 0f 10 1f 3e c3 05 30 be
       -0.072280824 -0.12185545 0.1553347 -0.17189698
000170 fb 10 d3 bd 7d 0f d0 3d 51 45 84 3c 5d 56 67 3c
       -0.10305973 0.10159204 0.016146334 0.014119712
000180 2f 22 da bd e6 df 8c 3d 3a 6d cb bc a4 dd 5c 3e
       -0.10651051 0.06878643 -0.024832357 0.21568924
000190 8c 95 5b 3d 71 7b 12 3e 7a 40 04 be 87 11 ed bd
       0.053609416 0.14304902 -0.12915221 -0.11575609
0001a0 da 91 5f be 91 cf 4c 3d cd f7 6c 3c a5 b2 80 3d
       -0.21832982 0.05000264 0.014463377 0.06284074
0001b0 b7 1f 15 3d 09 8f d6 3d f0 4c 9e 3d 64 58 67 3d
       0.0364072 0.104765005 0.077295184 0.05648078
0001c0 aa 45 af bd dc 05 58 3e 15 2a 94 bd 57 3d 34 be
       -0.08558209 0.21095985 -0.07234589 -0.17601524
0001d0 01 8c 3b 3d f4 f7 46 be ed 56 4f 3d 18 e5 a1 3a
       0.045787815 -0.19430524 0.05062001 0.00123516
0001e0 f8 77 ce 3c 1f 35 21 be e6 7b 1e 3c 0b f9 de 3c
       0.02520369 -0.1574292 0.009673094 0.027218362
0001f0 3f a0 42 3e c6 ef 6a 3e c0 98 80 be 1f 65 83 bd
       0.19006442 0.22943029 -0.2511654 -0.06415772
000200 f0 b2 9e bc 31 0f 41 be 5f 03 d3 bd 16 3c 17 3e
       -0.019372433 -0.18853451 -0.10303377 0.14769015
000210 f3 84 33 3e 52 e0 c3 3d 26 c8 ac 3c 2a 98 dd 3d
       0.17531185 0.0956427 0.021091532 0.108200386
000220 29 2a f1 3d a0 10 14 3e 56 4a fb 3d a6 c1 4f bd
       0.117756195 0.14459467 0.12270038 -0.050721787
000230 82 eb 1f 3e a7 01 07 bd 01 ce 39 3d e7 a4 c3 3d
       0.15617183 -0.03296056 0.045362476 0.09552937
000240 19 3c 9e 3d 3e 3d 26 bd 86 96 55 3e f2 63 8e bd
       0.077263065 -0.04058575 0.20858201 -0.06952657
000250 31 21 30 3d 61 4e 1f be d8 c7 8e bd ea 5f 70 bd
       0.043000404 -0.15557243 -0.06971711 -0.05868522
000260 3b 2d 84 3d 2a 6c c3 3d 18 8a 79 3e 2a 97 f7 bd
       0.064539395 0.09542115 0.24369085 -0.12089379
000270 2f da 29 bd 40 75 37 3e a3 42 f1 3c a5 ba f7 3d
       -0.04146784 0.17915821 0.02945072 0.120961465
000280 f6 0d 15 be 4c e6 6c be f9 7f 10 3e e0 45 65 3e
       -0.14556107 -0.23134726 0.14111318 0.22389936
000290 bb d1 f9 3c c9 56 ea b9 25 72 5d 3e 70 09 3f bc
       0.030495515 -0.00044696618 0.21625574 -0.011659965
0002a0 b0 f6 1b 3d c4 da 9d 3d b0 aa 5d 3e 74 fe a1 3d
       0.038077056 0.07707742 0.21647143 0.07909861
0002b0 ae f8 dc 3c 5f eb 97 3d 2c f4 17 3d 64 ab 30 be
       0.026974048 0.0741794 0.037098095 -0.1725288
0002c0 7f 01 30 be 6b d2 bd bd 6c 78 5d be e8 79 f2 3c
       -0.1718807 -0.0926865 -0.21627969 0.029599145
0002d0 77 31 bc bd e5 2a d0 3d 92 ce 14 3e cc 96 01 be
       -0.09189122 0.101644315 0.14531925 -0.1265518
0002e0 1a c6 59 bd d7 c3 71 3e 82 23 8e bd 87 9f a2 3c
       -0.05316744 0.23609863 -0.06940366 0.01985146
0002f0 f8 03 2c be b9 ec 88 3c fd 19 b2 bd 15 c8 43 bd
       -0.16798389 0.01671444 -0.08696363 -0.047798235

final_mean.bias f4 [3]
000000 f3 81 85 3d f6 43 1b 3e 8b 02 f7 bd
       0.065189265 0.15162644 -0.12061032

exp_avg f4 [64, 11]
000000 3f 33 0c 3b 93 78 02 3b 13 94 84 b9 fe 34 a0 3a
       0.002139285 0.0019908294 -0.00025287326 0.0012222824
000010 43 21 de ba 25 0a 9f 3a 22 40 a9 39 f7 02 82 39
       -0.0016947169 0.0012133761 0.00032281975 0.0002479774
000020 e0 e3 9f b9 7f db b7 3a 5b fe f5 3a 43 5b 4d 3a
       -0.00030496623 0.0014027207 0.001876782 0.00078337285
000030 88 94 cd 39 10 e3 c1 ba 22 bc e8 ba 3f 0e 7f bb
       0.0003921131 -0.0014792401 -0.0017756263 -0.0038918403
000040 72 24 c2 3a 1d 6d 35 3b bf 67 fd 3a dc c1 f5 3a
       0.0014811887 0.0027683445 0.0019333287 0.0018749791
000050 4e 42 f4 39 b4 44 a6 39 56 18 11 b8 73 59 9d 38
       0.00046588707 0.00031713175 -3.459336e-05 7.5030046e-05
000060 bf d7 80 b8 dd 1f 0a 3a 12 4b 63 3a ed b6 7d b9
       -6.1437015e-05 0.000526903 0.0008670549 -0.00024196105
000070 7d cf 1a ba 39 58 82 ba 3c d3 9a b9 b0 01 79 b7
       -0.0005905552 -0.0009944505 -0.0002953055 -1.4841949e-05
000080 db f9 c9 b8 c3 e1 0f bb 80 5a 40 3a 43 37 e5 ba
       -9.630966e-05 -0.0021954633 0.00073377043 -0.0017487783
000090 0c a3 16 bb 49 20 10 bb 28 c0 95 3a eb 18 50 39
       -0.0022985367 -0.00219919 0.0011425065 0.00019845708
0000a0 d0 cb fb 3a a9 94 06 3b 64 d1 d1 ba db 05 15 39
       0.0019210521 0.0020535386 -0.0016007838 0.00014211929
0000b0 44 77 9d ba 7b 84 43 ba 59 61 54 b9 37 ad 86 ba
       -0.0012013693 -0.0007458401 -0.0002025416 -0.0010275011
0000c0 5a 22 99 39 84 d5 80 39 3c 17 5e b9 82 0c d4 39
       0.00029208028 0.00024573144 -0.00021180225 0.0004044511
0000d0 fc cf c7 b7 33 4d f3 37 0c 2b 8f ba db f3 41 3a
       -2.3819499e-05 2.9003806e-05 -0.0010922863 0.0007398703
0000e0 30 a0 10 3a 24 98 a6 3a 43 a6 f5 3a 57 15 aa 3a
       0.0005517034 0.0012710136 0.0018741566 0.001297633
0000f0 89 a2 ce b9 36 f2 82 ba 79 58 53 39 2d db a6 ba
       -0.0003941248 -0.0009990397 0.00020155487 -0.0012730114
000100 71 81 8a 3a 15 e3 2a 3a bc 14 91 3a 70 c9 86 ba
       0.0010567141 0.0006518823 0.0011068801 -0.0010283422
000110 f0 a0 a0 39 5b ea e2 39 16 bc f1 3a 18 a5 16 b9
       0.00030637486 0.00043280688 0.0018442895 -0.00014366617
000120 26 77 09 ba 70 ae c7 ba e4 21 48 b9 88 1c c7 38
       -0.000524389 -0.0015234482 -0.00019086112 9.494374e-05
000130 8d bf 80 38 3c 68 ae 3a ce ff b5 3a ef b3 df 3a
       6.139195e-05 0.0013306211 0.001388544 0.0017067174
000140 85 59 4e 3b 3d ce 9c 3a b8 7a 44 ba ee 47 b3 b9
       0.0031486463 0.0011963319 -0.0007495093 -0.00034195132
000150 ab bf bd b9 f4 86 9c ba 19 bf 34 3a 0a 8f 27 3a
       -0.00036191693 -0.0011942075 0.0006894931 0.0006391859
000160 38 2a 8a 3a 31 48 e5 3a 8e b6 f6 b9 2b 7b ad 3a
       0.0010541147 0.0017492828 -0.0004705679 0.001323556
000170 67 cd ce b9 a2 39 19 3a 6b 8a 9f b9 6d de bd ba
       -0.00039444419 0.0005845075 -0.00030429973 -0.0014485844
000180 3a de 3d ba f7 8e 36 39 8e 57 80 3a 22 f4 4d b9
       -0.0007242892 0.00017410131 0.0009791718 -0.0001964127
000190 aa 49 3e 3a a6 81 a6 39 29 65 92 3a 48 fa 12 3a
       0.00072589016 0.00031758583 0.0011169064 0.0005606753
0001a0 59 88 45 ba db 53 28 39 a8 e9 0d ba e5 37 ac b9
       -0.0007535271 0.00016052967 -0.00054135406 -0.0003284804
0001b0 48 c4 f8 b8 79 ca ba b9 f9 68 21 3b f3 14 03 3b
       -0.00011862122 -0.00035627538 0.002462922 0.00200015
0001c0 c8 18 d5 b9 38 99 b4 3a df 41 c1 ba 94 9a a5 3a
       -0.0004064499 0.0013778573 -0.0014744363 0.0012634569
0001d0 f0 74 c7 39 65 3b bf 39 c0 ce 89 3a cb bb 3b 39
       0.00038043363 0.0003647461 0.0010513887 0.00017903668
0001e0 c1 1d 28 3b 49 77 9e 38 3b 8d d2 b8 e4 f2 88 b9
       0.00256525 7.556246e-05 -0.000100398865 -0.0002612091
0001f0 5a 99 8c b8 38 b7 8c b8 d3 80 11 b8 80 6b cf 39
       -6.704284e-05 -6.7098474e-05 -3.469067e-05 0.0003956221
000200 83 2d 36 b8 13 91 ac 39 f7 98 5e b9 aa c2 15 b9
       -4.3434567e-05 0.00032914485 -0.00021228554 -0.00014282265
000210 e3 0e 93 39 c8 90 09 ba 82 ce 06 3a 3e d3 15 3a
       0.00028049116 -0.00052477093 0.00051424664 0.00057153765
000220 20 ef 39 3a 98 a6 f8 b9 7f 81 51 b8 67 31 0f ba
       0.00070928223 -0.00047426368 -4.9950086e-05 -0.00054623786
000230 24 df 7c b9 f3 3b ab b9 45 f0 bc b9 66 34 4c bb
       -0.00024115719 -0.00032660327 -0.0003603717 -0.0031159162
000240 3b 17 70 bb 4f 43 57 3a 6d 44 9b ba 08 8c a2 3b
       -0.003663494 0.0008211629 -0.0011845954 0.0049605407
000250 1b f0 32 bb 1b 1c f1 ba fd 7c 66 bb de d5 19 bb
       -0.0027303759 -0.0018395217 -0.0035169714 -0.0023473422
000260 45 01 22 ba 16 a1 86 bb 35 be 4d 3a bf 3d b5 b9
       -0.0006179999 -0.0041085584 0.00078484725 -0.00034569015
000270 d1 71 3d 3a 35 6b bd b8 5a eb 12 3a a3 1c e8 39
       0.0007226738 -9.032191e-05 0.0005604528 0.00044271824
000280 97 e5 3c ba 6e 40 90 3a 91 af bc b8 f9 3c 6e 3a
       -0.00072058424 0.001100553 -8.9972404e-05 0.0009088065
000290 ad 01 5b 3a e7 3a d2 3a 97 dc e8 b9 25 6a 42 3b
       0.0008354437 0.0016039283 -0.0004441484 0.0029665318
0002a0 02 ac 4c 3b 33 59 83 3b 5f 6d 0e bb 4a 7c d8 ba
       0.0031230454 0.004008436 -0.002173267 -0.0016516533
0002b0 a0 e1 6d ba a9 14 af ba f2 69 5b 3a c4 15 d9 39
       -0.0009074453 -0.0013357598 0.0008369974 0.00041405682
0002c0 de a1 da b9 29 54 75 ba 49 5a 9a b9 91 16 82 ba
       -0.000417008 -0.0009358549 -0.00029440437 -0.0009924938
0002d0 b1 1d 30 3a 73 ad 37 b9 e8 55 d6 b9 b0 21 41 ba
       0.00067182916 -0.00017516855 -0.00040881266 -0.00073673856
0002e0 9b e6 86 39 5c ae 08 ba b5 4b ed b9 81 a1 96 b9
       0.00025730286 -0.000521397 -0.0004526057 -0.0002873056
0002f0 56 7c 7f ba b3 37 e2 39 39 c0 57 b9 05 93 ac 3a
       -0.00097460055 0.00043147578 -0.00020575606 0.0013166374
000300 52 3b ee b9 fc 9a 37 ba 19 d4 48 b9 99 02 9b 39
       -0.00045439095 -0.00070039905 -0.00019152499 0.0002956584
000310 12 06 d7 b9 1e 2f ad b9 eb d6 16 ba 3a 65 cc ba
       -0.00041012518 -0.00033032236 -0.0005754071 -0.0015594133
000320 1d 47 81 b9 05 72 b5 ba d7 43 8d b9 d9 c1 11 39
       -0.0002465778 -0.0013843185 -0.0002694416 0.00013900491
000330 0f 5b 13 3a 4c 0e 9a b9 52 9a 13 38 bc 49 49 b9
       0.0005621174 -0.0002938382 3.5191253e-05 -0.00019196322
000340 c5 cd b0 ba a3 6f 32 b9 e7 3f e2 b9 e1 f1 54 3a
       -0.0013489058 -0.00017016991 -0.0004315369 0.0008123201
000350 ee 11 5f b9 18 b6 17 b7 58 31 cc b9 de 87 9e b9
       -0.00021273617 -9.042698e-06 -0.00038946676 -0.00030237337
000360 ed 52 c5 3a 1a 3a 87 b9 8c 7c 10 3a 61 32 1b 39
       0.0015054621 -0.00025792496 0.0005511723 0.0001480072
000370 0f 3a 8c ba 37 8e ac 39 7f 2f f8 b9 41 54 6b b8
       -0.0010698455 0.00032912355 -0.00047337633 -5.6106834e-05
000380 21 49 f0 38 7a f5 02 ba 55 62 ea 39 d1 c4 40 ba
       0.00011457713 -0.00049956853 0.0004470522 -0.00073535467
000390 bb 25 cb ba ae ed f5 39 3d 5a 8e ba 76 81 06 ba
       -0.0015498915 0.00046907127 -0.0010860633 -0.00051309855
0003a0 9d 35 87 b9 21 62 99 ba 93 31 2f ba 83 04 10 ba
       -0.00025789152 -0.0011702218 -0.00066831073 -0.00054938364
0003b0 da 2d 82 39 d3 24 78 3a b1 26 bd ba 52 5b f4 38
       0.00024829694 0.00094659365 -0.0014431087 0.000116518364
0003c0 58 8c 21 ba 7b 59 80 ba c3 45 09 ba 7c fa ec ba
       -0.00061625754 -0.0009792292 -0.00052365306 -0.0018080021
0003d0 87 88 92 39 7b 75 20 ba e8 83 83 3a 71 ff 22 ba
       0.0002794901 -0.00061210216 0.0010033818 -0.00062178733
0003e0 02 27 57 3a 8a d3 bf b9 45 10 ab b9 4e aa 20 b9
       0.0008207412 -0.00036587968 -0.00032627783 -0.00015322233
0003f0 dc 3f d9 ba 6e 8e 63 b9 90 70 5c 3a 0d f5 11 3b
       -0.0016574818 -0.00021701466 0.0008409107 0.0022271306
