src/models/atla_release/PPO/attack-ppo-halfcheetah.model (torch, 312493 bytes, 72 tensors)

affine_layers.0.weight f4 [64, 17]
00000000: 8381 df3d 59ec 8cbe dbf2 e1bd 6f60 f5bd
00000010: 27c8 f83d 96b5 c43d 4caa 343e 8869 253d
00000020: 880e 043e 0618 653d 3a43 2c3e cd7c 213e
00000030: 6658 f63d b6b3 0e3e f7c5 c53e 5cf4 883c
00000040: 0187 e6bd 1a0f bfbd 532f debe 6b09 583d
00000050: 59b8 873c cdff 83bc d87e 96be fcbd ba3d
00000060: 7e0a f6bd 5945 aebe 598c bebd bb9b 413e
00000070: 83ee 8cbe 511b afbd 6dd1 8abd 6060 8a3d
00000080: 988d 103c df9e 1fbc 364d 20bf 7981 783e
00000090: e9f8 f63c 9c3b 26be 7d66 c83a 76e6 7b39
000000a0: bed7 0d3d 1479 d83d 4c35 3cbd 9c5b b3bd
000000b0: cd44 c8bd 8d7c 90bc fbae 953d e7a3 323e
000000c0: 5f50 0c3e d4a4 7fbe 84b0 b33d 2e91 a83c
000000d0: 549f 6fbf 702f 6d3c 6e20 62bd 980a 0fbe
000000e0: 640b 1ebe 799d 7cbd d3db 19be 6c23 403e
000000f0: a426 fb3d dba1 92bd 29df 39be 53b4 b73d
00000100: e2f0 c63c 70f4 03bd 5eb0 7e3d a1a9 69bd
00000110: 8b62 5cbe f057 00bd 0f44 203e e382 253e
00000120: 1357 10bb c0c1 85be af61 123b 0aad 863d
00000130: 8ab5 9a3e f8c3 94be 3624 f23d 1943 8abd
00000140: fa6b 7e3d 0ad7 993d 168e 22be fa05 94bd
00000150: 3b31 c7bc 4df7 2dbe d9d3 ccbd 2bd1 ea3c
00000160: bac8 d9bd 8b83 e4bd cafb 03be 0853 683e
00000170: a903 f53d 0053 3bbe 62a8 12be 6c71 00be
00000180: 2db0 c1bd b1b9 053c 0334 673d 50dd c4bd
00000190: 78bc 55bc 41c6 c43d 9972 92be 88e3 153f
000001a0: d39a 0bbe 8a90 2cbd 9d4e ffbd 1efa 14be
000001b0: fb4a 84be 993e a4be 635b 66be a1c9 903d
000001c0: e9f9 61be 0b0e 803e e01f 443d 2807 1ebd
000001d0: 91da 81bd 0825 f83d 3ce1 68bd e1f7 0ebe
000001e0: 0787 253d 2161 31be bb4b 93bd 1d34 0ebe
000001f0: f8f0 143e 2914 2f3d 56ab 14bd dbd8 ec3d
00000200: b23a 01be 9a62 f13d 7b39 953d 89ee 353d
00000210: d732 03be d780 223d a13e 0bbd dd76 56be
00000220: b792 3abe c384 ecbe 6247 b8be 54c7 fdbd
00000230: 6998 ca3d 67b2 a53e 6d61 f5bc bc82 c23c
00000240: 3282 913c f48d ffbd db35 353e ccb5 453e
00000250: 4b88 0b3c 5cef 9b3c 7382 1dbe de4a 2f3e
00000260: 8dd9 d83d 7ab4 24be fc9d e43e 0f24 ee3d
00000270: c0cd 43bd 0350 31be 0514 163e 2b4d 9c3e
00000280: ba37 f1bd 5567 423e 3778 b0bd e8aa f63b
00000290: 76ac e33d 3d0b 65bd f60e 06bc 1219 46be
000002a0: a3e9 5ebe aabe 62bd 1872 653d f201 ac3e
000002b0: bbeb 143e ec26 533d f20f 503c fc28 1a3e
000002c0: 61d7 2ebd 77e3 16be 0d01 c53e 53ea 723e
000002d0: 1cbf cd3d 845e 363d 65a5 1e3d c87f 34bd
000002e0: 031a 873d 53de 61bd 4580 043e c8ae f63e
000002f0: bce2 babd 92d0 f13a e9cc 0a3e 82d0 c5bd
00000300: 6773 2bbe 593d 5a3c 91e0 20bd fc77 1f3d
00000310: d445 503e c642 873d 88c3 c6bd 324f 6f3b
00000320: e152 94bc 0395 ecbd c8a1 52bd 4a1d 34bd
00000330: ecf5 c13d 7fd2 883f 18e4 c1bd eb81 043e
00000340: 624f b1bd 41fe 2a3e b83b 93bd 3fde 363e
00000350: 7f1a 973c 3be2 bc3b b989 8a3e 2632 cc3c
00000360: 32ee 32bc ee27 4c3d 8553 ed3d a4e2 e33c
00000370: d1ae b8bd 1bca 40be da06 91be deae 1e3d
00000380: e0c0 603c 78e1 9abc 8516 d63d 36fe 0b3c
00000390: ac54 84bd 1c15 f0bd d83b a3bd ccd4 8a3c
000003a0: 8f72 e1bd a169 853d 5128 aabd a224 43bd
000003b0: 747a 123e 1485 dcbd ebd9 733e 262e b33d
000003c0: d84f e83d 69d5 b03c 425c aebc 8ab7 0fbe
000003d0: a702 253e df05 93bd d732 a1bc 1d0e 13bd
000003e0: 5aca 093d 23db 733c 6f8a 0bbd 5c8f 123c
000003f0: c206 953d 7c3d 8bbd a431 16be 4183 55be
0.10913374 -0.2752407 -0.11032649 -0.11981284 0.12147551 0.09604947 0.17643088 0.040383846
0.12896168 0.055931114 0.1682252 0.15770264 0.120285794 0.13935742 0.38627598 0.016718082
-0.11256219 -0.09329052 -0.4339548 0.052743357 0.016567396 -0.016113186 -0.2939365 0.09118268
-0.1201372 -0.34037283 -0.09304113 0.18907063 -0.2752572 -0.08550132 -0.06778226 0.06756663
0.008822821 -0.009742468 -0.62617815 0.2426814 0.030147986 -0.16233677 0.0015289333 0.00024023079
0.034629576 0.10569969 -0.045949265 -0.087577075 -0.09778748 -0.017637515 0.073087655 0.17445336
0.13702534 -0.2496522 0.08773902 0.02057704 -0.9360249 0.014476642 -0.05520671 -0.13968885
-0.15434033 -0.061673615 -0.15025263 0.18763512 0.122632295 -0.07159778 -0.18151535 0.08969941
0.024284784 -0.032215536 0.062179916 -0.057046536 -0.21521966 -0.031333864 0.15650962 0.1616321
-0.0022024557 -0.26124382 0.0022336056 0.06575973 0.30216628 -0.29055762 0.11823313 -0.06751079
0.062114693 0.075117186 -0.15874514 -0.072277024 -0.024315467 -0.16988869 -0.10001344 0.028664192
-0.10633989 -0.11157902 -0.12889019 0.22687924 0.11963589 -0.1829338 -0.14322045 -0.12543267
-0.09457431 0.008161948 0.056446087 -0.096125245 -0.013045423 0.096081264 -0.28603056 0.5855031
-0.1363328 -0.04213003 -0.12466166 -0.14548537 -0.25838456 -0.32079008 -0.22495799 0.07069708
-0.2206799 0.25010714 0.04788196 -0.038581043 -0.06340516 0.12116438 -0.056855425 -0.13961746
0.040411975 -0.17322208 -0.07192179 -0.13887067 0.14545047 0.042743836 -0.03629621 0.115647994
-0.12620047 0.11786385 0.07286354 0.044416938 -0.12812363 0.039673652 -0.033995274 -0.2094378
-0.1822003 -0.4619504 -0.3599196 -0.123915344 0.09892351 0.32362673 -0.029953683 0.02374398
0.017762277 -0.12478247 0.17696325 0.19307631 0.0085163815 0.019035034 -0.15381794 0.17118403
0.105883695 -0.16084471 0.44651783 0.116279714 -0.04780364 -0.17315678 0.14656074 0.30527624
-0.11778207 0.1898473 -0.08616679 0.007527698 0.11116879 -0.05591892 -0.008182278 -0.19345501
-0.21768813 -0.055357613 0.05601701 0.33595234 0.14543049 0.05155079 0.012699114 0.15054697
-0.04268587 -0.14735208 0.38477364 0.237222 0.10046217 0.04452373 0.03873195 -0.044067174
0.06596758 -0.055143666 0.12939556 0.48180223 -0.091252774 0.0018449 0.1355473 -0.0965891
-0.16743241 0.0133202905 -0.039276663 0.038932785 0.20339137 0.06604533 -0.097052634 0.003651571
-0.018105926 -0.11551859 -0.051423818 -0.043973245 0.09470734 1.0689238 -0.094673336 0.12940185
-0.08657719 0.16698553 -0.07189125 0.17858218 0.018445252 0.0057642735 0.270582 0.024926256
-0.010921048 0.049842767 0.11588196 0.027818032 -0.090177186 -0.18827097 -0.2832554 0.038740985
0.01371786 -0.01890634 0.10453514 0.008544495 -0.064614624 -0.11722776 -0.07970399 0.016947173
-0.110081784 0.06514288 -0.08308471 -0.047642358 0.14304525 -0.1076757 0.23813598 0.087490365
0.11343354 0.021586137 -0.021284226 -0.14034858 0.16114293 -0.07178854 -0.019677563 -0.03590213
0.033640243 0.014883789 -0.034067567 0.008945312 0.072766796 -0.067988366 -0.14667374 -0.2085085

affine_layers.0.bias f4 [64]
00000000: 6dd4 363e e896 55bd cac3 98bd 7b3e 383d
00000010: 1268 d33d 45cc e0bd 4342 e83d 911c 6e3e
00000020: add1 69be e8a1 e3bb e104 79be cf5b 0b3d
00000030: aec1 98be 4080 bdbe ef96 9d3e 14f9 9fbd
00000040: 9544 ba3d c631 2bbe 5177 31be 3d5d 623e
00000050: 3598 f3be 1e0c 59be 53af 53bd aabd a7be
00000060: b972 543e 2857 b1be 69e9 813e a4b9 f43d
00000070: cd77 b0be 90f3 203c c0de a13d 3eaa 5f3d
00000080: e621 0dbd 6cbc 143d d09f bcbd a67c 123e
00000090: 8a77 6f3e 73c6 9cbd c7ff a3bc ea9b e03d
000000a0: 7c60 243e 8699 17be 172d 283e 2c6e 843e
000000b0: 2090 803e f6f5 103c d577 f7bc dc12 86bc
000000c0: d915 a0bc 274f 93be 8541 2fbe e908 ddbd
000000d0: 4c4f 90bd 79ce 08be cf7c 2e3d 3b4e 8e3e
000000e0: 41d7 753e 49d6 d7be 0772 a9be 72a7 cbbe
000000f0: cd56 80bd cbbf dabe 9efb 99bd b67d dcbd
0.17854472 -0.05214587 -0.07459219 0.04498146 0.10322584 -0.10976461 0.113407634 0.23253085
-0.22833891 -0.006946791 -0.24318267 0.034023102 -0.29835266 -0.3701191 0.30779216 -0.0781118
0.09095112 -0.16718206 -0.17330672 0.2210588 -0.47577062 -0.21196029 -0.051680874 -0.3276189
0.20746888 -0.34636807 0.2537339 0.11949471 -0.344664 0.009823695 0.07903814 0.054605715
-0.034456156 0.036312506 -0.09210169 0.14305362 0.23385444 -0.07655039 -0.020019425 0.10967238
0.16052431 -0.14804658 0.1642345 0.25865304 0.2510996 0.008847704 -0.030208508 -0.016366415
-0.019541668 -0.28771326 -0.17114837 -0.10792715 -0.07046375 -0.13360013 0.042599496 0.2779406
0.24007894 -0.42155674 -0.33094808 -0.39776188 -0.06266556 -0.4272445 -0.07518695 -0.10766165

affine_layers.1.weight f4 [64, 64]
00000000: 04c9 133e 9db1 2c3e d89f a93e 7b75 4bbe
00000010: a09f 313d 6c9f 1abe e1c6 4dbe 448e 63bd
00000020: f3d0 8cbd 8745 cdbd b3ff 87be fbcf 7e3d
00000030: e4f9 1c3d 2f19 353d b8e5 0a3d 324f 093f
00000040: e40e cebe a4f0 913e f99a 09be 1cda 2cbe
00000050: 9e89 11bd ea40 b63d 58a2 3ebe 5eef 15ba
00000060: 62b1 36be 4ad1 743c 3080 2cbc 2910 2fbe
00000070: 5cee 0cbd 487c 363e 9940 a53c 2913 c2bd
00000080: ec2e 373d 669b 45bb ba4b 623e aa00 33be
00000090: f1ce 5bbe 94a2 3dbe 0d7c 833d 38ef 59bd
000000a0: e2c8 56be c42c 6cbe 96b7 ea3d 5705 b5bd
000000b0: a4c4 48be 957a 583e 8588 9dbd c755 283e
000000c0: 8b2d 813e ff8e 233e 1448 92be 3f5a 413e
000000d0: bc0f 1d3e 90e9 ee3d bcae 48bd f11b b8bd
000000e0: 3889 da3e ad3f 093e 6602 273e b369 a4be
000000f0: d4f7 cb3c d88c bf3d f984 6ebc c929 ae3b
00000100: 1e16 ffbd 4684 70bd 9d4e 91be 81aa 293e
00000110: 38f3 5bbe a4c4 313e a31b 8bbd 48b8 42bd
00000120: 269a 1bbe e84c 0c3c 8808 78bd 89f7 803e
00000130: d0a6 c9b9 73fb b2bd f878 15be 856d 673e
00000140: 791f 8b3d 9722 853e d148 55be f5a5 5b3e
00000150: 8c4a f7bd bc7f 243b 9d96 343d 4346 0fbe
00000160: 5c15 fa3d 9737 6ebc 9c3e 92bd 01d6 b1bd
00000170: ac12 33be e0e8 9abe c0fa 0c3e 41b4 f63d
00000180: d182 8a3e 8f20 27be 0e2c c73d 215f dbbc
00000190: c84e d43d 77cc f53d dbdb 58bc 1ae2 c23c
000001a0: a785 08bd 5d8b 433d 0d18 b53d 99b6 bbbe
000001b0: e09c 86be a77c 803d 31d6 3c3d 41a9 5cbb
000001c0: f0d3 57be 7729 db3e ca4f 01be f3a1 313e
000001d0: 9190 6cbe f6c0 28bb ea06 73be ef81 24be
000001e0: 8fad 7fbe f120 c63d 288a d2bd 0dd0 9ebd
000001f0: 02ab d2be 19c7 6e3d d518 4a3e 4cd7 a93d
00000200: 582b 40be a49a e73c dec9 c7be 1c4a 9ebc
00000210: 4711 cd3d 043b 5fbd 3d77 0e3b 7b97 69be
00000220: 2011 d03e 8a8c 53bd ce56 f2bc 113e 16be
00000230: 85ee 2fbc c818 85bd 11be 30be 848d aa3d
00000240: f3e5 533e 8bbe c6bd 327a e2bd bab6 353e
00000250: 96a7 7bbd 9d69 eabd 8b91 8ebe ba3e e2bc
00000260: 19a5 5cbe 2928 33be 5faa 88be b4d6 5bbd
00000270: 0cfc e7bd 4f52 273e 7cd6 dbbc 3b40 813e
00000280: 4eb5 3a3d 0b10 4cbd e0c8 13be 6c85 f13a
00000290: ae77 d4bc c5eb b4bd 4bb2 85be d4fd dfbd
000002a0: 670c 6fbc ebef fa3c 9aaa d93d 3b07 193e
000002b0: 8862 a53e f2de aa3c a7bb 703e 8d68 95be
000002c0: ae93 103e b482 c23e ec1c 7cbb 516f f1bd
000002d0: 734e 553b 1c67 ea3d 1cd0 91bc a758 0c3d
000002e0: 31a5 e63e 9a50 1d3e 74d9 1bbe c82f b1bd
000002f0: b72e 843e bd47 773d e4aa 0b3e 79f4 273e
00000300: b0c1 3c3e c50b bdbd de5a 68bd e281 363e
00000310: 55aa a53d bc44 48bd 4383 5cbe af28 9bbd
00000320: 4a9f d43c 2ec5 39be 341e 183e b0b5 e93c
00000330: 86d7 11be 2c6c b43e 2799 c1bd 2f36 273d
00000340: 6b01 e8bd 9b72 8dbe 37c6 90bd 8d9b 063e
00000350: d422 083e c5cd 47be 48a7 343e 9bbe 8b3d
00000360: a689 11bb 1321 86be dc88 503c bdee ddbd
00000370: 9d15 1bbd 0f91 0ebe 84bc e63d 7370 413e
00000380: 5cd5 7bbe a3ac 9fbc bf42 96bd 62f4 6dbd
00000390: 09f0 22be 2774 df3b c741 31be 4b4d 783d
000003a0: 84b2 e1bd 3149 39be f96d a23d 8e4a 9a3e
000003b0: f4fe cfbe 34d0 f83d 163f bb3d dd4b a53e
000003c0: 9ce1 7cbe 8b5e a73d fb72 2b3e e29d 96be
000003d0: ab76 873d 3288 0abe 027d 96be 039b 113e
000003e0: 690e 283b dcd1 d93d d22c 7abe e122 043e
000003f0: 7c87 58be c45e d7bd 7fb0 eb3d 534f b93c
0.1443215 0.16864629 0.33129764 -0.19869034 0.04336512 -0.15099877 -0.20095398 -0.055555597
-0.068757914 -0.10023027 -0.2656227 0.062210064 0.03832425 0.04421347 0.033910483 0.5363647
-0.40245736 0.28503907 -0.13438024 -0.16880077 -0.035531633 0.088991 -0.18616617 -0.00057195674
-0.17841104 0.0149424765 -0.010528609 -0.17096008 -0.034407005 0.17820847 0.020172404 -0.09476311
0.044722483 -0.003015244 0.220992 -0.17480722 -0.2146566 -0.1851905 0.06420145 -0.053206652
-0.20975068 -0.23063952 0.114607975 -0.08838909 -0.19606262 0.21140511 -0.07692055 0.16438971
0.2523006 0.15972517 -0.28570616 0.18882082 0.15338033 0.11665642 -0.048994765 -0.089897044
0.42682815 0.13403197 0.16309509 -0.32111892 0.024898447 0.09353036 -0.01455807 0.00531504
-0.124553904 -0.058719896 -0.2838029 0.16568948 -0.214795 0.17360169 -0.06792381 -0.047539026
-0.15195522 0.008563258 -0.06055501 0.25188854 -0.00038461993 -0.087393664 -0.14596927 0.22600372
0.06793112 0.26002952 -0.20828559 0.21450026 -0.120747656 0.002510055 0.04408895 -0.13991646
0.12211105 -0.014539621 -0.07140848 -0.08683396 -0.17487592 -0.30255795 0.13767529 0.120460995
0.2705293 -0.16321014 0.097252 -0.02677876 0.10366589 0.12001889 -0.013236011 0.023789454
-0.033330586 0.04774033 0.08842478 -0.36662748 -0.2629156 0.062737755 0.046102706 -0.003367022
-0.21076941 0.42805073 -0.12628093 0.17346935 -0.23102023 -0.002574978 -0.23733106 -0.1606519
-0.24968551 0.09674252 -0.102802575 -0.07754526 -0.41146094 0.058295343 0.19736035 0.08293018
-0.18766534 0.02827198 -0.390212 -0.019322447 0.10013061 -0.05449964 0.0021738552 -0.22811691
0.40638065 -0.0516477 -0.029582407 -0.14672114 -0.01073802 -0.06498867 -0.17260005 0.08327773
0.20693187 -0.09704312 -0.11058463 0.17745486 -0.06143912 -0.114459254 -0.27845415 -0.027617801
-0.21547355 -0.17495789 -0.26692483 -0.053671554 -0.11327371 0.16339992 -0.026835673 0.25244316
0.045583062 -0.049819987 -0.14432096 0.0018426604 -0.025935974 -0.08834032 -0.2611259 -0.10937086
-0.014590359 0.03063198 0.10628243 0.14944164 0.32301736 0.020858262 0.23509084 -0.29181328
0.14118835 0.37990344 -0.0038469387 -0.1178881 0.003254798 0.11445448 -0.01779943 0.034264233
0.45047906 0.15362778 -0.1521967 -0.08651692 0.2581689 0.06037115 0.13639408 0.16401853
0.18433261 -0.092307605 -0.056727283 0.17822984 0.08089129 -0.048893675 -0.21534447 -0.07576119
0.025954861 -0.18141624 0.14855272 0.028529018 -0.14242372 0.3523878 -0.094530396 0.040823158
-0.113283955 -0.276265 -0.070690565 0.13145275 0.13294536 -0.19512089 0.17641938 0.068234645
-0.002220729 -0.2619711 0.012727942 -0.10836551 -0.03786241 -0.13922523 0.11266425 0.18890552
-0.24593109 -0.0194915 -0.073369496 -0.05809439 -0.15911879 0.0068192664 -0.17310248 0.060620587
-0.11020377 -0.18094327 0.07931132 0.30135006 -0.406242 0.121490866 0.09142892 0.32284442
-0.24695438 0.081723295 0.1674308 -0.2941733 0.06614431 -0.13528517 -0.29392248 0.14219289
0.0025643355 0.106357306 -0.2443116 0.1290393 -0.21145433 -0.10516122 0.11508273 0.022620833

affine_layers.1.bias f4 [64]
00000000: 7d66 f63d 2b4d 5bbe e7c3 62be 1503 4a3e
00000010: 1cf7 79be 7093 eb3d befc 8a3e 38a7 42be
00000020: 0f79 113e 6317 553e 6bb6 1d3e 749a f73d
00000030: 5c0c 04bf f07e fa3d 3195 513e c195 183d
00000040: 8e19 713e 6ecf fd3d af6e e6bd 38ae afbe
00000050: 7d7e 943e f38e 023e 1267 a3bd 204d 813e
00000060: ef11 42be 948f 39be 8a06 1ebe f599 24be
00000070: 01cf 07be 9e12 83be 7cd9 313e 0c88 113e
00000080: a0e7 083e 78f3 73be 154c 27be d852 473e
00000090: 15ec 703e 9207 21be 0637 25be 0d44 b83e
000000a0: 7eb5 44be c771 3a3e 4667 573e 0751 e1be
000000b0: 7c48 313e 69d8 1dbe 11ba 45be 518e 11be
000000c0: 93fe 30be b71c 1c3e a1d5 3abe 4848 043e
000000d0: 3806 b0be a80e 5bbe dda8 053e 20c8 8bbe
000000e0: 4e9e fdbd c028 abbe 4af6 323e 2c38 19be
000000f0: 0fd5 96be 96ba 533e fb10 98be 5b97 64be
0.12031267 -0.21416156 -0.22145043 0.19727738 -0.24410671 0.11502731 0.27145952 -0.19009101
0.14206336 0.20809703 0.15401618 0.120900065 -0.5158136 0.12231243 0.20467068 0.03725219
0.23544905 0.1239308 -0.1125158 -0.34312606 0.29002753 0.12749843 -0.079786435 0.25254154
-0.18952154 -0.18121177 -0.15432182 -0.16074355 -0.1326256 -0.2560014 0.1736812 0.14212054
0.13369608 -0.23823345 -0.16337617 0.19465196 0.23527558 -0.15725544 -0.16134271 0.3598942
-0.19209859 0.18207465 0.2103549 -0.4400713 0.17312807 -0.15414585 -0.1930926 -0.14214446
-0.17284612 0.15245329 -0.18245555 0.12918198 -0.34379745 -0.2139231 0.13052697 -0.2730112
-0.1238371 -0.33429527 0.17476764 -0.14962834 -0.29459426 0.20676646 -0.29700455 -0.22323363

final.weight f4 [1, 64]
00000000: 7e73 123d 1e9d 37be 0f54 26be 373e 9b3d
00000010: dd83 1ebd afc6 7f3d 0742 a63d 7821 6fbd
00000020: cd7c 53be 81eb 8e3d 9140 b63c b725 4c3e
00000030: d46c 3cbe c480 413e 97a1 893d 0ee7 863d
00000040: c8ea e23d e96a bd3d 13d4 5ebd 0ff0 1cbe
00000050: 71c8 9a3e 44a3 833d 14e7 97bd 26f2 343e
00000060: 6e65 41be 797c 0ebd cb8f c3bd 874f 71bd
00000070: c782 41bd 1048 f4bd f6a2 533d 3a9c 973d
00000080: c516 de3c 5fa7 76bd 75d8 99bd 9a37 9c3d
00000090: 37f6 053e fc78 0cbe b9f5 23bd ddc5 773d
000000a0: cf79 82bd 5fb0 8e3d 2aa7 823e 4ff6 a6be
000000b0: bd57 3c3d cebf b3bc 3b31 7ebd 4e3c 17bd
000000c0: df37 efbc afc8 de3d 7608 31be 738e 043d
000000d0: b9bd 71be 3567 9abd 0b8f a33d 12f6 92be
000000e0: 48dd 95bd 460e 5cbe 96c5 a53d e7bf 65bc
000000f0: 00af 84bd f5ad 243d d53c 61be 685f a0bd
0.035754673 -0.17931029 -0.16243003 0.07580226 -0.038699973 0.06244534 0.081180625 -0.058381528
-0.20653076 0.069785126 0.022247585 0.19936262 -0.1840089 0.18896776 0.06720274 0.06587039
0.11079937 0.09248907 -0.05440147 -0.1532595 0.3023105 0.06427625 -0.074171215 0.17670497
-0.18886349 -0.034786675 -0.09548911 -0.058913734 -0.04724386 -0.11927807 0.051669084 0.07402845
0.027110467 -0.06021821 -0.07511989 0.07627793 0.13082205 -0.13718027 -0.04002926 0.06049143
-0.063708894 0.06967234 0.2551816 -0.32609794 0.04598211 -0.021942046 -0.06205867 -0.036922745
-0.029201446 0.10878121 -0.17288384 0.032362413 -0.2360753 -0.075392164 0.07986268 -0.28703362
-0.07317597 -0.2148982 0.08094327 -0.014022804 -0.06478691 0.04020496 -0.21995862 -0.07830697

log_stdev f4 [6]
00000000: 0000 c8c2 0000 c8c2 0000 c8c2 0000 c8c2
00000010: 0000 c8c2 0000 c8c2
-100.0 -100.0 -100.0 -100.0 -100.0 -100.0

affine_layers.0.weight f4 [64, 17]
00000000: 1866 b03e 0cfe 2fbf 02d2 0f3e e8df 92bd
00000010: 757b 1c3e 0a87 9fbe c93d 6a3e 6665 743d
00000020: 5ed8 1a3e 5e46 3abd 3fa9 b3be 7891 7a3d
00000030: 78e1 18be eca4 f63d 9f7f e2bd a24e af3e
00000040: 2843 903d caeb 2ebd d220 16be 0949 8c3e
00000050: 9b1c 30be 5a3f 55be d30c 753d 9945 1a3d
00000060: fd1a ac3d 74f5 71bd 8748 cfbe a096 15bf
00000070: e2d1 823e bdb5 613c d853 11bd 98d4 97be
00000080: 1b6a f1bd 45dd 363e 69fb 233e 9e8e dbbe
00000090: 6cbf 4abd 912b b83c c53f ddbe 6577 003d
000000a0: 6fea 9c3c c460 64bc 71bd eb3e ad46 b93e
000000b0: 2a49 413d f03e c6bd 19fe ed3c 27ea 5fbe
000000c0: e19c 043f 2d4b ac3e e613 303c 1152 80bd
000000d0: a438 1f3e 6ba5 35be c44c 213e 4171 013f
000000e0: ee8c b1bd 5dc8 abbd e5c3 0d3e f992 8d3d
000000f0: 4496 9b3e 4826 0a3e 3080 803b 5081 82bd
00000100: 182b 51be 214a 94be 469e 5a3e f366 f1bd
00000110: 9074 57be 5bdd e03e 6c8b 9bbe 7759 eabd
00000120: 7ffa 243e 7a6d a1be c900 e9bd ce0a b8bd
00000130: d990 103e d0b5 403e b8b7 c13d fbae 9b3d
00000140: e82b 033f 37b6 98bd 4afc 593d f98b d33c
00000150: 33ca ca3c 980e dcbe ea39 a43e d069 813d
00000160: 13dc 1bbc 1e02 9e3e ee2a 223e 967f 9cbd
00000170: 04f2 adbe c80b 98bd 0832 d0be 412a 9ebe
00000180: f94f 9c3e 3366 36be 4e7f 983c c704 8dbe
00000190: 5aec 0c39 22df a3bb 3544 b13d fb1d 4cbe
000001a0: 2973 ad3e 912d 343e 94a2 9abe 7230 48be
000001b0: 5680 3c3d f3de 24be ed4f 9d3e 885c 97be
000001c0: ec1a 71bd b5d3 223e d3db 983e 2147 a93d
000001d0: 0eae 65bd 355a dcbc 4a64 383d 506c 0abf
000001e0: 10f7 783d 5623 8bbe 802a c9bd 8f0e 20bd
000001f0: 7196 1d3f 2e43 5a3e 3e98 52be 0c1c ca3d
00000200: 2a16 f9bd 4c4f e9bd d3ac 73be 75a4 e33d
00000210: 5b0f 363e ee80 a4bd a0a9 a33e 0c92 c93d
00000220: 44a6 143f b3d1 b0bd beea 29be fd46 d5bb
00000230: db70 7b3d 3664 773c 8fb0 de3d 7576 40be
00000240: bec7 11bd 0da5 193e 9ae2 9bbe 76c7 853e
00000250: 7470 973d ff92 afbe 31ad 71be 2870 9dbe
00000260: 8e2a f6bd 2cfb ecbe 0144 e33d a7ca 973e
00000270: 96ff 183d 6311 92bd 6659 97be 2e4f 10be
00000280: df9b 7b3e 57c5 75be fc91 74bd 44d2 ce3e
00000290: 0234 703e d942 aabd 63d4 a9bd 906b 08bf
000002a0: 0a37 c2bd 3da7 463c af0f 313f 0d4f e4be
000002b0: 50a8 c1bb 07ed e43e fcb2 f0bd 30d8 363e
000002c0: 98fc a93d 7fba 02be 7254 22be f629 0bbe
000002d0: 0f8f 7cbe 8e88 8bbe 0023 473e c30e 283d
000002e0: c1e7 3bbd e704 d1bd a9c0 203e e3c7 433f
000002f0: 444a 813e 9b5d 2d3e 6daa 3c3e b3b3 5ebc
00000300: f066 ce3e a323 5cbe 35a0 ae3d b905 973c
00000310: e943 f3bc 9ac0 91bc a7bb 22be ca1f b73d
00000320: eec4 f3bd 21a8 d7bd 32b8 db3c 1c19 42bd
00000330: 4e79 fbbd edda e43e 267e 18be 6203 e73e
00000340: da4e 9f3e 5a85 913e 0c30 193e c3bf 3a3e
00000350: bbb5 c5be 9a56 083f c9f0 55be f5a0 0d3e
00000360: f898 afbe dd2e 1ebd 8a0f 103e 436a 3fbd
00000370: 5eb5 a7bd 63f9 523d 2c32 87be 35de 883e
00000380: 84cf 22bd e148 013e 9aeb 7e3e 096d 5ebc
00000390: 0399 ab3e 8b3d f43e 124a 0a3e 14d0 1e3d
000003a0: 3cd8 933e 526c d4bc 71f2 963e ca0c f4be
000003b0: 0247 ae3e 9a76 c23d 88ff 8fbd 4bca 2dbd
000003c0: 2077 e5bc d065 fa3d 7302 f1bc bc91 50be
000003d0: 5048 7c3e 656a 803e f525 8fbe c8b0 24be
000003e0: 0eaf babe 2d8d 813e 9ce4 203d 03d2 3a3e
000003f0: adb5 0bbf 797c 34be f46a 243c 9ced 1f3f
0.3445289 -0.6874702 0.14044955 -0.07171613 0.1528147 -0.31157714 0.22875132 0.059667014
0.151216 -0.045477264 -0.35090062 0.061173886 -0.1492976 0.12043175 -0.11059498 0.3423968
0.07044059 -0.042705335 -0.14660957 0.2739947 -0.17198412 -0.20824948 0.059826683 0.03766403
0.08403585 -0.059071973 -0.4048502 -0.5843296 0.25550753 0.01377624 -0.03548035 -0.29654384
-0.11787816 0.17857845 0.16013874 -0.42882246 -0.04949896 0.022481712 -0.43212715 0.031363863
0.019154755 -0.013939086 0.4604297 0.36186734 0.047188915 -0.09679973 0.029051827 -0.21866666
0.5180188 0.33651105 0.010746932 -0.06265653 0.1554895 -0.17738883 0.1575194 0.50563437
-0.08669458 -0.08387826 0.13844259 0.069127984 0.3038808 0.13491166 0.003921531 -0.06372321
-0.20426595 -0.28962806 0.21349439 -0.11787214 -0.21040559 0.4391888 -0.30379808 -0.11442845
0.16111182 -0.31528836 -0.11377103 -0.08986436 0.14117755 0.18819356 0.0945887 0.07601734
0.5123887 -0.0745663 0.053219117 0.02582358 0.02475462 -0.42979884 0.32075435 0.0631901
-0.009512919 0.3086099 0.15836689 -0.076415226 -0.33973706 -0.07424122 -0.4066317 -0.30891612
0.30529764 -0.17812423 0.018615391 -0.27542707 0.00013439488 -0.0050009647 0.086555876 -0.19933312
0.33876923 0.17595507 -0.30202162 -0.1954973 0.04602083 -0.16100673 0.3072504 -0.29562783
-0.058863565 0.15901072 0.29855213 0.0826552 -0.056074195 -0.026898483 0.045017518 -0.5407152
0.060782492 -0.27175397 -0.09822559 -0.039076384 0.6155768 0.2131469 -0.20565888 0.09868631
-0.121624306 -0.11392078 -0.23796396 0.11115352 0.17779295 -0.08032404 0.3196535 0.09842309
0.580662 -0.08633747 -0.16593453 -0.0065087066 0.061386924 0.015099576 0.1087352 -0.18795188
-0.03559088 0.15004368 -0.3044632 0.2612874 0.073944956 -0.34291837 -0.23601224 -0.3074963
-0.120198354 -0.4628538 0.11096955 0.296468 0.03735312 -0.071322225 -0.29560393 -0.14092705
0.24571179 -0.2400106 -0.059709534 0.40394795 0.2345734 -0.083135314 -0.08292463 -0.5328913
-0.09483154 0.012124834 0.69164556 -0.4459156 -0.005909957 0.44712088 -0.117528886 0.17855906
0.083001316 -0.12766455 -0.15852526 -0.13590226 -0.24663948 -0.2725262 0.19446945 0.041029703
-0.045875315 -0.10206013 0.15698494 0.7647688 0.25251973 0.16930239 0.18424387 -0.013592648
0.4031291 -0.2149797 0.08526651 0.018435346 -0.029695468 -0.017792035 -0.15891896 0.0894161
-0.11902796 -0.10530115 0.02682123 -0.047387227 -0.122789964 0.44698277 -0.14891872 0.45119768
0.31114846 0.28422052 0.14959735 0.18237214 -0.38615212 0.53257143 -0.20892633 0.13830931
-0.34296393 -0.03861891 0.14068428 -0.0467322 -0.0818889 0.051507365 -0.26405466 0.2673203
-0.039748684 0.12625457 0.24894562 -0.013575801 0.33515176 0.47703204 0.13504818 0.038772658
0.2887591 -0.025930557 0.29481843 -0.47666007 0.3403855 0.09495278 -0.070311606 -0.04242925
-0.028010905 0.122264504 -0.029420113 -0.20368093 0.2463696 0.25081173 -0.27958646 -0.16083062
-0.3646168 0.2530302 0.03928052 0.18244176 -0.5457409 -0.17625608 0.010035265 0.6247194

affine_layers.0.bias f4 [64]
00000000: 68b7 eb3d adac 06bc 5c8e a2bd 7d51 c2bd
00000010: 05d6 5cbd 0ba7 7b3d cf9c 0f3e c2cc 02be
00000020: 1100 8c3d 30e9 1cbd f855 cf3d bb1b 033d
00000030: cf56 06be 69a2 b43e 5d14 89be 135d 3c3d
00000040: a0c8 5b3e bd35 653d 0bc3 133d 438f 6fbd
00000050: ed39 b5bd a632 323e 8ca2 1abd 04ac ebbd
00000060: bb9a 4abe b1a1 003e 5919 dcbd 0793 dc3d
00000070: a84f 97bc b9a0 b8bc 0873 ecbd 2391 e8bd
00000080: b26c 40be 1ec6 b4bd 7361 0cbd 1636 baba
00000090: 822e d4bc 4293 5bbc a13a a93d 2314 68be
000000a0: 0a33 9dbd 9abd 35be 8cbf 9b3d 674d 573c
000000b0: c25c f93c cbf9 f23d 5035 9ebd 6fde 563c
000000c0: e8af f6bd 62a3 b7be 0ca7 bebc b77e f73d
000000d0: 62c8 61bd 6856 ed3d 8c45 49bd 7b32 ba3c
000000e0: bdc3 dbbe ac3e ed3d a260 0ebe 8cc7 ba3d
000000f0: 8add 2c3e 5c19 4bbd 4a88 613e cfe6 25bd
0.11509591 -0.00821988 -0.07937309 -0.09488199 -0.053915042 0.0614386 0.14024661 -0.12773421
0.0683595 -0.038308322 0.10123819 0.032008868 -0.13119052 0.3528016 -0.26773348 0.0459872
0.21463251 0.055959452 0.03607468 -0.058486234 -0.08848939 0.17402133 -0.037752673 -0.11507419
-0.19785587 0.1256168 -0.10747022 0.10770231 -0.0184706 -0.022537576 -0.11545378 -0.11355808
-0.18791464 -0.0882685 -0.034272622 -0.0014206793 -0.025901083 -0.013401808 0.08263136 -0.22663932
-0.076757506 -0.17748109 0.07604894 0.013141013 0.030439738 0.118640505 -0.07725012 0.013114556
-0.1204527 -0.3586684 -0.023273014 0.12084716 -0.05512274 0.11588746 -0.04913859 0.02272915
-0.42922774 0.11584219 -0.1390405 0.09120092 0.16881385 -0.04958473 0.22024646 -0.04050332

affine_layers.1.weight f4 [64, 64]
00000000: c1a3 fabd 0658 0f3e 6c5c d53d 3078 063e
00000010: 1d14 7bbe 4311 493e ef6c 263e 000a 4b3e
00000020: afd8 13bc c148 0f3e 0153 a6bd 252a 14bf
00000030: 91b4 a73e 1e95 ce3d daeb 6c3d 16b1 45be
00000040: 42d4 833e f10d 92be 61ef c0be 46bd 92bd
00000050: d67d 7dbc 6267 5dbe c369 563e 6c7a 7e3c
00000060: 65eb 83bd be3a eebe f448 053e a6ee 69be
00000070: bca9 1dbe bf07 97be aba8 303e a3e2 2bbd
00000080: bf57 ec3e 2b47 c13d 34c6 91be 0413 bc3d
00000090: 1865 04be 972e a33e 84db da3e 37d8 c73e
000000a0: 6967 003f bef5 10be e0ad f7be 0bfe 883e
000000b0: 4c66 d13d f001 9e3e 7bd4 b5bd 7c6c c43d
000000c0: 38d7 963e 3646 ec3d 2ecd 99be 0fab 94be
000000d0: d781 14be 0d3f 19be adbf c53e 0e7a 00be
000000e0: eac0 c53e 5160 b53e c6eb aa3e d12d 473e
000000f0: b599 a43d b285 373e a00c 653d 6f18 363f
00000100: 7634 523c f096 c93c ca09 82be 1bc1 96be
00000110: cd10 c0bd dcc2 a2bd 0cdf 6cbe e964 433e
00000120: 87ca ccbd 0bc7 4ebe 9b25 a13e 1304 01be
00000130: 072d df3d aa76 b43d 6cf8 893e f6d7 7c3e
00000140: 37e8 d0be 225d b3be a3cf 2f3e 7cd9 973e
00000150: 563b d4be 3817 ec3b 2bba 22be a76b 39be
00000160: fba9 6cbe 8f83 84be 2eb6 c63e c627 fc3d
00000170: e904 0ebe 0ff0 eebe fd2c 0fbe 28a4 b5be
00000180: 2811 863e 59f3 9dbe ab80 723e 978c 293e
00000190: eddd c93e 6e61 853e e639 30be 98bf 0e3e
000001a0: 5e9c 86be ae52 24be 391c f6bc 49b7 143e
000001b0: 84ec 11be 9f2d 8d3e 4620 1cbe 6b3f 7b3d
000001c0: 5244 5f3e 5b55 ad3e 1451 16be 008c e4bd
000001d0: 7439 6c3e 6c36 1a3d 391a 4fbd 888b 03be
000001e0: c0d2 043f 7613 86bd 51b3 153e 0e94 843d
000001f0: 0c1d b0bc c942 263e 24f8 673c 7ffa f03e
00000200: b275 7a3e fddc 84be b88e b43d f229 753e
00000210: 47f5 c2be c7e8 89be 7700 033e d285 82bc
00000220: 6760 443e d5ac ba3e ce37 0b3f d9c1 a53c
00000230: 3df4 e43e 7a2a 873e 3618 3abe 74fd 963e
00000240: f54f d0be 68bc 883d dfbd d5bd 62b8 c4be
00000250: 9489 3d3d bdf5 f33d c80a 0b3e 4e45 373d
00000260: 7f45 b0be 4089 563e 7b8d 793d bab3 d03e
00000270: 567e 40be 2602 1b3d 3b91 17bd 880f 993e
00000280: bef6 2f3e eef6 8abe ee40 8fbe 497c 7cbe
00000290: a84f 823e 2a58 2e3e 1911 8ebd 985c babd
000002a0: fd51 aabe 46ad 723e abf1 9a3e cf00 8dbe
000002b0: 882f 53bd cc21 dbbe 2c89 85be d605 4e3e
000002c0: ed09 903d 3ea3 3cbe 42e4 7a3d 9d83 dc3e
000002d0: 04cc 5c3d 783b 523e 2600 313e 8869 3f3e
000002e0: 4003 32be be9e a03e 663c 1c3a fbd9 a73e
000002f0: 5522 623e 6566 ad3e 5ebf f63d 10e8 92be
00000300: 4263 6fbe 672d edbd 8cbd b63e c4e4 12be
00000310: e71b 16be 45a7 83be c022 963e cfce 04bf
00000320: 9055 0a3d d735 3c3e 3fb9 413e 886f 29be
00000330: 8074 98bc 21c5 f13c 0eab 08be c853 8ebe
00000340: 8ff8 06be 797a c83d d6b6 883e d2b2 193e
00000350: 8492 953d e858 853e ea83 56bd b562 463e
00000360: a65a 9abe 621d 763e 165a 793e 219a 323e
00000370: db4b bbbe 59b2 1e3e a6f6 6fbd 40c3 75bc
00000380: 79a2 c3be 37c1 00bf 8097 0ebe 0a92 cbbe
00000390: 7b25 223d b010 533d a8e5 4f3d 84f6 febc
000003a0: c3e1 b63a 3f7f a53e f525 053e 4ef5 8a3d
000003b0: ad74 8a3d 28cc 44bd 1e08 95bd eaf8 48be
000003c0: 87d5 aebd 6426 66bd 1103 ecbd e058 cb3e
000003d0: 7b78 ebbc 8e18 a93e 8eb8 70be e38d a0bd
000003e0: 59ac a43d 7446 13bd 6443 413d bbac ee3e
000003f0: 1670 b33e 0184 843e ae16 15bf df26 bbbe
-0.12238265 0.13998422 0.10418019 0.13131785 -0.24519391 0.19635491 0.16252492 0.19828033
-0.009023829 0.13992597 -0.081213005 -0.5787681 0.3275495 0.100870356 0.057842113 -0.19305834
0.25747877 -0.2852626 -0.37682632 -0.07165007 -0.015471896 -0.21621469 0.20938782 0.015532117
-0.06441382 -0.46529192 0.1301611 -0.22844943 -0.1539678 -0.29498097 0.17251842 -0.041964184
0.46160695 0.09437402 -0.2847153 0.091833144 -0.12929189 0.31871483 0.42745602 0.39032146
0.5015779 -0.14156243 -0.48374844 0.2675632 0.1022459 0.30860853 -0.08878418 0.09591004
0.29461074 0.11536829 -0.30039352 -0.29036757 -0.14502655 -0.14965458 0.386228 -0.1254656
0.38623744 0.35425046 0.33383006 0.19451071 0.0803713 0.17922094 0.055920243 0.7113103
0.0128298905 0.024608105 -0.25398093 -0.29444203 -0.093782045 -0.07947323 -0.2313196 0.19081463
-0.099995665 -0.20193116 0.31474003 -0.1259921 0.1089726 0.08811696 0.26947343 0.24691758
-0.40802166 -0.35031992 0.17169051 0.29658115 -0.4145152 0.0072049163 -0.1589133 -0.18107472
-0.23111717 -0.2588162 0.38810867 0.12312274 -0.1386906 -0.46667525 -0.13982005 -0.35476804
0.26184964 -0.30849722 0.23681895 0.16557537 0.39427128 0.26050895 -0.17209587 0.13940275
-0.26291174 -0.16047165 -0.030042754 0.14523043 -0.1425038 0.2757387 -0.15246686 0.061339777
0.21803406 0.33854184 -0.14679366 -0.111595154 0.23068792 0.037649557 -0.050562117 -0.12846196
0.5188408 -0.06546681 0.14619185 0.06473552 -0.021498226 0.16236414 0.014158282 0.47066113
0.2445896 -0.2594985 0.08816284 0.23941782 -0.38077757 -0.26935408 0.12793146 -0.015932951
0.191774 0.36459985 0.54382026 0.020234035 0.4471759 0.26399595 -0.18173298 0.29490244
-0.40686002 0.06676561 -0.10436606 -0.38421923 0.046273783 0.11912105 0.13578331 0.04474383
-0.3442802 0.20950794 0.060925942 0.4076212 -0.18798193 0.037843846 -0.037003737 0.29894662
0.17183968 -0.27141517 -0.27979225 -0.24656786 0.25451398 0.1702582 -0.06936855 -0.09099692
-0.33265677 0.23698911 0.30262503 -0.2753968 -0.051559 -0.42799222 -0.26081216 0.20119414
0.07033143 -0.18421647 0.06125284 0.43069163 0.053905502 0.20530498 0.17285213 0.186926
-0.17384052 0.3137111 0.0005959928 0.32783493 0.22083409 0.33867183 0.12048219 -0.28692675
-0.23377708 -0.115809254 0.35691488 -0.1434508 -0.14659081 -0.25713554 0.29323387 -0.51878065
0.033773005 0.18379913 0.18918322 -0.16546452 -0.018610239 0.029512944 -0.13346502 -0.27798295
-0.13180755 0.09788985 0.26701993 0.15009621 0.07303336 0.26044393 -0.052371897 0.19373591
-0.30147284 0.24034646 0.24350771 0.17441608 -0.3658131 0.15497722 -0.05858483 -0.0150001645
-0.38209894 -0.5029482 -0.1392498 -0.39759856 0.039586525 0.051529586 0.050756127 -0.031123407
0.001395278 0.32323644 0.1300276 0.067850694 0.067605354 -0.04804626 -0.07276939 -0.19626203
-0.08536821 -0.056188956 -0.11524022 0.39716244 -0.028743973 0.33026546 -0.23507902 -0.07839563
0.08040685 -0.03595586 0.04718341 0.46616158 0.35046452 0.2588196 -0.5823773 -0.36553094

affine_layers.1.bias f4 [64]
00000000: 44db 3ebe 9d51 f1bd 0f86 0abd c14a e63d
00000010: 8092 adbc 1cb2 3d3e f820 6e3c d44b dcbd
00000020: 77b1 a73d 7925 4e3e 9b4e 19be 2d2f 923d
00000030: ca78 1abe 2eba 52bd ba33 a6be 0b1c 333e
00000040: 273e d8bd ebab 3abe 4ec4 6b3d 88c9 bbbb
00000050: 7602 dc3d 37c5 5d3b 890a 9f3d 77dc 973c
00000060: 8f17 fb3c 2332 0f3e 4061 99bd af7c 983d
00000070: 88ac 2abe 4c7b 013e 5667 74bd b28e e2bd
00000080: 76e5 2a3e 3266 863d 9b49 f63b ac80 b33c
00000090: 3aba 15be 3e87 0ebe 93dc 3c3c 9b7b 53bd
000000a0: e17f 8cbe c2b6 3dbe ceed 023e faf3 083e
000000b0: cf24 e43c e40b 05bd 871e a6be 866a b3bd
000000c0: f7cc 843d c5d6 0ebe 05a7 1f3e 86bc 1abe
000000d0: f532 d33c 8a21 87bc 18d6 03be 57be 2b3e
000000e0: e253 32be 31cf 05be ed5e 1abd d8d0 3f3c
000000f0: 4f33 92bd e3ab 133e cdd7 533d 09ed 0ebe
-0.1863833 -0.117831446 -0.033819254 0.11244727 -0.02118802 0.18524975 0.014534228 -0.107566506
0.081881456 0.20131482 -0.14971392 0.07137904 -0.1508514 -0.051447086 -0.3246134 0.17491166
-0.105587296 -0.18229644 0.057560258 -0.0057308115 0.10742657 0.0033839473 0.07765681 0.018537743
0.030650882 0.1398397 -0.07489252 0.074456565 -0.16667378 0.1264469 -0.05966886 -0.11062373
0.16689095 0.06562461 0.0075160987 0.021911941 -0.14621821 -0.13918778 0.011527198 -0.05163155
-0.27441314 -0.18526748 0.12786028 0.1337432 0.027849583 -0.032482043 -0.32445166 -0.08760552
0.064844064 -0.13949116 0.15591057 -0.15110978 0.025781134 -0.016495485 -0.12874639 0.16771828
-0.17414811 -0.13067318 -0.037688185 0.011707507 -0.071386926 0.14421038 0.051719476 -0.13957609

final_mean.weight f4 [6, 64]
00000000: 3569 ad3e 4e7a 983d 4578 15bd ab8a c3ba
00000010: 66da 9c3d 705a 5cbc 5d8b 103e a4a7 2f3d
00000020: 55e1 d9bc 2014 c33d fc26 21be cb93 20be
00000030: dd13 dbbc 3245 a4bd d92f 0cbd aa40 19bd
00000040: 37d1 0abe 082c 46bd bfae 84bc 97d9 e8bd
00000050: cd02 0e3d 19b5 2fbe 4c4a cc3d 417e 363d
00000060: 1f68 8cbd d498 16bd 7c1e 4a3d 1f49 eb3d
00000070: ce52 49bc 8549 2e3d 9c8f c13d 55d7 d6bd
00000080: 9da8 37bd 0214 a4bd 225d febd 5bf1 6abb
00000090: decc a73d 6335 11be bec2 be3d 4f5f 41be
000000a0: 0a5a 3dbe 7afa b93d 29d1 a93c 49e4 373e
000000b0: 7bc2 c4bd 5c66 a3bd e32c 53bd d580 dc3d
000000c0: f524 273e 5fc6 5e3d bc21 9b3d 39f0 b1bc
000000d0: 96fd b53d eb98 2ebd 4b0f 0abe 88e3 0e3e
000000e0: 3998 4bbd 4ad6 bbbd 4d44 08bd 8016 90bc
000000f0: 4cfd b3bd ea0b 91bd d2c9 cc3c 2d53 043d
00000100: 22c3 b83d d1db d4bd 8f99 37be e9be 37be
00000110: 10b0 a9bd cfc4 213e c8fd b43c 14d7 503e
00000120: dac2 aabd c897 613d 7783 db3b 1f9a 49bc
00000130: 02b7 cc3d 2c18 71bd ace4 ab3d 6a78 edbd
00000140: 80ff acbc 4d9f 173e b412 933d 3099 d1bd
00000150: 39f7 6d3c edfc 0dbe 2e21 24bb 897a 893d
00000160: 363b 3e3d 150b 9fbc 2e8b fbbd 1349 073e
00000170: f5ea 233e 8c21 48bd 8565 dabd d0ac 2e3e
00000180: 0242 75bd 560f 64bc bc99 f6bc 4c43 96bc
00000190: 5de9 c53d e1a3 113e 6edf 8b3d ebae 77be
000001a0: e5fb 41bc 8c90 083d f658 a23c 8326 35bc
000001b0: aaee bd3c 2e24 c3bd 73ff 243c 6918 363e
000001c0: 969e 1dbe f6c9 a93c ff34 813d 34b6 263d
000001d0: 8108 853d ebc7 993d fec5 c63b 435a 703d
000001e0: 4d4d 3abc 1482 4a3c a300 3d3e 17ff 0e3d
000001f0: 986e b1ba 19a6 b53b d35a fcbc e534 653b
00000200: 70db 543e c8ed 023e 0837 443b 6e4c 803d
00000210: 8fa4 54bd 1c06 31be fa22 783d 33e8 30be
00000220: f560 893d 64f8 01bd 37a6 84bb 3bb1 97bc
00000230: 1bcf f33d 13aa 273d 51b6 97bd 8d95 55bd
00000240: ff76 56bd bb5c 94bd dac0 62bd c7fb 723b
00000250: 822c babc 97f3 6d3d 8700 803d e837 dcbc
00000260: d7cc b73d 0f0e e33d d7d4 bcbd 03cb 903d
00000270: febf cfbb c625 e33d d9ae 793c 4377 e2bd
00000280: 0273 45bd 66fd 973d 0f2e 43bd bce7 24bd
00000290: 0d91 d8bd 64d8 fbbc f349 0dbe 874e 453d
000002a0: ed28 06be d7ee 51bd 33f6 ba3c e299 65bd
000002b0: bbfd 31bd 98ad 73bb 393d 0f3e e0a1 a03b
000002c0: 6813 213d 323c bcbd a314 823d 806f 863d
000002d0: 3c56 6fbd 2e0b 02bd fb7b 28bd 52d0 13bd
000002e0: 2b1a ed3d afc8 f63d 3e10 a2be dae9 4fbd
000002f0: 929b ae3d c276 a03d 8f6a d83c efbc 25bd
00000300: 69f2 003c 704f b3bd ff78 a0bd 7512 a23b
00000310: ba3a a93d 777b a63d f85e 97bc e17b 233c
00000320: 6f85 89bc 11b3 ddbd b454 a9bd 7e0a 953d
00000330: aa48 aa3c cc64 d73c da3e c6bd 262c b3bb
00000340: d3cf 3fbd 2b9e 10be 1d3f 023d 0902 973d
00000350: b559 793c c11e 243d e56c 52be e14d e23d
00000360: 54b7 713a 3e0f c63d d78d 8c3d 8d4d cf3d
00000370: 1e4a b53c 3dc9 1b3d 7d09 923c 104e 2abd
00000380: 87e5 413d 1a37 2abd 258f cabd 4c11 b3bd
00000390: 101e d73d 5ac4 a3bb 34fc d0bd 7c6a acbb
000003a0: aa3c 073e 65f1 2f3e 761a e43d fde0 383e
000003b0: 14ae 51bc 8aca 4bbb bac0 68bd 6b05 bebd
000003c0: 9501 8ebd f1f3 bdbc 3085 37bd 5b75 74bc
000003d0: 2094 d2bc f011 213e 2976 d7bd 4736 dabd
000003e0: d522 8abd 49d1 723e 2e6b 22b9 ea5d c73d
000003f0: 1c3f dcbd 72ad 693d 6698 39bd abf0 de3e
0.3386933 0.07445203 -0.03649165 -0.0014918646 0.07658844 -0.013449296 0.14115663 0.042884484
-0.026596704 0.09525323 -0.15737528 -0.15681379 -0.02674287 -0.080210105 -0.03422532 -0.037415184
-0.13556372 -0.048381835 -0.016196607 -0.11369627 0.03467064 -0.17158927 0.099751085 0.044554
-0.06855797 -0.036766842 0.04934548 0.11488556 -0.012287809 0.042550582 0.094512194 -0.1049029
-0.044838537 -0.08011629 -0.124201074 -0.0035849425 0.08193372 -0.14180522 0.09314488 -0.18884014
-0.18491378 0.09080978 0.020729618 0.17958178 -0.09607407 -0.07978508 -0.05155648 0.1076676
0.16322692 0.0543884 0.07574794 -0.021720992 0.08886258 -0.042626303 -0.13482396 0.13953984
-0.049705718 -0.09171732 -0.03326826 -0.017588854 -0.08788547 -0.070823506 0.02499858 0.032305885
0.09021594 -0.10393489 -0.17929672 -0.1794392 -0.082855344 0.15797733 0.022093669 0.20394546
-0.08337946 0.05507639 0.0066990214 -0.012304812 0.099958435 -0.058860943 0.08393225 -0.11595233
-0.021117926 0.14806862 0.07181302 -0.10234296 0.0145242745 -0.13866015 -0.002504419 0.06712825
0.046443187 -0.019414464 -0.12282406 0.1321147 0.16007598 -0.048860118 -0.106638946 0.1705811
-0.059877403 -0.013919672 -0.030102603 -0.018342637 0.09663651 0.14222671 0.06829725 -0.2418782
-0.0118398415 0.033340976 0.01981781 -0.011056545 0.023185093 -0.09528385 0.010070669 0.17782749
-0.15392527 0.020726185 0.06308936 0.040701106 0.064957626 0.075088345 0.006066083 0.05867983
-0.011370969 0.012360115 0.18457274 0.03491124 -0.0013536988 0.005543482 -0.030805027 0.0034974155
0.20786834 0.12786019 0.0029940028 0.06264578 -0.051914748 -0.17287487 0.06058023 -0.17276077
0.06707946 -0.031731024 -0.0040481347 -0.018517127 0.119047366 0.04093368 -0.07407821 -0.052144576
-0.052359577 -0.072442494 -0.0553597 0.003707634 -0.022726301 0.058093634 0.062501006 -0.026882127
0.08974617 0.11086666 -0.092202835 0.070699714 -0.006340026 0.11091189 0.015239441 -0.110579036
-0.048205383 0.07421379 -0.047651347 -0.04026006 -0.10574541 -0.030742832 -0.1379774 0.048170593
-0.1310155 -0.051253166 0.022822475 -0.056054957 -0.043454867 -0.0037182327 0.13988198 0.0049021095
0.039325148 -0.09191169 0.063515924 0.06564236 -0.05843185 -0.031748943 -0.041133862 -0.03608734
0.11577257 0.12049996 -0.31653017 -0.050760128 0.085257664 0.07835151 0.026417999 -0.040463384
0.007870295 -0.08755386 -0.07835578 0.004946048 0.08263154 0.08129018 -0.018477902 0.0099782655
-0.016787259 -0.1082517 -0.08268109 0.07277392 0.020786602 0.02629318 -0.09679957 -0.0054679094
-0.046829056 -0.14122836 0.03179847 0.07373435 0.015219142 0.04006839 -0.20549352 0.110500105
0.00092207384 0.09670876 0.06862991 0.101222135 0.022130068 0.038033713 0.01782679 -0.041578352
0.047338035 -0.041556455 -0.09890584 -0.087435335 0.10503781 -0.004997772 -0.10204354 -0.0052617174
0.13206735 0.17181928 0.111378595 0.18054576 -0.012797851 -0.0031096064 -0.056824423 -0.09278377
-0.069338955 -0.02318761 -0.044804752 -0.014920558 -0.025705397 0.15729499 -0.10520584 -0.10654884
-0.06744925 0.23712648 -0.00015489451 0.097347096 -0.10754225 0.057050176 -0.045311354 0.4354299

final_mean.bias f4 [6]
00000000: 8b1b fa3d fa94 adbd 6e40 5b3c c295 233d
00000010: 2182 0abc c527 89bd
0.12212285 -0.08475681 0.01338206 0.039937742 -0.008453877 -0.066970386

exp_avg f4 [64, 17]
00000000: ff3d 893a 0a7b 87ba 9192 d1ba c152 593a
00000010: dff6 8739 ec7c 36bb 52e8 eeb9 ae61 d5ba
00000020: f486 8c3b fef9 dfba 3db3 f3b9 ad52 abba
00000030: 4f55 873a 1544 94ba 92e1 9c3a 95c9 853a
00000040: 3123 3639 964a 8d38 2df1 f0b9 6ab0 5eb8
00000050: 1ce1 373a 75cf 49ba 958a 1fb9 70ef 333a
00000060: 5a74 ec39 546d 443a c4b5 99b9 b53a b1b9
00000070: ba2e 7a3a 5b29 98b8 c757 8b38 5828 d7b5
00000080: 187f bf38 2b06 f639 e215 bbb9 db59 f739
00000090: 0091 793a fc57 57ba 896e 6f39 d60a 873a
000000a0: 9554 98b9 56ab 2c3a 2cac 0ebb 307d a83a
000000b0: e395 af39 f4f0 063a d0bc 2aba 3444 e139
000000c0: 2465 85ba 8497 86ba 4b41 5dba f4ff 5aba
000000d0: 5dd5 aa39 cb84 7c3a 7552 9e39 a71b 8eb9
000000e0: 91e8 373a 6374 0bb8 285f 353a b6c6 00bb
000000f0: d1e8 8e3a ec0c 503a cd32 4a3a 4ecb dfb9
00000100: 0be8 983a 9d05 5eba 79ae c9b9 1d34 85b9
00000110: 631e 1939 6224 99b8 789d aa39 1c54 9c39
00000120: 0c2b 4937 2a13 9839 b8d7 e2b9 21e6 6bb8
00000130: 65d1 133a e7f0 843a 0134 3c38 e519 5239
00000140: f4fd c9b8 ff7a 1838 bf2b 26b9 1a9e 11ba
00000150: 91c7 26ba db8a 82ba 776d 183a eb5a bb39
00000160: 0d8e cab9 3c33 dab9 2193 153a 6016 30ba
00000170: 4e04 bab8 8b64 73bb 82ed 813a 9aaa b238
00000180: c034 c538 c769 0a38 693f f038 bae8 3eba
00000190: b96b deb9 4a81 dab9 295f 8d39 42ef 93b9
000001a0: 30f5 b4b8 98b2 be39 b771 3ab9 5d99 1cb9
000001b0: afbf d139 2f03 9bb8 c9fb 7a3a deba 3eb8
000001c0: 6ea2 af38 b4b5 8f39 e1c5 f538 3f14 18b6
000001d0: 7215 0237 4b66 ce37 ddb0 7438 3176 d639
000001e0: 65ae b3b9 c41f feb8 62b4 d739 442d 9a39
000001f0: 30d3 eab9 e827 5439 7bb4 cab9 8c87 f53a
00000200: 8807 50b9 bb41 3e38 90d4 9d38 3ce2 c139
00000210: 280e da38 cebc 5738 7256 3639 5f94 e138
00000220: f6e5 90b8 420f 0039 5a79 0e3a 7f66 a4b8
00000230: 8831 c239 0518 b039 b9d8 e1b9 c3e0 6e39
00000240: 0799 dbb8 379b 2e3a 18b9 ef39 1e55 0039
00000250: e7ba ecb9 0b14 193a c6e4 a4b9 a971 6fb9
00000260: b687 aeb9 18c7 413a 7c8c 00ba 8c2a c039
00000270: 8af2 413a f9a9 0939 5fc5 083a 50b0 533a
00000280: b0e9 2d39 cc83 1f3b 42d7 493a 5bc4 2439
00000290: a65d 373a 3965 8039 8da7 0e3a 3b6a 36b7
000002a0: 22a7 57b9 2cb2 6837 2e8d b5b9 e9b5 2c39
000002b0: 3cfb f238 cdbb ceb5 0d6c c3b9 a37e 443a
000002c0: 725e a7b8 0171 2139 77b1 6cba 53f3 e839
000002d0: 034d 99b9 5214 d139 850d 81b9 1363 ea37
000002e0: fb42 7c38 f686 4c38 ae5d 0339 898a ae3a
000002f0: 88bb 88ba 69f2 ccba b157 c63a 1c78 ae38
00000300: e154 ecba 3bf3 123a 60e6 9fba 9251 ba3b
00000310: 582f f9ba 3454 29ba 75d4 4cba bc8b 823a
00000320: e3fc 5cba 5dc4 ea3a bdd4 a73a 63c5 3e3a
00000330: 6317 a13a e4e8 05ba 6e3b 1cba d477 e9b9
00000340: 0c7b 0b3a b29a 79ba 8549 a7b9 ff9c 44ba
00000350: 2fc2 1f3b 8e63 8ab9 63ec c8b9 dc69 bfb9
00000360: acfa 6638 bd86 92b9 bac0 5939 0297 3939
00000370: d576 08b9 259f 5fb8 ae5f 4c39 fc35 f739
00000380: 236e 7a38 5e08 e338 9e61 be39 cb76 9fb9
00000390: a770 8c37 ede8 46ba 475a 433a d813 d739
000003a0: c960 3339 486e 4d38 3a1b 8a39 c180 c2b9
000003b0: 60ab 43b9 f976 9eb9 7fe4 1c3b 705c 07bb
000003c0: 7f63 c9ba 038b 9d3a 43be 5d3a fe9d 74bb
000003d0: 3210 603a 8fd0 9cba 3362 0d3c 9878 3ebb
000003e0: 3d69 82b9 2c61 74ba 564a 763a efa2 83ba
000003f0: 4a94 a63a b9bb b93a 196a 2c3a 6594 adba
0.0010470747 -0.0010336351 -0.0015989115 0.00082902244 0.0002593314 -0.0027845455 -0.0004556799 -0.0016279721
0.0042885486 -0.0017088053 -0.00046482115 -0.0013070904 0.0010325107 -0.0011311794 0.0011969081 0.0010207171
0.00017369982 6.737297e-05 -0.00045956057 -5.3093223e-05 0.000701444 -0.0007698455 -0.00015215047 0.0006863987
0.00045100116 0.0007493098 -0.0002931786 -0.0003380381 0.0009543706 -7.255628e-05 6.644386e-05 -1.603049e-06
9.131263e-05 0.00046925372 -0.00035683723 0.0004717846 0.0009520203 -0.000821471 0.00022833994 0.0010302912
-0.00029054718 0.00065868103 -0.0021770103 0.0012854692 0.00033490275 0.0005147599 -0.00065131206 0.0004296616
-0.0010177237 -0.0010268544 -0.00084402104 -0.000835418 0.00032583895 0.0009632825 0.00030197544 -0.00027104953
0.0007015551 -3.3248576e-05 0.00069187814 -0.001964969 0.0010903125 0.0007936496 0.00077132584 -0.00042685348
0.0011665834 -0.00084694644 -0.000384677 -0.00025406564 0.00014602537 -7.302385e-05 0.0003254225 0.00029817305
1.1990556e-05 0.00029005978 -0.00043266802 -5.624269e-05 0.0005638807 0.0010142595 4.4871125e-05 0.00020036807
-9.631729e-05 3.6354173e-05 -0.0001584729 -0.000555487 -0.0006362135 -0.0009959595 0.00058146514 0.0003573516
-0.00038634278 -0.00041618373 0.0005705823 -0.00067172013 -8.869973e-05 -0.0037138786 0.0009912702 8.5194784e-05
9.4035175e-05 3.3000277e-05 0.00011455903 -0.0007282604 -0.000424234 -0.00041676528 0.00026964516 -0.00028216286
-8.6287386e-05 0.00036372687 -0.00017780704 -0.00014934452 0.00040006402 -7.391569e-05 0.0009574262 -4.5473564e-05
8.374905e-05 0.00027410465 0.00011719368 -2.266155e-06 7.753597e-06 2.4604748e-05 5.833885e-05 0.0004090532
-0.00034271475 -0.000121175806 0.0004114239 0.00029406894 -0.00044789305 0.00020232762 -0.0003866291 0.0018732413
-0.00019839231 4.5360746e-05 7.525936e-05 0.00036980386 0.00010397687 5.1435833e-05 0.00017389076 0.00010756472
-6.909289e-05 0.00012212715 0.0005434953 -7.839221e-05 0.00037039467 0.00033587232 -0.00043076815 0.00022781179
-0.00010471237 0.0006660702 0.00045723538 0.0001223874 -0.0004515268 0.00058394735 -0.00031450967 -0.00022835158
-0.0003328898 0.0007392033 -0.00049037463 0.00036652794 0.0007398507 0.00013128658 0.0005217399 0.0008075284
0.00016585621 0.0024340032 0.00076996174 0.00015713407 0.00069948507 0.0002448948 0.0005441837 -1.0872779e-05
-0.0002056626 1.38697615e-05 -0.00034628197 0.00016470965 0.00011586255 -1.5402853e-06 -0.00037273802 0.0007495677
-7.980772e-05 0.00015396254 -0.000902913 0.0004443178 -0.00029239812 0.00039878726 -0.0002461487 2.7941109e-05
6.0143862e-05 4.8763082e-05 0.00012528032 0.0013316433 -0.0010431865 -0.0015636209 0.0015132335 8.319339e-05
-0.0018030667 0.0005605702 -0.0012199394 0.0056859935 -0.0019011302 -0.00064593856 -0.0007813641 0.0009959857
-0.0008430017 0.0017911304 0.001280449 0.0007277338 0.0012290295 -0.0005108251 -0.00059597834 -0.00044530502
0.00053207646 -0.00095216476 -0.00031907498 -0.0007500201 0.0024377217 -0.00026395585 -0.00038323094 -0.0003650923
5.506973e-05 -0.00027947678 0.00020766529 0.0001769923 -0.00013014239 -5.3315558e-05 0.000194906 0.00047151733
5.9707218e-05 0.00010825762 0.00036312354 -0.0003041535 1.6741758e-05 -0.0007587809 0.0007452112 0.0004102278
0.00017106826 4.8978516e-05 0.00026341697 -0.00037098493 -0.00018660491 -0.0003022475 0.0023939905 -0.0020654462
-0.0015364735 0.0012019578 0.0008458832 -0.0037325616 0.0008547335 -0.0011964011 0.00862937 -0.0029063579
-0.0002487394 -0.0009322341 0.0009395232 -0.0010043065 0.0012708989 0.0014170326 0.0006577089 -0.0013243078
