src/models/atla_release/PPO/attack-ppo-walker.model (torch, 308589 bytes, 72 tensors)

affine_layers.0.weight f4 [64, 17]
-0.0835787 0.2974173 -0.07074788 0.019188296 -0.32811567 -0.25570855 -0.2949914 -0.19178551
-0.11798818 -0.34110788 0.22583713 -0.07868988 -0.060074545 -0.0027938695 -0.20238583 -0.22284935
0.027764412 0.08729903 0.594031 -0.045804974 -0.040164456 0.1887527 -0.27541894 -0.32015643
-0.04534486 0.17712738 -0.07945905 -0.07365413 -0.01726192 -0.012421822 -0.015420949 0.10561954
0.08109943 -0.06944972 0.043714806 -0.15223822 0.0878106 -0.030619444 -0.16596705 0.054658893
-0.07756416 -0.09611539 -0.37056527 0.082671866 -0.48656753 0.22354925 0.22968088 0.03936707
0.24051401 0.09469204 0.047155134 -0.23877536 0.120837085 -0.012525663 0.008199712 0.009427094
-0.16115375 -0.2013718 -0.085385256 0.44064614 -0.14060208 0.017091567 -0.029687295 -0.039398648
-0.013230929 0.111518964 0.009838772 -0.04436233 -0.5483289 -0.6504021 0.11134686 -0.013620732
0.4006531 0.4233655 0.41047716 0.311689 -0.15534733 0.33182132 0.03738855 -0.20299006
-0.054384176 0.05231594 0.29034823 0.3626588 -0.06381151 0.3623187 -0.27684107 -0.1381835
-0.20562221 0.4435605 0.099726185 0.08073601 -0.039149586 -0.38417417 0.5796502 0.04243215
0.15998417 0.17185193 0.014519947 -0.23264514 -0.17012449 -0.016557282 0.91018564 0.24437614
-0.118062414 0.07127894 0.19068846 0.008056772 -0.44904312 0.13670307 0.25714442 0.17941093
0.0016205488 -0.12591627 -0.10170463 0.04809373 0.09226474 -0.06854295 -0.04362145 -0.2934253
0.102796376 0.20633847 -0.0278859 -0.032977056 -0.30001292 -0.21459976 -0.19342016 -0.022533158
-0.47585973 -0.38629 0.30595624 0.16570358 0.032596096 0.081403695 0.1737352 -0.045414224
-0.046850752 -0.2258332 0.04920575 0.09865831 -0.2600068 -0.075050145 0.16553618 0.19088143
0.2277532 -0.11376094 -0.04122903 0.1847111 0.115972504 -0.023336878 -0.09598054 -0.109076604
0.07261793 -0.3863805 0.56656384 0.020227466 -0.07999571 0.13820203 -0.15316431 -0.19118124
0.015179104 0.21631226 0.090744846 0.058635112 -0.22660013 -0.1536875 0.057019345 0.17899933
0.13018095 0.03560687 0.27006498 0.40654102 -0.08893257 -0.17789896 0.1477314 -0.4736295
-0.2870247 -0.40264 0.19231583 -0.09013511 -0.052344922 0.0447478 -0.0043732943 -0.018387042
-0.06602522 -0.07872616 0.03517779 0.103206635 -0.29730564 -0.07519519 -0.22066331 -0.28067645
0.17235924 0.1789487 0.031134577 0.22621055 0.043690145 -0.34694698 0.020956334 0.022068074
-0.02441464 0.3067331 0.464243 -0.18850331 -0.025637418 0.25687763 -0.113567635 0.083800405
-0.24341166 -0.11849549 -0.23330717 -0.0030502342 0.04841546 0.053315245 0.3837876 -0.32732236
-0.18233986 0.06996387 -0.19533789 -0.02805628 -0.029949257 0.1719263 -0.31848148 0.15247642
-0.028714567 0.032080438 0.11172445 0.09095701 0.10561401 -0.18476492 -0.15615867 0.34420994
-0.29940248 -0.12863787 0.0068757096 -0.02389122 0.033526484 -0.16146001 -0.021683749 0.44311297
-0.14372177 -0.12322171 0.09670275 -0.15964243 -0.13861765 0.14012301 0.34999204 0.13996209
-0.028643154 -0.13798553 -0.03529222 0.067525975 -0.0834371 -0.009593788 0.010819696 0.20592795
00000000: 4f2b abbd 1547 983e 44e4 90bd c630 9d3c
00000010: c7fe a7be 3bec 82be 1d09 97be 6c63 44be
00000020: c9a3 f1bd b1a5 aebe d941 673e 2928 a1bd
00000030: ba10 76bd 5a19 37bb 3b3e 4fbe 9f32 64be
00000040: 3172 e33c d5c9 b23d 6a12 183f ff9d 3bbd
00000050: 7c83 24bd 6348 413e b603 8dbe 8beb a3be
00000060: 88bb 39bd e160 353e 6dbb a2bd fad7 96bd
00000070: df68 8dbc e684 4bbc 26a8 7cbc 0f4f d83d
00000080: 7517 a63d a83b 8ebd 4c0e 333d 56e4 1bbe
00000090: 0bd6 b33d a1d5 fabc 44f3 29be 01e2 5f3d
000000a0: f5d9 9ebd 25d8 c4bd bbba bdbe de4f a93d
000000b0: 611f f9be 18ea 643e 7731 6b3e 5d3f 213d
000000c0: 4e49 763e e6ed c13d be25 413d 8781 74be
000000d0: 6f79 f73d 7038 4dbc 1658 063c 1974 1a3c
000000e0: 7d05 25be 6934 4ebe 77de aebd 5f9c e13e
000000f0: fef9 0fbe 9d03 8c3c c532 f3bc 7a60 21bd
00000100: 8ac6 58bc 0e64 e43d cd32 213c 46b5 35bd
00000110: 485f 0cbf c180 26bf d309 e43d 7e29 5fbc
00000120: 6722 cd3e 5dc3 d83e 102a d23e b395 9f3e
00000130: 5f13 1fbe 7ce4 a93e bc24 193d a0dc 4fbe
00000140: f1c1 5ebd 3d49 563d 86a8 943e 6aae b93e
00000150: 9caf 82bd d681 b93e 1dbe 8dbe fa7f 0dbe
00000160: a18e 52be 5d1a e33e 3e3d cc3d ec58 a53d
00000170: 515b 20bd 7ab2 c4be f563 143f 56cd 2d3d
00000180: e4d2 233e f4f9 2f3e 12e5 6d3c 873a 6ebe
00000190: 1d35 2ebe 23a3 87bc ed01 693f bd3d 7a3e
000001a0: b5ca f1bd b1fa 913d d643 433e 8d00 043c
000001b0: fbe8 e5be e4fb 0b3e 6fa8 833e 80b7 373e
000001c0: 9868 d43a 32f0 00be 844a d0bd eefd 443d
000001d0: 4cf5 bc3d 3f60 8cbd 68ac 32bd d73b 96be
000001e0: e886 d23d 644a 533e f970 e4bc f312 07bd
000001f0: 4b9b 99be 0ac0 5bbe ef0f 46be 7597 b8bc
00000200: e3a3 f3be cec7 c5be 4ca6 9c3e 33ae 293e
00000210: 7c83 053d fbb6 a63d a4e7 313e 4404 3abd
00000220: 93e6 3fbd d240 67be f88b 493d 5e0d ca3d
00000230: 9c1f 85be e4b3 99bd 5182 293e 6c76 433e
00000240: 2338 693e 7ffb e8bd c5df 28bd e824 3d3e
00000250: fe82 ed3d fb2c bfbc 7291 c4bd 8e63 dfbd
00000260: b6b8 943d aad3 c5be 540a 113f 12b4 a53c
00000270: cad4 a3bd d584 0d3e 1bd7 1cbe 04c5 43be
00000280: c7b1 783c f680 5d3e 6fd8 b93d 5f2b 703d
00000290: dd09 68be 4260 1dbe 1e8d 693d 9a4b 373e
000002a0: 284e 053e 82d8 113d f545 8a3e 2526 d03e
000002b0: 4722 b6bd 252b 36be e646 173e 917f f2be
000002c0: e7f4 92be d526 cebe 71ee 443e c298 b8bd
000002d0: a167 56bd 7849 373d da4d 8fbb 6ca0 96bc
000002e0: 3b38 87bd 2e3b a1bd 9616 103d 005e d33d
000002f0: 7238 98be f0ff 99bd 90f5 61be d3b4 8fbe
00000300: f17e 303e 543e 373e f10d ff3c bda3 673e
00000310: 70f4 323d 09a3 b1be 9eac ab3c 1bc8 b43c
00000320: 3601 c8bc 1f0c 9d3e 42b1 ed3e 0307 41be
00000330: 9005 d2bc 7785 833e 2696 e8bd 8c9f ab3d
00000340: e840 79be c3ad f2bd 13e8 6ebe 70e6 47bb
00000350: 4a4f 463d 1661 5a3d cf7f c43e cc96 a7be
00000360: 4db7 3abe 3849 8f3d a806 48be 49d6 e5bc
00000370: 2558 f5bc 730d 303e 0110 a3be c722 1c3e
00000380: d03a ebbc c766 033d cacf e43d ab47 ba3d
00000390: 284c d83d 0433 3dbe 0fe8 1fbe 493c b03e
000003a0: 484b 99be a5b9 03be a24d e13b 85b7 c3bc
000003b0: 1153 093d c655 25be 1ea2 b1bc b4df e23e
000003c0: cd2b 13be aa5b fcbd 170c c63d 4e79 23be
000003d0: c9f1 0dbe 687c 0f3e 2832 b33e 3952 0f3e
000003e0: 0ca5 eabc 144c 0dbe 938e 10bd 0f4b 8a3d
000003f0: 12e1 aabd 432f 1dbc 1845 313c c7de 523e

affine_layers.0.bias f4 [64]
0.47638398 -0.21270773 -0.19536985 -0.41756207 -0.057793632 -0.1443892 0.3682894 -0.21489857
0.2818304 0.39183202 -0.14830329 0.12101365 -0.12692845 -0.3487834 -0.12124641 -0.13153653
0.36050245 0.2836343 0.12431197 0.34774175 -0.52636546 -0.26147056 0.3326269 0.33152637
0.6907986 0.51438427 -0.2853421 0.3535579 0.40482783 -0.49403903 0.44347462 0.06587368
0.2146986 -0.010554654 0.19819118 0.12252019 -0.37404642 0.79056907 0.08541881 -0.17431642
0.6516873 -0.08511188 0.041584007 -0.52567065 -0.3792661 -0.22489767 0.43163142 0.030946998
-0.17395414 0.41292694 -0.14526159 0.071277834 -0.11420146 0.41800228 -0.40531865 -0.36233413
0.2411129 0.018609188 0.17407455 0.00039089553 -0.53684247 0.399323 -0.1715965 0.0048442837
00000000: 9ae8 f33e 0ed0 59be 090f 48be b2ca d5be
00000010: 04b9 6cbd c3da 13be 6e90 bc3e 5f0e 5cbe
00000020: 134c 903e 359e c83e d1dc 17be 01d6 f73d
00000030: 88f9 01be bd93 b2be 0a50 f8bd 83b1 06be
00000040: c793 b83e 8438 913e 4697 fe3d 350b b23e
00000050: e3bf 06bf 78df 85be 134e aa3e d3bd a93e
00000060: 2dd8 303f b0ae 033f 5c18 92be 8b05 b53e
00000070: 9845 cf3e aff2 fcbe 1b0f e33e c8e8 863d
00000080: f3d9 5b3e 6ded 2cbc a1f2 4a3e deeb fa3d
00000090: 0383 bfbe bc62 4a3f 0ff0 ae3d 0180 32be
000000a0: fbd4 263f 234f aebd fe53 2a3d 5a92 06bf
000000b0: 2b2f c2be 934b 66be cbfe dc3e 8f84 fd3c
000000c0: 0921 32be 296b d33e 74bf 14be 1dfa 913d
000000d0: 74e2 e9bd 6504 d63e ed85 cfbe dc83 b9be
000000e0: 4de6 763e 4c72 983c 9940 323e 1cf1 cc39
000000f0: 826e 09bf 1074 cc3e feb6 2fbe ccbc 9e3b

affine_layers.1.weight f4 [64, 64]
-0.47845253 -0.32819825 -0.045198828 -0.1941553 0.098113395 -0.16595371 -0.16235705 -0.29518557
0.03797983 -0.10260181 -0.20351449 0.19382481 -0.071831316 0.46341714 -0.44395587 -0.33663896
-0.05873765 0.03987299 -0.06907822 -0.45903626 -0.19396587 0.323304 -0.08762038 0.51303524
0.08923417 0.33844373 0.31525406 0.46883756 0.4387561 -0.2548143 -0.11865822 0.18787181
0.18248835 -0.048465308 -0.28227937 -0.20612319 -0.51128286 0.5477877 -0.30406365 0.37166184
-0.07315062 -0.20784788 -0.15512426 -0.2930479 0.14814475 0.31271368 -0.35027185 -0.01580976
0.15242685 0.12110062 -0.26997936 -0.4200839 -0.005437586 0.24815896 -0.32248127 -0.17953107
-0.070219 0.12835486 0.034009594 0.17686945 -0.07060407 -0.07759844 -0.032517612 -0.1332501
0.30205995 0.3782527 -0.094178155 0.41050783 -0.1442954 -0.25203392 -0.24891956 0.22034484
-0.14497511 0.1801778 0.2820006 0.2493544 0.17326024 -0.21205293 0.34236857 0.09543958
-0.040935207 0.16479596 -0.20898058 -0.0343477 -0.14201435 0.15110156 -0.08518847 -0.48651588
-0.10984234 -0.07455289 0.0059580402 -0.17719877 0.45135653 0.3996728 0.07847409 -0.14556743
-0.5046935 0.17173806 0.19021326 0.24743183 0.44487137 -0.38244995 -0.24590404 -0.44994992
-0.085889414 -0.10191821 0.07740846 0.21811938 0.15006684 -0.021716679 0.08545042 -0.1930088
0.30552635 -0.24344867 0.24120718 -0.04909168 0.2057756 -0.3683796 0.24431272 0.38115463
0.14531113 -0.23179464 -0.41546535 -0.020563612 -0.10811715 -0.119274855 0.1081144 -0.2794791
-0.015151902 -0.5384131 0.14039865 0.0030097833 0.043455925 0.40214428 -0.19545771 -0.2867353
-0.31961963 -0.35459062 -0.105566934 -0.25137186 -0.23400018 0.041692946 -0.8021644 0.42709506
-0.103980154 0.14916204 0.082909875 -0.15852435 -0.0071189664 0.12489931 -0.16158994 0.35814804
0.046621516 0.49472362 0.28358734 0.30292192 0.010619374 -0.96390873 0.20663206 0.24793574
0.15031508 -0.1501119 -0.22036695 0.04759666 -0.36263305 0.010698039 0.10193785 0.4536936
0.32007557 0.07585172 0.037519306 -0.036246262 -0.21227583 -0.011211118 -0.1951737 0.17248903
-0.05602393 0.44031027 -0.24492982 -0.45222318 -0.25719416 0.37388104 -0.01741821 -0.13929418
-0.114738174 0.1943741 -0.07893902 0.21204174 0.023880202 -0.023501836 -0.011297663 -0.0057580653
0.009619832 0.017819509 0.3430389 0.08863376 0.45238265 -0.30013844 -0.077909924 0.054396678
-0.1395665 0.35690427 -0.3089924 0.34066948 -0.069077924 0.12703443 -0.08826818 -0.22970591
-0.36062324 0.0015861758 0.15155074 0.13506664 0.49499232 0.22005552 0.05408551 0.034362685
0.16199498 -0.10522253 -0.0037700497 0.26798707 0.026384862 -0.29521477 -0.18450862 -0.32640272
0.16539185 -0.0372658 -0.036097627 -0.17690736 -0.16576615 -0.11118872 0.22163706 -0.19036965
0.5743486 -0.6529428 -0.36699095 0.23706302 -0.10083686 -0.4536485 0.06680587 -0.47458756
-0.18233526 0.0456412 -0.35666084 -0.15127398 0.41028717 0.09005707 0.21289031 -0.33397803
-0.42001945 -0.022203328 -0.4578632 -0.011880479 0.34804374 0.20670725 0.48819125 -0.24017939
00000000: bbf7 f4be 9a09 a8be 6822 39bd a6d0 46be
00000010: adef c83d c5ef 29be ed40 26be 9022 97be
00000020: bd90 1b3d e620 d2bd 1a66 50be 037a 463e
00000030: 4c1c 93bd 0345 ed3e 2f4e e3be f15b acbe
00000040: e496 70bd dc51 233d e278 8dbd cd06 ebbe
00000050: fd9e 46be 1a88 a53e 5072 b3bd 4756 033f
00000060: 68c0 b63d 7f48 ad3e fb68 a13e 7a0b f03e
00000070: a4a4 e03e 0577 82be 1503 f3bd 7861 403e
00000080: 3ade 3a3e 8f83 46bd ec86 90be f511 53be
00000090: 6fe3 02bf d13b 0c3f 3bae 9bbe 764a be3e
000000a0: fecf 95bd 13d6 54be e5d8 1ebe 600a 96be
000000b0: 42b3 173e 021c a03e d556 b3be 7883 81bc
000000c0: c915 1c3e 9a03 f83d bc3a 8abe 3d15 d7be
000000d0: c72d b2bb 621d 7e3e 441c a5be fed6 37be
000000e0: fbce 8fbd 756f 033e a54d 0b3d 441d 353e
000000f0: de98 90bd eeeb 9ebd 3031 05bd b772 08be
00000100: 9aa7 9a3e 57aa c13e 7ae0 c0bd 152e d23e
00000110: 2cc2 13be 970a 81be c5e4 7ebe 14a2 613e
00000120: 5b74 14be 8780 383e 6262 903e c356 7f3e
00000130: 226b 313e 6724 59be ef4a af3e d475 c33d
00000140: adab 27bd 46c0 283e 01ff 55be 2db0 0cbd
00000150: 366c 11be 5eba 1a3e 4b77 aebd 9c18 f9be
00000160: 05f5 e0bd 30af 98bd aa3b c33b 9873 35be
00000170: 3418 e73e eaa1 cc3e 06b7 a03d a10f 15be
00000180: 9833 01bf 1adc 2f3e 44c7 423e c55e 7d3e
00000190: 2ec6 e33e 7bd0 c3be 45ce 7bbe d65f e6be
000001a0: cae6 afbd 7fba d0bd 5488 9e3d b05a 5f3e
000001b0: 1fab 193e 2de7 b1bc a100 af3d 19a4 45be
000001c0: f36d 9c3e 9c4a 79be 04ff 763e 5c14 49bd
000001d0: d7b6 523e 409c bcbe 1d2d 7a3e b326 c33e
000001e0: 71cc 143e 935b 6dbe e0b7 d4be 0575 a8bc
000001f0: 866c ddbd 6046 f4bd 156b dd3d e217 8fbe
00000200: af3f 78bc 71d5 09bf aac4 0f3e c93f 453b
00000210: d7fe 313d dbe5 cd3e 1126 48be f8ce 92be
00000220: 2fa5 a3be e78c b5be 7a33 d8bd d0b3 80be
00000230: be9d 6fbe 39c6 2a3d a55a 4dbf 34ac da3e
00000240: 8cf3 d4bd efbd 183e a7cc a93d 3554 22be
00000250: 3846 e9bb 36cb ff3d d577 25be 2e5f b73e
00000260: 34f6 3e3d 6a4c fd3e 5c32 913e 9518 9b3e
00000270: e2fc 2d3c b9c2 76bf 5b97 533e dee2 7d3e
00000280: 32ec 193e efb6 19be e0a7 61be b7f4 423d
00000290: 0aab b9be d446 2f3c cbc4 d03d 874a e83e
000002a0: f2e0 a33e 2658 9b3d d8ad 193d f676 14bd
000002b0: d65e 59be d6ae 37bc 9ddb 47be f7a0 303e
000002c0: 5979 65bd 5970 e13e e2ce 7abe cc89 e7be
000002d0: f4ae 83be 566d bf3e a2b0 8ebc 22a3 0ebe
000002e0: d9fb eabd 010a 473e c8aa a1bd 7821 593e
000002f0: 6aa0 c33c ec86 c0bc d519 39bc 27ae bcbb
00000300: 809c 1d3c 38fa 913c cba2 af3e 9e85 b53d
00000310: b39e e73e bfab 99be 3d8f 9fbd 0dcf 5e3d
00000320: 85ea 0ebe 28bc b63e 4034 9ebe 3b6c ae3e
00000330: ba78 8dbd 5015 023e f3c5 b4bd 0738 6bbe
00000340: 9ca3 b8be 3ae7 cf3a 1e30 1b3e e94e 0a3e
00000350: a26f fd3e 3c56 613e c588 5d3d e3bf 0c3d
00000360: 03e2 253e e97e d7bd f012 77bb 9a35 893e
00000370: 1125 d83c 6426 97be d4ef 3cbe 421e a7be
00000380: 7b5c 293e 06a4 18bd 1bdb 13bd 3427 35be
00000390: 9abe 29be e9b6 e3bd d3f4 623e 43f0 42be
000003a0: 8308 133f 4227 27bf 3de6 bbbe a6c0 723e
000003b0: 8e83 cebd 9e44 e8be 84d1 883d 24fd f2be
000003c0: 18b6 3abe 44f2 3a3d 409c b6be 91e7 1abe
000003d0: 2911 d23e d76f b83d ebff 593e 2bff aabe
000003e0: ca0c d7be c1e3 b5bc 0c6d eabe 57a6 42bc
000003f0: ca32 b23e 11ab 533e 34f4 f93e 96f1 75be

affine_layers.1.bias f4 [64]
0.0878383 0.06441744 0.18610893 -0.091725014 0.23784669 0.3102192 -0.041984152 0.1953248
0.18296859 0.058132574 0.15243298 0.40089196 -0.19324166 -0.19492821 -0.071779646 0.18073733
-0.0034455697 0.14309119 0.27938107 0.22094195 -0.03645729 0.20434068 -0.047485873 0.04347051
-0.3992802 0.20767522 -0.33663207 0.16313815 0.2895251 0.1782554 -0.06998153 0.2757156
-0.1564149 0.21422824 -0.1418715 -0.4332927 -0.29270893 -0.1730995 -0.35332066 0.062303863
0.11891583 0.26288578 0.11177793 0.09734266 0.047960408 0.07015691 0.24303903 -0.15812184
0.1739488 -0.1202225 -0.18776998 -0.09596722 0.13789912 0.17773446 -0.054912057 0.18068561
0.23665889 0.13225706 -0.1333518 0.2826015 -0.19186604 -0.25590676 0.050933845 -0.14552896
00000000: 91e4 b33d 4aed 833d 5793 3e3e 53da bbbd
00000010: 158e 733e 0dd5 9e3e 93f7 2bbd 3903 483e
00000020: 1e5c 3b3e 6c1c 6e3d 6417 1c3e b641 cd3e
00000030: 24e1 45be 439b 47be 3501 93bd 3513 393e
00000040: 11cf 61bb 7f86 123e 090b 8f3e 9b3e 623e
00000050: 3d54 15bd af3e 513e 8c80 42bd 220e 323d
00000060: 746e ccbe d0a8 543e 0a5b acbe b00d 273e
00000070: a23c 943e 9588 363e 7a52 8fbd 982a 8d3e
00000080: 3a2b 20be a65e 5b3e c346 11be 8ad8 ddbe
00000090: f2dd 95be ff40 31be 72e6 b4be 5632 7f3d
000000a0: 258a f33d f798 863e d4eb e43d 975b c73d
000000b0: 2272 443d 6dae 8f3d 39df 783e b1ea 21be
000000c0: a21f 323e 3737 f6bd c646 40be 768a c4bd
000000d0: 6d35 0d3e 0600 363e 77eb 60bd a605 393e
000000e0: b556 723e 656e 073e 608d 08be 25b1 903e
000000f0: 8878 44be 3606 83be 02a0 503d 8b05 15be

final.weight f4 [1, 64]
0.13281362 0.17480908 0.23595007 -0.13052374 0.07201223 0.13952659 0.06836242 0.08330984
0.24846764 0.110969104 0.12252667 0.23022698 -0.057066318 -0.10839998 -0.09759626 0.04284886
0.08064599 0.0958561 0.065443166 0.06119545 -0.26778087 0.13361214 -0.0714582 0.047472786
-0.16389355 0.1086571 -0.20769031 0.17940383 0.03921602 0.10565477 -0.079386 0.37035015
-0.04560235 0.1524297 -0.029704008 -0.31437355 -0.06855998 -0.1250685 -0.29340845 0.009730636
0.1323309 0.07631431 0.08010155 -0.060885698 0.10894439 0.14010862 0.17212456 -0.12719534
0.003284908 -0.11189104 -0.17531753 -0.07559556 0.13501465 0.23897335 -0.08625375 0.067562506
0.097743504 0.09751276 -0.06573182 0.15906258 0.070441514 -0.32527304 0.116043985 -0.14019696
00000000: 4b00 083e 2701 333e e59c 713e 04a8 05be
00000010: 267b 933d 0fe0 0e3e 9901 8c3d 599e aa3d
00000020: 4d6e 7e3e c543 e33d 43ef fa3d 9fc0 6b3e
00000030: 5fbe 69bd cf00 debd 8ce0 c7bd 4982 2f3d
00000040: ba29 a53d 3450 c43d 1107 863d 15a8 7a3d
00000050: 931a 89be 9fd1 083e ad58 92bd d372 423d
00000060: b6d3 27be 9d87 de3d c5ac 54be a3b5 373e
00000070: faa0 203d 8761 d83d 2195 a2bd 899e bd3e
00000080: 88c9 3abd 8816 1c3e d255 f3bc 92f5 a0be
00000090: 2d69 8cbd f511 00be a239 96be 3f6d 1f3c
000000a0: c081 073e ad4a 9c3d 480c a43d 4863 79bd
000000b0: 3d1e df3d a278 0f3e 6c41 303e 7f3f 02be
000000c0: 9c47 573b 2127 e5bd 7086 33be d8d1 9abd
000000d0: 4841 0a3e 6eb5 743e cea5 b0bd 365e 8a3d
000000e0: bf2d c83d c5b4 c73d 689e 86bd 4de1 223e
000000f0: a443 903d 308a a6be 78a8 ed3d cb8f 0fbe

log_stdev f4 [6]
-100.0 -100.0 -100.0 -100.0 -100.0 -100.0
00000000: 0000 c8c2 0000 c8c2 0000 c8c2 0000 c8c2
00000010: 0000 c8c2 0000 c8c2

affine_layers.0.weight f4 [64, 17]
-0.14241998 0.26693088 -0.7690719 -0.13574466 -0.21396346 0.24042821 -0.04898948 -0.21892178
0.09694504 -0.52005064 -0.102476284 0.17689754 -0.001976237 -0.2570598 0.10712193 0.2988661
-0.06587928 0.20582695 -0.6407159 -0.4491801 -0.360582 -0.01776615 0.17141774 0.014687878
0.12366301 -0.19044843 0.15441774 -0.22319807 0.09939195 -0.12189958 0.24435207 -0.2596533
-0.31780607 0.08115059 -0.14133391 0.10721913 0.11140448 0.033655073 -0.18021707 -0.11730134
-0.6673356 -0.44968975 -0.2705632 0.07057653 -0.55225825 0.049610775 -0.18922475 -0.27120915
-0.07451472 -0.37769452 0.37481523 0.32953495 -0.06325678 -0.098180264 -0.2504693 0.5218441
-0.17368071 0.33420017 -0.057786036 -0.015750898 0.24712846 0.18721746 0.59795827 0.053967435
0.059412748 0.08098099 0.43395194 0.31838396 -0.17208163 -0.44954738 -0.55390084 0.04680051
-0.3026947 0.31464735 -0.10813708 0.027181761 -0.25704387 0.9225265 -0.18097363 0.11947989
-0.06880151 -0.23167676 0.0653293 -0.16715145 -0.086473 -0.5318382 0.31684938 -0.25220048
0.59397715 -0.18770128 0.17298731 0.41458032 -0.48368755 0.16789268 -0.13761358 0.23604396
-0.30682552 -0.037412 -0.1797853 -0.06046162 0.08367187 0.0025395367 0.15479708 -0.31220868
-0.083305 -0.63334954 -0.28578207 0.17888543 -0.27699652 -0.37667227 -0.4646662 0.4029861
-0.38325945 0.4787433 -0.13745466 -0.5059165 -0.02470358 -0.047146637 0.016336048 0.1665267
-0.14986001 0.21331511 -0.120957665 0.14562145 0.13118897 0.224569 0.1689225 0.24900194
0.65722454 0.4607041 0.42534274 0.25276536 0.33167937 -0.2535012 -0.18108495 -0.44736177
-0.28508568 0.25379217 -0.32531846 -0.0022955458 -0.102117814 -0.13372134 0.2791472 -0.12536553
-0.13369626 -0.24414584 -0.39522794 0.03457589 0.20189963 -0.010579658 0.11994858 -0.17907117
-0.025050804 0.4352917 0.17617744 -0.3277498 0.08132334 -0.31606188 0.1841143 -0.22797166
0.36793104 0.14830782 0.21379161 -0.18844676 0.3853409 -0.12846546 -0.33067864 0.19051301
-0.27725032 -0.26548117 0.2140511 -0.20307815 0.25663963 -0.54833275 -0.060663152 0.27685887
0.15085435 -0.24870856 0.2358096 0.1646738 -0.22090827 -0.22706702 0.37575713 0.246356
0.60659146 -0.016096858 0.17416096 0.072518565 -0.08024016 -0.15844184 0.09020932 -0.25749657
-0.10013498 -0.1306621 0.5254898 -0.08535098 0.092787094 -0.18329732 0.3579784 0.2953369
-0.27303427 -0.26192695 0.28001451 -0.018419422 -0.14734383 0.4188526 0.3265922 0.15987036
0.012760026 0.19885726 -0.27953446 0.14030099 0.017040713 -0.037501812 -0.54458964 -0.071468286
0.4940788 0.26848102 0.40440276 0.0892062 0.20471193 0.87161964 -0.45061648 -0.16153313
0.14087999 0.12743968 0.4332587 0.058952242 0.12180892 0.083036594 0.023500312 -0.061668865
-0.10562451 0.47064364 -0.3105922 0.050667513 -0.28413925 0.52160525 0.025505261 0.5210078
-0.13149324 0.14132471 0.019227816 -0.089260064 -0.061790768 0.4121252 -0.22294857 0.13277376
-0.12021622 -0.0089821685 -0.066784605 -0.34979057 0.0509858 0.059964698 0.16734019 -0.20132658
00000000: 8bd6 11be 2aab 883e e5e1 44bf a600 0bbe
00000010: 3d19 5bbe d032 763e 31a9 48bd 082d 60be
00000020: 1f8b c63d 0a22 05bf 16df d1bd a124 353e
00000030: c183 01bb 589d 83be be62 db3d fa04 993e
00000040: b7eb 86bd 4dc4 523e f505 24bf effa e5be
00000050: 349e b8be 518a 91bc 2288 2f3e 6da5 703c
00000060: 0843 fd3d ea04 43be af1f 1e3e 098e 64be
00000070: 028e cb3d 7da6 f9bd 6e37 7a3e 47f1 84be
00000080: 7ab7 a2be 4832 a63d d6b9 10be b495 db3d
00000090: 0828 e43d e7d9 093d d38a 38be af3b f0bd
000000a0: 82d6 2abf bc3d e6be 4287 8abe 6e8a 903d
000000b0: cc60 0dbf ab34 4b3d 22c4 41be eddb 8abe
000000c0: 2c9b 98bd 2d61 c1be c8e7 bf3e ceb8 a83e
000000d0: c58c 81bd bc12 c9bd 833d 80be 9397 053f
000000e0: 5bd9 31be 491c ab3e 0db1 6cbd 0708 81bc
000000f0: 3e0f 7d3e efb5 3f3e cb13 193f f50c 5d3d
00000100: c85a 733d 5cd9 a53d f32e de3e 3903 a33e
00000110: 2b36 30be 132b e6be 72cc 0dbf e4b1 3f3d
00000120: cdfa 9abe 7519 a13e f976 ddbd 49ac de3c
00000130: 419b 83be b22a 6c3f 2751 39be dfb1 f43d
00000140: cee7 8cbd ac3c 6dbe 5ecb 853d c029 2bbe
00000150: c218 b1bd 8c26 08bf 153a a23e 6c20 81be
00000160: e30e 183f c434 40be 9623 313e df43 d43e
00000170: e5a5 f7be 0fec 2b3e 93ea 0cbe 82b5 713e
00000180: 3c18 9dbe 533d 19bd a319 38be 9ba6 77bd
00000190: 285c ab3d 5b6e 263b 2083 1e3e d1d9 9fbe
000001a0: d09b aabd 3223 22bf 0752 92be be2d 373e
000001b0: 7dd2 8dbe 30db c0be bae8 edbe 3254 ce3e
000001c0: 953a c4be d81d f53e eac0 0cbe be83 01bf
000001d0: 2a5f cabc d51c 41bd 2dd3 853c fa85 2a3e
000001e0: e774 19be 476f 5a3e a7b8 f7bd ca1d 153e
000001f0: 6756 063e 6af5 653e 05fa 2c3e 5dfa 7e3e
00000200: de3f 283f 68e1 eb3e 86c6 d93e 766a 813e
00000210: e1d1 a93e e9ca 81be 556e 39be 9a0c e5be
00000220: c0f6 91be 0cf1 813e 2490 a6be de70 16bb
00000230: 2523 d1bd 3fee 08be 62ec 8e3e d25f 00be
00000240: ace7 08be 5e01 7abe 515b cabe 739f 0d3d
00000250: c7be 4e3e 4d56 2dbc 9aa7 f53d 6f5e 37be
00000260: 5837 cdbc 8ede de3e dc67 343e d2ce a7be
00000270: da8c a63d ddd2 a1be 7688 3c3e 6771 69be
00000280: 7561 bc3e 01de 173e 30ec 5a3e 30f8 40be
00000290: 674b c53e 738c 03be b64e a9be d815 433e
000002a0: c1f3 8dbe 26ed 87be 3630 5b3e b8f3 4fbe
000002b0: 4566 833e 895f 0cbf ed79 78bd 72c0 8d3e
000002c0: 9079 1a3e 75ad 7ebe 1278 713e 40a0 283e
000002d0: c735 62be 4284 68be 3d63 c03e bf44 7c3e
000002e0: 9449 1b3f 8fdd 83bc 4057 323e 9d84 943d
000002f0: f454 a4bd 943e 22be aabf b83d 97d6 83be
00000300: 9213 cdbd 49cc 05be 8086 063f 7fcc aebd
00000310: 2907 be3d 4bb2 3bbe f248 b73e 6636 973e
00000320: 26cb 8bbe 4a1b 86be 105e 8f3e 54e4 96bc
00000330: 4de1 16be d973 d63e 1837 a73e 0eb5 233e
00000340: 6e0f 513c 3da1 4b3e 241f 8fbe 10ab 0f3e
00000350: f798 8b3c 809b 19bd 3a6a 0bbf f75d 92bd
00000360: e5f7 fc3e 5876 893e e10d cf3e bdb1 b63d
00000370: 01a0 513e 7722 5f3f 34b7 e6be f168 25be
00000380: d842 103e 8c7f 023e 16d4 dd3e e877 713d
00000390: f476 f93d 170f aa3d ba83 c03c 7e98 7cbd
000003a0: aa51 d8bd 34f8 f03e f105 9fbe bd88 4f3d
000003b0: b37a 91be ec87 053f 69f0 d03c c460 053f
000003c0: 2aa6 06be 6db7 103e a783 9d3c fbcd b6bd
000003d0: 5118 7dbd 1302 d33e a14c 64be d8f5 073e
000003e0: ec33 f6bd f229 13bc 5ec6 88bd c017 b3be
000003f0: 7cd6 503d 8b9d 753d 3a5b 2b3e 8e28 4ebe

affine_layers.0.bias f4 [64]
0.21229638 -0.38560778 -0.103436984 0.15559305 0.03081984 -0.053930428 0.11454265 -0.08276826
0.433524 0.24850588 -0.053558268 -0.12634456 -0.4474245 0.30367845 -0.17246616 0.06972024
0.10681137 -0.18837602 -0.0573757 0.16330233 -0.030155476 -0.1504658 -0.014722459 0.23238447
-0.06929996 -0.0426698 -0.09231434 0.29103562 0.31044266 -0.24379037 0.23436126 0.07168976
0.20126341 0.1200055 0.31303146 -0.16656101 0.08001106 0.14153141 -0.062172346 -0.322506
0.16874506 0.38066015 -0.14832453 -0.23300065 -0.23185502 0.019102238 -0.0019033169 0.16945685
0.2777327 -0.2200781 0.14641248 0.21129087 0.38372386 -0.23475295 -0.42881182 0.18307918
0.13349101 0.10592033 0.26617488 -0.046285275 -0.45941725 -0.20591079 -0.23005211 0.21174127
00000000: 3964 593e 626e c5be c5d6 d3bd c953 1f3e
00000010: e479 fc3c 27e6 5cbd 5695 ea3d 6882 a9bd
00000020: dcf6 dd3e 5378 7e3e ea5f 5bbd 7860 01be
00000030: d314 e5be be7b 9b3e f89a 30be 7cc9 8e3d
00000040: ebbf da3d a5e5 40be c802 6bbd ba38 273e
00000050: 9e08 f7bc b513 1abe 7836 71bc 32f6 6d3e
00000060: 23ed 8dbd 87c6 2ebd 4d0f bdbd 9f02 953e
00000070: 57f2 9e3e 2fa4 79be 66fc 6f3e 15d2 923d
00000080: ff17 4e3e 72c5 f53d a945 a03e f88e 2abe
00000090: d7dc a33d 9ced 103e 6ea8 7ebd 821f a5be
000000a0: 81cb 2c3e e3e5 c23e 63e2 17be b997 6ebe
000000b0: 676b 6dbe 4c7c 9c3c b878 f9ba 1986 2d3e
000000c0: fb32 8e3e 275c 61be 27ed 153e a25c 583e
000000d0: 7477 c43e 1463 70be 398d dbbe 1c79 3b3e
000000e0: deb1 083e c2ec d83d 1348 883e a195 3dbd
000000f0: bd38 ebbe 47da 52be c892 6bbe b4d2 583e

affine_layers.1.weight f4 [64, 64]
-0.05516669 0.07027141 -0.1852181 0.25778204 0.1275984 0.13378438 0.27372274 -0.17358425
-0.13440661 -0.08719738 -0.32671887 0.10690805 -0.14930536 -0.70007604 0.46953228 -0.45675436
-0.25579673 0.1972895 0.19193953 0.015597203 0.36748534 0.07900234 -0.069936134 -0.116866
0.28232336 -0.289308 0.15502211 0.5300293 0.02903017 -0.45461047 0.01741583 0.077000186
0.3672304 0.13958248 -0.20195147 -0.09992642 0.27768394 -0.09190549 0.25926694 -0.026900765
-0.18987072 -0.072149575 0.31114405 0.5563109 -0.04483677 0.26582617 -0.40580985 0.15751268
0.37947264 -0.0884705 -0.08745699 0.23544355 0.11851169 0.080384165 -0.37081057 0.1926574
0.018940778 0.01937914 0.1326739 0.066926576 -0.08379588 0.02456117 -0.0020911996 -0.5046122
0.25783467 -0.2122186 0.18994388 0.5076515 -0.3621663 -0.41436037 -0.12215457 -0.17168313
0.3183677 -0.1059444 -0.2104949 0.24391188 -0.36751732 0.11355405 -0.2665663 0.2753491
-0.21345724 0.0017419959 0.08996363 -0.11930776 -0.042106852 0.26996544 -0.03688837 -0.48241633
-0.12528151 0.38210782 -0.020916525 -0.1363971 -0.21889724 0.25222006 0.05536676 0.12217169
-0.13284847 -0.34890088 0.18642962 0.26263803 -0.7251118 0.5072135 -0.28879234 -0.016934423
0.30767044 0.1930096 0.59185785 0.1822221 -0.40439522 -0.048525184 0.41063216 -0.01704035
0.13456777 0.59368634 -0.8988059 0.74426395 -0.07654127 -0.09511516 -0.002897373 -0.039931018
-0.0034849937 0.19209343 0.078937665 0.09199749 -0.006916885 0.23838304 -0.12848273 0.5025833
0.45957533 -0.13595471 0.43732107 0.11291592 0.060355186 0.22435233 0.48640087 0.36352617
0.13767369 0.30660602 -0.31007406 0.25557506 -0.34862807 0.16688466 0.064863265 0.29063797
0.08361295 0.2227181 0.034903876 -0.10630636 -0.20776683 -0.2971092 0.321357 -0.14276284
0.15976794 -0.18873443 0.012367844 0.14480487 0.31310824 -0.3262106 0.16445929 0.056149453
-0.09286418 -0.18215697 0.25130606 0.08148725 -0.06476151 0.31352216 -0.31730962 0.032012746
0.44359222 0.0537469 0.022823414 0.18370126 -0.29004243 -0.11402912 -0.12655699 0.5407094
0.2052975 0.09602037 0.28591278 -0.1213603 -0.0062069846 0.26273054 -0.2767974 0.121077105
-0.13398217 0.072253756 -0.27133217 0.18083078 -0.41314682 -0.03680211 -0.4309271 -0.14190248
0.10738522 0.28064314 0.027602011 -0.07700493 -0.5432835 0.03199003 -0.28268412 0.03508959
-0.1343558 0.44502747 0.17677338 0.10866741 -0.20582943 0.11632662 -0.26239264 -0.16744201
-0.10359144 0.2083497 0.030363066 0.3263052 -0.29350042 -0.039500505 -0.19887012 -0.0054418915
0.34829816 0.27897924 -0.015436532 -0.05516251 -0.36539513 0.6363103 0.29583645 0.11032577
-0.23008147 0.11496496 -0.118182555 0.07243051 -0.3932418 0.14602767 -0.19838919 0.24567269
-0.09462286 0.063979015 0.12550873 -0.05521681 0.1659397 -0.2207709 -0.38476965 -0.19349638
-0.08193904 -0.012849435 0.0070168576 -0.028868742 0.15086311 0.3913559 0.10150045 0.16656184
-0.055182517 -0.3571052 -0.41774547 -0.80281556 -0.13068141 0.3326127 -0.08984728 -0.104702815
00000000: 78f6 61bd 75ea 8f3d d0a9 3dbe 02fc 833e
00000010: 28a9 023e c6fe 083e 6325 8c3e 12c0 31be
00000020: e3a1 09be 8a94 b2bd b247 a7be 9cf2 da3d
00000030: 81e3 18be 2f38 33bf 8966 f03e b5db e9be
00000040: caf7 82be 4206 4a3e cc8b 443e 698b 7f3c
00000050: 0a27 bc3e fbcb a13d ad3a 8fbd 7157 efbd
00000060: b08c 903e 2e20 94be 1ebe 1e3e 00b0 073f
00000070: aed0 ed3c b4c2 e8be a5ab 8e3c 46b2 9d3d
00000080: 9f05 bc3e b6ee 0e3e 5ecc 4ebe 39a6 ccbd
00000090: 972c 8e3e f238 bcbd a3be 843e fe5e dcbc
000000a0: 786d 42be 28c3 93bd 464e 9f3e 646a 0e3f
000000b0: c3a6 37bd 5e1a 883e 4fc6 cfbe 014b 213e
000000c0: 3d4a c23e 0630 b5bd a61c b3bd 1d18 713e
000000d0: 42b6 f23d 74a0 a43d e2da bdbe fb47 453e
000000e0: b129 9b3c 01c1 9e3c abdb 073e cd10 893d
000000f0: 2d9d abbd 8234 c93c 820c 09bb 442e 01bf
00000100: e802 843e d54f 59be a680 423e 73f5 013f
00000110: dc6d b9be 0b27 d4be 2d2c fabd b4cd 2fbe
00000120: 1701 a33e 61f9 d8bd fa8b 57be 09c4 793e
00000130: 3b2b bcbe 078f e83d 617b 88be 8ffa 8c3e
00000140: 8994 5abe af53 e43a da3e b83d a057 f4bd
00000150: 3c78 2cbd e938 8a3e 4218 17bd 46ff f6be
00000160: cc49 00be a3a3 c33e 2259 abbc aeab 0bbe
00000170: 9926 60be fd22 813e 41c8 623d 2735 fa3d
00000180: 6e09 08be 23a3 b2be 68e7 3e3e 7e78 863e
00000190: eda0 39bf bed8 013f 97dc 93be 0fba 8abc
000001a0: fb86 9d3e 4fa4 453e ff83 173f 6e98 3a3e
000001b0: e40c cfbe 58c2 46bd 613e d23e 3498 8bbc
000001c0: 22cc 093e d4fb 173f 2518 66bf 1588 3e3f
000001d0: abc1 9cbd bdcb c2bd dae1 3dbb b58e 23bd
000001e0: 7e64 64bb 24b4 443e 12aa a13d 2e69 bc3d
000001f0: 09a7 e2bb af1a 743e fa90 03be 4da9 003f
00000200: 754d eb3e b637 0bbe 8ce8 df3e 7640 e73d
00000210: 0037 773d 9ebc 653e 8909 f93e 1a20 ba3e
00000220: 55fa 0c3e 77fb 9c3e 07c2 9ebe bcda 823e
00000230: 617f b2be d0e3 2a3e 08d7 843d 80ce 943e
00000240: 443d ab3d 3710 643e 5ef7 0e3d 26b7 d9bd
00000250: d4c0 54be b21e 98be e888 a43e 6c30 12be
00000260: 359a 233e 9943 41be 7fa2 4a3c ba47 143e
00000270: b94f a03e 1305 a7be 0468 283e f8fc 653d
00000280: 932f bebd 5b87 3abe 30ab 803e cae2 a63d
00000290: afa1 84bd fa85 a03e 6876 a2be cc1f 033d
000002a0: 851e e33e b625 5c3d 2bf8 ba3c 2f1c 3c3e
000002b0: 7180 94be 1988 e9bd 2898 01be ee6b 0a3f
000002c0: 8239 523e 54a6 c43d 2963 923e c08b f8bd
000002d0: f663 cbbb 9e84 863e 64b8 8dbe 46f7 f73d
000002e0: 9f32 09be c7f9 933d 0dec 8abe b42b 393e
000002f0: fb87 d3be cfbd 16bd 7aa2 dcbe e24e 11be
00000300: c8ec db3d 75b0 8f3e 9d1d e23c c3b4 9dbd
00000310: a114 0bbf fa07 033d f9bb 90be 1aba 0f3d
00000320: 9194 09be a4da e33e 1504 353e 058d de3d
00000330: f3c4 52be a73c ee3d 5458 86be eb75 2bbe
00000340: c027 d4bd a059 553e f7bb f83c 7a11 a73e
00000350: b045 96be 48cb 21bd 9ca4 4bbe e551 b2bb
00000360: 2354 b23e 5ed6 8e3e 82e9 7cbc 16f2 61bd
00000370: 1215 bbbe 3be5 223f e077 973e 7af2 e13d
00000380: 7a9a 6bbe c072 eb3d b209 f2bd 7256 943d
00000390: fd56 c9be 4788 153e 8926 4bbe 9f91 7b3e
000003a0: a1c9 c1bd 6e07 833d 5c85 003e 062b 62bd
000003b0: 19ec 293e c411 62be 8700 c5be ea23 46be
000003c0: a8cf a7bd 7086 52bc abed e53b 247e ecbc
000003d0: dc7b 1a3e cd5f c83e 78df cf3d 308f 2a3e
000003e0: 1007 62bd 7ed6 b6be bce2 d5be 5285 4dbf
000003f0: 59d1 05be 364c aa3e da01 b8bd 6e6e d6bd

affine_layers.1.bias f4 [64]
-0.02258196 0.19399254 0.32752103 -0.18282263 -0.32750836 0.10326698 0.27134988 0.36153796
-0.03197191 -0.006592089 -0.39448208 -0.100687474 0.29149172 -0.12742764 -0.028108465 0.25652584
-0.11976261 0.3089916 -0.02249984 -0.0477233 -0.07691711 0.13694544 -0.05520175 0.20483695
-0.33158153 -0.002371558 -0.08554519 0.317832 0.23573229 -0.09912687 0.02332279 -0.05785685
-0.16290964 -0.42245424 -0.17493117 -0.2587113 0.20974706 0.090738714 0.015300988 -0.1251717
-0.23601882 -0.008371643 -0.3440331 0.20606862 -0.13626854 -0.05179816 -0.13014986 0.21942417
0.39243123 -0.5013075 0.20040537 -0.0033766732 0.09792942 0.22158995 0.034443647 -0.28047913
0.2368429 0.07358802 0.3747683 0.05625384 0.047165316 0.35927427 -0.099365614 -0.059485603
00000000: cdfd b8bc fba5 463e d6b0 a73e db35 3bbe
00000010: 2daf a7be a37d d33d 5fee 8a3e 811b b93e
00000020: faf4 02bd 7302 d8bb 8ef9 c9be 3c35 cebd
00000030: 673e 953e 647c 02be b943 e6bc 5b57 833e
00000040: 1946 f5bd 2634 9e3e 9651 b8bc 8279 43bd
00000050: b886 9dbd 6d3b 0c3e 3b1b 62bd c7c0 513e
00000060: 0ec5 a9be 246c 1bbb 5132 afbd e0ba a23e
00000070: ce63 713e 0703 cbbd 700f bf3c 4efb 6cbd
00000080: c9d1 26be ec4b d8be 2821 33be cf75 84be
00000090: efc7 563e 38d5 b93d ffb0 7a3c 032d 00be
000000a0: ebae 71be 3729 09bc 1b25 b0be a703 533e
000000b0: fb89 0bbe 4f2a 54bd 0146 05be bbb0 603e
000000c0: bfec c83e b055 00bf 1137 4d3e 2d4b 5dbb
000000d0: 388f c83d 7ae8 623e c814 0d3d f69a 8fbe
000000e0: f286 723e 51b5 963d a1e1 bf3e 6d6a 663d
000000f0: 6b30 413d ccf2 b73e 3380 cbbd 2da7 73bd

final_mean.weight f4 [6, 64]
0.2974013 0.07858708 -0.025036424 -0.1336231 0.019202996 -0.074412934 0.14268082 -0.023215828
-0.055389535 -0.21652064 -0.11508291 -0.21155797 0.298276 -0.03044811 0.07241715 0.03827519
-0.13570106 -0.010292012 0.17496195 0.08251165 -0.28588143 0.024530206 0.048964743 0.058249842
0.21716289 0.1070261 -0.04918043 0.12566298 0.19868793 -0.09410038 0.071789026 0.0616951
-0.23351543 -0.05720547 -0.057037473 -0.12572344 0.15656498 -0.08225153 -0.25507465 0.07182403
-0.112194896 0.14212549 0.063779816 0.1230466 -0.31715512 -0.081082344 0.0665231 0.014778092
0.1035396 -0.2702472 -0.05133902 -0.08398424 0.040853705 -0.16491115 0.10649484 0.07861314
-0.0825188 0.17318213 0.2546034 -0.27893472 0.17455141 0.14716952 -0.012203056 -0.094987646
0.1182672 0.045946356 0.21747144 -0.09977475 -0.026065527 0.08357658 0.075230666 0.014517288
-0.03050564 0.11238896 0.026390335 -0.045484558 0.028186535 -0.3470848 0.124297716 0.035566024
0.21231322 0.1571646 -0.040835273 -0.17448756 -0.14544155 -0.14775391 -0.050861157 0.15265046
-0.08912191 0.055909008 0.049176916 -0.1823325 0.12998183 -0.047121294 0.051251642 -0.12856759
-0.0044246647 -0.16343518 0.047228914 -0.16771452 0.022667713 0.07491555 0.17421061 0.03704031
0.01773909 0.057900596 -0.14467788 0.011517364 0.15722609 -0.10695047 -0.4502459 -0.012737765
0.07651673 -0.19061069 0.03866338 -0.08629655 -0.0017974246 0.10936891 -0.033926684 -0.06198657
-0.13493352 -0.029705463 0.027909601 -0.083501495 0.094325095 0.032938834 0.13265564 -0.38970596
0.21100512 -0.30019832 0.12758283 -0.06717815 0.16877556 0.07490343 0.04294232 -0.03337332
-0.12104361 0.1641545 -0.16511732 0.024042653 0.21861549 0.16032077 0.23722878 0.09917064
-0.16586918 0.2502396 -0.223734 -0.16094756 0.32295454 0.1993991 0.03566588 -0.1426334
-0.06606289 -0.252817 -0.13376445 -0.11887802 0.14949517 -0.13749744 -0.14160933 -0.29742563
0.12957616 0.05740791 -0.07172051 -0.08736943 -0.032931417 -0.25663057 -0.043060187 0.1044282
0.041922163 -0.064475484 -0.22579415 0.024594568 0.029675793 0.14571841 0.13207434 -0.036069665
0.22406806 -0.1264743 -0.10430527 0.22796556 -0.09492525 0.016267635 -0.022698428 0.0015806502
0.1601148 0.069883026 -0.041223805 -0.037566185 -0.27071238 0.025032774 -0.09288991 0.08143249
-0.077439964 0.07738008 0.24806449 0.18302956 0.09287838 0.104172945 0.029250927 0.14148237
0.2417136 0.031658363 -0.16602695 -0.13942157 0.10208162 -0.040019337 0.052233417 -0.1858248
-0.12076828 0.08025521 -0.094134584 -0.016477777 0.028701706 0.20226784 0.33623993 0.25810573
-0.07232184 0.00080461416 0.036659617 0.14574146 -0.33983082 0.09392211 -0.071617976 -0.100797474
0.2162157 -0.115822196 0.0728044 -0.12599349 -0.10762474 0.047618143 0.19716187 0.02416261
0.047229826 0.006221128 -0.23647836 0.06927917 0.10378501 0.17372607 -0.24329479 0.11596868
0.14071506 -0.08507538 0.23099221 0.06038543 0.08108489 0.04633769 0.16970167 -0.33678368
0.35679287 -0.060481463 -0.074710526 0.04119828 0.11158203 -0.107339546 -0.044804774 0.004973108
00000000: fc44 983e 43f2 a03d 3019 cdbc 7ed4 08be
00000010: 9a4f 9d3c cf65 98bd ec1a 123e 1f2f bebc
00000020: 23e0 62bd 96b7 5dbe 97b0 ebbd a7a2 58be
00000030: a2b7 983e 516e f9bc 714f 943d 72c6 1c3d
00000040: 38f5 0abe d49f 28bc 3a29 333e defb a83d
00000050: 0d5f 92be 92f3 c83c 418f 483d 6397 6e3d
00000060: f35f 5e3e 8030 db3d 6b71 49bd ccad 003e
00000070: d974 4b3e b3b7 c0bd 2006 933d 00b4 7c3d
00000080: ab1e 6fbe 4850 6abd 20a0 69bd a5bd 00be
00000090: 9252 203e 7d73 a8bd 2599 82be 7a18 933d
000000a0: 70c6 e5bd 5889 113e fe9e 823d dbff fb3d
000000b0: 2862 a2be 800e a6bd 433d 883d cf1f 723c
000000c0: 920c d43d d75d 8abe dd48 52bd eeff abbd
000000d0: 3756 273d 78de 28be f719 da3d edff a03d
000000e0: 9eff a8bd a856 313e 605b 823e 88d0 8ebe
000000f0: 9bbd 323e 9bb3 163e 54ef 47bc e288 c2bd
00000100: 1336 f23d 3f32 3c3d d5b0 5e3e b456 ccbd
00000110: 5f87 d5bc 332a ab3d 8912 9a3d ebd9 6d3c
00000120: f7e6 f9bc 2f2c e63d 8b30 d83c 044e 3abd
00000130: 73e7 e63c 19b5 b1be cd8f fe3d aead 113d
00000140: a368 593e c2ef 203e e342 27bd deac 32be
00000150: a1ee 14be cd4c 17be ca53 50bd 6750 1c3e
00000160: 8c85 b6bd d800 653d bc6d 493d 5fb5 3abe
00000170: f519 053e 4202 41bd 3eed 513d 39a7 03be
00000180: c7fc 90bb 8d5b 27be 1b73 413d 5bbd 2bbe
00000190: a4b1 b93c 536d 993d 4464 323e 95b7 173d
000001a0: 9151 913c 2d29 6d3d 7026 14be 53b3 3c3c
000001b0: e0ff 203e d908 dbbd a186 e6be 0fb2 50bc
000001c0: ceb4 9c3d 732f 43be 7e5d 1e3d 3fbc b0bd
000001d0: 9097 ebba cffc df3d b5f6 0abd a1e5 7dbd
000001e0: 032c 0abe df58 f3bc ada2 e43c d502 abbd
000001f0: 842d c13d dfea 063d e1d6 073e 8a87 c7be
00000200: ba11 583e 98b3 99be 13a5 023e b394 89bd
00000210: 80d3 2c3e f866 993d 49e4 2f3d 76b2 08bd
00000220: b6e5 f7bd 1e18 283e 8414 29be 19f5 c43c
00000230: bddc 5f3e 212b 243e 1aec 723e fa19 cb3d
00000240: 9cd9 29be 681f 803e 871a 65be 70cf 24be
00000250: 4c5a a53e 472f 4c3e 6316 123d 7d0e 12be
00000260: fb4b 87bd 3b71 81be 8cf9 08be 5276 f3bd
00000270: 4315 193e 21cc 0cbe 0902 11be 2c48 98be
00000280: 9daf 043e 8e24 6b3d 34e2 92bd beee b2bd
00000290: 18e3 06bd 1565 83be e15f 30bd 74de d53d
000002a0: 93b6 2b3d b90b 84bd 9536 67be 8c7a c93c
000002b0: a61a f33c 3537 153e 7f3e 073e c9bd 13bd
000002c0: 1972 653e 7b82 01be 009e d5bd ce6f 693e
000002d0: 2b68 c2bd b443 853c 0ef2 b9bc d22d cf3a
000002e0: 22f5 233e d51e 8f3d 4bda 28bd 00df 19bd
000002f0: d09a 8abe 8811 cd3c 113d bebd 14c6 a63d
00000300: d898 9ebd 7379 9e3d 9e04 7e3e 1a6c 3b3e
00000310: 0537 be3d a058 d53d a49f ef3c c1e0 103e
00000320: c583 773e 33ac 013d f802 2abe 87c4 0ebe
00000330: 2b10 d13d 51eb 23bd b5f2 553d db48 3ebe
00000340: 5c55 f7bd d85c a43d a2c9 c0bd 67fc 86bc
00000350: d71f eb3c 4d1f 4f3e a427 ac3e 6f26 843e
00000360: 791d 94bd beec 523a 6528 163d 403d 153e
00000370: 4efe adbe 3c5a c03d 72ac 92bd e86e cebd
00000380: a667 5d3e 3034 edbd 791a 953d 7004 01be
00000390: 5c6a dcbd 3e0b 433d cde4 493e aaf0 c53c
000003a0: 1074 413d 9bda cb3b 6227 72be 3de2 8d3d
000003b0: 3c8d d43d 3fe5 313e 4522 79be fd80 ed3d
000003c0: 9c17 103e 003c aebd 3989 6c3e b656 773d
000003d0: d60f a63d 97cc 3d3d 46c6 2d3e e96e acbe
000003e0: 8ead b63e 69bb 77bd d501 99bd 87bf 283d
000003f0: 1f85 e43d d6d4 dbbd 3685 37bd 74f5 a23b

final_mean.bias f4 [6]
0.16864988 0.14355084 0.0967637 0.15492757 0.19631103 -0.0032196755
00000000: 8eb2 2c3e fefe 123e 0c2c c63d 55a5 1e3e
00000010: c205 493e 3101 53bb

exp_avg f4 [64, 17]
0.0014128819 0.002522967 0.005306983 0.0006706584 -0.00049954664 -0.0018326454 0.0028783767 -0.00201568
-0.0011257821 0.0026158907 -0.00039392247 -0.00042744953 -0.00020053702 0.000106757274 0.0023451939 -0.0027496186
0.0006578405 0.0009091142 0.0009655802 0.0008594548 0.00054961664 0.0005140715 0.00024142396 -0.00086461665
-0.00055842934 0.0003317758 0.000632507 -0.0012147573 -0.00032771152 4.7471967e-05 -0.0003748166 0.00064158795
-0.0012721453 0.0005214446 -0.0004474566 0.0002410949 1.7823175e-05 -0.0003345525 -0.0002593852 -0.00012184274
0.00074074906 -9.9182886e-05 -0.000155191 -0.00045367426 0.0002545372 -2.467904e-05 9.5483765e-06 4.8509144e-05
0.00011651816 0.0001447926 0.0003009289 0.0010165223 -0.0010185922 -0.00030085552 0.0009207245 0.0004902048
-0.0005063888 -0.0017700365 -0.0008233605 0.00081545894 0.0012711247 -0.0005546193 -0.0003299545 0.00015962256
-0.00014693201 0.0011057956 -0.00055403804 9.542769e-05 0.0013672265 -0.0027377086 -0.0016712759 0.00077461486
0.00045150524 0.000835896 -0.0044897567 0.0013348988 0.0010043778 0.0011110114 -0.00070340425 -0.00086546986
0.00018695614 0.00020123785 -0.00011811056 1.9599282e-05 -0.0004955033 0.0002360647 0.00036522312 0.00086553174
-4.6945745e-05 -0.00032506057 -0.0001288202 0.00020241458 0.00028150465 -0.000294864 0.00089291617 5.5005978e-05
-0.00027188132 7.4474665e-05 7.638923e-05 -0.00049601606 -0.00015830553 -0.00061174796 -0.00020562758 6.000404e-05
-0.00021922027 -0.00036375606 0.0002965346 0.0004141651 0.00033300044 0.0002476903 0.00036574094 -0.0004811096
0.000634286 0.00055663666 0.00030579534 -7.703462e-05 -0.0003885465 0.0004153493 -0.00036347212 0.00048876245
-0.0008334395 -0.0005879828 0.0005047719 0.00046082496 0.00019401897 -0.0016395579 -1.172394e-05 0.0005024835
0.00035342458 -0.0007574903 -0.00027456554 0.00018650715 -0.0001279055 -4.652891e-05 -0.00029976104 -8.029431e-05
-0.00079606345 0.00059134373 -0.00034094174 -0.00048639602 -0.0003765759 0.00060511666 0.00089373277 0.0010548811
-0.0005198473 -0.0012870942 0.0004752949 0.00011683809 -0.00011425594 7.1963565e-05 -0.0016454984 0.0015346757
-0.0001512158 0.002196571 -0.00029273098 0.0015815184 0.0010439077 0.0003520478 -0.0004639789 -0.0016995951
-0.0007551965 0.00032192553 0.0023283148 -0.00097631523 -0.00078312407 3.4829714e-05 -4.6024616e-05 0.002071522
-0.0020137373 0.0006060484 -0.0002616485 0.00010511573 -0.00085038954 -4.020556e-05 0.00047376382 0.0006638717
-0.00062485394 6.467683e-05 0.00062570145 -0.00059014215 0.00012127709 0.000585324 0.00016347798 -0.00032121982
-0.00011470093 0.00016709161 -7.492012e-05 -0.0003777041 -0.00026499043 -0.0005313016 -0.0001046338 1.07783335e-05
0.00010187681 -4.001423e-05 0.00015363438 -0.00027515733 -0.00080168515 -0.00037451135 -0.00034838956 -1.1275635e-05
-5.1446248e-05 -0.00025014437 0.00023124028 0.0003316467 -0.000708085 0.002495989 0.0026953353 -0.00013311961
-0.0003467349 -0.0011043563 0.0030722846 -0.0016737372 -0.0008567687 0.00067771133 -0.00021738726 0.00028010286
0.00018882439 -6.458328e-05 0.0004900411 -0.0014701544 3.695694e-05 -0.0010602364 0.0008612242 0.00052335125
-0.00036713583 -0.00029297115 -0.00014467677 0.001963001 -0.0003283144 -0.0004383691 -0.00066242967 0.00015661716
0.00029176055 -1.6688298e-05 0.00021534588 -0.0006281419 0.00028108052 0.00050098187 -0.00040108367 0.00071536936
-0.00063569075 -8.651325e-05 0.00025002763 -0.00012642909 0.0010742864 -0.0008444383 0.0002495285 -0.001071837
2.5552057e-05 0.0004722448 -0.00023574429 -0.00029826537 0.0007304922 -6.8894355e-05 0.0009891464 0.0027610548
00000000: 7330 b93a 5d58 253b 33e6 ad3b 20cf 2f3a
00000010: 02f4 02ba 6035 f0ba 26a3 3c3b 8019 04bb
00000020: fb8e 93ba 5d6f 2b3b 6187 ceb9 4e1b e0b9
00000030: 3f47 52b9 e0e2 df38 d3b1 193b f232 34bb
00000040: ee72 2c3a 9f51 6e3a fe1e 7d3a 094d 613a
00000050: 2614 103a c1c2 063a c026 7d39 71a7 62ba
00000060: 8f63 12ba 32f2 ad39 d4ce 253a 7e38 9fba
00000070: b2d0 abb9 a31c 4738 0883 c4b9 3d30 283a
00000080: 1dbe a6ba 8eb1 083a 9c98 eab9 6bce 7c39
00000090: fa82 9537 e066 afb9 18fe 87b9 d385 ffb8
000000a0: d42e 423a 6800 d0b8 c4ba 22b9 21db edb9
000000b0: 6873 8539 d605 cfb7 f731 2037 4c76 4b38
000000c0: 365b f438 78d3 1739 fec5 9d39 d43c 853a
000000d0: 4882 85ba 25bc 9db9 c65c 713a 1681 003a
000000e0: 2dbf 04ba 9200 e8ba cad6 57ba 86c4 553a
000000f0: de9b a63a df63 11ba befd acb9 5b60 2739
00000100: c311 1ab9 58f0 903a dd3c 11ba 5a20 c838
00000110: 8234 b33a 216b 33bb b70e dbba 860f 4b3a
00000120: 02b8 ec39 0820 5b3a cf1e 93bb c5f7 ae3a
00000130: 54a5 833a 5b9f 913a a964 38ba b3e0 62ba
00000140: a809 4439 6003 5339 20b2 f7b8 2369 a437
00000150: aae4 01ba 2388 7739 6b7b bf39 dae4 623a
00000160: 9ce7 44b8 e46c aab9 e913 07b9 403f 5439
00000170: ea96 9339 fa97 9ab9 9712 6a3a 38b6 6638
00000180: 4b8b 8eb9 482f 9c38 2833 a038 1307 02ba
00000190: d1fe 25b9 b65d 20ba bc9d 57b9 d9ac 7b38
000001a0: 7ede 65b9 83b6 beb9 3378 9b39 4c24 d939
000001b0: 9096 ae39 6edc 8139 ebc0 bf39 703d fcb9
000001c0: 3746 263a 41eb 113a 2853 a039 a68d a1b8
000001d0: d4b5 cbb9 3dc3 d939 6790 beb9 4b20 003a
000001e0: 2e7b 5aba dc22 1aba ab52 043a e19a f139
000001f0: 9271 4b39 6fe6 d6ba f0b1 44b7 19b9 033a
00000200: d84b b939 5092 46ba 90f3 8fb9 2291 4339
00000210: 5f1e 06b9 0928 43b8 3f29 9db9 ae63 a8b8
00000220: eaae 50ba 6804 1b3a 6dc0 b2b9 f802 ffb9
00000230: 296f c5b9 b1a0 1e3a 6449 6a3a f043 8a3a
00000240: 5d46 08ba b7b3 a8ba 0031 f939 f906 f538
00000250: b19c efb8 25eb 9638 c4ad d7ba 2c27 c93a
00000260: af8f 1eb9 59f4 0f3b b079 99b9 f44a cf3a
00000270: bbd3 883a 0e93 b839 3242 f3b9 f3c4 deba
00000280: 61f8 45ba 1dc8 a839 a496 183b 68ef 7fba
00000290: 914a 4dba 1f16 1238 8e0a 41b8 5fc2 073b
000002a0: e8f8 03bb 38df 1e3a de2d 89b9 9471 dc38
000002b0: adec 5eba 64a2 28b8 8163 f839 ad07 2e3a
000002c0: 3dcd 23ba 1ca3 8738 1d06 243a c5b3 1aba
000002d0: 2456 fe38 6e70 193a 496b 2b39 6569 a8b9
000002e0: 988b f0b8 5035 2f39 6f1e 9db8 9606 c6b9
000002f0: 6aee 8ab9 0c47 0bba d86e dbb8 97d4 3437
00000300: b2a6 d538 f4d4 27b8 ea18 2139 fe42 90b9
00000310: 2e28 52ba 105a c4b9 0ea8 b6b9 7c2c 3db7
00000320: fdc7 57b8 cf25 83b9 1779 7239 dee0 ad39
00000330: c89e 39ba bf93 233b 39a4 303b 0696 0bb9
00000340: f8c9 b5b9 0cc0 90ba 6258 493b 4d61 dbba
00000350: c698 60ba 70a8 313a 73f2 63b9 c5da 9239
00000360: 29ff 4539 e270 87b8 1a76 003a 32b2 c0ba
00000370: 3602 1b38 a1f7 8aba c7c3 613a 8231 093a
00000380: 237c c0b9 ec99 99b9 60b4 17b9 b1a5 003b
00000390: 9d21 acb9 e8d4 e5b9 e7a6 2dba 9939 2439
000003a0: 70f7 9839 d9fd 8bb7 78ce 6139 e4a9 24ba
000003b0: fd5d 9339 5354 033a 8a48 d2b9 a087 3b3a
000003c0: 7ca4 26ba 736e b5b8 2416 8339 0d92 04b9
000003d0: 12cf 8c3a 4c5d 5dba 26d3 8239 e27c 8cba
000003e0: a058 d637 a097 f739 2032 77b9 8060 9cb9
000003f0: 807e 3f3a 607b 90b8 3fa6 813a d0f2 343b
