src/models/atla_release/PPO/attack-ppo-ant.model (torch_old, 668181 bytes, 72 tensors)

affine_layers.0.weight f4 [64, 111]
000000 7e f4 00 3e c4 8c 26 bf e9 22 04 bd 79 23 99 be
       0.12593266 -0.6505854 -0.032259855 -0.29909876
000010 30 eb 06 be 2d 42 08 be 0d 5e 3c bc 24 92 ce 3d
       -0.13175654 -0.13306494 -0.011497033 0.10086468
000020 e5 5e 8d bd 9d d0 14 be a6 c0 53 3d ba 92 ef bd
       -0.06902865 -0.14532705 0.051697396 -0.11697908
000030 f6 fe 94 3d 1c 88 5e 3c de c4 10 3d 9f 7c 9a bd
       0.072751924 0.013582256 0.035343997 -0.07543301
000040 08 6f 37 3b ac 90 8a be 79 7a b1 3d cf 76 46 bd
       0.0027989764 -0.270635 0.08665938 -0.04845315
000050 65 4f 9d bd 45 63 f8 3a 26 60 8d bd 32 a3 d2 3d
       -0.07681159 0.0018950483 -0.069031045 0.10285033
000060 49 d5 94 bd d2 11 52 3c a6 8a 25 be 6e 30 ff bd
       -0.072672434 0.0128216315 -0.16166171 -0.12460409
000070 41 21 29 3e 11 88 41 be bd d1 43 3d ec 00 49 3d
       0.16516592 -0.18899561 0.047807444 0.049073145
000080 87 2b 3b 3d a1 06 c2 3c c1 f5 4c 3d 74 fa dd 3d
       0.045695808 0.023684802 0.050039057 0.10838786
000090 78 27 91 3d e1 70 80 be f8 14 ea 3d 56 d8 86 3d
       0.07087606 -0.2508612 0.11429781 0.065842316
0000a0 a4 f7 10 be ff 8b 10 3e d0 66 f9 bd 4b db 26 be
       -0.14156967 0.14115904 -0.12177813 -0.16294591
0000b0 fa 58 d2 3d cd 84 03 3e a7 c5 63 bd ab cf 21 be
       0.10270877 0.12843628 -0.055608418 -0.15801875
0000c0 05 49 c2 bc 9f 44 ef 3d 74 00 be 3d 9a ad 89 bd
       -0.023716459 0.1168301 0.0927743 -0.06722565
0000d0 79 5c 60 bc a2 b7 05 be 2d e8 29 be d5 1d 5c 3d
       -0.013693922 -0.13058332 -0.16592474 0.053739388
0000e0 4e fb 13 be f5 6d b4 3d ae 94 0d 3d 34 0b 98 3d
       -0.14451334 0.08810035 0.03456562 0.07424012
0000f0 71 10 ba bd 84 dc 69 be 9f 59 80 be 5e 33 46 3d
       -0.09085167 -0.22838026 -0.25068375 0.04838883
000100 a3 ac 02 3e a6 ab 8e 3d da 5b fd bd 02 95 05 be
       0.12761168 0.06966333 -0.12371035 -0.13045123
000110 f7 3c 0b 3e 6d db 1d bd bc d5 5a 3d 55 83 2d bd
       0.13597475 -0.03853934 0.05342649 -0.042361576
000120 ca c2 48 bd 3c 91 08 bd 1f 0f 9c 3c be b8 75 3e
       -0.04901389 -0.03334163 0.019050179 0.23996255
000130 f2 df c3 3c f3 93 57 3e 2b 97 ec bd 53 b6 6b be
       0.023910496 0.21052532 -0.115522705 -0.2301877
000140 57 67 8f 3d 1c 56 70 3e ab da b2 3d 9b 5b c6 bd
       0.070021324 0.23470348 0.08733114 -0.09685441
000150 a0 ad ae bd 17 09 cf bd dd 20 f4 3d 2f 73 45 bd
       -0.0852921 -0.101091556 0.11920331 -0.04820555
000160 e4 bb a4 3d 51 a4 c3 3c ef f0 df bd f5 f3 8e bb
       0.0804365 0.023882063 -0.10934626 -0.004362578
000170 14 6c 1b 3b d4 af bd bd a2 ed 62 bd 3f 0d 1b 3d
       0.0023715543 -0.09262052 -0.055402406 0.03785443
000180 69 97 01 3e 9b db 48 bd 8e 1c 7a 3d c2 82 a4 bc
       0.12655415 -0.049037557 0.061062388 -0.020081881
000190 9a 95 2d be 38 99 42 bd 5a c5 da bd 12 ac 9c bc
       -0.169516 -0.047509402 -0.10682173 -0.019125018
0001a0 d6 ea d3 3d f8 a9 55 be c8 05 79 be 2f 01 00 3c
       0.10347526 -0.20865619 -0.24318612 0.007812782
0001b0 6d 8c 9e 3d 01 46 0e 3e 6f 8e 30 3e 02 07 bf be
       0.07741628 0.13893892 0.17241834 -0.37310034
0001c0 f1 3e 2d be db 4b 7d be d2 f8 35 3d ed 63 2b 3e
       -0.16918541 -0.24735968 0.044426747 0.16737337
0001d0 6f 0f 6d 3b a0 0f 10 3d d4 00 06 3d fb e6 01 be
       0.003617253 0.03517115 0.032715634 -0.12685768
0001e0 ec 87 62 3d 53 17 c9 3d 41 a9 76 3b e2 04 0b bd
       0.055305406 0.09818902 0.0037637504 -0.033940203
0001f0 9b 6a 02 be 5c 1a 91 bd 18 f0 bc bd 2c 21 00 be
       -0.1273598 -0.07085106 -0.09225482 -0.12512654
000200 9a f6 31 bc 75 e2 2d 3d d4 b6 33 3d 04 59 d9 3c
       -0.010862017 0.042452294 0.04387553 0.026531704
000210 dc 7b 08 3e 89 40 34 bd da 66 aa bd 67 da c3 3d
       0.13328499 -0.044006858 -0.08320399 0.09563141
000220 aa 7f 78 3c a4 5f f8 bd 93 d8 08 bd 76 66 07 bd
       0.015167156 -0.12127617 -0.033409666 -0.0330567
000230 a3 b4 ae bd 74 8e cd 3d 0e fa d6 bc da 94 0b be
       -0.085305475 0.100369364 -0.026242282 -0.13631001
000240 6f e7 e0 3d 02 08 62 bd 99 2c a5 3c 78 2b 7e bd
       0.109816425 -0.055183418 0.020162867 -0.062053174
000250 f9 86 fa bd 9a a2 0e 3d e9 42 9e 3d 6c 58 82 3c
       -0.12232775 0.034823038 0.07727606 0.015911303
000260 66 86 a1 bd f6 a9 c1 3d 84 c3 b9 3d 24 f9 7a be
       -0.078869626 0.094562456 0.09070495 -0.24509102
000270 b3 07 9d 3d 71 e9 14 3e 24 70 28 be 38 a0 13 be
       0.07667484 0.14542176 -0.16449028 -0.14416587
000280 e4 de 04 3d 3d 44 08 3e 29 96 01 3e 67 bd 10 bd
       0.032439128 0.13307281 0.12654938 -0.03533688
000290 6d ca 85 be 86 86 68 be 48 32 69 bc e6 30 42 be
       -0.26131 -0.22707567 -0.014233179 -0.18963966
0002a0 a8 95 ff 3d d5 50 8c bd 6a 37 8a bd df b6 ab 3c
       0.124797165 -0.06851355 -0.06748851 0.020961223
0002b0 d1 0a 59 3d 1a dd 35 3e 81 53 ea bc 96 b2 b3 3c
       0.05298883 0.17760125 -0.02860427 0.021935742
0002c0 cb 63 ab bd 8c 89 31 3d 8e 5f 6f bd bb 74 3a 3e
       -0.083686434 0.043344066 -0.058440737 0.18208592
0002d0 62 20 fe 3d 64 b1 0e be 4d 4c 6d 3e 57 11 8e 3c
       0.1240852 -0.13934857 0.23173638 0.017342253
0002e0 79 63 05 3e 2b 97 07 bc 6e 87 11 bd 4a 52 eb bd
       0.13026227 -0.008275787 -0.035529546 -0.11490305
0002f0 87 28 29 3e ed e9 3e 3e b8 f1 5e 3e 36 01 e2 3d
       0.16519366 0.18643923 0.21771896 0.11035387
000300 45 b6 3b bd fc 58 0a be 14 ca 0b 3d b8 01 37 3d
       -0.045828123 -0.13510507 0.034128264 0.044679374
000310 36 33 1d 3d 9f ad 24 bb 43 d7 f4 bd 66 4e f4 3c
       0.038378917 -0.00251279 -0.119551204 0.02982254
000320 5f 82 11 3e a0 f9 48 be 31 2f 00 3c df 07 3a be
       0.14209889 -0.19626474 0.007823751 -0.18167065
000330 b9 8a 3a 3e 27 af 0d be 54 94 ea bc 26 4e 3e 3d
       0.18216981 -0.13836347 -0.028635181 0.046461247
000340 26 0d 1d 3d f9 39 94 3e 5f c5 94 3c 30 ba 89 bd
       0.038342617 0.2895048 0.01816052 -0.067249656
000350 b3 d2 10 3e 4d 5b bd bd 93 60 90 3d d3 eb 9a 3e
       0.14142875 -0.0924593 0.0704967 0.30258045
000360 76 23 d7 bd 10 b2 b1 3c ae d9 ed bc ec 84 17 3c
       -0.105048105 0.021691352 -0.029034462 0.009248
000370 e9 a6 93 bd 00 ad fe bc f4 a8 5b 3e e1 cc f3 3d
       -0.0720957 -0.031088352 0.21451169 0.11904312
000380 30 ab 2d bd d7 7b 69 be 4d 24 01 be 23 c0 db 3b
       -0.042399585 -0.22801147 -0.12611504 0.006706254
000390 e9 4f 0b bd ab ed d0 3d 8d 6e cd 3c 9e e5 9b bc
       -0.034011755 0.102015816 0.025077129 -0.019030388
0003a0 f8 b8 3c 3e 81 62 a0 3c b0 ff bb bd a8 8d e0 3d
       0.18429935 0.01957822 -0.09179628 0.10964519
0003b0 6a 76 73 bc 4b 88 82 bd d7 0a 05 3e 16 ae 39 be
       -0.014859775 -0.06373652 0.12992416 -0.18132815
0003c0 af 80 a0 ba b4 da 62 3c e7 e0 26 3c fd 02 de bc
       -0.0012245382 0.013846088 0.010185457 -0.027101034
0003d0 bf cd 36 3d 6d 7a 96 bd a0 d7 c6 bd 6e da b5 3d
       0.04462981 -0.073475696 -0.09709096 0.08879553
0003e0 98 76 c7 3a aa a6 8c be cf 56 1d 3e ef bb 65 be
       0.0015217839 -0.27470905 0.15365146 -0.22434972
0003f0 37 1c 94 bd 03 4f 0c 3e 44 e1 3f 3d b2 93 56 3d
       -0.07231944 0.13702016 0.04684569 0.052386947

affine_layers.0.bias f4 [64]
000000 31 a7 8e be b2 66 61 bd 82 f3 1f be 31 e7 d3 3d
       -0.27861932 -0.05502958 -0.15620235 0.10346831
000010 cf 33 c9 3e ca 25 f9 3a 3f 47 d6 3e aa b8 3c 3e
       0.3929734 0.0019008454 0.4185123 0.18429819
000020 fe c3 06 3e e6 a0 28 bd 2c 7c 64 be e2 65 8a 3d
       0.13160703 -0.04116907 -0.22312993 0.06757714
000030 e6 ad bb 3d da 53 b0 be d3 29 03 3e 10 41 a7 3e
       0.09164028 -0.34438974 0.12808923 0.32666826
000040 d9 fe 5d be 21 7b 9b be be 76 da be 98 02 35 be
       -0.21679248 -0.30367377 -0.42668718 -0.1767677
000050 31 5a 49 be c1 70 61 bd 07 b1 57 be 75 06 0a 3e
       -0.19663312 -0.05503917 -0.21063624 0.13479026
000060 5c 29 8a 3e a3 05 8b be 03 b1 28 3e ec ea 01 3e
       0.2698468 -0.27152738 0.16473775 0.12687272
000070 cc c9 11 be bd 64 93 be e9 e1 9a be b3 fb 55 3d
       -0.14237136 -0.28787795 -0.3025048 0.052241992
000080 c8 c6 f8 3a 15 61 9d 3e a8 5f 93 be 66 5c 59 bd
       0.001898014 0.3073813 -0.28783917 -0.053066634
000090 e6 05 86 be 28 6b a6 3c 46 30 d3 3d 85 6f 8b 3d
       -0.26176375 0.020314768 0.10311942 0.0680838
0000a0 30 f2 90 3e a4 36 22 3e 19 99 d9 bd e2 79 f9 3d
       0.28309774 0.15841156 -0.10624904 0.121814504
0000b0 8c e6 85 3d 97 1a 85 bd 3b 20 b1 be c9 a1 74 be
       0.06538114 -0.06499212 -0.34594902 -0.23889841
0000c0 14 98 40 bc 71 9b 4e be 66 0e 78 be 81 d2 5e 3e
       -0.011755008 -0.20176484 -0.24224243 0.21759988
0000d0 94 61 e3 bd 7a 2c 74 be 3b 2d b4 bd ae 1f 7f 3e
       -0.11102596 -0.23845091 -0.087976895 0.24914429
0000e0 73 d7 0b be cb 67 8a be 93 ff 98 be e1 7f 04 3e
       -0.13656406 -0.27032313 -0.29882488 0.12939407
0000f0 a4 18 fc bd 64 28 03 be 5f d2 d9 3d 87 d5 46 3e
       -0.12309387 -0.12808377 0.10635828 0.19417392

affine_layers.1.weight f4 [64, 64]
000000 00 89 a2 3c 9e 32 36 3e b4 8c b4 be 19 14 90 be
       0.019840717 0.17792746 -0.35263598 -0.28140333
000010 93 09 24 bb 04 3e f9 3d 1b 15 28 3e 6e 6d 97 bc
       -0.002503012 0.12170032 0.16414301 -0.018484797
000020 71 12 85 b9 ac 27 f5 3d e7 02 1c bb 42 ab ac 3d
       -0.00025381477 0.119704574 -0.002380544 0.08431102
000030 81 3a 78 3d b3 8f 0e be 96 ae 6f bd 15 fb 77 3d
       0.06060267 -0.13922004 -0.058516107 0.060542185
000040 d5 6c 04 3e 51 a9 35 bd d0 4b d2 3e 82 60 33 be
       0.12932141 -0.044350926 0.41073465 -0.17517284
000050 3e 5c 76 bc df d3 75 be c8 e0 3f bc 3e 5a 20 3e
       -0.015036641 -0.24006604 -0.011711307 0.15659425
000060 36 d3 2c be 39 82 73 3e 65 c2 f9 bd c6 d5 4a be
       -0.16877446 0.23780145 -0.12195281 -0.1980811
000070 2e 77 f2 3d df 72 ae 3c 0c ad 76 3d 64 d4 a8 be
       0.11839138 0.02129501 0.060223624 -0.3297454
000080 dc 41 b2 be 0c 53 31 3e e8 36 7e 3e 21 dd f8 bd
       -0.34815872 0.17316836 0.24825633 -0.12151552
000090 e4 3a 8f 3d db f5 11 be c8 a4 a1 3e f1 3e c0 3e
       0.06993654 -0.14253943 0.3157103 0.3754802
0000a0 29 59 16 bc 44 6d b6 bd 50 b2 5f 3d cf 54 51 be
       -0.009176531 -0.089075595 0.05461341 -0.20442508
0000b0 ef 98 71 3d 8e 41 4b 3d c6 63 03 bd 99 81 1e be
       0.05898374 0.049623065 -0.032077573 -0.15479125
0000c0 7f d7 93 3e 05 d2 61 3d f7 79 eb 3c 3e 38 bd bd
       0.28875348 0.05513193 0.02874468 -0.09239243
0000d0 c8 97 12 be 64 8a d2 be d2 d4 7e bd a9 e9 c6 bb
       -0.14315712 -0.4112121 -0.06221468 -0.006070335
0000e0 a8 ce cf bd 0a 1b 2d be f4 26 a1 bd 12 2c fc 3d
       -0.101468384 -0.16904846 -0.07868758 0.12313093
0000f0 53 13 6d 3e e2 61 e9 bd b8 4c b0 bd a0 cc 04 bc
       0.23151903 -0.11395623 -0.08608383 -0.008105427
000100 aa ab 66 3e c0 64 83 bc 8f 90 4b be c2 de 40 3e
       0.22526422 -0.016039252 -0.19879363 0.18834975
000110 0d 69 90 3d 92 13 32 3e 74 47 06 bd c1 7f 4e be
       0.07051287 0.17390278 -0.032782987 -0.20165922
000120 36 a1 04 3e 30 aa b1 bd 42 84 2d bb 9d a6 31 bd
       0.12952122 -0.08675039 -0.0026476537 -0.043371785
000130 ee f0 d7 3d e4 31 a7 bd b8 96 3c be 29 8e 99 3d
       0.105440006 -0.08163813 -0.1841687 0.07497818
000140 2a ba b8 bb 82 f8 30 3e 21 90 8e 3e f8 b9 bf ba
       -0.005637427 0.17282298 0.27844337 -0.0014627567
000150 ad c5 39 3d 2c ff 50 be 1f 66 78 bd 86 4a 6a be
       0.045354534 -0.2040984 -0.060644265 -0.22879991
000160 e1 d9 8c 3e 63 f9 f1 3d 3b cd 55 3e 25 9a 5e 3e
       0.27509978 0.11815145 0.2087907 0.21738489
000170 af a8 84 3d b7 8d c8 3e 08 ac 22 be f4 cc 66 bd
       0.06477486 0.3917062 -0.15885937 -0.056347802
000180 70 03 70 3c e0 62 c7 be a8 e5 72 bd d2 a5 81 3e
       0.014649257 -0.38942623 -0.05930105 0.25321823
000190 1e ff e2 3d 39 d9 83 be ce c9 df 3c e4 17 a1 be
       0.11083816 -0.25751665 0.027317908 -0.3146354
0001a0 8f 0c cf 39 ad 02 0d be 0f b4 71 be e7 1e 0e 3c
       0.00039491474 -0.13770552 -0.23603843 0.00867436
0001b0 ae 03 e0 bd d4 7e f4 bd 29 6b 8a bd c1 aa b3 bd
       -0.10938202 -0.11938253 -0.067587204 -0.08772803
0001c0 46 bb 77 bc aa 82 28 bd 96 07 56 3e a7 80 38 be
       -0.015120333 -0.041140236 0.20901331 -0.18017827
0001d0 0d 28 d4 3c ac 88 53 be b5 a4 97 3c 8c 5d f7 bd
       0.025898004 -0.20657605 0.018511156 -0.120783895
0001e0 7a 3b ae be 83 9b 63 3d 6b 50 ab be 64 bb 3d bd
       -0.34029752 0.05556823 -0.33459792 -0.046321288
0001f0 a5 01 ac 3d 19 f9 ee 3d 93 94 b0 3d 19 35 36 be
       0.08398751 0.11668605 0.08622088 -0.17793693
000200 a0 13 db be ef 55 2c 3e a3 3d 4e be 04 1f cd 3d
       -0.4278841 0.16829656 -0.201407 0.100156814
000210 fb d2 87 3e 09 ac d0 3d 45 24 0d 3e b5 48 6e be
       0.26528153 0.10189063 0.13783367 -0.23269923
000220 f4 07 b8 3e 89 41 04 3e 56 06 d7 3d e2 67 ce 3c
       0.35943568 0.12915625 0.10499255 0.02519602
000230 16 64 8e 3d da 2c cf 3d fd 5b 9b bd d5 75 c7 3d
       0.06952684 0.10115977 -0.07585905 0.097392716
000240 41 bf 2e be d8 7f 3e 3d f7 07 df bd e0 69 28 3e
       -0.17065145 0.04650864 -0.10890191 0.16446638
000250 bf d4 9a be 6a 0c 1a be 22 9e a8 bd 74 4c 29 be
       -0.30240437 -0.15043798 -0.082332864 -0.16533071
000260 ea cf 94 3e a7 7f 38 be f2 c8 a5 3d ad 78 67 3e
       0.29064876 -0.18017446 0.08094968 0.22604628
000270 a6 3c 06 be d9 c7 69 be c1 32 b9 bd 50 26 31 3e
       -0.13109073 -0.22830142 -0.09042884 0.17299771
000280 5e b6 aa be b3 90 e6 3e 90 21 9d 3d 6c 22 90 bd
       -0.3334226 0.45032272 0.07672417 -0.070378155
000290 f8 a6 dc bd 53 c7 92 be 38 23 9a be 62 e9 ce bd
       -0.10774034 -0.28667697 -0.30104995 -0.10103108
0002a0 7e fe 0c be 04 c3 58 bc 80 08 88 be 86 55 78 be
       -0.13768956 -0.013230089 -0.26568985 -0.24251375
0002b0 e6 66 05 bd f2 f7 c1 bc b6 2d a3 be 16 b0 10 3e
       -0.032568835 -0.0236778 -0.31870812 0.14129671
0002c0 86 50 84 3d a4 5a 88 3e 55 30 d1 bc 90 ed b5 3e
       0.06460671 0.26631653 -0.025535742 0.35532808
0002d0 2a eb ff bc 79 87 37 3c cd 56 a8 bd 8f 05 a6 3e
       -0.031240065 0.011201733 -0.08219681 0.32426116
0002e0 7e 94 eb 3d fc dd 42 3d 76 e3 08 3d 70 69 6d be
       0.11502932 0.047574982 0.03342005 -0.23184752
0002f0 0a ab 73 bc 7d c1 21 bd dc 84 4f be 6e 9d 83 bd
       -0.014872322 -0.039491165 -0.20265526 -0.06426512
000300 9f 81 82 be a6 c8 f6 3d 32 62 78 be 06 4f 35 be
       -0.25489518 0.120499894 -0.24256209 -0.17705926
000310 0e ea 17 be 21 6e 5f 3d d9 fe 85 3c fe 96 93 3c
       -0.14835379 0.054548386 0.016356872 0.018016335
000320 02 be fb 3d f5 b5 40 3e 88 f8 e8 bd 5d 95 1a 3d
       0.122921005 0.18819411 -0.113755286 0.0377401
000330 2d 35 55 be ac 93 49 3e 8e b6 0d bc 63 94 cb bd
       -0.20821066 0.19685239 -0.008649481 -0.09940412
000340 42 b9 8b 3e 51 c7 76 be 03 b5 58 3d 2d 03 a1 bd
       0.27289778 -0.2409947 0.052907 -0.07861934
000350 15 14 d1 3e 37 99 b9 bd ea 67 d5 3d 35 aa db bd
       0.40835634 -0.090624265 0.10420211 -0.10725824
000360 88 4e 91 be 04 06 5a bd 7c 8e 1d 3e 53 e7 7a 3c
       -0.28380227 -0.053228393 0.15386385 0.015313941
000370 8b 1e 3b 3e 4e 2e 97 bb 9f bb 89 bd 24 88 31 3e
       0.1827337 -0.0046136742 -0.06725239 0.1733709
000380 90 39 06 3e 8f 95 7f 3b bf 6d 37 bd 33 4b 81 3d
       0.13107896 0.0038999056 -0.044782396 0.06313171
000390 07 01 3f 3d 98 92 ee bd 4d cf a1 bd 12 b9 ff bd
       0.04663184 -0.11649054 -0.079008676 -0.12486471
0003a0 99 3c d1 3d db fd af be 9f 50 16 bd 18 df 2f be
       0.10216636 -0.34373364 -0.03669798 -0.17174947
0003b0 4e 07 3b bd 0b 3a 99 3b bf 77 44 3d b6 8f dc bd
       -0.045661263 0.0046761087 0.04796576 -0.10769598
0003c0 ae cc 3f 3c 07 7a a0 3b e5 17 12 be a0 d2 db 3d
       0.011706514 0.0048973593 -0.14266928 0.10733533
0003d0 fd 89 90 3c c3 bb 64 3e cb d2 97 3c 1f 5e 1a bc
       0.017643923 0.2233725 0.018533131 -0.009421854
0003e0 c9 23 f4 be d1 bf da 3d eb 98 90 bd 14 55 99 3e
       -0.47683552 0.10681117 -0.07060417 0.29947722
0003f0 6c 4b 76 be 6b 34 01 bf db d0 c4 3d 9c b3 6c 3e
       -0.24052209 -0.5047061 0.096101485 0.2311539

affine_layers.1.bias f4 [64]
000000 32 87 29 3e b2 1c 48 be dc 0f 55 3e fc f3 08 3e
       0.16555479 -0.19542196 0.20806831 0.13374323
000010 e6 5c 6c 3e 81 f7 1a be b1 dc 2f 3e f7 fe 30 be
       0.23082313 -0.15133478 0.17174031 -0.17284761
000020 68 b6 ac 3e f3 c1 3b be 21 a6 30 3e 31 c3 fe 3d
       0.33732915 -0.18335705 0.17250873 0.124395736
000030 12 1c 2c be 42 d6 14 3e 0b dd 83 be 7a fb 5e 3e
       -0.16807583 0.14534858 -0.2575458 0.21775618
000040 94 94 6d be d7 cb 6f 3e e7 bd 8f 3e df 12 57 3e
       -0.2320121 0.23417602 0.28074571 0.21003293
000050 6d d8 86 3e 91 db 53 3e b1 04 77 3e 10 18 6b be
       0.26336995 0.20689227 0.24122883 -0.22958398
000060 89 a9 08 be e9 93 42 3e b3 0c 48 be 17 ca 6d 3e
       -0.13345923 0.19001736 -0.19536094 0.23221622
000070 b2 86 34 3e 26 7b 6a be 5a 78 12 be 41 48 4f 3e
       0.17629507 -0.2289854 -0.14303723 0.20242406
000080 6e 5e cf 3d ca 1c af be 73 bc 62 be 9a f7 8d be
       0.10125433 -0.34201652 -0.221422 -0.27727968
000090 33 de 2f 3e c4 3a 01 3e 70 18 44 3e 45 26 3f be
       0.17174606 0.12620074 0.19149947 -0.18666942
0000a0 2b f8 78 3e 02 09 45 be 71 a3 33 be bb 0c 00 be
       0.24313419 -0.19241717 -0.17542817 -0.12504856
0000b0 fc 5f 68 3e f3 a3 1f be 00 c1 40 3e a3 72 5a 3e
       0.22692865 -0.15589885 0.18823624 0.21332793
0000c0 89 fb 25 3e 5e ef 26 be 1a 1e ae bd 8e 47 46 3e
       0.16209234 -0.16302249 -0.08501835 0.19363233
0000d0 4d a2 20 be c8 39 22 3e 4c 14 88 3e ed 2a 79 3e
       -0.15686913 0.15842354 0.26577985 0.24332781
0000e0 5c ea 61 3e 13 e7 3b be 29 17 78 be 7a c5 25 be
       0.22062057 -0.18349867 -0.24227585 -0.16188613
0000f0 bc 4e a2 3e 64 78 3d 3e 00 cf 05 be 7a 77 3a be
       0.31700695 0.18502957 -0.13067245 -0.18209639

final.weight f4 [1, 64]
000000 4c a9 05 3d b5 15 41 bd ff c9 59 3e 8e 15 10 3d
       0.032632157 -0.047139842 0.21268462 0.035176806
000010 9c 2b fc 3d 0f a8 ff bd fa 28 2f 3d 07 bf 65 bd
       0.12313005 -0.124832265 0.042763688 -0.05609038
000020 b8 2e a2 3d 45 9a 70 bd 9e b1 ac 3d 3d 67 e3 3c
       0.07919067 -0.058740873 0.08432315 0.027759189
000030 e1 5d e1 bd df e6 29 3d 62 9f 1f be fb 39 a9 3d
       -0.11004234 0.04147994 -0.15588143 0.08263012
000040 10 ba 0e be 23 7c 99 3d c4 c9 96 3d ef 39 90 3e
       -0.13938165 0.0749438 0.073627025 0.281692
000050 25 ec 51 3e df 57 cb 3d 50 b3 be 3d 78 fd 03 be
       0.20500238 0.099288695 0.09311545 -0.1288966
000060 1d 25 85 bd 63 db 83 3d ef 68 00 be d1 d9 eb 3d
       -0.065012194 0.06438329 -0.12540029 0.115161546
000070 c8 24 c5 3c 2e b7 f8 bd 8e 72 01 be df 58 ec 3d
       0.02406539 -0.12144314 -0.12641355 0.11540388
000080 6d 87 e6 3d e1 86 01 be d8 9c 5c bd 1f c0 ee bd
       0.11256299 -0.12649108 -0.053860515 -0.11657738
000090 35 23 84 3d a1 89 4c 3e 78 6f 21 3d 10 8d 2d be
       0.06452028 0.19974376 0.039412946 -0.16948342
0000a0 66 b7 dd 3c 60 e8 a0 bd a5 2e 69 bd b7 52 f7 bc
       0.02706499 -0.07856822 -0.05692925 -0.030190809
0000b0 84 19 9b 3d 08 7c 2d bd 54 a3 4d 3e 46 a4 a3 3d
       0.07573226 -0.042354614 0.20081836 0.07990317
0000c0 d6 9d c1 3d 05 90 7c bd 60 a3 34 be cf d0 92 3d
       0.09453933 -0.061660785 -0.17640448 0.07168733
0000d0 44 c4 99 bd f5 52 d9 3d f7 ce 2a 3e e4 2d d2 3d
       -0.07508138 0.10611526 0.16680513 0.10262659
0000e0 ef 68 87 3d 05 ff f8 bd 55 7d c5 bd 15 cd da bc
       0.06611811 -0.12158016 -0.09643046 -0.026709119
0000f0 38 8a f1 3d dc 5f ff 3d f2 0f 66 bd 92 2d 51 be
       0.11793941 0.124694556 -0.05616755 -0.2042754

log_stdev f4 [8]
000000 ae f7 ee bf 34 aa 02 c0 c8 35 11 c0 09 f9 23 c0
       -1.8669336 -2.0416384 -2.2689075 -2.562075
000010 71 6a 06 c0 cc 15 fc bf 86 84 0e c0 43 1e 1e c0
       -2.1002467 -1.9694152 -2.2268386 -2.470597

affine_layers.0.weight f4 [64, 111]
000000 a6 b2 02 3e 7d 1d 59 bd af 96 83 3d 88 69 36 bd
       0.12763461 -0.053006638 0.06425225 -0.044534236
000010 d8 b9 07 3e a3 61 3a be 4a 08 3f be 2d c9 36 3e
       0.13254488 -0.18201308 -0.18655506 0.1785018
000020 f9 e6 95 3d 47 ff 8f 3e 71 df f5 3e 0c c2 02 3e
       0.07319445 0.2812445 0.48022035 0.12769336
000030 fb 8a 26 be c0 d3 12 be f1 0b fa bc ea a0 8f be
       -0.16263954 -0.14338589 -0.030523272 -0.28052455
000040 6d 5b 23 3e 7f 49 1a 3e d9 4d 0f 3d 55 db 81 be
       0.15952845 0.15067099 0.03498635 -0.2536265
000050 d2 06 8c bc d9 44 a4 3c 47 23 1f be 7b 6b 1b bd
       -0.017093096 0.02005236 -0.15540801 -0.0379443
000060 a3 6b 49 be 06 a3 48 3c 1c 09 3d be 43 e6 28 be
       -0.19669966 0.012245899 -0.18460506 -0.16494088
000070 87 c7 83 3c 29 2e 06 be 54 47 b2 3d ef fa ba 3c
       0.016086353 -0.13103546 0.08705011 0.022824733
000080 25 68 3e be 62 9b cf bd 94 5a 19 3d 5d 38 50 3c
       -0.18594415 -0.10137059 0.037439898 0.012708751
000090 a9 40 9a bd a6 78 b6 3d 5b 88 6a bb 13 4c f9 3c
       -0.07531864 0.089097306 -0.003578684 0.030431783
0000a0 2c cd cb 3b 65 f2 e2 3c cb c4 37 3e f3 4c 3a be
       0.0062195268 0.027703473 0.17946164 -0.18193416
0000b0 9d 2d ec bd d0 80 d9 3d f2 da 42 bd e2 86 13 3d
       -0.115321375 0.10620272 -0.047572084 0.036017306
0000c0 13 b6 2e 3e 76 7d 49 3d 40 8b 91 be 25 95 16 3e
       0.17061643 0.049191914 -0.28426552 0.14705332
0000d0 ea 18 d3 bd e8 d7 97 3e 7d c3 f1 3d 1c ae 8a bd
       -0.10307486 0.2965691 0.118048646 -0.0677149
0000e0 7d 66 72 bd 2f 75 e8 bd 59 18 24 be 80 0d 46 3d
       -0.05917977 -0.11350476 -0.16024913 0.04835272
0000f0 a6 25 b5 bb 5d bc 54 3e 5b ef 88 3e d4 28 ef 3d
       -0.0055281697 0.2077498 0.26745114 0.11677709
000100 08 95 cd bd 17 a9 65 3d 53 1f 8c be 65 61 46 3a
       -0.10038191 0.05606946 -0.27367648 0.00075676135
000110 73 12 32 be 52 92 c8 3c f9 f1 be bb a4 b6 d3 bc
       -0.1738985 0.024483833 -0.005827185 -0.025843926
000120 e8 f3 d6 3c 97 f3 1e be 3e 49 ef bd 61 f9 09 3d
       0.02623935 -0.1552261 -0.11683892 0.033685092
000130 cb 01 2f be 08 a1 39 be 7d 1f 34 bd f8 33 3c 3e
       -0.17090528 -0.18127835 -0.043975342 0.183792
000140 fc ba 25 bc 4b cb 02 3c 32 63 3e be ae e6 2e bc
       -0.010115381 0.007983039 -0.18592528 -0.0106751155
000150 82 fc 8d 3e 06 47 12 3e d1 ce 44 3d 53 c7 13 be
       0.2773171 0.14284906 0.048048798 -0.14431505
000160 eb a4 11 3d 91 52 1e bd 57 08 2d 3e f8 f4 27 be
       0.03555767 -0.03865296 0.16897713 -0.16402042
000170 9b fc 36 3e c5 58 07 be 47 d6 8f 3d 9c ee 76 3c
       0.17869799 -0.13217457 0.07023292 0.015071537
000180 74 b3 26 3d 47 24 b9 bc b2 fc 9a 3d 79 ae 8f 3d
       0.040698484 -0.022600306 0.07567729 0.070157
000190 1d 8d 41 be 67 27 51 3e a7 c9 4c bc 72 1b e8 bc
       -0.18901487 0.20425187 -0.01249925 -0.0283334
0001a0 02 96 9a 3d 22 e9 79 3e 84 16 45 3e ca bb 6a be
       0.07548143 0.2440534 0.1924687 -0.22923198
0001b0 58 c4 d4 bd b4 a5 51 bd 18 8a 5b 3e 04 e5 e4 3d
       -0.10389012 -0.051183417 0.21439397 0.11176494
0001c0 62 c2 50 bd 67 58 42 3d de e0 f6 bd 2a b7 3e 3e
       -0.050966628 0.04744759 -0.12054609 0.18624559
0001d0 f3 02 57 be 1a 37 b6 be 89 23 98 3d b0 e1 cf ba
       -0.20997219 -0.35588914 0.07428653 -0.0015860107
0001e0 45 94 c8 bd 03 10 f9 3a 92 de 2a bd e7 69 90 be
       -0.09793905 0.0019001964 -0.041716166 -0.28205797
0001f0 c2 76 f8 3d a3 37 16 3d 57 06 16 3e 23 66 24 bd
       0.12132026 0.036674153 0.14650856 -0.040136468
000200 b1 79 45 be 48 ce df 3d a2 f2 10 bd 1e c2 36 be
       -0.19284703 0.10928017 -0.035387643 -0.17847487
000210 d7 dd ee bd 3a 68 93 3e f3 46 c1 be fc 62 73 3e
       -0.11663406 0.28790456 -0.37749442 0.23768228
000220 f6 25 8d 3d 7c 44 59 3c 8c e9 54 be d1 9b 90 3d
       0.06892006 0.013260957 -0.20792216 0.070609696
000230 87 64 8f bd d8 fb 98 3d de c3 7e bd d3 c8 a3 3e
       -0.07001596 0.074699104 -0.062198512 0.31989154
000240 f5 73 29 3e 17 bb 14 be 33 40 69 3d b7 0f ce 3c
       0.1654814 -0.14524494 0.05694599 0.025153978
000250 88 24 43 3b 95 eb 1f be fd d6 94 3d e5 d5 02 3d
       0.0029776413 -0.15617211 0.07267568 0.031942267
000260 0e fb 96 3b d8 17 4f 3e 65 56 c9 3d 75 52 eb bd
       0.004607565 0.2022394 0.098309316 -0.11490337
000270 e5 33 85 be 3e a6 b0 3d 9c 9d 0f be 02 f3 96 3c
       -0.26016155 0.08625458 -0.14024967 0.018426422
000280 61 c0 9f 3d 5b e5 ed bc 68 5f 68 be c9 83 cd 3d
       0.07800365 -0.02904003 -0.22692645 0.10034902
000290 a2 81 7b 3d 9a d0 21 bc b4 00 9b 3d a4 f3 78 3e
       0.061402924 -0.009876395 0.075684935 0.24311692
0002a0 d3 53 5b bd 20 35 a0 bd ef 6c 8f 3e d4 37 a6 3d
       -0.053546738 -0.07822633 0.28012797 0.08116117
0002b0 a2 3e 8f be 7b fb 4c 3e 2d a5 53 bd ac 0d c4 3c
       -0.27977473 0.20017807 -0.051671196 0.0239323
0002c0 c0 ff a5 3e d9 02 e1 3d 0d b4 d1 bc 3b 01 d0 ba
       0.32421684 0.10986871 -0.02559855 -0.0015869507
0002d0 11 d6 9e 3d 01 d3 08 3c 54 46 84 be 2e 1a 15 bd
       0.07755674 0.0083510885 -0.25834906 -0.03640192
0002e0 ab 79 ae bd 34 e5 0b 3d e7 6e a8 bd 58 57 1a 3e
       -0.085193 0.034154132 -0.08224278 0.15072381
0002f0 48 8f 5d bd 9a 97 47 3b 39 cb e2 3c a1 28 9b bc
       -0.05409172 0.0030455352 0.027684795 -0.018940272
000300 36 a0 88 be 93 81 90 3d 9e 33 bb 3d a6 59 c6 3d
       -0.2668473 0.07055964 0.091407046 0.09685068
000310 7d ca 87 3e a4 3f c6 3d 2e 35 9d bd 03 f9 7b 3e
       0.26521674 0.09680107 -0.07676159 0.24606709
000320 1a b1 1c 3e 7a 46 10 bd 45 cb 01 3e 72 53 85 bd
       0.15301934 -0.03522346 0.12675197 -0.065100566
000330 9d 4b c5 bb 21 97 87 3d c4 cd d2 bc 8e b7 f0 bd
       -0.0060209767 0.066206224 -0.025732882 -0.1175376
000340 91 50 08 be 87 bc 4d be f4 45 dc bd 6b ef d9 3d
       -0.13311984 -0.20091449 -0.1075553 0.106413685
000350 86 b4 d1 3d 47 6a 6c bd be 68 44 3d db df 98 3d
       0.1023951 -0.05771854 0.047951452 0.07464572
000360 7a 6a fe 3c d2 4c a8 3d 52 a8 7c bd 87 c0 d9 bd
       0.031056631 0.08217777 -0.06168396 -0.10632425
000370 c2 69 6f 3e b9 73 02 be 41 ae 80 3e 17 be 7b 3e
       0.23380187 -0.12739457 0.25132945 0.24584232
000380 cc 74 f1 bd 0a 94 c6 3b 26 36 e9 3c 79 f1 4b 3e
       -0.11789855 0.006060128 0.028468203 0.19916333
000390 46 6b 4d 3a ff e2 27 3d fd 36 89 3e a3 10 7b 3d
       0.00078361144 0.040987965 0.26799765 0.061295163
0003a0 33 6b 69 3e 10 9e 30 be ee f3 4c bc 6c 9f 90 3c
       0.227948 -0.17247796 -0.012509329 0.017654143
0003b0 0f 6f 53 bd fa 8c d9 3d 03 08 e9 3d a2 fc 33 be
       -0.051619586 0.10622592 0.11378481 -0.1757684
0003c0 76 71 f7 bd f5 6f 0c 3e 52 1d fb 3d 63 49 a2 bd
       -0.12082188 0.13714583 0.12261452 -0.07924154
0003d0 7b b8 32 3d 68 58 0d be d5 c8 64 be 90 8c f7 3c
       0.043632966 -0.13803256 -0.22342236 0.030218393
0003e0 bf 55 d0 bd c1 41 2d 3e 32 9d 06 bd 94 88 ac bd
       -0.10172605 0.16919614 -0.032864757 -0.08424488
0003f0 bd a2 21 3e 2d af 68 3e aa cb 8b bd 18 6b 7d 3e
       0.15784736 0.22723074 -0.06825955 0.24747884

affine_layers.0.bias f4 [64]
000000 cd da db 3d 0a dd da bd 56 69 b0 3d 85 3e 16 3d
       0.10735092 -0.10686691 0.08613841 0.036680717
000010 9c 47 be 3c 2d 7c 94 3d 2e 2b 74 bc b3 b4 45 3d
       0.023227505 0.07250247 -0.014902873 0.04826803
000020 66 f8 f4 3c 1c 50 21 bd 53 d7 4c 3d 7f 1f 77 bd
       0.029903602 -0.03938304 0.050010037 -0.06033277
000030 4d 57 d1 bd c7 f4 ce bd fa a4 96 3d 9c 45 71 3c
       -0.102217294 -0.10105281 0.073556855 0.014726069
000040 2a 2d eb bb c4 e1 7b 3e 98 90 5b bc 00 48 1f 3d
       -0.007177015 0.24597842 -0.013401173 0.038887024
000050 f9 9e 7f bd 6e 52 bb 3d 78 38 80 bd d2 94 9f bd
       -0.062407468 0.091465816 -0.062607706 -0.07792057
000060 65 ce c2 3c cb 4c a1 3d e8 37 01 3d b7 5b b2 3d
       0.023780057 0.07875975 0.031547457 0.087088995
000070 88 7f 52 bc 4a f0 1f be ac 77 f0 bd 34 c9 54 3d
       -0.012847789 -0.15619007 -0.117415756 0.051949695
000080 3f 4f d1 bd 9e 00 90 3b 7b 58 f9 3c 33 65 69 3d
       -0.10220193 0.004394605 0.030437699 0.056981277
000090 3e c8 6d 3c a3 52 b0 3b b7 f9 ab 3d a5 20 f6 3c
       0.0145130735 0.005380945 0.08397239 0.030044863
0000a0 78 5b 54 bc ba 89 03 be cd 9c 2d bb 56 cb 49 3d
       -0.012961261 -0.12845507 -0.0026491166 0.049266182
0000b0 8d 47 37 be 73 b8 64 bd 57 b5 60 bd 77 88 00 be
       -0.17898388 -0.055839967 -0.05486044 -0.12552057
0000c0 c1 6e 4d 3d 0b 2d a9 bc b5 55 7e 3c 00 b6 ad 3c
       0.05015445 -0.020651361 0.015523364 0.021204948
0000d0 5f 35 f0 bc 90 de ca bc 0e 00 03 3d a6 90 33 bd
       -0.029322324 -0.02476433 0.031982474 -0.04383912
0000e0 e1 47 ea 3d af 5c de 3d 09 4d 77 bd c9 99 bb 3c
       0.11439491 0.10857522 -0.0603762 0.022900479
0000f0 56 27 48 3d 4d 4d 87 bd e5 8b 37 bd e0 b4 a9 bd
       0.04886564 -0.06606541 -0.04481115 -0.08286452

affine_layers.1.weight f4 [64, 64]
000000 45 5b a0 be 2e 92 2c be 43 98 0a be 89 17 f8 bd
       -0.31319633 -0.16852638 -0.13534646 -0.12113864
000010 b1 d2 70 bd 5b 1e b5 3e 21 45 13 3d 1a f6 97 3d
       -0.05879468 0.35374722 0.0359546 0.07419987
000020 60 a9 63 be b0 0f 19 be d2 b5 f4 3d dd fe bd 3e
       -0.2223258 -0.1494739 0.11948742 0.37108508
000030 fa fd 2e 3e c5 83 9e 3d ff f9 ae bc 2c c4 9a be
       0.17089072 0.07739977 -0.021359442 -0.30227792
000040 ae f2 5c bd 78 1e 04 bc 1d bb 4c 3d eb fb 91 3d
       -0.053942375 -0.008063905 0.049983133 0.07128128
000050 d4 f9 0d 3e 28 5a 21 be 48 0c a3 3d 79 59 28 3e
       0.13864833 -0.15757048 0.07961327 0.16440381
000060 99 1c 0a be bb 4b 99 bd c8 ac b7 3d 96 90 27 bd
       -0.13487472 -0.074851476 0.08968502 -0.040909372
000070 a1 bc 6c 3e 81 9a 28 3e cc cd e3 bc 69 63 9f bc
       0.23118831 0.16465189 -0.027808093 -0.019456582
000080 40 e9 9e be f4 71 3e 3e a1 ed 1d 3e 17 f5 a0 bd
       -0.3103733 0.18598157 0.1542268 -0.07859247
000090 89 22 72 3e f6 dd e4 3d ca 0c 8b 3d 0e a0 da be
       0.23645987 0.11175148 0.06789549 -0.42700237
0000a0 41 90 2a 3d 32 e3 d3 bd 3b ed fd bd c3 64 39 bd
       0.041641477 -0.103460684 -0.12398764 -0.04526211
0000b0 03 e1 2f 3e 00 d2 2e 3e b7 ed 21 3d a0 00 67 3e
       0.17175679 0.17072296 0.039533343 0.22558832
0000c0 fe ce e6 3e 15 82 76 3e 37 5f 1f 3e 9a ff c3 bd
       0.45079798 0.2407306 0.15563665 -0.095702365
0000d0 ad ee 0f 3d 71 75 ec bd dc 17 60 3d 29 8e 9b be
       0.03513973 -0.11545838 0.054710254 -0.30381897
0000e0 4f bf db bd 71 ce 90 3e be 09 c4 3d 94 00 62 be
       -0.107298486 0.28282502 0.09572171 -0.22070533
0000f0 d2 5b f1 bd 24 79 0c bf 9e f8 da bb e6 26 8e 3c
       -0.117850915 -0.54872346 -0.0066824695 0.017352533
000100 1c 1b 94 bc 9d 42 65 3e aa fc a9 3e aa c6 04 3e
       -0.018079333 0.22388692 0.3320058 0.1296641
000110 84 1c d4 3d 50 22 09 3e 2f 11 e1 3d 2e 01 a3 3e
       0.103570014 0.13391995 0.10989606 0.31836838
000120 bf 8d dd 3d a7 8b 1e bd 85 bb b9 3d 83 87 80 3d
       0.108180515 -0.0387074 0.0906897 0.06275847
000130 39 94 5b 3e ba 13 c3 3c 2d d2 f0 3d 39 f0 b9 3d
       0.21443261 0.023813117 0.11758838 0.09079022
000140 7c 21 4b 3d b3 0e 35 3e 84 d8 11 bc 07 64 c2 3e
       0.04959248 0.17681389 -0.008901719 0.3796694
000150 fa 28 d9 bc 4c 13 a8 3c 7c 9a 71 3e 3b c0 44 3e
       -0.026508797 0.020517014 0.23594087 0.19213955
000160 6e 8a c0 3e 55 7c c2 3d cc 7a 5f be e0 10 f2 bd
       0.37605613 0.09496371 -0.21824187 -0.11819625
000170 82 75 e3 3d 46 a4 bc 3c 99 d6 8b be 67 d9 b8 3d
       0.11106397 0.02302755 -0.27312163 0.09025841
000180 e9 d4 84 3d 47 7d 12 be c6 28 5b 3e 08 2c 9a 3d
       0.06485922 -0.14305602 0.21402273 0.075279295
000190 12 c7 86 3e 72 4f 9f 3d 7a 5e 25 3e 2e 5b 52 bd
       0.26323754 0.07778825 0.16149321 -0.051356487
0001a0 75 0f 05 be 46 36 e4 be e3 03 9d 3e 6b 2e 4e be
       -0.12994178 -0.44572657 0.30667028 -0.20134895
0001b0 b1 ac 1f be fc 31 c7 3e a0 20 28 bd 52 dd 0f be
       -0.1559322 0.38905323 -0.04104674 -0.14049271
0001c0 b6 21 98 bc 9c e4 51 3e a5 5a 45 3d 6e 4d 35 3e
       -0.018570762 0.20497364 0.04818215 0.17705318
0001d0 a9 dd 1f be b1 93 bf 3e 5d b4 9f 3e af 30 8b 3e
       -0.156119 0.37417367 0.31192294 0.2718558
0001e0 a1 a4 43 be 7a 67 d6 bd f1 41 25 3e dc 3f 9b 3e
       -0.1910577 -0.10468955 0.16138436 0.30322158
0001f0 17 05 61 3d 83 ab 2b bc bc 0b 47 be 05 e4 82 bd
       0.054936495 -0.010477903 -0.1943807 -0.063911475
000200 87 aa d1 3d 51 ee 2d bd 2c ed 27 3e 9a 5c 9b bd
       0.10237604 -0.042463604 0.16399068 -0.07586022
000210 a0 05 01 3e 5e 1e 83 3e 5a ff 42 bc 46 3c 4d 3e
       0.12599802 0.25609106 -0.011901701 0.20042524
000220 61 34 cb 3e 26 da dd bd df 1d 16 ba 52 f4 bc bd
       0.396884 -0.10832624 -0.0005726497 -0.09226288
000230 86 e7 62 3e cd 00 b5 bb 5e 27 f4 3d 48 c1 24 3e
       0.22158632 -0.005523777 0.11921571 0.16089356
000240 7f 0f 51 bb 05 5f 47 bd c9 af ab be f1 c2 5e be
       -0.0031900106 -0.048674602 -0.3353255 -0.21754052
000250 15 a8 02 3e 5e 7e 56 be ad cc 7f bd 30 b8 e0 be
       0.1275943 -0.20946643 -0.062451053 -0.43890524
000260 19 17 d7 bc cf df 76 bd e7 c5 9c 3e 39 04 3a 3e
       -0.026256131 -0.060272034 0.30619738 0.18165673
000270 ce f0 65 3d d0 fa f9 bd 9c ac 07 3e b0 aa 0d bf
       0.056137852 -0.12206042 0.13249439 -0.55338573
000280 59 6e ba 3e 94 84 fe 3d c6 69 6b 3e 56 41 b8 3d
       0.36412314 0.12427631 0.22989568 0.08996837
000290 f3 e1 f8 bd a3 6f c1 bd b7 26 74 bd fb de 47 be
       -0.121524714 -0.09445121 -0.059607234 -0.19518654
0002a0 a7 3f b3 be d2 fa 32 3e 6e 45 82 be f7 88 da 3d
       -0.350095 0.17478493 -0.25443596 0.10670655
0002b0 45 9b c1 bd fe a1 9f 3c eb 8d 7e 3e 6c 73 47 3d
       -0.094534434 0.019486424 0.24858825 0.04869406
0002c0 2d f7 9d 3e 8f c2 22 3e ea d1 7e bd 36 b2 72 3e
       0.30852643 0.1589453 -0.06221191 0.23700795
0002d0 83 dd c7 3c 72 5e 28 be fa d9 5d 3e ca ba 95 b9
       0.024397617 -0.16442278 0.21665183 -0.00028558663
0002e0 42 17 68 be 56 76 8c be 55 97 61 be b4 24 3a be
       -0.22665122 -0.27434033 -0.22030385 -0.18178064
0002f0 03 aa 99 bd a2 19 4c be 6a 74 ca 3d ac 40 14 be
       -0.0750313 -0.19931653 0.098854855 -0.14477795
000300 03 54 f0 3d 4d 7d b8 3c 1a d4 c5 3d ea cd 55 3d
       0.11734774 0.022520686 0.09659596 0.052198328
000310 58 3b 9d 3e cb 48 33 3e 9b 12 c4 3e 53 46 2f be
       0.30709338 0.17508237 0.38295445 -0.1711667
000320 0d 67 16 3e 77 89 55 be 24 36 22 be 90 25 1a 3e
       0.14687748 -0.2085322 -0.15840966 0.15053391
000330 83 3b 14 bf ca dc c5 bd de 25 86 ba 79 d6 47 3d
       -0.5790331 -0.09661253 -0.0010234674 0.04878852
000340 c7 8c b5 3e c0 61 ad be 96 8d 3e 3d 76 41 93 bd
       0.35458967 -0.3386364 0.046521746 -0.0719022
000350 f4 33 34 3d 9b 13 4b be a6 b7 53 be a8 e8 b2 3d
       0.04399486 -0.19831698 -0.20675525 0.08735782
000360 9e 82 77 bb 45 62 da bd 01 16 88 be 00 a0 31 3e
       -0.0037767063 -0.10663275 -0.26579288 0.17346191
000370 b3 83 04 3e 11 43 d1 be 32 26 7c 3e c8 ee e7 3c
       0.12940864 -0.4087148 0.24623945 0.028312102
000380 8a da e2 3b c8 d2 b8 be ec 73 53 3e 89 ac d0 bd
       0.0069230245 -0.36098313 0.2064969 -0.101891585
000390 98 72 be bd ef 09 93 3e 6c 9e 2e 3b 63 3e 3b be
       -0.09299201 0.28718516 0.002664472 -0.18285517
0003a0 cd e7 5d 3e 7b ed 17 3d 2f ea 25 be 88 3f 87 3e
       0.21670456 0.037091713 -0.16202615 0.26415658
0003b0 2f 5b 42 be 34 aa da 3d d7 9a 86 bd f7 21 61 3e
       -0.18980096 0.10676995 -0.06572502 0.21985613
0003c0 c2 58 2e be 79 5c 9b 3e 25 83 dd bc 85 5f cf 3d
       -0.17026046 0.3034399 -0.027040074 0.10125641
0003d0 de de 4c bd c4 e8 b0 3d 7e 6b c3 3e c0 ee 3a be
       -0.05001723 0.086381465 0.38167948 -0.18255138
0003e0 ec 33 eb 3d c2 30 36 3e f9 38 a1 bd b0 aa a4 be
       0.11484513 0.17792037 -0.07872195 -0.32161474
0003f0 00 85 9b 3e b1 30 b4 be c9 38 46 be b5 ed ac be
       0.30374908 -0.351934 -0.193576 -0.33775106

affine_layers.1.bias f4 [64]
000000 84 9d eb 3a ee 4a 92 3c e7 c4 be 3c 13 46 93 3d
       0.001797602 0.017857995 0.02328725 0.071911
000010 7f 13 b6 3c ca a5 1b 3e b6 d6 0e be 6b f2 76 bd
       0.022226093 0.15199962 -0.13949093 -0.06028978
000020 88 fa 09 bd e0 3f 6e 3d 7f c3 1f be f8 51 ee bc
       -0.03368619 0.058166385 -0.1560192 -0.02909182
000030 92 a7 20 3d 2c 9b 17 3e 2b 21 1d 3e 22 38 46 bd
       0.039222308 0.14805287 0.15344684 -0.048393376
000040 cf ad b2 bb 83 63 1a bd cd 08 46 bd 69 ee 00 3e
       -0.0054528485 -0.037692558 -0.048348237 0.12590946
000050 e3 47 e3 3d 0b 68 9e 3d ff 8c a1 bd 9c df 9d bd
       0.11097696 0.07734688 -0.07888221 -0.07708666
000060 98 f8 bf 3d 9d b7 f3 3b 44 b2 5f bd 87 d4 5e bd
       0.09373587 0.00743766 -0.054613367 -0.0544019
000070 53 02 0d bc 31 0b 2b bd 37 37 10 3e c8 28 10 bc
       -0.008606511 -0.04175872 0.14083563 -0.0087987855
000080 cf 30 e3 bd 71 60 36 3d 3a fc 26 bd 8c 93 42 3c
       -0.11093294 0.044525567 -0.040767886 0.011875998
000090 06 46 7e 3a ad 43 eb bd 3a 43 ed bc 22 f9 77 3d
       0.00096997654 -0.114875175 -0.02896272 0.060540326
0000a0 5d c7 70 3c be 59 02 be 4f dc 4a 3d 18 43 25 3d
       0.014695969 -0.12729546 0.04952651 0.04034719
0000b0 39 51 0d be 26 7a dd 3d 95 80 4e 3d a4 43 51 3e
       -0.13800515 0.108143136 0.050415594 0.20435959
0000c0 3b 1f cd 3a c8 c4 80 bd 45 01 6f 3c 88 f3 2a bd
       0.0015649566 -0.06287533 0.014587705 -0.041736156
0000d0 cd 4e 15 3c 54 bd 7e bd 9d a8 30 bd a4 d8 c5 3d
       0.009113026 -0.062192276 -0.043129552 0.096604615
0000e0 da 7f 2a bd b6 44 39 bd 54 6d cb 3d 5e 11 7b bd
       -0.041625835 -0.045231543 0.09932962 -0.06129586
0000f0 cb 55 2d bd 01 97 41 3c 42 90 1f 3b 23 63 83 3d
       -0.042318147 0.011815787 0.002434746 0.06415393

final_mean.weight f4 [8, 64]
000000 52 d4 7f 3d 9a 22 27 bd 94 7f b8 3d bf f9 ad 3a
       0.062458344 -0.040804483 0.090087086 0.0013273283
000010 8d 11 af bd 5b 1f 96 bc f8 92 cf 3c 2c 47 89 bb
       -0.085482694 -0.018325498 0.025338635 -0.0041893926
000020 53 3f 25 3d d1 b5 6f 3c ea 7e 4e bd 9b 2c eb 3c
       0.040343594 0.014630751 -0.050414003 0.028707793
000030 f4 c7 ea 3c 75 ee 78 bd a2 ad 56 bd 5d 2a a6 3c
       0.028659798 -0.060774285 -0.052411683 0.020283872
000040 cc c1 bc bd a6 57 72 bd dd 4a 11 3d 08 1b df 3d
       -0.09216651 -0.05916562 0.035471786 0.10893828
000050 92 6c ab 3b 05 38 0a bd e9 57 89 3d 70 66 20 bd
       0.0052314484 -0.03374483 0.06706221 -0.039160192
000060 df f0 41 3b 12 04 b1 bd a6 3f 05 bb ab 24 c5 3d
       0.0029593033 -0.086433545 -0.0020332127 0.096261345
000070 09 2b 6b bc 18 7f a9 3d 3e 25 a1 3d 60 75 b2 bd
       -0.014353522 0.08276194 0.078684315 -0.08713794
000080 69 f4 a3 bd 24 4b 38 3d 24 58 85 bc 4c f4 d1 3d
       -0.08005602 0.044993535 -0.01627738 0.10251674
000090 11 69 b7 bc ee fc 18 3d 60 37 82 bd 96 03 83 bc
       -0.022388967 0.037350588 -0.06358218 -0.01599292
0000a0 01 2f 81 3d 7d 80 98 bc c4 2c 02 bd 80 fd 4c bd
       0.063077934 -0.018615955 -0.031780973 -0.050046444
0000b0 ca f9 7a bc c1 05 10 3c 89 93 95 3c 1f c9 c0 bd
       -0.015318343 0.008790434 0.018258827 -0.09413361
0000c0 8f cc d4 3c bb 23 6c bc 91 bb 0f bd 19 b4 31 bd
       0.025976447 -0.014412816 -0.035090987 -0.043384645
0000d0 56 e0 64 3c 09 f7 6b bd 5e 64 83 bc f6 2c ca 3d
       0.0139695015 -0.057608638 -0.01603907 0.09871857
0000e0 a0 98 a2 bd 71 8a b7 bc 2b 4e 04 3b 8b 77 a0 3a
       -0.07939267 -0.022404881 0.0020188193 0.0012242658
0000f0 6a bc 9d 3d d8 4d fb 3c ae 54 33 bd 5a 39 42 3d
       0.07701953 0.030676767 -0.04378193 0.047417976
000100 8b 4f 36 3d 32 eb be 3c 92 6c b3 bc 7a bc 8c 3d
       0.04450945 0.02330551 -0.021902356 0.068718866
000110 be 01 4a bd 12 ac 36 3d d7 23 a0 3c 4a ec e5 bb
       -0.049318068 0.044597693 0.01954834 -0.0070166932
000120 5e fd 22 bd fb 9f 2c bd 9d cb a5 3d c5 e1 8d bd
       -0.03979241 -0.042144757 0.08095477 -0.06927828
000130 47 cb 76 bd 59 46 84 bd 4f 23 53 bc 58 2a 3c bd
       -0.060252454 -0.0645873 -0.012886836 -0.04593882
000140 c9 c3 ac bb f6 ff dd 3d 34 e6 fa bb af df fe 3d
       -0.005272363 0.10839836 -0.007656837 0.12445008
000150 08 ce db bd fd 28 75 3d ee ec 74 3c 7c b7 d4 bd
       -0.10732657 0.059853543 0.014949067 -0.10386559
000160 3e 93 d1 bd 21 75 6b 3c 63 89 05 3d 3a 66 ef 3c
       -0.10233162 0.014371187 0.032601725 0.02922355
000170 85 89 b1 3d 55 cb 0c bc ba 7a e0 bd 94 59 16 3d
       0.08668808 -0.0085934 -0.10960908 0.036706522
000180 38 8a 6b bb b1 df d7 bd 42 b2 ec bb ed 33 a1 3d
       -0.003594054 -0.105407126 -0.0072233984 0.07871232
000190 f6 fe c9 3d b9 aa 2c bd b5 c3 3d bd 8d 2a 28 3c
       0.09863083 -0.042155 -0.04632922 0.010264051
0001a0 b4 f2 bf ba 22 73 5c 3c 79 d9 17 bc 5e c8 83 3d
       -0.0014644475 0.013455184 -0.009268158 0.064347014
0001b0 e3 6f f4 3c 6a bc 99 bd cd 75 f5 3c 8d 55 13 be
       0.029838508 -0.0750664 0.029963398 -0.14388104
0001c0 98 9a 62 3d 17 4d c4 bb f8 53 0c 3d a7 36 38 bd
       0.055323213 -0.005990635 0.034259766 -0.044973996
0001d0 2c 3f 30 3d 22 cc 01 bd 1d 19 af 3c 3e e3 b6 bd
       0.043028995 -0.031688817 0.02137428 -0.08930062
0001e0 2e 48 8d 3c e3 14 d2 3b be 2f 97 bd 09 78 e2 3a
       0.017246332 0.0064111813 -0.07382153 0.0017278205
0001f0 ad 4d da 3c 6f ff 42 3c 38 a2 60 bc 39 52 8c bd
       0.026648367 0.01190172 -0.013710551 -0.0685162
000200 b1 7f 05 3d e5 8a 37 bd b5 21 4a 3c e8 71 81 3d
       0.03259248 -0.044810195 0.012337138 0.06320554
000210 53 45 dc bc 57 83 30 be c9 ac 6f 3e 14 e2 9c 3d
       -0.026888525 -0.17237602 0.23405756 0.076603085
000220 6b 71 d7 3c 9d 7d da 3b cc ac 7f 3d e2 e7 da 3c
       0.0262992 0.0066678063 0.06242065 0.026721898
000230 5e 77 88 3d 39 7c 1a bc f9 3f 4a 3c 2e fc e9 bb
       0.066633925 -0.009429031 0.012344354 -0.007140658
000240 2f c3 0f bd e0 20 1a 3e a1 3f 37 3d 2b 2c b0 3c
       -0.03509825 0.15051603 0.044738416 0.021505436
000250 83 0c 02 3d 66 88 74 3d 0a 0d 46 3c 90 10 2d bb
       0.031750213 0.059700392 0.01208807 -0.0026407577
000260 7f b0 5c bc b5 9c 0c 3d 35 7b a7 3c fc 26 7c bd
       -0.013469814 0.034329135 0.020444492 -0.061560616
000270 af 0c 24 be 86 54 36 3c 5a a2 a1 3d d0 f5 81 3d
       -0.16020463 0.01112855 0.07892294 0.06345713
000280 9f 82 8a 3d 08 f2 44 bd 29 00 33 3d c1 6f a0 bd
       0.06763195 -0.04808238 0.043701325 -0.07833815
000290 c1 5f 3e 3c 1b 09 d1 3c 1b 84 25 3d ce a3 ff bd
       0.011619509 0.025517037 0.04040919 -0.12482415
0002a0 2e 64 d7 bc 9e 15 14 bc 3b 34 ab bd 69 7d 0f 3d
       -0.026292887 -0.009038357 -0.083595715 0.03503171
0002b0 8d 5c 0c bd 48 60 3f bc b2 5d 57 3d ef e6 7f 3d
       -0.03426795 -0.01168067 0.05257959 0.062476095
0002c0 48 55 4c 3d 62 04 fe 3d f5 a1 ec bc e7 54 dd 3c
       0.049886018 0.1240318 -0.02888582 0.027018024
0002d0 4a 07 78 bc 99 8f 33 bd 51 98 02 3d ea 9d c2 3c
       -0.015138457 -0.043838117 0.03188354 0.02375694
0002e0 fd 75 8c 3d e8 c5 f0 bc 23 43 ec 3d c4 99 85 bc
       0.06858442 -0.029391244 0.11536243 -0.016308673
0002f0 45 f2 86 bc 32 e6 85 ba 7a 49 a4 3d 81 9a b6 3d
       -0.016472945 -0.0010215698 0.08021827 0.08916188
000300 c5 25 bf bc b8 65 6c bd 40 c9 39 bd 7a 2e 16 3d
       -0.02333344 -0.057714194 -0.045357943 0.036665417
000310 7e 50 58 3d 43 a8 e3 bc 4b f1 12 3e db 84 01 bd
       0.05281114 -0.027790194 0.14349858 -0.03162084
000320 fa eb 45 3d 0d dc 73 bd 14 40 92 3d 80 c8 fa bb
       0.048320748 -0.05953603 0.07141128 -0.007653296
000330 45 a8 19 3d b8 1e d5 bd a8 c6 d2 bb 2d 57 9b 3d
       0.03751399 -0.1040625 -0.006432373 0.07584987
000340 68 fa 08 3d 31 01 be bc 5f 01 61 bd bd d9 28 bd
       0.03344193 -0.023193927 -0.05493295 -0.041223276
000350 98 3a 75 3b 51 53 42 bd e3 74 40 bd e9 a7 9d 3d
       0.0037418958 -0.047442738 -0.04698647 0.07698042
000360 7d a3 91 3d a4 91 0c 3d 83 98 1f 3c f9 3a d3 ba
       0.07111261 0.03431858 0.0097409515 -0.0016115598
000370 2d a4 9f bb 24 89 67 3c 75 96 54 bb e0 ef 1c 3d
       -0.004871866 0.014131818 -0.0032438312 0.0383147
000380 19 d7 61 3d 0c d8 21 3c ee 52 20 bd 0f 0a d2 3d
       0.055136774 0.00987817 -0.039141588 0.10255825
000390 0d 09 ac bc 01 17 94 3d ea 86 45 3c 78 94 88 bc
       -0.02100041 0.0723095 0.012056092 -0.016672358
0003a0 c5 eb 67 bd 11 dc cb bb 21 84 bd bd 47 28 4e bc
       -0.05662133 -0.0062213023 -0.09253717 -0.012582845
0003b0 9c 27 09 3c c3 52 14 3e c1 4b 1e bd f5 fc 8d 3c
       0.00837126 0.14484696 -0.038646463 0.017332533
0003c0 a0 ce 85 bc 16 8a 8d 3c 1e d3 0e 3e fe d1 4c 3d
       -0.016333878 0.017277759 0.13947722 0.05000495
0003d0 fe 28 8e 3d 07 3b 69 bc 77 b7 99 3b 9c 5b 70 bd
       0.069414124 -0.014235265 0.00469106 -0.058681116
0003e0 a7 72 0e 3d 04 26 bd 3c 3f c8 8e bd b7 e8 19 3d
       0.03477731 0.023089416 -0.06971788 0.03757545
0003f0 33 3b db 3d 02 2e ec 3d 5c f7 a1 3b 23 3c 72 3d
       0.10704651 0.11532213 0.0049428176 0.059139382

final_mean.bias f4 [8]
000000 e7 14 79 bd 35 1b 8b bd e8 5e fe 3c f6 a2 24 bd
       -0.06081095 -0.06792299 0.031051114 -0.040194474
000010 80 03 a4 bd bd 9f 05 3e 63 aa 25 bd 71 75 20 3e
       -0.0800848 0.13049217 -0.040445697 0.156698
