src/models/atla_release/PPO/model-ppo-hopper.model (torch, 142030 bytes, 36 tensors)

affine_layers.0.weight f4 [64, 11]
000000 a8 d0 59 3d cf 00 e6 3e 6f fa 4b be ef a3 06 be
       0.053177506 0.44922492 -0.19919752 -0.13148473
000010 14 1a 08 be 18 87 08 3e c2 7f af be f9 ca 16 bd
       -0.13291198 0.13332784 -0.3427716 -0.036814664
000020 ef ef 6d 3e 22 be 14 3e f4 bc 8c be a5 0e 06 be
       0.23236059 0.14525655 -0.2748791 -0.13091524
000030 a4 2b 76 be 50 84 e6 3e 00 98 cb 3c 5d 39 18 3f
       -0.24040085 0.4502282 0.024852753 0.5946253
000040 3e 5e 69 be fe c9 37 3a 47 74 dc 3d 75 eb b3 be
       -0.22789857 0.0007010995 0.10764366 -0.35140577
000050 f9 61 b7 bd df 01 4a be 32 cc 95 be d8 4b 71 be
       -0.08954234 -0.19727276 -0.2925735 -0.23564088
000060 87 49 16 3e 50 25 cb 3e a4 68 f4 3e 79 8e e0 be
       0.14676486 0.39676905 0.47736084 -0.43858698
000070 50 2d 95 3c 93 b3 ae bb a6 8e 42 3d 65 e1 6f 3b
       0.018210083 -0.0053314655 0.04749932 0.0036602851
000080 e4 e1 4b be 5e 49 01 bf 53 da 1e 3d 4d c4 07 3e
       -0.19910389 -0.50502574 0.03878243 0.13258477
000090 62 60 63 3e 79 5b 45 bd 23 ba 58 3e 8b d9 bc bd
       0.22204736 -0.04818294 0.21164756 -0.092211805
0000a0 95 47 74 be 6c cb a6 3e fa b0 ff 3d 47 91 cb bb
       -0.23855431 0.32577074 0.124849275 -0.006212387
0000b0 d7 f0 3b be a2 2a b3 3e 84 d6 57 bf 47 0a f3 be
       -0.18353592 0.34993464 -0.843117 -0.47468778
0000c0 2d 3f be bd 49 5f 3c 3f f5 86 35 be b9 01 c3 bd
       -0.092893936 0.73582894 -0.17727263 -0.09521813
0000d0 26 45 b7 3d f1 ad 45 3e d7 e7 83 bd ee 87 40 bd
       0.08948736 0.19304635 -0.06440704 -0.047004633
0000e0 ff fd 88 3d cb a5 76 3d 4c d4 98 3e 2a 73 3d 3e
       0.06689071 0.060216706 0.2984947 0.18500963
0000f0 b6 4f 91 3d c1 55 b9 bd 66 39 cc bd ce 30 cd 3d
       0.07095282 -0.090495594 -0.099718854 0.100190744
000100 58 7d 2c 3e 5d e5 2c 3e 77 7b 07 bd 96 53 52 bd
       0.1684469 0.1688437 -0.03307673 -0.051349245
000110 8e 5d da be 95 92 ec bd 47 cf 95 be 87 15 58 3f
       -0.42649502 -0.11551396 -0.29259703 0.8440785
000120 a2 f4 19 bf da 07 85 bc 47 ba c3 bd 64 5f 26 be
       -0.60138905 -0.016239095 -0.09557014 -0.16247326
000130 c8 33 f2 bd 85 01 95 3b 72 ca df 3d f9 d4 cd bd
       -0.11826283 0.0045473003 0.10927285 -0.10050387
000140 32 fa 0e 3e d2 ef 91 3d cc 73 a7 3e 31 12 89 3d
       0.1396263 0.0712582 0.32705534 0.06692923
000150 3d 7c 03 3e 5c 32 56 be 11 95 4a be f4 64 2f 3d
       0.12840362 -0.20917648 -0.19783427 0.042820886
000160 e0 a5 8c bd 9e b4 3b 3e 5e 51 89 be 51 a0 74 be
       -0.06867576 0.18330619 -0.2681989 -0.23889281
000170 ea c5 7b 3d f7 2a 88 be 25 5b 92 bd 30 0d a2 3d
       0.061468042 -0.2659528 -0.07146291 0.079126716
000180 d8 39 bf bd 0a e2 ed 3c 0f fe 41 bc e9 9a 24 3e
       -0.09337205 0.029038448 -0.011840357 0.16074719
000190 2b da 94 3e af 3c c2 be 67 67 bd be 6c 94 56 be
       0.290727 -0.37936923 -0.36992952 -0.20955056
0001a0 b9 47 45 3f 5c 7b ec bc 16 66 f7 3c 1b 9a 9a bd
       0.77062565 -0.028867416 0.030200046 -0.075489245
0001b0 25 94 33 be 6a bd 8e be 13 68 ab 3d 56 6d ae bd
       -0.17536981 -0.27878886 0.0836946 -0.08516948
0001c0 b3 90 3b 3e ed a7 c3 bd 50 82 1a 3d cf 56 7f 3c
       0.18316917 -0.09553514 0.037721932 0.015584662
0001d0 45 a6 87 3d cd ac c9 bd 65 60 81 3e 66 f7 ed 3d
       0.0662351 -0.09847412 0.25268856 0.11619453
0001e0 bc 25 30 be f7 3f ce 3e 58 c2 6f bd 05 51 5a be
       -0.17201895 0.40283176 -0.05853495 -0.21319969
0001f0 1d d4 81 3d 24 2d 45 3e c6 f7 93 be 4f 10 dc 3d
       0.063392855 0.19255501 -0.28899974 0.10745298
000200 44 35 b6 3d ce 78 f4 bd ea bf 3d bd a7 c2 a4 bc
       0.08896878 -0.11937104 -0.0463256 -0.020112349
000210 1d 36 34 3e 96 8e 4b be 0a c3 5c 3f df 85 06 3f
       0.17598768 -0.19878611 0.86235106 0.5254802
000220 7b bb 9e be 9b 6a de be e0 68 7e be 88 b3 da 3d
       -0.3100241 -0.4344071 -0.24844694 0.10678774
000230 3d 10 47 bd 8e d2 a4 bc 4a 48 24 3e 61 d2 88 3e
       -0.04859947 -0.020119932 0.16043201 0.26723006
000240 17 42 a7 3c da 9c 0c 3e dd f1 21 be 38 5f 99 3d
       0.020417256 0.13731709 -0.1581492 0.07488865
000250 63 f1 52 bd ba 61 18 3e 00 81 21 3e 3d 0f 08 be
       -0.051499736 0.1488103 0.15771866 -0.13287063
000260 96 2f f2 3d dd d7 8d be 22 d3 72 bd 9e 25 28 bd
       0.118254825 -0.27703753 -0.059283383 -0.0410515
000270 cb cf 9f be 93 c2 92 be 03 de 58 3e d9 2d 71 bd
       -0.3121322 -0.28664073 0.21178441 -0.058881614
000280 3b 85 d4 3e 17 33 57 be 75 6f 8b 3e 0c ef 9b 3d
       0.41507897 -0.21015583 0.27233472 0.07613954
000290 91 61 81 be 5b 2f 9f 3e 27 d6 6e bd 73 2f f1 be
       -0.2526975 0.31090817 -0.0583097 -0.47106513
0002a0 9d fb ce be 5b 4e 1d 3e a7 74 2c 3f a9 99 1f 3c
       -0.4042634 0.15361921 0.673655 0.009741225
0002b0 9c c8 5c bc 02 f3 17 be 96 bf cb bd bb 49 64 3d
       -0.013475563 -0.14838794 -0.099486515 0.055734377
0002c0 c6 09 35 bd ce 5b 72 be 55 6c 5f 3e 58 8e 0b 3e
       -0.044198774 -0.23667833 0.21818669 0.13628519
0002d0 b5 d2 84 bc bb df b8 be 30 09 0b 3d 69 5a ae 3a
       -0.016213754 -0.36108193 0.03394431 0.0013302091
0002e0 ad 98 8b 3d 9f 88 db 3d 12 3c 31 3e 4d 14 80 be
       0.0681623 0.10719418 0.17308071 -0.25015488
0002f0 48 17 9d be 7e 47 7e 3e 14 0b 26 3e dc d5 ae 3c
       -0.30681825 0.2483196 0.16215163 0.02134221
000300 7f 24 4f bd e9 c6 30 3e d0 ff 05 3e 04 0f 0e be
       -0.050571915 0.17263378 0.13085866 -0.13872916
000310 e6 72 72 be 67 3d f1 bd 35 4f ef bd db 4a fb bc
       -0.23676643 -0.1177929 -0.116850294 -0.030675342
000320 ce a5 bf 3e b1 2b b5 3e 7b b5 af 3c f9 95 ee 3d
       0.37431186 0.35384896 0.021448841 0.11649699
000330 86 d9 bf 3c a6 b6 3b be 99 6d b4 3e 9a 24 7f 3e
       0.023419153 -0.18331394 0.35239866 0.24916306
000340 56 92 1a 3e 63 8e 46 3d 1e cd 90 bb 20 53 3b be
       0.15094885 0.048475634 -0.004418983 -0.18293428
000350 dd 39 56 bc 83 da 72 bb bf a7 58 3e b0 0e 89 be
       -0.013075319 -0.0037056513 0.2115774 -0.26769018
000360 64 1c 2d be c4 ce e0 3d 76 41 8c 3d 39 ba f4 3d
       -0.16905361 0.109769374 0.06848423 0.11949582
000370 16 82 d1 3e cb 79 b9 3e 92 8d 3f be ab cf 2a 3e
       0.4091956 0.36225733 -0.18706349 0.16680782
000380 06 51 ab 3d 34 b9 60 3e 5b cd a9 3d 12 05 f5 3d
       0.08365063 0.2194565 0.082911216 0.11963858
000390 a5 14 80 be 2b 2b 4a be 37 c0 f6 be b2 67 11 3e
       -0.2501575 -0.1974303 -0.48193523 0.14199713
0003a0 4e e1 7e be 81 4c 53 3e ca 37 5e be 64 7f 96 be
       -0.24890634 0.20634653 -0.2170097 -0.29394066
0003b0 7d af a6 bd f8 e1 11 3e 5b 5f 89 bd ae 6a 8e 3e
       -0.081389405 0.14246356 -0.06707641 0.27815765
0003c0 9a 3a d0 3c bd 1e af be 49 b6 30 be a9 51 6a 3e
       0.025418568 -0.3420314 -0.17257036 0.22882713
0003d0 41 43 97 3d cf 8e 7b bd 66 2e 92 bd ca 52 82 3e
       0.073858745 -0.06141549 -0.07137756 0.25453788
0003e0 dd 61 e7 bd 1a 31 23 bc b6 f6 d9 3d ed 2a 7f 3d
       -0.11297963 -0.009960437 0.106427595 0.062296797
0003f0 93 88 13 3b a9 75 01 bd 8a 32 91 be a8 6a 18 3f
       0.0022511824 -0.03160635 -0.2835887 0.59537745

affine_layers.0.bias f4 [64]
000000 9a 6f 8f be f2 fc a7 3d 45 d7 73 3e 7e 89 b5 3e
       -0.28014833 0.08202542 0.23812588 0.3545646
000010 97 8c 77 b7 ea d7 a0 ba 97 42 90 3d b9 53 03 be
       -1.4755081e-05 -0.0012271379 0.07043951 -0.12824906
000020 f0 a5 97 be bc e0 09 bf c4 d2 67 3e 56 83 a6 be
       -0.29618788 -0.5385854 0.22638994 -0.32522076
000030 2d 43 ea 3c 55 1d f2 3d bf d1 fa 3b df 0e d6 be
       0.028596485 0.11822001 0.007654398 -0.4180822
000040 3f eb 0a 3e 09 c3 49 be 62 90 9c bd 51 ee a9 be
       0.13566302 -0.19703306 -0.07644726 -0.33189633
000050 e1 8e a4 3e 85 00 05 be a3 54 50 3e 99 78 dc 3e
       0.32140258 -0.1298848 0.20344786 0.4306076
000060 75 fc 1e 3f c8 9c 04 be 51 b2 63 be f5 08 5b 3e
       0.6210397 -0.12950432 -0.22235991 0.21390136
000070 8e 01 bd be 82 34 b5 3d 48 8f 6e 3e db dd f3 bd
       -0.3691525 0.08847906 0.23296845 -0.1190755
000080 bd 9c 55 be ee 3c 80 be e5 a5 55 bc 75 aa 25 3e
       -0.20860572 -0.25046486 -0.013040041 0.16178305
000090 f8 55 1c 3e 6b 99 a7 3e f9 fa c9 bd ad 6c d1 bd
       0.1526717 0.32734236 -0.09862322 -0.102258064
0000a0 bf d0 16 bd 4d 5f 81 be fb ca 85 bd 31 ff 02 3f
       -0.03682017 -0.2526802 -0.06532856 0.5117064
0000b0 f0 87 a4 be 13 f2 1c 3d 95 e3 37 3e a7 08 87 3d
       -0.32134962 0.038316797 0.1795791 0.06593447
0000c0 35 59 94 3e 16 31 03 3f e5 9c 14 be 2f 1c 9b 3d
       0.2897431 0.51246774 -0.14512976 0.07573735
0000d0 87 4a 12 3e 9c 18 ea bd e4 a0 a0 3e a8 03 43 3e
       0.14286242 -0.11430475 0.3137275 0.19044363
0000e0 5f 02 92 3e cc f2 dc 3e 35 56 56 3e 6e 29 2f 3e
       0.28517434 0.4315399 0.20931323 0.17105648
0000f0 fd 90 15 be 37 ff 47 3e 9a 2b 2f be 8f cf 3e be
       -0.1460609 0.1953095 -0.17106476 -0.18633865

affine_layers.1.weight f4 [64, 64]
000000 70 b7 3e 3e 8d 12 63 bd e0 5d 4e 3d 78 b8 30 bf
       0.18624663 -0.055437613 0.050382495 -0.69031477
000010 01 02 3e 3e ee 91 0d 3e dd 2a 37 3e fb 80 56 3d
       0.18555452 0.13825199 0.17887445 0.0523691
000020 39 f8 d8 3e dc 98 53 3e 86 25 3b bd ce 32 1a 3f
       0.4237688 0.2066378 -0.045690082 0.6023377
000030 b8 47 c0 bc 82 b0 05 bd e9 be 57 3e ec ff 71 3e
       -0.023471698 -0.032639034 0.2106892 0.23632783
000040 cc db da 3c 6f ad 18 be f8 fc 1c be e5 2c d1 3c
       0.026716135 -0.1490991 -0.15330875 0.025534103
000050 7f ba 64 be 68 ab 44 3e 7a 73 71 3c d4 ce bd be
       -0.22336768 0.19206011 0.014737004 -0.3707186
000060 52 99 f4 bd 9e 09 52 3f c0 91 55 3d 09 7e 0a be
       -0.11943306 0.82045925 0.05214095 -0.13524641
000070 12 e8 2b 3c 35 ff 70 be 90 fa 45 3e 5f 8f bb 3e
       0.010492342 -0.23534854 0.19333863 0.3663282
000080 5e b0 49 3e 61 07 3e 3e 1a db 3c be c3 23 c0 bd
       0.19696185 0.18557502 -0.18442956 -0.09381821
000090 25 d3 7c 3e 2f 6e 38 3e 81 65 4f 3b 7c ee 14 bd
       0.2468992 0.18010782 0.0031646194 -0.03636025
0000a0 75 68 b6 3c 3c d9 1d 3e a8 d0 b1 bd 85 d6 ed bc
       0.022266606 0.154149 -0.08682376 -0.029032955
0000b0 a2 f3 8f be b4 9d 55 be 9c 4f b1 3e 5a dd 98 be
       -0.28115565 -0.2086094 0.3463105 -0.29856378
0000c0 1e 5c df bd 69 f1 3c bd 16 fb be 3d 8e ce a8 3d
       -0.10906242 -0.046128664 0.093252346 0.08242522
0000d0 9e 6b 86 be 0c 75 92 bd 80 f5 58 be 68 8a 1a bf
       -0.2625398 -0.07151231 -0.21187401 -0.6036744
0000e0 1b 33 78 be f4 6f d6 bd 18 49 bd bd da 18 5e bc
       -0.24238245 -0.10470572 -0.09242457 -0.01355573
0000f0 ef 82 ad 3e 35 70 88 be 32 75 96 3e a3 93 51 be
       0.33888957 -0.26648107 0.29386288 -0.20466475
000100 17 0f 1e 3e 63 a9 e1 3d c4 c0 a4 3d 80 80 38 be
       0.15435444 0.11018636 0.080445796 -0.18017769
000110 95 65 b1 be 35 cb 77 3d 29 23 1a be 2a f7 b3 bd
       -0.34647813 0.060496528 -0.15052475 -0.08787377
000120 16 42 25 3e 23 dc 63 3d 73 cb ce 3c 32 be ec bd
       0.16138491 0.05562986 0.025243497 -0.115597144
000130 f9 d0 3b 3e 2c 03 46 bc 90 0d 48 be a5 a5 42 bd
       0.18341435 -0.012085717 -0.19536424 -0.047521252
000140 4a c0 02 3e 9d fa 08 be f5 57 88 3b 2c 8c 31 3d
       0.12768665 -0.13376851 0.004160876 0.04334657
000150 cf 41 b7 be 79 5c f1 3d 38 71 06 3e 29 f5 46 3d
       -0.35792395 0.11785216 0.13129127 0.048573647
000160 c8 a3 15 be 5f 96 58 3d 74 f9 09 be 34 ca 83 3d
       -0.14613259 0.05287778 -0.13474065 0.064350516
000170 95 e6 02 3e 1c 9b e8 3e c3 34 c6 be 1a 4e 01 be
       0.12783273 0.4543084 -0.3871213 -0.1262745
000180 b8 f0 9d bc 5a 6d 17 3e b6 26 58 3e 25 4d 5d bc
       -0.019279823 0.14787808 0.21108517 -0.013507162
000190 bb 3c 9d be d2 c4 55 be 1c 08 b9 3e a8 d8 fc 3c
       -0.30710396 -0.20875862 0.36139 0.030865029
0001a0 de 09 d8 3d 96 0d f1 3e 0a 8d e9 bd b0 7e 52 be
       0.10548757 0.47080678 -0.11403854 -0.2055614
0001b0 26 e3 f5 bd 05 03 1e be f7 b3 be bd 76 fc 05 3b
       -0.12006216 -0.1543084 -0.09311669 0.0020444668
0001c0 7a 0f 91 3e 85 8b 8a 3e fc 45 74 3e fe df 32 be
       0.2833212 0.2705957 0.23854822 -0.17468259
0001d0 02 fa 36 be 96 60 00 3e ac 8e 66 3e c5 81 54 be
       -0.17868808 0.12536845 0.22515363 -0.20752628
0001e0 bf 3e 46 3d 33 d3 ee 3c d4 58 db 3d 3f 4c 80 3e
       0.048399683 0.029153442 0.10710302 0.2505817
0001f0 90 25 48 be 37 ab 36 be 9a 5e a0 3e 0f d3 08 be
       -0.19545579 -0.17838751 0.31322175 -0.13361762
000200 fc 3e 18 3e 5b 8f bf be 4d 1d a5 3c 6f c4 0e be
       0.14867777 -0.3741406 0.020155573 -0.13942121
000210 ac cb 6d 3d 31 ef 96 bd ec 00 c2 be bd 86 e7 3d
       0.058055565 -0.07369841 -0.37891328 0.11304996
000220 02 e6 21 be f6 c9 16 3c d4 06 c7 bc 4e e9 17 be
       -0.15810397 0.009203425 -0.024295248 -0.14835092
000230 a6 39 87 3d 38 0e 6e 3d ce ff e2 be e0 1d 81 be
       0.066027924 0.05811903 -0.44335788 -0.25218105
000240 2e 5e 13 3e 42 77 07 be 7d d3 5b 3d 47 21 3f be
       0.14391395 -0.13229087 0.053668488 -0.18665038
000250 d0 02 cc be e2 d1 45 bd 66 5c 89 3d 05 a7 7d 3e
       -0.39845896 -0.048295863 0.06707077 0.24770744
000260 ec 8e 31 3d b5 d6 90 be 5d be ae be 5d 60 a0 3e
       0.04334919 -0.28288808 -0.3412961 0.3132352
000270 57 84 9f bd 7d 17 ce be f2 76 42 3d dc c8 8b be
       -0.07788914 -0.40252295 0.047476716 -0.2730168
000280 28 d4 3d 3e f4 46 b8 3c 86 d9 a6 3d e7 3c 9a 3d
       0.18537962 0.02249477 0.08146958 0.075311475
000290 97 dc ba 3c 80 a6 0c 3e 12 32 8c 3e 7d d1 29 be
       0.022810264 0.1373539 0.2738195 -0.1658382
0002a0 8d ec b4 3c ee 2e 76 3d dc 7f bb bd fc 1f 5e 3e
       0.022085452 0.06010335 -0.091552466 0.21691889
0002b0 73 5a 90 bd b0 ce 9b 3d f4 72 e2 3d 67 6d 8b be
       -0.07048502 0.07607782 0.11057082 -0.27231905
0002c0 86 9e 9b be c3 91 56 bd b4 b8 46 3c f0 e4 78 bd
       -0.3039438 -0.052385103 0.012128998 -0.060765207
0002d0 fc af ad bd d5 e7 80 bd 3b 3d 99 bc 1d 0f 7d 3d
       -0.08480832 -0.062942185 -0.018705955 0.06178199
0002e0 0a d6 35 3d a4 78 30 3d 45 54 db 3c 72 31 18 bd
       0.044393577 0.043083802 0.026773581 -0.03715653
0002f0 e7 0b b6 3d 06 48 22 be 5c f0 23 3e 73 b8 66 be
       0.08888989 -0.15847787 0.16009659 -0.225313
000300 e1 83 10 3e 6c 16 c1 bd ac c8 27 39 82 a0 a7 3c
       0.14112808 -0.09428105 0.00016001117 0.020462278
000310 7c 12 34 bd ff bf f8 bd 3f 0b 6c be 29 a4 cb bd
       -0.04396294 -0.12145995 -0.23051165 -0.099434204
000320 fd df 6d 3e 7c 63 92 be 15 93 54 bd 27 96 22 be
       0.23229976 -0.28591526 -0.05189808 -0.15877591
000330 db c4 92 3d 03 50 72 be eb da d0 bd 95 ac 47 be
       0.071664535 -0.23663335 -0.10198005 -0.19499429
000340 c6 f2 4f 3c c0 44 86 3d 41 d4 23 bf b1 16 4a be
       0.012692159 0.06556082 -0.6399575 -0.19735219
000350 da 5b 7a ba 07 02 6c bd 5e c9 dd 3d c3 0b 59 3d
       -0.000955043 -0.05761912 0.10829423 0.052989732
000360 d2 dd 61 3e 8c 40 80 3e 6f ad af 3e cd ba 11 bc
       0.22057274 0.25049245 0.34312007 -0.008894634
000370 0b 6a 67 be 24 1c e7 bc f8 d1 1d be f5 ee 1a 3e
       -0.22599046 -0.02821166 -0.15412128 0.15130217
000380 45 3b 2b be e2 9d bf bd 0d 5b 94 be 16 56 15 3e
       -0.16721828 -0.09356286 -0.28975716 0.1458362
000390 11 b5 39 3e 97 09 04 be ad 16 94 bc db 4c f7 bb
       0.18135478 -0.12894283 -0.018077219 -0.0075470037
0003a0 80 2a 00 be 14 82 a9 be 95 99 82 3e 40 25 d2 3d
       -0.12516212 -0.33107054 0.255078 0.10261011
0003b0 3a 1a 8c bd 23 03 55 be e2 4e 94 bd 39 2f ad 3d
       -0.0684094 -0.20801978 -0.07241608 0.08456273
0003c0 eb ca 22 bd fc 75 57 be 8e f6 5f bd 1d a6 74 3c
       -0.0397443 -0.21041101 -0.054678492 0.014932183
0003d0 47 52 4c 3e d7 89 64 be 3c 7a 61 bd 2c 97 07 3e
       0.19953261 -0.22318207 -0.055048212 0.13241261
0003e0 1f aa 7a be 9b 3a 13 3f c9 21 e7 bd 9c 7f 37 3f
       -0.24478959 0.575113 -0.11285741 0.7167909
0003f0 f5 dd ac 3d 9b 6a b5 bd 57 11 5f bc 62 51 05 be
       0.084407724 -0.08858224 -0.013614974 -0.13019326

affine_layers.1.bias f4 [64]
000000 de e6 bd be 46 d0 16 3d fb ba 25 be 4a 45 df bd
       -0.370902 0.03681972 -0.16184609 -0.10901888
000010 1d d7 ad 3d fc da be 3d e9 7c 4b 3d 24 48 34 be
       0.08488295 0.09319112 0.04967967 -0.17605644
000020 59 1b 5c be 0a 9e 81 be 10 95 7d bd 7c e2 ff 3d
       -0.21494807 -0.25315887 -0.061909735 0.1249437
000030 dc 32 38 3e f0 ca 55 be 49 d6 90 3e 21 bc 69 3e
       0.17988151 -0.20878196 0.28288487 0.22825672
000040 16 56 41 be 04 c2 5a be f8 18 a0 bd bd aa 47 bc
       -0.18880495 -0.21363074 -0.078172624 -0.012186703
000050 cf 14 3a 3e 58 95 b9 be 4a 46 83 3e b2 c3 82 be
       0.18172 -0.36246753 0.25639564 -0.2553993
000060 dc 67 ad 3e 25 a4 85 3e 47 73 79 bd 65 da 81 3d
       0.338683 0.26101795 -0.060900953 0.063404836
000070 57 74 71 be 5d b6 c7 3d c7 96 60 be ba 17 cb 3e
       -0.23579536 0.0975158 -0.21932517 0.3966654
000080 79 47 4e be 69 02 af be d1 c7 79 be 5a 02 3c 3e
       -0.20144452 -0.34181526 -0.2439263 0.18360272
000090 d2 3e d2 3d 86 8e bb 3e eb c9 73 3e 70 be 6c 3e
       0.10265888 0.36632174 0.23807494 0.23119521
0000a0 b7 40 29 3e 59 6a d1 bb 97 50 5b 3e a6 4e 3a bd
       0.16528593 -0.0063908515 0.21417461 -0.04548516
0000b0 0b 47 3d be 09 07 f3 bd 3f 65 80 3e ba 70 86 3e
       -0.18484132 -0.11866576 0.25077245 0.2625788
0000c0 59 0e 75 be 16 f4 2e 3e 94 db 22 be 9b 58 15 bc
       -0.23931254 0.17085299 -0.15904075 -0.0091153635
0000d0 35 48 22 be 51 f2 86 be bc 6f 27 3c a8 20 19 3e
       -0.15847857 -0.26356748 0.010219511 0.14953864
0000e0 bd 03 c0 be eb fd 0a 3e 48 5b 15 3e cb d3 8e 3e
       -0.37502852 0.13573425 0.14585602 0.2789596
0000f0 3c a3 eb 3d 6e e1 b7 bd e0 61 84 3e c8 b4 09 be
       0.11505744 -0.08978544 0.25855923 -0.13447869

final.weight f4 [1, 64]
000000 f7 c5 4b be 4b ec ca 3d 0b c8 d0 bd 79 e6 80 bd
       -0.19899736 0.099083506 -0.10194405 -0.06293959
000010 76 b4 1a 3e ac 06 0f 3e 2b 20 a7 bc 92 78 f8 bd
       0.15107903 0.13967389 -0.020401081 -0.12132372
000020 5e df 5a be 93 b6 8c bd f0 22 3e be b8 ee b1 3d
       -0.2137427 -0.06870761 -0.18568015 0.0868811
000030 c5 39 db 3d dc a9 a0 bd 5a a5 9f 3d 05 a4 31 3d
       0.10704378 -0.07844898 0.0779521 0.04336931
000040 c7 69 a0 bd db 1f bb bd 45 3e 1e be 1f 3c 3e bc
       -0.078326754 -0.09136935 -0.15453441 -0.011611014
000050 46 d8 b0 3d 72 c6 16 be 99 55 91 3d c8 75 40 be
       0.08635001 -0.14724138 0.070964046 -0.1879493
000060 22 d8 9d 3e 3b 85 13 3e a1 8c fc b9 5e fb 4b 3e
       0.3082896 0.14406292 -0.00048169962 0.19920108
000070 7d c2 37 bd 33 86 1c 3e 79 e8 8b be 86 d1 33 3e
       -0.044863213 0.15285568 -0.273258 0.17560396
000080 2b b0 8a bd 5c b2 8f bd 40 7e ba bd ee 52 07 3e
       -0.067718826 -0.07016441 -0.091061115 0.13215229
000090 ae 7a 25 3d b9 7e 99 3e ce f4 67 3e 4e e9 92 3e
       0.0404002 0.29979494 0.2265198 0.28693622
0000a0 15 cf 62 3e 5c 07 fb bc 57 6c 25 3e 9f 28 91 bd
       0.22149308 -0.030643158 0.1615461 -0.07087826
0000b0 ba 71 ce bd 1f 1c d9 bd 64 0d 23 3e 35 c3 0e 3e
       -0.10080285 -0.10601067 0.15923077 0.13941653
0000c0 1d 90 bc bd a9 73 d3 3c a6 c9 85 bd f8 25 fe 3d
       -0.09207175 0.025811987 -0.06532602 0.12409586
0000d0 ed 30 08 be f4 a5 8b bd e1 c1 82 3e 8e d0 3e 3d
       -0.13299914 -0.068187624 0.25538543 0.046585612
0000e0 74 22 06 bf b0 ee 9a 3d 1b 34 b3 3d 31 c7 2d 3e
       -0.5239632 0.07565057 0.08750173 0.16970517
0000f0 37 a5 8a 3e 61 5d 2b be b6 2a 80 3d d6 56 1a be
       0.27079174 -0.1673484 0.062581465 -0.15072188

log_stdev f4 [3]
000000 12 49 01 c0 63 f2 c4 bf c2 4e bb bf
       -2.0200849 -1.538647 -1.463341

affine_layers.0.weight f4 [64, 11]
000000 7b 4b a9 3e aa 2a 61 be 8a 26 69 3e 25 09 08 3f
       0.330654 -0.21988931 0.22768608 0.53138953
000010 1c dd d2 3e 97 d7 4f bd c2 3d 93 bd 32 f7 18 be
       0.41184318 -0.050742712 -0.07189514 -0.14938048
000020 8c 6f c6 bd 1b 95 49 be 7c b5 62 bd d5 be 09 3c
       -0.09689245 -0.19685785 -0.05534886 0.008407314
000030 0c 48 a2 3d 11 93 94 be 0f d6 44 3e e0 67 bc 3e
       0.07923898 -0.29018453 0.19222282 0.36798
000040 e0 a3 dc 3e 7b ee 0b be 22 78 70 bb ea 57 d5 3c
       0.43093777 -0.13665192 -0.0036692698 0.026042897
000050 23 24 82 3e b5 1d 4b 3e 12 30 45 be 8a 10 80 be
       0.25418195 0.19835551 -0.19256619 -0.25012618
000060 6d 02 08 3e 70 64 4f 3f 56 db f6 bd b3 e0 d4 3d
       0.13282175 0.8101263 -0.12053554 0.103944205
000070 d9 c9 38 3d fd 58 3c bf 28 04 f7 3c 88 44 e5 3e
       0.045114372 -0.73573285 0.030153349 0.44778848
000080 23 68 70 3e 57 14 d9 3d 23 d4 57 3e 96 f3 dd bc
       0.23477225 0.10599583 0.21077017 -0.02709369
000090 ff cd f4 3e 39 12 c4 3c f2 3d a0 3d 22 b9 52 bd
       0.47813413 0.02393447 0.07824315 -0.051446088
0000a0 c0 1f ef 3e 2e fd 30 3d c3 6f f4 3c a0 7b f1 be
       0.4670391 0.0432102 0.029838448 -0.4716463
0000b0 63 26 39 3e 1d 7f 16 be 00 5a 70 3d d3 14 b8 bd
       0.1808105 -0.14696927 0.05867958 -0.08988347
0000c0 f8 ec 2a 3e 18 03 82 3c 87 69 a4 be d6 ea 31 3e
       0.16691959 0.015870616 -0.3211176 0.17374739
0000d0 d0 6d 1e 3d 85 82 08 3b bc 69 6c be db ed b4 3e
       0.038678944 0.0020829749 -0.2308721 0.3533772
0000e0 59 7e 84 be 47 24 2b 3d df 9e 43 be 78 74 df be
       -0.25877646 0.041782644 -0.19103573 -0.43643546
0000f0 11 13 40 3c 00 60 17 bf 33 05 b6 be 15 d4 89 3e
       0.011723296 -0.5913086 -0.35550842 0.26919618
000100 c2 41 79 be f1 d3 43 3c e0 68 b3 3d 60 fc ec bd
       -0.24341491 0.011952386 0.08760238 -0.11571574
000110 c3 a8 cd 3d 86 53 c9 3d 26 8d e7 bd 97 e2 86 3e
       0.10041954 0.09830384 -0.11306219 0.2634475
000120 a9 32 a1 3e 02 3f 73 be 46 e6 cd 3e 37 30 35 be
       0.31483963 -0.23754504 0.40214747 -0.17694174
000130 7f 23 0a bd ad e8 e7 3d 73 93 bc be c3 d1 1a 3e
       -0.033725258 0.11323676 -0.36831245 0.1511908
000140 7e e9 89 3e bb 36 6d bd a6 f1 37 be 45 24 73 be
       0.26935953 -0.057913523 -0.17963275 -0.23744304
000150 f6 fc 40 be 28 4d 39 bd 09 c0 95 3e 21 e3 4b bc
       -0.18846497 -0.045239598 0.29248074 -0.0124442885
000160 0a 3a 80 bd b3 6a cb bd 46 c4 38 be 44 d0 ba bd
       -0.0626107 -0.09932461 -0.18043622 -0.09121755
000170 d0 be 74 bd 26 14 86 be 18 6a 99 3d 06 f0 10 be
       -0.059752285 -0.26187247 0.07490939 -0.14154062
000180 42 80 e5 be 8d f6 57 3e ba f9 83 be 85 1b 38 3e
       -0.44824415 0.21090145 -0.25776464 0.17979248
000190 94 56 ef 3c 47 5e a5 3e d3 c1 18 3e 99 f7 c0 3e
       0.029216088 0.3229849 0.14917688 0.37688902
0001a0 5b 2e 40 bf 57 7a 32 bc c7 a2 3b 3b c1 f8 b4 be
       -0.7507073 -0.010893426 0.0028630958 -0.35346034
0001b0 10 b4 d8 bc cd a3 9a bd a8 72 46 be 22 50 23 bd
       -0.026453048 -0.07550774 -0.19379675 -0.039871342
0001c0 c7 ea 83 be 07 b0 62 be d6 4a 7b 3c 53 2c 84 3e
       -0.25765058 -0.22137462 0.0153376665 0.25815067
0001d0 a4 a5 64 3e 3c 0b 37 bc 73 83 0f be 44 77 75 be
       0.22328812 -0.011172112 -0.14014988 -0.23971277
0001e0 34 f8 76 3e ce 66 6f be 41 1b 40 3e 83 3c 8e 3e
       0.2411812 -0.2337906 0.18760397 0.27780542
0001f0 bd bb 7f be 02 b6 c6 3e a1 22 d2 bd b2 00 c1 3e
       -0.2497396 0.38810736 -0.10260511 0.37695843
000200 2e 5a 16 bd b8 12 3c be f1 dc 3d 3d 64 6e 9f bc
       -0.036707096 -0.18366516 0.046353284 -0.019461818
000210 55 7d 91 3e 51 05 2e 3e e1 68 09 3e 19 6a 8b be
       0.28415933 0.16994216 0.13418914 -0.27229384
000220 01 7c 81 be 22 e2 ae bc a2 ad 47 be 1e b8 3a 3e
       -0.2528992 -0.021348063 -0.1949983 0.18234298
000230 8d ad 6c 3e 5e c9 81 3e 4c 8d 75 be 8c 6a 1e be
       0.2311308 0.25348943 -0.23979682 -0.15470332
000240 ed 9e c2 3e f8 bc 16 be 05 86 d9 be 5d 8f 44 bd
       0.38011876 -0.14720523 -0.4248506 -0.047988284
000250 82 f3 93 3f 4c 19 03 be 88 31 83 bd 95 b9 81 3e
       1.1558688 -0.12802619 -0.06405932 0.253369
000260 3f c4 d6 bc 54 60 8d be 62 b7 00 3e 03 a8 9d 3c
       -0.026216624 -0.27612555 0.12569955 0.019245153
000270 d5 63 0d 3e a4 f7 72 3e ec 7f 26 be dc df c7 3e
       0.13807614 0.2372728 -0.16259736 0.3903798
000280 5d b2 59 be 67 74 a7 3e 8a e0 60 bd 95 9b 10 3e
       -0.21259446 0.32705995 -0.054901637 0.1412185
000290 a5 78 90 3b bd 04 0c 3f 17 6f e4 3d 27 dc b8 3e
       0.004408913 0.5469473 0.11154001 0.36105463
0002a0 23 20 75 be 6a 71 58 bd c7 03 de 3c 63 55 13 3f
       -0.2393804 -0.052842535 0.02710141 0.57552165
0002b0 1c 05 3d 3d 65 ab 84 be cb d3 0a be 4c 21 08 3f
       0.04614745 -0.25912014 -0.13557355 0.53175807
0002c0 a6 32 67 bd cf 27 13 bf e3 d3 ad be 30 90 51 be
       -0.056444786 -0.5748262 -0.3395072 -0.2046516
0002d0 0e 62 d0 bd 9e b6 36 be 7c b9 a5 3e 3e 22 1a be
       -0.101749524 -0.178431 0.32368076 -0.15052125
0002e0 2d ee 0e 3f 31 89 c9 bd 09 0f 28 be 39 e7 a3 3d
       0.5583218 -0.0984062 -0.16411985 0.080030866
0002f0 dd 9d 37 3d 28 d2 a3 be 10 5f 9d 3e a6 df bc bd
       0.044828285 -0.31996274 0.3073659 -0.09222345
000300 c0 d7 ca 3c 2f 5a 85 3d 77 69 7c 3d 6b a9 eb 3e
       0.02476108 0.06511342 0.061624017 0.46027693
000310 0a bd ca 3d 43 86 fa bd 35 d0 91 be 1d 4c c2 3e
       0.098993376 -0.1223264 -0.28479162 0.37948695
000320 ed 30 d6 be aa 05 90 bd 7c 44 8e 3c d9 23 6c 3e
       -0.41834202 -0.0703233 0.01736664 0.2306055
000330 4f 23 02 bd cb ef 43 bd fa 67 24 be 0b 0a 27 bd
       -0.031771954 -0.047836106 -0.16055289 -0.040781062
000340 77 16 85 3d 8f d5 24 3e 2e fa c1 3e b2 74 ac 3c
       0.064984255 0.16097091 0.37886184 0.021051738
000350 ad 42 5a 3e 23 dc 1e 3e 1f e3 18 be 41 8c 6a be
       0.21314497 0.15513663 -0.1493039 -0.22905065
000360 39 44 01 3e f9 46 3b be bd ca 93 3e 5f 04 a6 3e
       0.12623681 -0.18288793 0.28865615 0.3242521
000370 f0 eb 12 bd a0 ce e1 be f0 f1 1b 3d eb 9e 45 be
       -0.03586954 -0.44102955 0.038072526 -0.19298904
000380 05 88 d0 be a3 8b a2 bd 6c 14 03 3d d8 54 1c be
       -0.40728775 -0.0793679 0.032001898 -0.1526674
000390 20 25 b2 be 36 ce 06 3d 5d e5 95 be 17 8b 6e be
       -0.3479395 0.0329115 -0.29276553 -0.23295246
0003a0 2a fc c7 bd 9a f9 41 3e f3 77 d5 3c 46 c5 23 3d
       -0.09764893 0.18942872 0.026058173 0.039983056
0003b0 e8 f6 5c be fc 23 91 3e 41 86 7c 3e 03 0a 25 3d
       -0.21578562 0.28347766 0.24660589 0.04029275
0003c0 b2 eb 97 be f2 28 68 be 79 e3 1a 3e b9 b5 5b 3e
       -0.2967201 -0.2267187 0.15125836 0.2145604
0003d0 fb 11 de 3e 3b 10 fd bd 01 2f 11 be 3e cb 17 be
       0.43373093 -0.12356611 -0.14178087 -0.14823624
0003e0 f2 cc 7f bc f6 f2 41 3e 55 33 d3 3d 3d cf a3 3d
       -0.015612828 0.18940338 0.10312525 0.07998512
0003f0 87 aa 49 be b6 f7 92 3c a5 81 10 be 2e 05 0f 3d
       -0.19693957 0.017940383 -0.14111955 0.03491705

affine_layers.0.bias f4 [64]
000000 56 4b 57 be 7f 2d 86 3e 22 b2 41 3e a0 f6 dd bd
       -0.21024832 0.26206586 0.18915609 -0.108380556
000010 28 0e 4d 3e ab 41 27 bd 96 5a 30 3e a2 a3 22 3e
       0.20024931 -0.04083411 0.17222056 0.15882733
000020 d8 29 67 3e b7 d6 cf be e6 3f 10 3e 73 77 06 be
       0.22574556 -0.40593502 0.14086875 -0.13131504
000030 a8 50 75 3c 8f cd 00 3f 67 3b 06 bd 08 1b 16 3d
       0.014972843 0.5031366 -0.032771494 0.036646873
000040 13 43 28 3d 3f 8a 0d bd ff 68 74 3e de 0a 32 be
       0.041079592 -0.03455567 0.23868178 -0.17386958
000050 24 fb 1a 3e 0b d0 bb bd 26 e4 05 be 02 b3 ed 3d
       0.15134865 -0.091705404 -0.13075313 0.11606409
000060 64 d5 14 3e fc 21 93 3e 8e 43 6a bb 96 01 c1 3d
       0.14534527 0.28736866 -0.0035745832 0.094241306
000070 9d 1c d1 3d a4 1e 82 3e 7e 6a e1 be b5 b2 8c 3e
       0.10210536 0.25414002 -0.4402656 0.27480093
000080 0f 4d ac bd d0 44 0b be b7 5e 5a 3e 64 39 82 be
       -0.08413135 -0.13600469 0.21325193 -0.2543441
000090 03 b8 b6 3e e2 ca b3 be fe c8 d1 3e 83 54 26 3c
       0.35687265 -0.35115725 0.40973657 0.010151985
0000a0 c0 d2 92 3e 68 a5 36 3d 9f 10 84 be 53 11 76 bd
       0.28676414 0.044591337 -0.2579393 -0.060075115
0000b0 c8 f9 ba bd 01 7c 01 3c b1 51 32 bd 43 9d 68 be
       -0.09129673 0.0079031 -0.04353494 -0.2271624
0000c0 7c ef 38 be 06 3b c0 bd cd 28 bd 3e df 85 a2 be
       -0.18060106 -0.09386258 0.3694519 -0.3174276
0000d0 f3 34 3d 3e 6e 77 94 be 57 9b 27 be 7c cc 1c be
       0.1847723 -0.28997368 -0.16367851 -0.1531238
0000e0 96 82 39 3d 41 dd 09 be 6b ff 10 3e e3 86 c5 bd
       0.045290552 -0.13463308 0.14159934 -0.09644868
0000f0 de 5f 5a be 38 ec 74 3d 4e 99 cb bd ef 41 30 3c
       -0.21325633 0.05979559 -0.0994135 0.010757907

affine_layers.1.weight f4 [64, 64]
000000 18 96 8f 3e 04 7e 11 3d 64 cd 4e 3b ba dd ff 3c
       0.280442 0.03552057 0.0031555528 0.031233657
000010 9a 01 0f be 61 b9 9b be 19 dd 4e 3e 89 90 ad be
       -0.13965455 -0.3041487 0.2020153 -0.33899334
000020 98 aa 93 bd 7c 22 e4 3d af c0 d6 3e ed 8d d9 3e
       -0.072102726 0.1113939 0.4194388 0.42491093
000030 28 bf a4 be 82 a2 af bd 57 5c 5b 3e 86 31 03 be
       -0.3217709 -0.08575918 0.21421944 -0.1281186
000040 00 cf 55 bd 8d 59 56 be 7c 41 74 bb 31 49 af 3e
       -0.052199364 -0.20932598 -0.0037270477 0.34235528
000050 38 68 81 3d 30 be c8 3d 5d 10 68 be 18 f2 91 be
       0.06318706 0.098019004 -0.22662492 -0.28505015
000060 b8 fd 62 be ee b8 a8 be 06 74 05 3f 05 67 00 bd
       -0.22167099 -0.3295359 0.5213016 -0.031348247
000070 f5 9e 57 3e 4d 5f 84 3d 1d 3c d3 3e 72 a2 ca be
       0.21056731 0.0646349 0.412568 -0.3957706
000080 9d f3 b0 be 88 fa 8e 3e c4 ad f5 bc 89 3d fa bd
       -0.34560862 0.27925515 -0.029990084 -0.12218768
000090 d8 0c f4 bc 70 4f 8e be cc a7 24 be 8d e8 08 bd
       -0.02979128 -0.2779498 -0.16079634 -0.033424903
0000a0 eb b6 15 bf d9 66 b3 3e fd c7 81 bd 24 19 50 bd
       -0.58482236 0.35039404 -0.06336973 -0.050805226
0000b0 2a e7 a5 3e 5f da f6 be 36 61 82 bd 7c 3a 09 3e
       0.32402927 -0.4821348 -0.06366198 0.13401216
0000c0 b4 08 db 3d 2f 70 25 be ae e4 a8 bc de e9 11 3d
       0.10695019 -0.16156076 -0.020616855 0.035623424
0000d0 ce ec 29 be 91 98 5f be 70 df f3 bd cb 6e 51 bd
       -0.1659424 -0.21835543 -0.11907852 -0.05113105
0000e0 ef 22 f5 3c ce ec 21 be 00 4c a8 be c1 98 a8 bd
       0.029923884 -0.1581299 -0.32870483 -0.082322605
0000f0 43 0f 88 be 53 3a 1e bd 5c c3 60 3e 6b b0 b0 3e
       -0.26574144 -0.03862984 0.21949524 0.34509596
000100 28 e6 69 3d 08 1d a9 3e 8b dc ba 3d d2 28 4c bc
       0.05710426 0.33029962 0.091240965 -0.012460904
000110 98 cb e8 3b bc e1 b2 3e 87 07 fe 3c 2e dc 73 3d
       0.0071043484 0.34937847 0.031009449 0.05953615
000120 27 fd 82 be 5a a4 9f bd 25 97 7e bd 6b 61 9b be
       -0.25583765 -0.077950194 -0.06215586 -0.30347762
000130 1e 5a 4c bc b8 b0 b2 3d 9c f6 d8 3d 04 36 9d 3e
       -0.0124726575 0.08725113 0.10593912 0.30705273
000140 c6 09 bd be 0f f8 8b bc c4 b1 e9 bc 15 b8 d9 3d
       -0.3692152 -0.017086057 -0.028527148 0.10630814
000150 0c a3 f9 bd ae 7a 64 be 04 69 11 3d 48 fd 15 3e
       -0.12189302 -0.22312424 0.03550054 0.146474
000160 4d 44 3d be b3 4a 14 3e 91 7a 8c be a3 1a 92 be
       -0.18483086 0.1448162 -0.2743726 -0.28535947
000170 fb 19 f2 3d 7d 35 86 3e 54 11 6a be 47 ce 86 3e
       0.11821362 0.26212683 -0.22858173 0.26329252
000180 4d 5d f9 3e 08 55 80 3e 91 2b ec 3e ff d5 ff bd
       0.48703995 0.25064874 0.4612699 -0.124919884
000190 0d 99 22 3e 21 4f b8 3e b4 7a 77 be 35 54 ec be
       0.15878697 0.3599787 -0.24167901 -0.46157995
0001a0 df 15 05 be 51 74 43 be a0 47 06 3e bd 1a 3a 3d
       -0.12996624 -0.1908734 0.1311326 0.045435656
0001b0 23 a1 fe 3d 21 9c f7 3e 00 ca 56 3e 06 5e 56 bd
       0.12433078 0.48361304 0.20975494 -0.05233576
0001c0 4d c0 26 3c e5 35 76 be 2d 4b 0d 3f c5 91 11 3d
       0.010177684 -0.24043997 0.55192834 0.035539407
0001d0 7a 59 2f bd 54 83 38 3d 10 6d 63 bc 56 87 76 3c
       -0.04280994 0.04504712 -0.013880983 0.015046915
0001e0 ed 02 ae 3c a5 ea 17 be 9a 12 d9 be b3 64 15 3f
       0.02124163 -0.14835604 -0.42397004 0.5835678
0001f0 49 b6 04 3e d1 1f 7e 3e e6 89 e6 bd e9 f1 a1 3e
       0.12960161 0.24816824 -0.11256771 0.31629875
000200 51 95 0e 3e 24 b6 9f 3e 42 20 a4 be 0f 0c 67 3d
       0.13924147 0.3119365 -0.3205586 0.056407984
000210 b7 d0 fb 3e 62 16 a5 3d 65 2f b8 be 5b 52 e5 3e
       0.49182674 0.0806091 -0.3597366 0.44789395
000220 b8 74 73 3d 4b 0a 90 3e 39 c0 dc be fc 37 24 be
       0.059437484 0.28132853 -0.43115404 -0.16036981
000230 40 67 09 be b9 03 2d 3e a4 41 1c be e6 8e 73 be
       -0.13418293 0.16895951 -0.15259415 -0.2378498
000240 a0 53 10 bf 17 76 e4 be 22 79 8d 3e c4 84 82 bd
       -0.563776 -0.44621345 0.2763148 -0.06372979
000250 5c a2 60 3e d1 57 1a 3d 9f cd 8f 3c 20 16 6b be
       0.21936935 0.037681405 0.017554102 -0.22957659
000260 e7 c3 63 bd ce 38 88 3e 26 53 9c be e7 69 cd 3d
       -0.05560675 0.2660584 -0.30532187 0.10029965
000270 f5 7d 1b be 0c a5 5f be f4 e1 0b 3f 10 3a b5 be
       -0.15184768 -0.21840304 0.5464165 -0.3539586
000280 db 08 f0 3d 6b b1 40 3e f9 9b e3 be d9 07 88 be
       0.11720439 0.1881768 -0.44454935 -0.26568487
000290 64 e7 67 3e 2c 32 fc bc 4b 7b 3d be 89 9b 73 be
       0.22646862 -0.030785643 -0.18504064 -0.237898
0002a0 76 48 15 3d ee f5 1b 3d a1 78 d4 bd 6b 2d 20 bf
       0.036446057 0.038076334 -0.10374571 -0.625693
0002b0 22 fc 42 3e 16 62 01 bc fb 03 dc be f6 b9 0c bd
       0.19041494 -0.007896921 -0.42971787 -0.034357034
0002c0 b6 c8 83 3e c6 98 86 3d 10 0e 41 be b2 10 07 bf
       0.25739068 0.06572108 -0.1885302 -0.5275985
0002d0 ef fc 55 be 89 82 87 3e 40 d0 e1 3d 27 60 f5 3d
       -0.20897268 0.26466778 0.11026049 0.1198123
0002e0 c6 14 8c be dd 54 dc 3e 72 b8 b5 3d e9 c9 59 bf
       -0.273596 0.43033496 0.08873071 -0.85073715
0002f0 2f 9b d1 3e a5 4c 20 3d ae da 02 3f cf 20 2a be
       0.40938708 0.039135594 0.5111493 -0.16614078
000300 c8 79 01 3f eb 5f 5a be 3a 89 b9 3e 5b 44 74 be
       0.5057645 -0.21325652 0.36237508 -0.238542
000310 86 84 01 bf f6 dc 8e be b1 0b 21 3d b5 38 13 3c
       -0.5059284 -0.27902955 0.03931779 0.008985688
000320 8f 20 01 3d f4 b2 3d 3e 65 32 fc 3c 34 80 fc 3d
       0.03152519 0.18525296 0.030785749 0.1232914
000330 00 23 4c bd e0 90 da be 4d 9d 98 be 23 37 7d be
       -0.049838066 -0.42688656 -0.2980751 -0.24728064
000340 dd 4f e9 3d 0a d7 df 3d af 20 17 be fc ae 1b bc
       0.11392186 0.10929687 -0.14758562 -0.009502169
000350 9f de 2d bd 3e ce 8f 3e b5 f2 38 bd db b2 47 be
       -0.042448636 0.28087038 -0.04515334 -0.19501822
000360 8b 6e af 3d a5 ec 24 be b3 4d 14 3f 97 73 61 be
       0.08566006 -0.16105898 0.5793106 -0.2201675
000370 b6 ca 53 3e 3c 42 6c be ca 4a 4c 3e b6 29 01 3e
       0.20682797 -0.23072141 0.19950405 0.12613568
000380 74 fd 83 3e a1 e9 d6 3d 41 01 a7 3e 2b f0 b0 3c
       0.25779307 0.1049378 0.32618144 0.021598896
000390 7a e4 bd be 9e b0 ec bd 8c 51 da be fe 60 8c 3d
       -0.37088376 -0.115571246 -0.4264034 0.06854437
0003a0 1c f7 c3 bd 85 e0 83 3d d0 7f 61 3d c4 72 1c bd
       -0.09568617 0.06439308 0.055053532 -0.038195387
0003b0 21 be 7b be 50 4d 09 3e 53 52 e0 3c da 2d e0 bd
       -0.24584247 0.13408399 0.027383005 -0.109462455
0003c0 87 21 7c bc ba ff 9d 3d 35 d3 f2 be 0c 23 32 3e
       -0.015388853 0.077147916 -0.47426763 0.17396182
0003d0 08 ed 8d be 8e 34 b3 3e 7c 74 8d 3e 87 19 7d 3e
       -0.27719903 0.35001034 0.27627933 0.24716769
0003e0 f6 c6 47 3e f6 31 85 be 7f 51 4f be 8a ff a6 3d
       0.19509491 -0.2601468 -0.20245932 0.08154209
0003f0 7e d1 9c 3e fe 1b b2 bd 0f bb 42 be bf b7 cf 3e
       0.3062858 -0.08696745 -0.1901667 0.40569875

affine_layers.1.bias f4 [64]
000000 e6 d5 a8 be 3c c9 1d be 54 af e2 3c aa b4 d0 be
       -0.32975692 -0.15408796 0.027671494 -0.40762836
000010 97 b4 81 be 47 c9 9c bc 35 27 5b bd 28 d3 46 3e
       -0.25333092 -0.019138945 -0.053504188 0.19416487
000020 cf 72 89 be 32 8e 7a bd 4d e3 75 be 26 bd a5 be
       -0.26845405 -0.061170764 -0.2401249 -0.3237087
000030 20 65 1b 3e 8b b3 55 be 6a b3 6f be b0 4f 77 3e
       0.15175295 -0.20869271 -0.23408285 0.24151492
000040 20 f8 00 3e 70 d8 9c 3d 0b 49 28 3d 65 24 93 bd
       0.12594652 0.0765847 0.041085284 -0.07184676
000050 78 db ab bd 0b 15 87 3e 40 96 73 be 65 33 19 be
       -0.0839147 0.26383242 -0.23787785 -0.14961012
000060 6b f2 51 3e 02 d9 81 3d 09 9d 7c 3e 11 f0 2c 3e
       0.20502631 0.06340219 0.24669279 0.16888453
000070 43 34 90 be 32 9d 1f 3e 1f aa 53 be 10 ea 25 3d
       -0.28164873 0.15587309 -0.20670365 0.040506423
000080 31 72 5b bd 32 7e 42 3e 3c 6c 3d 3e 7d 6f 42 3e
       -0.0535757 0.18993452 0.1849832 0.18987842
000090 7d 7e ea bc 78 14 07 be 94 c5 45 3e 7a 7d 8f 3e
       -0.028624767 -0.13191402 0.19313651 0.2802542
0000a0 1b ee 02 be 7d 04 3b be 95 75 8b 3d b0 de 2f 3e
       -0.12786143 -0.18263431 0.06809536 0.17174792
0000b0 7b 03 9b 3c bd 54 6a 3e b2 02 20 3e 3f 2b 49 be
       0.018922558 0.22883888 0.15626028 -0.19645403
0000c0 ec 3c 3d bd 60 4e 51 3e 11 b2 8c bd 0b 87 6e 3e
       -0.046200678 0.20440054 -0.06869901 0.23293702
0000d0 8f f2 00 3e 98 d5 72 be 2a 1f 39 3e 86 5a 04 be
       0.12592529 -0.23714292 0.18078294 -0.12925157
0000e0 f6 11 27 3e 50 ab 47 3e a2 e5 0a 3d f8 5f 61 3e
       0.16315445 0.19498944 0.0339104 0.22009265
0000f0 e3 73 8e bc 54 92 61 3e 91 48 43 be 9c e5 b8 bd
       -0.017389243 0.22028476 -0.1907065 -0.090281695

final_mean.weight f4 [3, 64]
000000 8d b1 15 bd 69 79 87 bd 50 db 01 bd aa b8 ac bc
       -0.03654628 -0.06614954 -0.031703293 -0.021084148
000010 82 c0 f9 3c 93 5d a5 3d d0 54 63 3d a5 a4 e4 3d
       0.030487303 0.080744885 0.055500805 0.11164216
000020 2c ec 95 3b ce 39 20 bc 62 42 fc bd 67 f5 de bd
       0.004575273 -0.009779407 -0.12317349 -0.108866505
000030 ba 6b f1 bd 53 92 e1 bd 37 5e f2 bd 83 26 2f 3d
       -0.11788125 -0.11014237 -0.11834376 0.042761337
000040 3f 72 34 3e 27 86 8b 3d 20 04 1c be 36 18 54 bd
       0.17621706 0.06812697 -0.15235949 -0.0517809
000050 51 1b 8e bd 60 3b 28 3e b4 78 34 bc d0 3a 04 bb
       -0.06938804 0.164289 -0.011015106 -0.0020176657
000060 78 25 dd 3d 59 9d bc bd d8 f1 1d be 72 d3 b4 3c
       0.10798162 -0.09209699 -0.15424287 0.022073481
000070 d2 16 54 bd a9 63 84 bb 62 0e 18 be 9d 8e a9 3d
       -0.051779576 -0.0040402007 -0.14849237 0.082791544
000080 87 2c 81 3e 3e 0e 3e 3d 0b cc d0 3d 54 be 43 be
       0.25229284 0.0464003 0.10195168 -0.19115573
000090 ba cb 67 3d 97 32 82 be ec f1 75 3e 12 00 bb 3d
       0.056590773 -0.25429222 0.24018067 0.09130873
0000a0 62 7d 8f 3d ee f5 f8 3d 82 ec 62 3d c2 2f 1b bd
       0.07006337 0.12156282 0.055401333 -0.037887342
0000b0 3c ec b6 3d f9 bb 30 3e e9 18 a0 bd 1e 0a 1d be
       0.08931777 0.17259206 -0.07817251 -0.1533589
0000c0 dd 12 ac bd 47 46 83 3d 43 b8 16 3d e2 4c 8d 3d
       -0.084020354 0.06409889 0.03679682 0.0689943
0000d0 97 f8 bc bd 0a b9 c9 3d 9c 5c 41 3e 49 ea b2 bd
       -0.09227102 0.098497465 0.18882984 -0.087360926
0000e0 0b 20 f7 bb 8f 22 ff bd 5b 6d cc 3c b0 72 55 3d
       -0.0075416616 -0.124577634 0.024954489 0.052111328
0000f0 47 41 af 3d 29 22 bf 3d a7 29 f9 bd a5 50 7a bc
       0.085573725 0.093326874 -0.12166148 -0.015278016
000100 b0 7b 64 be 02 a2 8d bd 8a 3e 62 3e 28 2f b1 bd
       -0.22312808 -0.06915666 0.2209417 -0.086515725
000110 17 91 ac bd 63 1a 9b 3d 22 a9 2b 3e b3 6f 68 be
       -0.08426111 0.07573392 0.16763738 -0.2269886
000120 86 ee 3d 3e ae a2 74 3e 99 2a 49 bd df 5f fe 3c
       0.1854802 0.23890182 -0.04911289 0.031051574
000130 ee b9 45 3e bb 57 3b 3e ba 55 82 bc 74 46 6e bd
       0.19309208 0.18295185 -0.015910018 -0.058172658
000140 e0 5e 41 3e c1 4f 61 bc 0d a1 dd 3d f1 09 dd 3d
       0.18883848 -0.013751925 0.108217336 0.10792912
000150 df 92 72 bd 95 1d 2a 3d c0 e9 9f 3e 8e e3 d3 3d
       -0.0592221 0.041532118 0.31233025 0.10346137
000160 0d ec cd bd 02 0d fe 3d c4 37 2c 3e 3e 19 33 be
       -0.10054789 0.12404825 0.16818148 -0.17490098
000170 d5 53 13 3e fa c0 02 bd 35 20 92 bd 82 e7 58 be
       0.14387448 -0.031922318 -0.07135049 -0.21182063
000180 e2 af 65 3d de e2 11 3e 60 43 06 3d 34 4d 4e 3e
       0.056075938 0.14246699 0.032779098 0.20146638
000190 b7 bf c6 3d b9 33 9b 3e 30 5c b6 bc 98 b6 e6 bd
       0.097045355 0.303129 -0.022260755 -0.11265296
0001a0 2b 93 23 be 64 b2 06 be 6e fb 3a be 14 d1 e5 3d
       -0.15974109 -0.13153988 -0.18259975 0.11221519
0001b0 23 5e 0d bd 75 13 39 3e 29 bf 53 be 22 f3 89 bd
       -0.034513604 0.18073829 -0.2067839 -0.06735827
0001c0 ce ba 76 3e 01 c6 48 3e 3b 0f e7 3d 34 4b 25 3e
       0.24094698 0.19606782 0.11282202 0.16141969
0001d0 23 b9 24 bd 99 89 b1 3d e5 f8 6e 3a d1 92 89 be
       -0.040215623 0.08668823 0.00091160677 -0.26869825
0001e0 05 0e 86 3e bb 3a 00 3d 1d 16 35 3d 8c 9c 15 bc
       0.2618257 0.03130601 0.044210542 -0.009131562
0001f0 06 70 44 bd 03 ea 97 3b 05 62 ee bc ca 97 35 be
       -0.047958396 0.0046360507 -0.029099474 -0.17733684
000200 f1 99 a7 bc 04 bb 6b 3e 3e bb f9 3d 57 55 09 be
       -0.020459147 0.2302056 0.12193917 -0.13411461
000210 aa 9e 8b 3c f7 5b ad 3d 59 f0 37 3e 7a db 02 3e
       0.01704343 0.084648065 0.17962779 0.12779036
000220 ce 8b d0 3d bf 4d df 3c c8 ce 62 bc 1d c5 80 be
       0.10182916 0.027258752 -0.013843246 -0.25150385
000230 bb 1e aa bd 34 12 c2 3d a1 26 17 bc 59 69 db bd
       -0.083066426 0.09476128 -0.009225518 -0.10713453
000240 2f 9d 4f 3d e1 53 f9 3d 8d ab 16 bb d1 40 0e 3e
       0.05068701 0.12174202 -0.0022990436 0.13891913
000250 5c f3 7b bd 47 a5 e4 bd cf 4e 88 bd aa a8 17 3e
       -0.061511382 -0.11164337 -0.066556565 0.14810434
000260 d5 d2 13 be b0 40 15 3e 1c cd 94 be f5 f2 0e be
       -0.14435895 0.14575458 -0.29062736 -0.13959868
000270 1b ed 6a 3e 5b 6d 57 bd c6 7e c2 bc 39 6b 65 be
       0.22942011 -0.052594524 -0.02374209 -0.22404183
000280 86 ba df 3c 56 ff 4f be 5f 6f eb bd d1 b0 e4 bd
       0.027310621 -0.20312247 -0.11495852 -0.111665376
000290 46 7f 13 be 42 b5 59 3c 8d 4d 6c 3d 00 d7 de bb
       -0.1440402 0.013287844 0.057691146 -0.0068005323
0002a0 24 c1 24 3e a1 d7 85 be de 7d 30 bd 26 9c 85 be
       0.16089302 -0.26141074 -0.043088786 -0.26095694
0002b0 5b 97 47 3e 45 b8 51 bd 12 18 0c 3d 36 ff 38 be
       0.19491331 -0.051201124 0.034202643 -0.18066105
0002c0 31 a8 b5 bd e2 da 0f 3e 72 80 14 be 9a 78 cb bd
       -0.088699706 0.14048341 -0.14502123 -0.09935112
0002d0 f3 74 22 bd a9 34 ab 3d 38 98 11 bd ae 67 34 bc
       -0.039662313 0.083596535 -0.035545558 -0.011011047
0002e0 06 a6 cf 3d 6b 7f 9b bd a2 6c 06 3e c1 77 b6 bc
       0.10139088 -0.075926624 0.13127378 -0.0222739
0002f0 25 d8 38 3e e7 d5 4a bd fc ee 9b 3d b3 04 9a bc
       0.18051203 -0.0495204 0.07613942 -0.018801069

final_mean.bias f4 [3]
000000 e0 74 c9 3d c5 94 c8 3d 8f c0 bf bd
       0.09836745 0.097940005 -0.093628995

exp_avg f4 [64, 11]
000000 5f 15 a3 39 7b 9a a8 39 ba 1b e1 37 16 cb 14 bb
       0.00031105705 0.00032158554 2.6835001e-05 -0.0022704056
000010 5e 94 e7 ba 4f 63 3a 3b d6 ef 93 3a 9c 3f 0f 3a
       -0.0017668118 0.002844054 0.0011286687 0.00054644956
000020 b2 43 6d b9 5f ef fc 39 71 ba a9 b9 0e 65 b0 38
       -0.000226273 0.0004824353 -0.00032373102 8.411157e-05
000030 e4 ac 4b 3a e8 b1 9d b9 4a f0 02 3b e8 41 60 3a
       0.0007769598 -0.00030077924 0.001997965 0.00085547427
000040 8a fa ac ba a1 b3 a1 ba 94 0a 81 b9 0d d0 cc b9
       -0.0013197225 -0.0012336859 -0.0002461268 -0.00039064922
000050 1c 61 05 b9 88 b0 c9 3a 4c 9f 1b 3a cf 29 53 3a
       -0.00012720044 0.0015387693 0.0005936518 0.0008055241
000060 cc 98 34 b7 f0 ef 99 3a 0d b0 b6 39 cf 7d 58 ba
       -1.0764412e-05 0.001174448 0.00034844913 -0.0008258493
000070 1b 7b 76 ba 9e c9 45 39 b0 83 2e 3a 9f 89 4e 38
       -0.00094024994 0.00018862492 0.0006657196 4.9242397e-05
000080 89 72 8e 3a be 72 de ba 38 87 fc ba aa db 92 ba
       0.0010867874 -0.0016971452 -0.0019266373 -0.0011204381
000090 a0 3f ca 3b aa 6c a3 3b 06 41 d3 bb 24 1c 7d bb
       0.0061721355 0.004987319 -0.0064469604 -0.003862151
0000a0 ba 2e 27 bb be 66 52 39 a8 00 da ba 58 67 89 39
       -0.002551003 0.00020065435 -0.0016632276 0.00026207673
0000b0 81 1b 1d b9 b8 b7 b1 b9 d8 8d c3 39 53 16 99 ba
       -0.00014982933 -0.00033896952 0.0003729898 -0.0011679627
0000c0 54 f0 4c b9 64 35 1e 3a e3 0c f8 39 8d 3b 40 b8
       -0.00019544485 0.00060351775 0.00047311847 -4.5831828e-05
0000d0 f9 e4 23 b9 2c 44 d2 b7 8c b3 21 ba b1 9d 5e b9
       -0.0001563019 -2.5065696e-05 -0.0006168417 -0.00021230314
0000e0 3d ef 93 38 56 4b 0d 38 0d 5c 92 b8 bd f7 b2 39
       7.054068e-05 3.368718e-05 -6.978968e-05 0.00034135385
0000f0 7e f0 e3 38 88 f8 d7 b9 9a cd aa b9 ed 0a 37 b9
       0.00010868999 -0.00041193166 -0.00032578112 -0.0001745631
000100 30 40 a3 b9 bf 22 42 b9 c2 8e e3 b9 da ed 9f ba
       -0.00031137606 -0.00018514226 -0.00043403177 -0.0012201623
000110 ac 41 51 b8 c5 86 6a ba 7d 06 91 b9 74 a9 3d 39
       -4.9890645e-05 -0.0008946474 -0.0002766139 0.00018087571
000120 7b 4f a5 3a 0b 8f 98 38 e2 e4 c4 b9 e6 ae 90 39
       0.0012612188 7.2745686e-05 -0.00037554564 0.0002759613
000130 73 61 89 ba 43 c1 1d b8 c1 2b 7f 39 89 89 89 39
       -0.0010481313 -3.7611706e-05 0.00024334995 0.00026233148
000140 16 1f b4 b9 00 b4 52 b9 10 96 4d 39 36 50 ac 39
       -0.00034355436 -0.00020094216 0.00019606226 0.00032866158
000150 01 24 db 39 ac 4e c8 b9 d0 bc 5f 39 36 27 5e 39
       0.0004179776 -0.00038205588 0.00021337275 0.00021186177
000160 5b e5 a2 b9 0e 47 32 b9 ba a8 a2 3a ac 82 b1 bb
       -0.0003106993 -0.00017001873 0.0012409904 -0.0054171886
000170 18 42 0f bb 29 fa 89 3b 7e 09 2d 3b f6 01 86 3a
       -0.0021859463 0.0042107296 0.0026403363 0.0010223973
000180 5a cd a7 ba fb 39 1a 3a 47 58 f6 ba f0 d8 87 39
       -0.0012802288 0.00058832736 -0.0018794619 0.00025910838
000190 62 86 b5 39 38 14 57 b9 70 5c 0c b9 87 cc 41 ba
       0.00034623133 -0.0002051153 -0.00013385876 -0.00073928427
0001a0 d6 3e 16 3a 2d c6 cb 39 f0 c3 a1 39 6e 68 14 39
       0.0005731409 0.0003886683 0.00030854298 0.00014153283
0001b0 f4 2d 89 39 a1 b5 9e 38 c4 c7 72 ba df f3 39 bb
       0.00026164914 7.567858e-05 -0.0009261335 -0.0028374118
0001c0 7b 83 a3 ba 79 1d 66 3b f4 02 22 3b 7e 88 86 bb
       -0.0012475097 0.0035112782 0.0024720998 -0.0041056266
0001d0 bd 81 88 ba b2 d5 9c ba 65 39 a5 3a 41 34 5b ba
       -0.0010414642 -0.0011965542 0.0012605606 -0.00083619735
0001e0 87 83 8e ba 18 e2 d4 39 1e af 46 3a 9d f5 23 3a
       -0.0010872938 0.00040604244 0.0007579195 0.0006254556
0001f0 e4 06 0e bb c2 8c a9 ba 0e 64 f6 3a 77 7d 9d 3a
       -0.0021671588 -0.0012935626 0.0018798129 0.0012015541
000200 00 d6 2b 3a c7 12 00 ba 01 62 b8 39 e1 7c 82 b8
       0.0006555021 -0.00048856105 0.00035168233 -6.2221436e-05
000210 ef 4e 13 39 f4 a7 a0 39 49 71 9d b9 32 4a 5b 3a
       0.00014048418 0.00030642713 -0.00030029778 0.0008365243
000220 7f c9 14 3a 46 20 12 ba 74 d7 04 ba 1e fd 60 ba
       0.0005675777 -0.0005574267 -0.00050675054 -0.0008582639
000230 79 d4 9a b9 da 4e 88 b9 a7 6f 1c 3a bb a8 a6 38
       -0.00029531473 -0.0002599869 0.0005967565 7.946925e-05
000240 8d fe 82 38 1d cb 67 b7 7e 8d 12 38 10 da 65 b9
       6.246297e-05 -1.3815964e-05 3.4940887e-05 -0.00021920376
000250 34 64 d6 38 c2 cf f6 38 0c 30 ca 39 66 f7 02 39
       0.000102229795 0.00011768892 0.0003856424 0.00012489929
000260 91 1a 0b 39 6b be 3d 39 f0 25 18 ba 75 fd 1c ba
       0.0001326597 0.00018095381 -0.0005803993 -0.0005988696
000270 c4 4b 70 39 47 15 73 39 8a 53 89 3a 16 bb 44 ba
       0.00022916408 0.00023182212 0.0010477167 -0.00075046846
000280 f5 37 40 ba 43 90 22 ba 4d 51 2a b9 44 95 f4 b9
       -0.0007332557 -0.0006201306 -0.0001624275 -0.00046650518
000290 26 92 d6 b9 42 69 d7 39 74 04 d0 39 88 46 33 b9
       -0.0004092615 0.0004108642 0.0003967617 -0.00017097045
0002a0 b6 88 cd 39 bf b5 cb b9 5a fb 9d 38 2f 2c 2c b9
       0.00039202505 -0.0003885459 7.533161e-05 -0.00016419658
0002b0 35 c2 e7 39 b8 91 5b 3a 96 2d 62 38 db a3 f0 38
       0.0004420445 0.0008375901 5.3925054e-05 0.00011474612
0002c0 b1 1a 82 39 91 70 e4 39 83 43 11 ba 66 09 14 3b
       0.0002481542 0.00043571417 -0.0005541371 0.002258861
0002d0 a6 fb ab 3a 2f f5 ed ba 08 82 c2 ba cc ff 67 ba
       0.0013121262 -0.0018154735 -0.0014839778 -0.00088500674
0002e0 4d 52 0d 39 e2 22 a0 b9 2e 60 9b 3a 77 ef 0b 3a
       0.00013477467 -0.00030543568 0.0011854225 0.0005338112
0002f0 8d ef 22 3a 4d 7f 43 b9 e9 09 ce b9 49 c8 ab ba
       0.00062155054 -0.00018644072 -0.00039298765 -0.0013105954
000300 f1 55 a1 3a 0e ad e0 39 fc ac 7f 3a 03 93 eb 39
       0.0012308938 0.00042853545 0.00097532547 0.00044932225
000310 0b 17 05 3a d3 da 99 39 17 e6 e6 b8 10 fb 49 b9
       0.0005076981 0.0002934547 -0.00011010112 -0.00019262382
000320 50 d9 aa b9 dd d7 46 3a b1 e4 ab 39 10 61 fd b9
       -0.00032586837 0.0007585267 0.0003278605 -0.00048328238
000330 80 e9 02 ba 58 f6 76 b9 f5 1a bd 39 59 33 6b b9
       -0.00049939007 -0.00023552158 0.00036068974 -0.00022430475
000340 87 51 f4 b8 12 05 1c 3a 1f 84 8f 3a 94 f8 6a 39
       -0.00011650012 0.0005951683 0.0010949409 0.00022408582
000350 94 35 05 bb 68 39 dd ba c9 37 39 3b f1 e3 16 3a
       -0.0020326125 -0.001687807 0.002826201 0.0005756012
000360 63 6e 23 3a 74 16 84 b9 39 0d 14 3a 38 00 b3 39
       0.00062344054 -0.0002519373 0.0005647722 0.00034141704
000370 3d ba 6c 38 b6 97 2b b9 4c 72 cd b9 d4 d7 d8 3a
       5.6440233e-05 -0.00016364348 -0.00039185805 0.0016543814
000380 cb ee 61 3a 0f f6 e4 ba 20 74 09 ba ca 22 e1 b9
       0.0008618652 -0.0017468351 -0.0005243439 -0.00042941264
000390 38 8d e4 39 f8 04 94 b9 07 b4 45 39 b8 03 82 39
       0.00043592765 -0.00028232462 0.0001885445 0.00024798303
0003a0 7c 1a 22 3a c9 f0 52 39 fa 29 75 ba 66 b8 74 ba
       0.0006183756 0.0002011686 -0.00093522633 -0.0009335339
0003b0 f2 bd a1 3a 7a 4d 3b 3a fe 72 03 3a 00 a0 e6 b9
       0.0012339933 0.0007145029 0.00050143886 -0.00043988228
0003c0 49 87 d6 39 0b 65 11 39 48 1a c2 b9 92 c2 65 ba
       0.00040918056 0.00013865919 -0.00037022145 -0.000876465
0003d0 e2 11 6c b9 6c 6f 5b 3a 2c 2d 66 3a c2 37 88 ba
       -0.00022513376 0.000837079 0.0008780535 -0.0010392594
0003e0 ec d6 29 ba e6 53 0d ba fc ec 48 39 78 be 6b b9
       -0.0006478864 -0.0005391225 0.0001916177 -0.00022482302
0003f0 b9 27 4a b9 2f 22 87 39 3f cf 75 3a 37 95 0d b9
       -0.00019279019 0.00025774675 0.00093768904 -0.00013502395
